VehicalStateperML_RNN_epochs_200_BS:64.pth (torch, 15375 bytes, 12 tensors)

linear_in.weight f4 [32, 6]
000000 9d b4 94 3b 6f 01 d5 3b 1e 74 62 bc e2 99 f4 3b
       0.0045381323 0.006500415 -0.01382163 0.0074646333
000010 f2 7a fa bb 29 98 f2 ba 7b b5 51 bc 05 cd 93 ba
       -0.0076440508 -0.0018508482 -0.012799616 -0.001127631
000020 58 86 b0 bc c7 49 2c 3b 49 ea 6e bc 32 ce 01 bc
       -0.021548435 0.0026289092 -0.014582225 -0.007922696
000030 6a 18 ca 3a d4 29 0c ba 5e fe 7a 3b 86 56 62 bb
       0.0015418653 -0.0005346809 0.0038298587 -0.0034536435
000040 4f 7f 80 bc 40 1e 76 3b 81 b1 8d bc d5 db 7a 3c
       -0.015685705 0.0037554651 -0.017296555 0.015311201
000050 4f 6a 9d 3b ee 8f 58 3b 7d 1c 36 3b e7 25 1b 3c
       0.0048039327 0.0033044773 0.0027787976 0.009469486
000060 a9 ad af 3b 77 b6 f9 bc 9d 96 3a bb b2 fd 87 3c
       0.005361278 -0.030482514 -0.002847112 0.016600464
000070 86 24 78 ba e0 81 a8 bb f4 7b fd 3a 14 5c 43 bb
       -0.00094658916 -0.0051424354 0.0019339309 -0.0029809522
000080 54 b6 9b 3a 66 03 b1 bb e7 c2 09 ba 4c 7d 59 bb
       0.00118799 -0.0054020165 -0.0005255178 -0.0033186255
000090 9c 12 89 bc f8 32 61 3a 5d 43 8d 3b 59 ad a3 3b
       -0.016732506 0.0008590664 0.004311009 0.00499503
0000a0 54 ee f8 3c 4e 56 2a 3c 37 fd 01 bb 8f c6 60 bc
       0.030387081 0.010396553 -0.0019834766 -0.013719215
0000b0 49 05 ba 3b 59 5c 45 3b 17 c4 f9 bb dd 3b 33 3c
       0.0056768996 0.0030114858 -0.0076222527 0.0109395655
0000c0 74 5a a3 bb 99 0c a8 bc 56 e2 07 bc a7 d5 b4 3c
       -0.004985148 -0.02051382 -0.008293709 0.022074534
0000d0 3e 38 19 bb 74 1c 1f 3c c4 9a 28 3c 6f 1f 3d 3c
       -0.002337947 0.009711374 0.010290805 0.011543139
0000e0 33 5b 68 bc cd 62 99 ba 24 8d aa 3b 78 5f 30 bb
       -0.0141819 -0.0011702419 0.0052048136 -0.0026912373
0000f0 96 6f 30 3c eb 19 a3 3b e8 5a 0e bb 46 82 a6 bc
       0.010768792 0.004977455 -0.0021721665 -0.020325791
000100 9e 40 4b 3c 69 d0 d4 3c 29 34 9b bc 54 29 67 bc
       0.012405543 0.025978284 -0.01894577 -0.0141089745
000110 67 88 4a bc e0 c2 4c bb 36 1f 04 bc b2 0c d3 3b
       -0.012361622 -0.0031244084 -0.008064082 0.0064407224
000120 12 6c 8c bc d5 dd 12 3c 1c 77 f9 3b 81 b4 7b 3c
       -0.017141376 0.008964022 0.007613076 0.01536286
000130 93 9b d2 ba 59 8e 4e 3c 0f 0d e1 b8 e6 a8 47 3c
       -0.0016068093 0.0126071805 -0.000107312684 0.012186265
000140 c5 96 d0 3b 04 6e 4a bc 67 c8 02 3c c2 d5 16 3c
       0.0063656294 -0.012355331 0.00798235 0.009206237
000150 58 02 6d 3c c7 ca 4a 3c 38 6b 98 bc 29 82 ab 3b
       0.014465891 0.012377447 -0.018605813 0.005234022
000160 8a ca 33 bb 84 d1 62 bc 14 fb 3b 3c 4c 3f 53 bc
       -0.0027433955 -0.013843898 0.011473436 -0.012893509
000170 c4 57 5c b9 4f 85 69 3c 9e 83 38 3c 30 23 b7 bc
       -0.0002101353 0.014252975 0.011261849 -0.022355646
000180 ac 4b ce 3a 52 52 00 bc 2c b6 68 3b 0f fa 0a 3c
       0.0015739105 -0.007832127 0.0035508974 0.00848247
000190 05 7a 29 bc 37 a5 4a bb 94 44 d1 bb 89 29 06 bc
       -0.010344033 -0.003092123 -0.006386349 -0.008188614
0001a0 8b 08 60 3b fd 2d ff ba 52 27 86 bc 21 6c fc bb
       0.003418478 -0.0019468662 -0.016376171 -0.0077033197
0001b0 b5 cd 3a 3b 14 62 89 bc 13 9e ca bb 7e 65 d8 bc
       0.0028503959 -0.0167704 -0.0061833947 -0.026415583
0001c0 e4 98 ba bb 4e 78 6f 3c a2 f2 4a 3c d4 3f 88 bc
       -0.0056944955 0.014616085 0.01238695 -0.016631998
0001d0 35 1f bc b8 05 76 dc ba 0f 29 0e 3a 76 80 82 bc
       -8.970351e-05 -0.001681984 0.00054229883 -0.015930396
0001e0 66 14 3c ba 47 1b 31 bc 96 9d 24 3c cb 92 55 bc
       -0.00071746705 -0.010809726 0.010047337 -0.013035486
0001f0 65 ee c5 bc cc 37 91 39 09 76 25 bc 7f 28 84 3c
       -0.024161527 0.00027698127 -0.010098943 0.016132591
000200 be 25 e4 bb d3 ad 86 3c 36 36 95 bb f9 a7 43 3c
       -0.006962507 0.016440308 -0.0045535816 0.011941903
000210 4f 0a aa 3c 76 58 03 3c 06 70 e1 3b 02 14 39 bb
       0.020756869 0.008016696 0.0068798093 -0.0028240685
000220 4a 26 40 bc 52 6a d2 3b e9 fb d9 bb a0 2d e7 3a
       -0.011727879 0.006421366 -0.0066523445 0.0017637499
000230 5e 36 4b ba d7 3d 8a 3c 8a c2 d9 b9 b3 19 8a 3b
       -0.0007751937 0.01687519 -0.00041534408 0.0042144894
000240 c2 71 a7 3b 0b f8 52 bc d5 bf 1a 3a 08 ca 04 3c
       0.0051099965 -0.012876521 0.0005903219 0.008104809
000250 1e 4c e1 bb 82 77 3a 3c c0 4f 92 3c 50 4d 1e 3c
       -0.006875529 0.011381032 0.017860293 0.009661987
000260 d4 84 5f 3c 25 c0 d0 3a e9 6c 34 ba f2 c5 0f bc
       0.013642509 0.0015926404 -0.0006882684 -0.008775221
000270 d6 ef 23 bc 0c af 0a 3b ad 85 9d b8 f4 13 08 bc
       -0.010005912 0.0021161465 -7.5112424e-05 -0.008305538
000280 eb ad 94 bc 1c 76 25 bc 6e 9f a8 b7 6e 69 e7 b9
       -0.018149337 -0.01009896 -2.01014e-05 -0.00044138305
000290 ae 36 72 ba 9d 8d 6f 3b 77 23 30 3c a3 b8 f3 bb
       -0.00092397153 0.0036552914 0.010750643 -0.007437782
0002a0 2b 1c d6 bb 36 0c 8b 3b 9c 90 e1 bb f5 3d 1a bb
       -0.0065341196 0.004243399 -0.006883694 -0.0023535464
0002b0 b9 a1 0f 3a 9d c3 36 bb 6f 07 ab ba 52 6e f6 bb
       0.00054791156 -0.002788759 -0.001304848 -0.0075204754
0002c0 5c 7c 56 bc ef c2 bf 3b 8e 8a 3b 3c b2 9e bc 3a
       -0.013091173 0.0058520953 0.011446608 0.0014390557
0002d0 55 26 7b 3c 1e 0c c4 3b e9 ef d5 3c 9b c7 e6 3a
       0.015328963 0.00598289 0.026115375 0.0017607094
0002e0 5d 55 5b bb 20 37 7f 3c 8e 06 0d 3c dd 77 d7 3b
       -0.0033467629 0.015577108 0.00860752 0.006575568
0002f0 47 d8 3b ba f2 26 6e bc eb c0 e0 bb 15 ed b1 3a
       -0.0007165712 -0.0145356525 -0.006858935 0.0013574684

linear_in.bias f4 [32]
000000 00 00 00 00 00 00 00 00 00 00 00 00 00 00 00 00
       0.0 0.0 0.0 0.0
000010 00 00 00 00 00 00 00 00 00 00 00 00 00 00 00 00
       0.0 0.0 0.0 0.0
000020 00 00 00 00 00 00 00 00 00 00 00 00 00 00 00 00
       0.0 0.0 0.0 0.0
000030 00 00 00 00 00 00 00 00 00 00 00 00 00 00 00 00
       0.0 0.0 0.0 0.0
000040 00 00 00 00 00 00 00 00 00 00 00 00 00 00 00 00
       0.0 0.0 0.0 0.0
000050 00 00 00 00 00 00 00 00 00 00 00 00 00 00 00 00
       0.0 0.0 0.0 0.0
000060 00 00 00 00 00 00 00 00 00 00 00 00 00 00 00 00
       0.0 0.0 0.0 0.0
000070 00 00 00 00 00 00 00 00 00 00 00 00 00 00 00 00
       0.0 0.0 0.0 0.0

linear_32.weight f4 [32, 32]
000000 dc 22 e1 bc a6 16 d0 3d 9c b7 65 3d f9 99 44 3f
       -0.027482443 0.1016057 0.056083307 0.76797444
000010 20 87 03 bf f3 78 51 3e 14 e9 5e bc ad 5d 28 bf
       -0.5137806 0.20456295 -0.013605375 -0.6576794
000020 59 99 7f 3e d5 de a5 3b c2 09 7c 3d 4b 3f fe 3d
       0.24960841 0.005061964 0.061532743 0.12414416
000030 80 43 c8 3d b2 b3 97 bc bf 26 42 bd 7a 51 e7 3c
       0.097784996 -0.018518303 -0.047400232 0.028237093
000040 bc 86 03 3d 10 b1 fe 3c 28 10 9c bd 83 8e 08 3f
       0.032110915 0.03109029 -0.07620269 0.53342456
000050 8a b0 31 3c f6 14 3f bf 19 0d 4f be a6 db df bc
       0.010845313 -0.7464136 -0.2021984 -0.027326416
000060 06 b7 be be fe 83 29 3f b5 00 42 3d 14 36 87 3d
       -0.3724901 0.6621703 0.047363956 0.066021115
000070 8a 39 6d 3d d9 49 39 3b 1b c7 88 3c d2 85 68 bd
       0.0579162 0.0028272776 0.016696503 -0.056768246
000080 84 c7 4b be b5 13 bc bd 26 17 7e bd ef 50 ef 3e
       -0.19900328 -0.09183446 -0.062033795 0.46741435
000090 7c 9a 39 bf 6f e5 aa 3e b5 77 34 3d 40 04 12 bf
       -0.7250135 0.3337817 0.044059474 -0.57037735
0000a0 6f d3 8d 3e 38 e2 e2 bd a9 bf 54 3d a5 8e e2 3d
       0.27700374 -0.11078304 0.051940594 0.110623635
0000b0 03 79 bd 3d 49 50 dd 3d e7 d2 b5 bd 34 54 23 3c
       0.09251597 0.10806329 -0.08878117 0.009968806
0000c0 cf 29 8d 3d e3 c0 f5 3e a7 48 67 bb 67 93 f9 3e
       0.0689274 0.47998723 -0.0035291107 0.48745272
0000d0 b3 c9 3c bd 21 ee 38 bf 01 6e 39 be f5 de 0e bc
       -0.046090793 -0.72238356 -0.1810837 -0.008720149
0000e0 84 60 ac be 3d c9 5c 3f c4 ed 52 3e 3f 87 5b bd
       -0.33667386 0.86244565 0.20598513 -0.053595778
0000f0 4b f6 ed 3d cf 43 80 3d 84 ba 0b bd 86 84 ca 3c
       0.11619242 0.062629335 -0.034113422 0.024721395
000100 55 82 62 3d d9 c2 52 3d 03 c6 19 be db 82 97 3e
       0.055300076 0.051455352 -0.15016942 0.29592022
000110 a0 a9 1d bf 2b 2f ce 3c 77 67 b3 3d 34 77 00 bf
       -0.6158695 0.025168976 0.08759969 -0.5018189
000120 5a c4 a7 bd 93 db 1f be 16 a1 48 3d a4 52 83 be
       -0.08191748 -0.15611105 0.04898175 -0.25648987
000130 24 ee 81 3d ad d2 6d bd 46 34 98 bc 92 d4 60 bd
       0.0634425 -0.058062244 -0.018579613 -0.054890223
000140 de e5 2e 3e 04 fc 45 3e 9b af b3 3c 60 3c 08 3e
       0.17079875 0.19334418 0.021934321 0.13304281
000150 59 79 a9 bd 2d 6a 46 bf 15 1f 0a be 2c b9 1b bd
       -0.08275098 -0.7750576 -0.1348842 -0.03801839
000160 fe 68 cb be d7 bc 08 3f 68 7a 9b 3d 63 0c 58 3d
       -0.3972854 0.53413147 0.075917065 0.052746188
000170 7a 9b c8 bc be f8 ac 3d cc 8b 5f 3b 52 ec 16 3d
       -0.0244882 0.08445881 0.0034110425 0.036846466
000180 b3 01 ba 3d dc 6d 59 bd bb ec 01 3d 34 6f 35 bf
       0.09082355 -0.053083286 0.031719904 -0.7087281
000190 6f 11 a0 be 57 c9 87 be b4 a5 14 3c ba a9 33 be
       -0.312633 -0.26520798 0.00907271 -0.17545214
0001a0 f7 bf 86 bf 54 6c 6b bd 9a 00 50 bd 0f 32 5c bf
       -1.0527333 -0.057476357 -0.050781824 -0.86013883
0001b0 2a 18 68 3d 79 51 de bd 43 29 b9 bd c9 a1 6c bd
       0.05666367 -0.108553834 -0.09041073 -0.057771478
0001c0 69 4d 66 3d 27 9f d5 3d 2b f4 13 3c 3a 69 7f bf
       0.056226168 0.104307465 0.009030382 -0.9976994
0001d0 a9 7b 1a bd a8 75 1b bf 55 87 16 3f 75 03 9a 3b
       -0.037715588 -0.60726404 0.5880025 0.004700119
0001e0 72 c8 09 be 8c fe f9 3e e8 8b b4 bc f2 bc cd 3c
       -0.1345537 0.48827016 -0.022039369 0.02511451
0001f0 7b dc 9c bd ef 20 e6 bc b1 28 14 bd 6a 7c fe bc
       -0.07659241 -0.028091876 -0.03617162 -0.031065185
000200 c9 15 f7 bd c2 cc 11 bc cd 47 a7 bc fe dd 71 3e
       -0.12064702 -0.008898916 -0.02041998 0.2361984
000210 9d bc eb be 5b 4f a9 bd 7f 7a 3b 3d 09 5f ee be
       -0.46042338 -0.08267089 0.04577112 -0.4655688
000220 05 44 96 be 27 75 b0 bc 6d 53 b1 3c fb 9e 9f be
       -0.2934877 -0.021540238 0.021646226 -0.3117598
000230 ad 06 ec bd db 6f 01 3e 29 30 f9 3d 80 a1 8c 3b
       -0.11524711 0.12640326 0.12167389 0.0042917132
000240 f4 a5 96 bd 39 62 08 be 50 53 dd 3c e0 80 1b 3e
       -0.07355872 -0.13318719 0.027017266 0.1518588
000250 99 c7 c7 3c 01 49 52 bf 72 de f5 bd 50 fb 00 bd
       0.024387168 -0.82142645 -0.12005319 -0.03148967
000260 5e e4 8b be 9f 7b 00 3f 17 ec 32 3b da 77 a2 bd
       -0.27322668 0.5018863 0.0027301365 -0.07933016
000270 51 16 a6 3d 42 2f 14 3d 53 df 9c 3b 0d 3f bd bc
       0.08109725 0.03617788 0.0047873645 -0.023101354
000280 16 d6 1e 3c 4a 05 1a be 58 83 3f bd 27 d7 a1 3f
       0.009694597 -0.1504108 -0.04675612 1.2643784
000290 14 11 3d 3d 93 06 3c be df 1c 08 3d e1 02 4f bd
       0.046158865 -0.18361883 0.03323066 -0.050539855
0002a0 b1 1a e7 3f 61 55 cb bc ed 6d 6b bc 56 d6 c1 3f
       1.805502 -0.024820985 -0.01436947 1.5143535
0002b0 c5 ff b8 3c bb da 83 3b bc ba 71 bb 1b 6c 80 bc
       0.022582898 0.0040238774 -0.0036884984 -0.015676549
0002c0 e0 38 e8 bc 03 f1 4e bb 05 da 85 3d dd 94 88 3f
       -0.028347433 -0.003157676 0.065357246 1.067043
0002d0 02 8c a8 bb d7 50 16 3f 31 3e a4 be b6 d8 1e 3c
       -0.0051436434 0.587171 -0.32078698 0.009695223
0002e0 1a 44 38 3e 4e 42 a6 be af 2d 82 bb 48 3f 5d bd
       0.17994729 -0.3247246 -0.003972731 -0.054015428
0002f0 7c f6 9e ba c7 13 ef 3c d8 ea ba bc 48 5f 1f 3d
       -0.0012127901 0.029184235 -0.02281706 0.038909227
000300 cb 64 19 be 47 d0 94 3d 8e 01 de 3d 1e 1b d1 bb
       -0.14979856 0.07266288 0.1084014 -0.0063814064
000310 e4 b6 08 be f3 db a7 bc 34 d3 8a 3c f8 e1 ff bd
       -0.13351017 -0.020490622 0.016946413 -0.12494272
000320 ad 54 0f be c5 0a 21 3d 9d b7 da 3e ba e0 0c 3e
       -0.13997145 0.03931691 0.4271821 0.13757601
000330 e0 72 04 bc 20 14 90 3e 3e ea ef 3d f1 8b 24 3e
       -0.008084029 0.28140354 0.117146 0.16069008
000340 8a 6b db 3c 3d 47 a8 3d 1b 2c ba 3c bc 18 7b bd
       0.026784677 0.082167126 0.02272611 -0.061302885
000350 4e 4d d2 be b6 36 99 3d 5d ad 16 be fa 76 46 be
       -0.41074604 0.074811384 -0.1471457 -0.19381323
000360 14 9e 85 bd 00 ee 10 3e 12 b1 17 be 28 24 30 3e
       -0.06524292 0.1415329 -0.1481364 0.17201293
000370 58 18 ae bc 65 f5 0e bf 4c 3f 64 be f0 c3 0e bd
       -0.021251842 -0.5584319 -0.22289771 -0.03485483
000380 c1 f9 2a bd a5 f9 e4 3c 19 0d 33 bd 71 85 01 bf
       -0.04174209 0.027951071 -0.043713663 -0.5059424
000390 82 80 f0 be 45 91 c4 3d df f6 c2 3b 62 43 9c be
       -0.46973044 0.095980205 0.0059498395 -0.3052016
0003a0 6d 41 48 bf 2e 85 92 bd 72 46 3e 3c 1c 89 3b bf
       -0.7822483 -0.07154308 0.011613475 -0.7325609
0003b0 4f 80 5e 3c d5 48 38 3d 05 43 87 3d 91 78 2a bb
       0.013580396 0.044991333 0.0660458 -0.0026011805
0003c0 74 23 c9 bd ee e1 b0 3e 87 88 25 bd d9 aa 25 bf
       -0.09821215 0.3454737 -0.040413406 -0.6471382
0003d0 b0 b9 65 3d 2b 1b 27 bf eb a4 57 3e df 31 b1 bd
       0.05608529 -0.6527583 0.21059005 -0.0865209
0003e0 3e b1 b1 bd 22 62 05 3f 58 5b 51 bc ef 9c 96 bd
       -0.086763844 0.52102864 -0.012778126 -0.073541515
0003f0 78 59 c4 bc f5 e3 4b 3d cb 20 72 3a 8b d7 bf 3d
       -0.023968443 0.049777944 0.0009236454 0.093672834

linear_32.bias f4 [32]
000000 83 5c b8 3e 58 74 82 3e 05 e2 d7 3e ef 39 95 3e
       0.3600808 0.25479388 0.42164627 0.29145762
000010 06 be e6 3e f1 7e a2 be 5b b3 1e bf 84 30 9b 3e
       0.4506685 -0.31737474 -0.61992425 0.30310452
000020 f1 c9 cb 3e 48 85 e0 bd c3 70 e0 3e 7d 46 c6 3e
       0.39802507 -0.109629214 0.4383603 0.38725653
000030 68 ac 3b bf db 76 74 3e d1 d9 ab 3c 44 f7 9e 3e
       -0.73309946 0.23873465 0.020977886 0.31048024
000040 36 bf d5 3e 6e a8 dd bd 5f 07 bb 3d f2 2b e5 bb
       0.41747445 -0.10823141 0.09132265 -0.006993764
000050 46 0e bb bc 03 5a 07 3e cc b8 01 bf 60 b9 7d bc
       -0.022833955 0.1321793 -0.506726 -0.015486091
000060 3d 60 6f 3c 8d ce 6b bf 49 32 93 3e 3c c1 28 bd
       0.014610347 -0.92112046 0.28749302 -0.041199908
000070 5a 47 96 3e f4 90 53 3c ab 4f cf bd 1d 8a ad 3e
       0.29351312 0.0129129775 -0.10122617 0.33894435

rnn.weight_ih_l0 f4 [32, 6]
000000 15 d0 2d 3f 96 8c 16 3f df 6b 80 bd 21 fa d8 3d
       0.67895633 0.5880827 -0.06270575 0.10594583
000010 f7 c9 7a 3f 54 b0 69 3f 36 31 91 3e 12 7d 20 3f
       0.97964424 0.9128468 0.28357857 0.6269084
000020 c6 8a 67 3d 24 be aa be 52 d2 be 3b a4 e5 3b be
       0.05652883 -0.3334819 0.005823412 -0.1834932
000030 bf 19 88 bd 0c 7f 13 3f 3c 89 97 be f7 bf 0a 3f
       -0.06645536 0.57615733 -0.2959689 0.54199165
000040 4d 2b 0d 3f ed e7 a9 3e 7e 45 09 c0 3b 35 76 3e
       0.55144197 0.33184758 -2.1448665 0.24043743
000050 ae cb 32 3f 64 6a 31 bf 7c 7a 5a bd b2 dd 07 3d
       0.6984204 -0.69302964 -0.053339466 0.03317041
000060 03 6a 39 3e 4f 63 eb be 86 9d 1b 3f 0d e9 f1 3d
       0.18106847 -0.45974204 0.60787237 0.11812029
000070 6b f0 bf 3d 5c 34 87 3e 0e ff c4 bd 32 5e c8 3e
       0.09372028 0.26407135 -0.0961896 0.39134365
000080 33 16 9c be dc 6e 19 bf 1b f6 ee be 68 48 db be
       -0.30485687 -0.59934783 -0.4667214 -0.4282868
000090 ea 26 84 be 64 5d bb be 38 5f fd be 6e dd 1c be
       -0.2581094 -0.3659469 -0.4948671 -0.15318844
0000a0 a9 db ec 3d 84 6a 11 3e 2c 1d 5e 3e 1c 86 45 bf
       0.11565334 0.14200789 0.21690816 -0.7715776
0000b0 71 ab 33 3e 61 7f 2b 3e 71 8c c9 3e c6 7e fc 3e
       0.17545868 0.1674781 0.3936496 0.4931547
0000c0 1a 6f a0 bf 53 61 14 bf 17 0f 36 be 72 41 38 bf
       -1.2533906 -0.57961005 -0.17779194 -0.7197486
0000d0 fd 4f be 3d e3 68 44 3e 11 51 3f bf 38 8c 56 3f
       0.092926 0.19180636 -0.7473307 0.83807707
0000e0 99 6c a5 be 01 1f d0 bd cd 85 80 be 73 50 6b be
       -0.32309416 -0.101621635 -0.25102082 -0.22979908
0000f0 e0 95 9e 3f 34 bd 2c 3f 11 b8 7f 3f 81 b4 9f 3f
       1.2389488 0.674762 0.9989024 1.247696
000100 1d 45 98 3f e7 2a 39 3f a1 33 20 c0 1b 40 20 be
       1.1896092 0.7233109 -2.5031512 -0.15649454
000110 e2 9a 54 3d a4 fa c2 3d aa fc 75 be a9 2d b8 bd
       0.05190552 0.09520462 -0.24022165 -0.08993084
000120 a4 d0 e9 bc b1 04 aa bf ea bd aa 3d c1 c7 51 3e
       -0.02854187 -1.3282682 0.083370045 0.20486356
000130 42 74 66 3e ea e9 27 3e 73 ed d7 3d a3 46 a2 3f
       0.22505286 0.16397825 0.10543337 1.2677807
000140 5a 24 36 3e 19 a8 f1 3d 86 de 74 3e 2b 25 3e 3e
       0.17787305 0.1179964 0.23913011 0.18568866
000150 e2 5b 51 be 22 9e 3a bf c9 e5 69 be 4e 38 31 bf
       -0.20445207 -0.7289754 -0.22841562 -0.6922654
000160 c0 09 3f bf c7 3d 11 bf bf 59 19 3d 3b b3 1e 3f
       -0.7462425 -0.5673489 0.037439104 0.61992234
000170 1e 8d c0 be 8d ce 29 3f e2 70 04 3f 79 c0 d6 3e
       -0.37607664 0.66330796 0.51734746 0.4194372
000180 fc 26 fc be 45 31 a2 bf 8d 15 de 3c ad 4c 9e bd
       -0.49248493 -1.2671286 0.027109886 -0.077294685
000190 f5 b1 1d be 2c 64 04 3d 88 ce 9a bd 1c d7 64 3e
       -0.15399916 0.032322094 -0.07558924 0.22347683
0001a0 f8 c3 21 c0 aa 38 02 be da 14 27 be 9e 82 a5 be
       -2.527586 -0.12716928 -0.16316548 -0.32326216
0001b0 9e c7 9b 3e 66 48 fb be 2d 09 ab be 5b 45 70 be
       0.30425733 -0.49078673 -0.33405438 -0.23463957
0001c0 32 4d 52 be 0d c0 c4 be 26 c7 ad 3f f0 af d0 bd
       -0.2053726 -0.38427773 1.35764 -0.101898074
0001d0 26 ad f2 bf 23 41 b5 3f 76 6c 82 3e 28 1f 3a 3e
       -1.8959091 1.4160503 0.25473374 0.18175948
0001e0 b2 f6 ae 3e c3 55 ae 3f 37 1b 81 3e 88 b9 fe 3e
       0.3417259 1.3619922 0.25216076 0.49750924
0001f0 ee cd 42 3d f0 3b 09 be 4d cd 1f 3f d6 ee 02 bf
       0.04755967 -0.1340177 0.6242264 -0.51145685
000200 d5 2a ab 3c 12 aa a4 3d c4 5f 0b 40 30 9b 0d 40
       0.020894447 0.08040251 2.17772 2.212597
000210 b3 a0 84 40 10 b2 be 3e da 0d ae 3f f2 ea 84 3d
       4.1446166 0.37245226 1.3597977 0.06490125
000220 95 78 03 40 0f 45 00 40 85 8b d2 3e 26 ee 76 bf
       2.0542347 2.004215 0.4112207 -0.96457136
000230 e3 a4 08 3e ba 20 ca 3e 93 60 d7 3e 5d 19 bf 3e
       0.1334415 0.39478093 0.42065868 0.37324038
000240 90 a2 2c bf c5 43 b5 3f 88 af 04 bf 7a 37 ce 3d
       -0.6743555 1.4161307 -0.5183034 0.10069175
000250 e3 c8 73 bf 24 53 7e bf 1b 0b 94 bf aa d1 c4 3e
       -0.95228404 -0.9934561 -1.1565889 0.3844121
000260 c9 51 02 bd 23 3c 8a bb 64 dc 7d c0 59 c9 7d c0
       -0.031816278 -0.0042185946 -3.9665766 -3.9654143
000270 21 dc ce 3e 94 bb 80 3f 3e 15 a2 3e ce 1e aa 3e
       0.4040232 1.0057244 0.31656832 0.33226627
000280 e3 a2 58 3e 52 e1 66 3e 8a 6a c8 3f 38 2d 65 3f
       0.21155886 0.2254689 1.5657513 0.89522123
000290 a5 c8 8a bf 8a a2 5f 3f 2d e5 5e 3f 10 09 47 3f
       -1.0842482 0.8735739 0.87068444 0.77748203
0002a0 0b 32 f7 be e3 ee 6a bf 4c 51 f4 be 7f 50 40 bf
       -0.48280367 -0.9177076 -0.47718275 -0.7512283
0002b0 d8 ad c5 be 84 4f 92 be 20 4f 80 3e db 1c ae 3f
       -0.38609195 -0.2857629 0.25060368 1.3602556
0002c0 b7 2d 72 3d f4 9c b6 3e 68 88 23 bb cf 17 c3 bd
       0.05912563 0.3566662 -0.002495313 -0.095260255
0002d0 62 0e 03 bf 6c c6 7e bf 61 6d bc be d9 a8 51 bf
       -0.5119382 -0.9952152 -0.368022 -0.81898266
0002e0 ce ae 41 bf 6c dd c4 be 42 2d 92 bf ba 85 3d 3f
       -0.75657356 -0.3845018 -1.1420062 0.74032176
0002f0 40 94 5a bf 84 78 43 bf 8f e0 b8 bf 97 7b bc bf
       -0.8538246 -0.7635577 -1.444353 -1.4725217

rnn.weight_hh_l0 f4 [32, 32]
000000 ad 0a 1f bf 8d 77 d8 3e 9f fb 55 3e c9 42 63 3e
       -0.62125665 0.4227871 0.20896767 0.22193445
000010 75 b9 3d bc a4 d9 56 be a6 60 b8 3d 31 24 7b bf
       -0.011579861 -0.20981461 0.09002809 -0.981021
000020 5a 75 67 be d9 41 0e 3f cf ce e6 3e 8a 59 db be
       -0.2260336 0.55569226 0.45079657 -0.4284175
000030 93 8d 0e 3d cb fb b3 3e cb 8a 08 3c 27 7f a0 3d
       0.034802984 0.3515304 0.008333872 0.078367524
000040 d4 fb 68 be 58 55 81 be 3e 22 a2 be d2 61 7d bd
       -0.22752315 -0.25260425 -0.3166675 -0.061860867
000050 e6 c1 96 3e 18 5a 50 be 45 9e 93 3e 03 fe c4 be
       0.29444808 -0.20346868 0.28831688 -0.38475046
000060 5f 29 68 bf 1a 67 14 be 98 2f 73 be a6 15 5d 3e
       -0.9068813 -0.14492455 -0.23748624 0.2159029
000070 94 1e 9f be cb ce ab 3e a5 bb 02 bf 46 3e 62 3c
       -0.31078017 0.33556208 -0.5106757 0.013808792
000080 a0 c0 26 be 5d 37 3a 3f e2 1a 2a be a6 fe 58 bf
       -0.16284418 0.7274073 -0.16611817 -0.8476356
000090 94 26 68 3f 86 b2 09 bf 72 7d 44 3d 67 9d 86 3f
       0.90683866 -0.5378803 0.047971196 1.0516785
0000a0 b7 f6 64 3f df f4 94 bd 28 9a 31 bf 1e 5a 26 3f
       0.89438957 -0.07273268 -0.6937585 0.6498126
0000b0 a6 a3 ea 3e 58 41 34 bf 9b e4 b5 be 52 8d 2b be
       0.4582798 -0.70412207 -0.35525975 -0.16753128
0000c0 12 f4 f8 3e eb 76 f9 bc 9b cb 4c 3e 73 8c 3a 3e
       0.4862371 -0.030452212 0.19999544 0.1821764
0000d0 a8 94 35 bf f1 60 fb 3f e8 21 90 bc 7d 69 3b 3f
       -0.70929956 1.9638959 -0.017594293 0.7320784
0000e0 dd ea 8b bf af 32 ec bf b1 e1 05 bf 71 66 55 be
       -1.093105 -1.8452967 -0.522975 -0.2083986
0000f0 5b 9f 21 3f dc 8e 2d bf bc 30 2b 3f 63 91 24 be
       0.6313378 -0.6779611 0.6687124 -0.16071086
000100 df 38 fb 3c 7c dd 23 be 95 b2 d2 be 3d 63 56 3d
       0.030666767 -0.16002458 -0.41151872 0.052340735
000110 38 5c 6e be 88 9e 67 3d 36 a2 19 3d cc 36 70 3e
       -0.23277366 0.05654767 0.037508212 0.23458403
000120 3e fa 87 bd 11 3a aa 3e a5 93 b0 3e fe 35 35 bd
       -0.06639527 0.33247426 0.34487644 -0.044240944
000130 8f 88 e3 3d b2 0a 38 3e 4f 04 31 3e 67 37 19 3d
       0.11110031 0.1797283 0.172868 0.03740635
000140 11 6d 20 be 18 d7 e0 3d e8 af 86 bd a0 05 03 be
       -0.15666606 0.10978526 -0.0657652 -0.12795115
000150 12 ea 9c 3e 48 be 1f bd 1a a2 4a 3e 92 e7 b4 be
       0.3064733 -0.038999826 0.197884 -0.35332924
000160 81 d9 f1 3d 25 13 16 3c b9 b9 b4 bc 47 03 95 3d
       0.11809064 0.009159838 -0.022061216 0.07276016
000170 43 1b 99 be ad 02 c1 3e a1 89 d8 be 60 72 c5 3d
       -0.29903612 0.37697354 -0.42292503 0.09640956
000180 97 5e 01 3e 14 97 fe 3e 4f ed 97 3c 04 a5 0a bf
       0.1263374 0.49724638 0.018545775 -0.54158044
000190 bc 13 8e 3e 47 59 29 3e 01 3c 8f bb ad 7d a1 3e
       0.2774943 0.16537963 -0.0043711667 0.31541196
0001a0 7e 76 42 3e 41 db 97 3d f4 ad a0 be f6 0a 13 bd
       0.18990514 0.07414866 -0.31382716 -0.035899125
0001b0 25 b1 65 3e ed 00 88 be d1 89 d3 be e5 ec 9b bc
       0.22430857 -0.26563206 -0.41316083 -0.019033859
0001c0 4c 51 b9 3e 9a 65 8d bd f0 44 b2 bc dc 44 37 3e
       0.36194837 -0.069041446 -0.021761388 0.17897362
0001d0 bb 5c ad be 9f b6 4d 3f c2 ce aa 3d 4b 16 c3 3e
       -0.3385981 0.8035678 0.08340217 0.38102946
0001e0 d9 fc 11 bf f6 9f 24 bf 97 9f 32 be c7 77 11 3e
       -0.5702644 -0.6430658 -0.17443691 0.14205848
0001f0 d4 13 a6 3e b3 df a4 be 30 82 b4 3e 8e fa 3b 3e
       0.32437003 -0.3220192 0.35255575 0.18357298
000200 90 c8 8d b9 ab 50 b5 be e2 a0 c9 3d 88 5d ae 3e
       -0.00027043046 -0.35413107 0.09845139 0.34055734
000210 3b b7 40 bf 81 ae 39 3e 20 16 34 3c c5 ee 03 bf
       -0.7527959 0.18132974 0.010991603 -0.5153621
000220 93 db a5 be b8 76 a5 3d 11 c1 1a 3f b1 4e c8 be
       -0.32394084 0.080792844 0.60450846 -0.39122537
000230 93 6b 36 be 70 ec 19 3f c3 e0 93 3e a6 f3 db 3d
       -0.17814474 0.601264 0.28882417 0.107398316
000240 2a f0 8e be 91 1c d7 bd 76 28 94 bd d5 c5 c2 bb
       -0.27917606 -0.105034955 -0.0723428 -0.0059439936
000250 73 d8 1a 3f 12 74 b7 bf e4 1c bc 3d 46 5f 28 bf
       0.60486525 -1.4332297 0.09185198 -0.65770376
000260 de 84 67 3f 0f 2c cc 3f c3 59 c3 3e 1b ea cd 3d
       0.90437114 1.5950946 0.3815442 0.10054418
000270 39 86 0d bf db cd 13 3f 63 a5 19 bf 3b 62 2e 3d
       -0.5528293 0.57735986 -0.60017985 0.04257415
000280 21 0d 1f 3d ad 39 18 3f 86 04 86 be 03 d3 09 3f
       0.03883088 0.59463006 -0.26175326 0.53837603
000290 b8 14 13 bf 1c 43 67 bd 44 13 35 3e c0 02 e3 3d
       -0.5745349 -0.056460485 0.1768313 0.11084509
0002a0 cb bb 40 bf 87 45 3b be da 39 7c bf fc ef 7f bf
       -0.7528655 -0.18288241 -0.98525774 -0.9997556
0002b0 d7 dd c5 3e 48 cb 4a bf b4 57 43 3f ab 7d ea bd
       0.38645813 -0.7921643 0.763057 -0.114497505
0002c0 ec 61 11 3f 96 ed 65 be 53 1f 5e 3e 79 c2 07 3d
       0.5679004 -0.22453913 0.21691637 0.033144448
0002d0 43 07 82 bf 40 4a eb be 4a 68 ff be 73 4e 8a 3f
       -1.0158466 -0.45955086 -0.49884254 1.0805191
0002e0 f1 c9 3e be b5 28 f7 3f 18 dd 2e bf 18 d9 b9 be
       -0.18631722 1.9309298 -0.6830611 -0.36298442
0002f0 9d c7 8a 3f bd 9d 7c bf 5f 01 89 3f a3 9b 88 be
       1.0842167 -0.9867819 1.0703543 -0.2668124
000300 3b 13 99 be 24 ba 3b bf 9c 90 8b be 28 5c 7c 3e
       -0.29897484 -0.73330903 -0.27258766 0.2464453
000310 57 83 85 bd 1d a3 ec 3e 1f a9 22 bf 9f 41 1b bd
       -0.06519192 0.46218196 -0.6353931 -0.037904378
000320 98 9c 80 be 9f d2 c9 bd ef 3d ca bd 6b f8 45 bd
       -0.25119472 -0.09854626 -0.09875094 -0.048332613
000330 8b d7 46 3e 1f 46 c9 be 8b 62 f1 3e 59 c0 7c be
       0.1941816 -0.3931131 0.47145495 -0.2468275
000340 cd 6e 8d 3e 87 d5 89 be 6a 28 c0 3e 78 e4 a8 3e
       0.27623597 -0.2692072 0.37530833 0.32986808
000350 91 03 61 be 33 00 6d be e7 2d 4f 3d bd df fb 3d
       -0.21974017 -0.23144607 0.050580885 0.12298534
000360 fd cc 16 bc db 39 35 3e 8a a7 cf be 44 af 97 be
       -0.009204146 0.17697851 -0.4055751 -0.29625905
000370 e6 4d 38 3e 78 91 20 be e6 6e a3 3d 18 74 99 be
       0.17998466 -0.15680492 0.079801366 -0.29971385
000380 93 53 a2 3d 76 4f a3 be 35 8b a4 3d fa de 86 3d
       0.07926097 -0.3189656 0.08034364 0.06585498
000390 bc 60 c1 3d 95 27 9a be 03 6c f5 3c cf cd f5 be
       0.09442279 -0.30108324 0.02995873 -0.48008582
0003a0 6a f7 ff bd 3b 03 d5 bc 49 90 a3 3e e4 ab c4 3e
       -0.12498362 -0.026002517 0.31946018 0.38412392
0003b0 6d 08 7c 3d b1 b6 e1 3d df 39 ca 3e 3a bf 3b bd
       0.061531473 0.11021174 0.39497277 -0.045836665
0003c0 e0 14 3d bd 9a 5f 7c 3d b2 cf a7 3d a0 61 14 be
       -0.046162486 0.06161461 0.081939116 -0.14490366
0003d0 cc f7 60 3e 8a 46 0a 3f 0d 62 08 be 00 1a a9 be
       0.21969527 0.54013884 -0.13318653 -0.3302765
0003e0 b0 d3 7e 3f d5 ae 39 bf cf 0a 30 bd be e9 9b 3c
       0.9954176 -0.725324 -0.042979058 0.019032355
0003f0 d8 09 9f be 56 5c 9e 3e e6 73 b1 be 2b 37 35 3d
       -0.31062198 0.30929822 -0.34658736 0.044242065

rnn.bias_ih_l0 f4 [32]
000000 1e b1 af 3e 83 9b 3f bf 51 84 6e 3f f2 60 af be
       0.34314817 -0.7484667 0.9317065 -0.3425365
000010 87 50 25 3f d3 f9 66 bf a4 30 be bd 12 6c a9 3e
       0.64576 -0.9022495 -0.09286621 0.33090264
000020 ef 67 3e 3f bb 9e 09 3f 57 55 4d 3e a9 80 e5 3e
       0.7437734 0.5375783 0.20052086 0.44824722
000030 dd 5d 98 bd b6 3b 08 3f 7f 27 d9 bf 14 88 59 3f
       -0.07439778 0.5321611 -1.6965178 0.84973264
000040 c2 4e 89 be fe f8 a9 be 4b 5e 6b bf 4a ca 23 bf
       -0.268179 -0.33197778 -0.91940755 -0.63980544
000050 6f 02 bf 3e 85 14 2e 3f 0a 7c 44 3e 22 63 cd be
       0.37306544 0.6800006 0.19187942 -0.40114695
000060 c2 91 8f be 2e 87 2f bf b0 a0 4f 3f 7b 47 45 3e
       -0.28040892 -0.6856564 0.81104565 0.19265549
000070 ff 82 43 bf 5e c0 0e 3f 00 76 2a bf 90 ba ad 3f
       -0.7637176 0.5576228 -0.66586304 1.3572559

rnn.bias_hh_l0 f4 [32]
000000 1e b1 af 3e 83 9b 3f bf 51 84 6e 3f f2 60 af be
       0.34314817 -0.7484667 0.9317065 -0.3425365
000010 87 50 25 3f d3 f9 66 bf a4 30 be bd 12 6c a9 3e
       0.64576 -0.9022495 -0.09286621 0.33090264
000020 ef 67 3e 3f bb 9e 09 3f 57 55 4d 3e a9 80 e5 3e
       0.7437734 0.5375783 0.20052086 0.44824722
000030 dd 5d 98 bd b6 3b 08 3f 7f 27 d9 bf 14 88 59 3f
       -0.07439778 0.5321611 -1.6965178 0.84973264
000040 c2 4e 89 be fe f8 a9 be 4b 5e 6b bf 4a ca 23 bf
       -0.268179 -0.33197778 -0.91940755 -0.63980544
000050 6f 02 bf 3e 85 14 2e 3f 0a 7c 44 3e 22 63 cd be
       0.37306544 0.6800006 0.19187942 -0.40114695
000060 c2 91 8f be 2e 87 2f bf b0 a0 4f 3f 7b 47 45 3e
       -0.28040892 -0.6856564 0.81104565 0.19265549
000070 ff 82 43 bf 5e c0 0e 3f 00 76 2a bf 90 ba ad 3f
       -0.7637176 0.5576228 -0.66586304 1.3572559

linear_out.weight f4 [4, 32]
000000 33 ac 84 3c b2 8a 09 3c 55 fb ac 3b b8 8e a7 bc
       0.016195392 0.008394884 0.0052789846 -0.020453796
000010 9f 28 eb 3b 83 b3 fe 3b 87 db cb bd 7b a1 8f bb
       0.0071764733 0.0077728643 -0.09953981 -0.0043832636
000020 a2 a4 c4 3c 77 4c 23 ba 18 36 0c 3a e3 be 18 3b
       0.024004284 -0.00062293507 0.0005348637 0.0023307137
000030 85 8b b7 3b 0b 59 0f bd 5b c6 01 bb 60 d4 d7 3b
       0.005601349 -0.034997027 -0.0019802067 0.0065865964
000040 cb 46 67 3c 87 d0 50 3b 3b 20 5d bc 62 f0 50 3b
       0.014115999 0.0031862573 -0.013496454 0.003188156
000050 0d 95 e1 ba 6b ec 67 bb 6d 47 ba 3d ef 7f 0f ba
       -0.0017210558 -0.0035388719 0.09095655 -0.00054740807
000060 76 13 7e ba b4 79 27 3d 1b aa 70 bc 64 2e c8 ba
       -0.0009692231 0.04088755 -0.014688994 -0.0015272615
000070 88 5f 76 ba a5 91 d3 39 aa 96 96 3a 6f 0a a7 3c
       -0.00093983905 0.0004035357 0.0011488993 0.020390717
000080 fd 16 d4 be 39 04 d2 be e2 55 ec be cf fc cd be
       -0.4142379 -0.41018847 -0.46159273 -0.4023194
000090 db f2 e8 be 4a 18 fc 3e 0f f4 d0 bd 1b c4 f5 be
       -0.45497784 0.4923728 -0.102028005 -0.4800118
0000a0 5c b2 e9 be d8 0b b9 3e 92 c6 db be 42 ef d6 be
       -0.4564389 0.3614185 -0.42924935 -0.41979414
0000b0 c6 f1 0c 3d 98 9c c4 be 3d ff e5 3e 34 41 d2 be
       0.03441026 -0.38400722 0.44921294 -0.4106537
0000c0 8c 0f e2 be f5 d1 eb 3e 78 00 95 be ff c4 e4 3e
       -0.44152486 0.46058622 -0.2910192 0.44681546
0000d0 2e 4b dd 3e 51 69 cf be 62 0a 16 3b 45 bc dd 3e
       0.4322142 -0.40510038 0.0022894372 0.433077
0000e0 fc 78 e7 3e 4b 56 16 be d6 79 dd be ba f6 f9 3e
       0.4520949 -0.14681356 -0.43257016 0.4882105
0000f0 b7 2d c7 be 9a da d6 3e f1 34 db 3e f1 cf ea be
       -0.38902065 0.41963655 0.4281383 -0.45861772
000100 a8 24 14 3c ff c3 66 3d ce 15 63 3d 20 e5 45 3d
       0.009041943 0.05633926 0.055440716 0.048314214
000110 56 f4 8d 3c cf aa 55 bd 95 7c c7 3c cc 52 af 3d
       0.017328423 -0.05216485 0.024351398 0.08560714
000120 e9 fe 30 3b d1 55 c3 3e 85 ba 16 3d 39 d3 88 3d
       0.0027007407 0.3815141 0.036798973 0.066809125
000130 89 e6 84 be 89 92 a5 3d be a4 b7 bd 5b 31 16 3e
       -0.25957134 0.0808459 -0.08966969 0.14667265
000140 be 14 22 3d c7 fe ea bd d2 f9 fd be 08 1e 95 be
       0.039570563 -0.11474376 -0.4960466 -0.29124475
000150 a3 52 8f bd 07 01 8d be 25 b0 1d 3e 57 87 c7 3c
       -0.069981836 -0.27539846 0.15399225 0.024356527
000160 a2 44 51 bd 5c 2f 29 3e 41 1b 1a bd a0 93 1e 3d
       -0.051090844 0.16521972 -0.037623648 0.038715005
000170 e0 00 bc bd d4 c0 75 3d d7 9a 33 3e ab b5 23 bd
       -0.091798544 0.05999835 0.17539535 -0.039968174
000180 a9 5e 06 3e db f9 c3 3d df e9 71 3d 30 90 03 be
       0.13122047 0.095691405 0.059060927 -0.12847972
000190 d4 b7 20 3d f7 2f 71 3e ef 68 a6 bc f7 85 9e bd
       0.039237812 0.23553453 -0.020313708 -0.077403955
0001a0 25 06 22 3e 58 61 d6 3c 50 b0 ee 3c bb d5 9c bb
       0.15822656 0.026169464 0.029136807 -0.004786221
0001b0 73 0c 7d 3d c4 a8 ae be ba 58 60 bd dc 51 d0 3d
       0.06177945 -0.34113133 -0.054772116 0.101718634
0001c0 f5 3a c5 3d 78 05 9e 3d 83 1c 88 bd 88 fc be 3a
       0.09630386 0.07715887 -0.06646063 0.001457111
0001d0 84 bf fc bd 09 94 d1 bc 11 cd 15 3d 6d 3a 20 3c
       -0.12341216 -0.025583284 0.03657252 0.009779555
0001e0 3c 14 00 bd 2c a5 4e 3d a3 29 01 be 40 5f 06 be
       -0.031269297 0.05045049 -0.1261354 -0.13122272
0001f0 7e f8 ad 3b 99 24 c5 bc e8 af 41 3d 09 ad 1f 3e
       0.0053091636 -0.024065303 0.047286898 0.15593351

linear_out.bias f4 [4]
000000 23 11 1e bc 12 b7 98 41 17 96 0e 3d f5 67 bd 3d
       -0.00964764 19.08939 0.034811106 0.09248344

layer_norm.weight f4 [32]
000000 32 26 0c bc 92 ad 24 3d 82 86 5e 3c 49 0a 05 bf
       -0.008554028 0.040204592 0.013581874 -0.5196882
000010 c6 94 29 bf ec 64 e3 be b3 41 d2 bb d5 86 e7 be
       -0.66242635 -0.44412935 -0.0064165234 -0.45220056
000020 86 33 2d bf 6d 74 ad 3c 18 f8 12 bb ae fe 0b bf
       -0.67656744 0.02117368 -0.0022425707 -0.54685485
000030 e3 19 54 be de 0e dc 3b 86 e0 fd 3d 1d 52 62 3c
       -0.20713 0.0067156395 0.1239634 0.013813523
000040 5f aa 5e bd 7f c4 2c be ef 33 66 bc c8 df 7a 3e
       -0.054361697 -0.16871832 -0.014050468 0.24499428
000050 ac 6b 4b 3c f0 89 18 bf 75 7f 6a be 87 97 1b bb
       0.012415808 -0.59585476 -0.22900183 -0.002374144
000060 9d 87 d3 3e 9a de 2b bf dc a1 5c bb 69 47 07 bb
       0.41314402 -0.6713654 -0.0033665812 -0.002064193
000070 0d 3a 88 bb ab 44 30 bb 73 a0 68 bb b0 58 21 bd
       -0.004157311 -0.0026896398 -0.0035496026 -0.03939122

layer_norm.bias f4 [32]
000000 dc f3 82 bc bb 46 06 bc 6c 7b d0 bb bc fa 69 bd
       -0.015985422 -0.008195574 -0.0063623693 -0.057123885
000010 9d 64 2d bd a8 1b 01 bf c3 19 d8 bb ea 66 c2 be
       -0.04233228 -0.50432825 -0.006594868 -0.37969142
000020 1a 57 0d be 83 08 30 3c 06 1d 96 3c c2 3a df bd
       -0.13802758 0.010744217 0.018324386 -0.10899879
000030 8f 5f 90 be a5 bb 35 3c 13 d1 2c 3e 1e 76 3c 3c
       -0.28197905 0.011092101 0.1687663 0.011502771
000040 51 a2 ab bd eb 2e e5 3d d7 ee 1f bc 02 e4 8a 3e
       -0.08380569 0.111905895 -0.009761534 0.2712708
000050 62 d1 d4 bb 23 f2 11 be 75 8f 5d 3e 13 12 a8 3c
       -0.006494687 -0.14252524 0.21636756 0.020516431
000060 3a 9f c6 be 8b 2e cc bd 72 75 be bb 2f c0 89 3b
       -0.38793355 -0.09969815 -0.0058123404 0.0042038183
000070 51 6b 14 3d 13 4e 6f 3b 14 c6 81 3b a9 91 14 3c
       0.036235157 0.0036515042 0.0039603803 0.009067931
