VehicalStateperML_RNN_epochs_50_BS:8.pth (torch, 19445 bytes, 12 tensors)

linear_in.weight f4 [32, 9]
0	0xbf41d308	-0.75712633
1	0x3e92b684	0.28654873
2	0x3dcc1de1	0.099666364
3	0xbf45cc8a	-0.77265227
4	0xbfa486d6	-1.2853649
5	0xbf914243	-1.1348346
6	0xbfa6eb67	-1.3040589
7	0x3c51a9f0	0.012796864
8	0xbd2f45bd	-0.042791117
9	0xbcee3faf	-0.029083101
10	0xbf1b0898	-0.6055999
11	0x3ef5cf27	0.48009607
12	0xbe7692f0	-0.2407949
13	0xbd8ce62f	-0.068798415
14	0x3e0c794c	0.13718146
15	0xbd88be2a	-0.06676896
16	0xbb315506	-0.0027058735
17	0x3ee90952	0.45514923
18	0xbf69fabb	-0.9139821
19	0x3f1d427b	0.61429566
20	0xbfb81ba2	-1.4383433
21	0xbfa7bd0c	-1.3104568
22	0xbdb56f6e	-0.08859144
23	0x3e9442bd	0.28957167
24	0x3d12d397	0.03584632
25	0x3d970350	0.07373679
26	0xc00e5ae6	-2.224298
27	0xc01cf89a	-2.4526734
28	0xc0855405	-4.1665063
29	0x3fbd7992	1.4802725
30	0xbfd343a7	-1.6505021
31	0xc06953e5	-3.6457455
32	0xc09f5c47	-4.9800143
33	0xc069d7bd	-3.6537926
34	0x3c74723f	0.0149198165
35	0x401a9a43	2.4156654
36	0xbf64936c	-0.8928745
37	0xc03611cf	-2.844837
38	0xc04160e6	-3.0215392
39	0xbebbb218	-0.36659312
40	0xc0243de2	-2.566277
41	0xc066bb8e	-3.6051974
42	0xc0291809	-2.642092
43	0x3d398415	0.04529198
44	0x3c627fa0	0.0138243735
45	0x3dec4710	0.115369916
46	0x3e5a0efc	0.21294779
47	0x3fdfaf12	1.7475302
48	0xbfbae5a6	-1.4601333
49	0x3f4906fc	0.7852628
50	0xbfc30c3a	-1.5238106
51	0x3f780c81	0.9689408
52	0xbbbbccf1	-0.005731218
53	0xc0e43058	-7.1309013
54	0x3e6bf9aa	0.23044458
55	0xbed6808e	-0.41894954
56	0xbe97b26c	-0.29628313
57	0x3e211367	0.15730058
58	0x3e787580	0.24263573
59	0x3e8d68ea	0.27619106
60	0x3e73bda9	0.23802818
61	0x3ab5abc3	0.0013860393
62	0xbe435ada	-0.19077626
63	0x3dc42677	0.09577649
64	0xbec75da4	-0.3893863
65	0xbd8d9b40	-0.06914377
66	0x3c752f37	0.01496487
67	0x3dbe8b8a	0.09303959
68	0x3e39d955	0.18149312
69	0x3d885f1c	0.06658766
70	0x3d4621df	0.048372146
71	0xbe028757	-0.1274694
72	0x3e86386d	0.26214924
73	0xbeaf12c8	-0.34194016
74	0xbdeffdad	-0.11718307
75	0x3e44e6fa	0.19228736
76	0x3e8105eb	0.25199828
77	0x3e986576	0.2976491
78	0x3e768364	0.24073559
79	0xbcdf5d56	-0.027266186
80	0xbde96ece	-0.113980874
81	0xbd75a253	-0.059969258
82	0xbf3c2121	-0.7348805
83	0x3e9bab58	0.30404162
84	0xbdf7e9d7	-0.12105148
85	0xbe0c3e3e	-0.13695619
86	0x3c8ac4ce	0.016939547
87	0xbe09b190	-0.13446641
88	0xbd75ea11	-0.060037676
89	0x3e86dab7	0.2633874
90	0xbe90e128	-0.2829678
91	0x3f1fcd50	0.62422657
92	0xbf799b3b	-0.9750249
93	0xbf129f93	-0.5727474
94	0xbe75a3a1	-0.239882
95	0xbf5d079d	-0.8633974
96	0xbe6467ae	-0.22305176
97	0x3d1667d2	0.036720105
98	0xbfe03c77	-1.7518452
99	0x3f4a55f2	0.7903739
100	0xbf9c8d2a	-1.223058
101	0xbe6aaded	-0.2291791
102	0xc0420e9a	-3.0321412
103	0x3fa70452	1.3048193
104	0x405fd910	3.4976234
105	0x3f8968bd	1.0735089
106	0xbcb0d174	-0.02158425
107	0xbf9837d8	-1.1892042
108	0xbf8cce77	-1.1000508
109	0xbe9df7c4	-0.30853093
110	0xbfae6c82	-1.3626864
111	0x3f97cc30	1.1859188
112	0xbd9b8d2a	-0.07595284
113	0xbecb173f	-0.39666173
114	0xbde2b976	-0.1107053
115	0xbe11bd23	-0.14232306
116	0xbf69301e	-0.91089046
117	0xbec74e07	-0.38926718
118	0x3e675a52	0.22593048
119	0x3dbb61b8	0.09149498
120	0xbec6c57e	-0.3882255
121	0xbec64a4d	-0.38728562
122	0xbf2808ee	-0.65638626
123	0xbecae0e6	-0.3962471
124	0xbcf1984b	-0.029491564
125	0xbd4fbf4e	-0.05071955
126	0x3f09c5b2	0.53817284
127	0xbeab8f41	-0.33507732
128	0xbc306911	-0.010767237
129	0x3dbefa58	0.09325093
130	0x3f163812	0.58679307
131	0x3f442574	0.7661965
132	0x3f0d1e07	0.55123943
133	0xbd9296b0	-0.071576476
134	0xbe4b1cfc	-0.19835275
135	0xbdee358c	-0.11631307
136	0xbf0457fc	-0.51696754
137	0x3e19b238	0.15009391
138	0xbe350ed9	-0.17681445
139	0xbe18a320	-0.14905977
140	0x3d76d6ed	0.060263563
141	0xbe30d522	-0.17268804
142	0xbd427ed3	-0.04748423
143	0x3d9a4bc3	0.07533982
144	0x3e871bbb	0.26388344
145	0xbeb328c8	-0.3499205
146	0xbe10e05d	-0.14148088
147	0x3eb18069	0.34668282
148	0x3e74d5db	0.23909704
149	0x3eac1b77	0.33614704
150	0x3e829640	0.25505257
151	0xbb8eaac7	-0.0043538543
152	0xbd5d693c	-0.054055437
153	0x40cfefc1	6.498017
154	0x3e38c7ab	0.18044917
155	0x3e8511fb	0.2599028
156	0x3fa9a3ab	1.3253073
157	0x41140332	9.25078
158	0x40fda303	7.926149
159	0x4113401b	9.203151
160	0x3c4c68d2	0.012476163
161	0xbe7ff7f5	-0.24996932
162	0xc074cedd	-3.825126
163	0x3dd40228	0.10351974
164	0x3efe8283	0.49708948
165	0xc10347d9	-8.205041
166	0xbfc7362d	-1.5563408
167	0xbf6a4fdf	-0.91528124
168	0xbfc7626a	-1.5576909
169	0x3d049c31	0.03237552
170	0x3d86ea5a	0.06587668
171	0x3e4db472	0.20088366
172	0xbf713ef6	-0.94236696
173	0xbf3ed385	-0.74541503
174	0xbf216e83	-0.6305925
175	0x3f08a12c	0.5337093
176	0x3ec39701	0.38201144
177	0x3f03871c	0.51378036
178	0xbc9b9e43	-0.018996364
179	0xbf23b137	-0.63942283
180	0x40895413	4.291513
181	0xbfc30c51	-1.5238134
182	0x3fe4d3cb	1.7877134
183	0x40e8bc0a	7.272954
184	0x3f97363a	1.1813424
185	0x3fdd30fc	1.7280574
186	0x3f880c4e	1.0628755
187	0x3c9a0379	0.018800484
188	0x4008f5aa	2.1399941
189	0xbfe57eb0	-1.7929287
190	0xbf6547af	-0.89562505
191	0x4095b54f	4.6783824
192	0xbf9b47d0	-1.213129
193	0xc0487356	-3.1320395
194	0xbf8851f0	-1.0650005
195	0xc04f0a05	-3.2349865
196	0xbb55a492	-0.0032599312
197	0x40f34795	7.602488
198	0xc0c5c737	-6.180568
199	0xbf79ec7f	-0.9762649
200	0x3f3ac8de	0.7296275
201	0xc01e18ec	-2.470271
202	0xc107142f	-8.442428
203	0xc0a07e6e	-5.0154333
204	0xc1063ad8	-8.389366
205	0xbccd79fc	-0.02508258
206	0x40192840	2.3930817
207	0xc025029b	-2.578284
208	0xbf1912d1	-0.59794337
209	0x3e066722	0.1312528
210	0xc0a5e15e	-5.1837606
211	0x3eac0ab1	0.33601907
212	0x3fa509f4	1.2893662
213	0x3ed27200	0.411026
214	0xbd1d751d	-0.038441766
215	0xbff825d8	-1.9386549
216	0x3fc90357	1.5704144
217	0x3e56ed04	0.20988852
218	0x3f2e0bbd	0.6798666
219	0xbccded01	-0.025137426
220	0x3f4c2c6d	0.7975529
221	0xbf4d55b3	-0.8020889
222	0x3f6e2e24	0.93039155
223	0xbde5385e	-0.11192392
224	0xc0487a61	-3.1324694
225	0x4076ab0c	3.8541899
226	0xc007e660	-2.123436
227	0xbf632cdd	-0.8874033
228	0x40bd4196	5.914256
229	0x40032c0e	2.049564
230	0x3fc24cf8	1.5179739
231	0x3feeacd5	1.8646494
232	0xbd3e95a8	-0.046529442
233	0xbee21e80	-0.44163895
234	0xc08d2a23	-4.4113936
235	0xc087fd18	-4.249645
236	0x3f1b3684	0.6063006
237	0xc06c6066	-3.6933837
238	0xc0a74f06	-5.2283964
239	0xc05c840a	-3.445559
240	0xc0a7f407	-5.2485385
241	0xbc9e4dc4	-0.01932419
242	0x3eac880e	0.3369755
243	0xc00c2241	-2.1895907
244	0xbf32bb5d	-0.69817144
245	0xc08ae6a4	-4.3406544
246	0xc0028b03	-2.0397346
247	0xc013990b	-2.306216
248	0xbccc585a	-0.024944473
249	0xc01aa1b9	-2.4161208
250	0xbb889570	-0.004168205
251	0xc0c1f3c4	-6.0610065
252	0x3f857274	1.0425553
253	0x3c9fa37a	0.019487131
254	0x405ad45b	3.4192111
255	0x3df80d13	0.12111869

linear_in.bias f4 [32]
0	0x3ef98ac3	0.4873868
1	0x3f19f6b1	0.60142046
2	0xbe161527	-0.14656506
3	0x4178e200	15.555176
4	0x41003147	8.012031
5	0xc04f4ac8	-3.2389393
6	0x3e547dc4	0.20751101
7	0x3e5251ba	0.20538989
8	0x3dbabfcd	0.09118614
9	0x3e952876	0.29132432
10	0xbfaf217d	-1.3682095
11	0xbf5ffeb5	-0.8749803
12	0x3eb7d971	0.35908082
13	0xbdbf10df	-0.0932939
14	0x3e72b9e6	0.23703727
15	0x3e8245b9	0.2544382
16	0x3ed3779e	0.41302198
17	0x3ffb351c	1.9625583
18	0x40b882da	5.765973
19	0x4009e7c8	2.1547718
20	0x408a641c	4.3247204
21	0x418f7e8b	17.936789
22	0x410be813	8.744159
23	0xbfc1f963	-1.5154232
24	0xc0429edd	-3.0409462
25	0xc014965c	-2.3216772
26	0x417cea38	15.807182
27	0x41822c13	16.27152
28	0x3e8ed8da	0.2789982
29	0xc19f161e	-19.8858
30	0xbf11357b	-0.5672223
31	0xc0045735	-2.0678227

linear_32.weight f4 [32, 32]
0	0x3de7fb54	0.11327234
1	0x3d05a769	0.032630358
2	0x3f483c8f	0.78217405
3	0x3f2b6beb	0.66961545
4	0x3f3b00f0	0.73048306
5	0x3eeac799	0.45855406
6	0x3b73dc70	0.0037210248
7	0xb91a8c65	-0.00014738886
8	0x3d2e0d82	0.04249335
9	0x3d8ca45e	0.06867288
10	0x3d7a1c43	0.06106211
11	0x3e9dfa06	0.30854815
12	0x3f1dfbf6	0.61712587
13	0x3d82a6d7	0.063794784
14	0x3d27d089	0.04097036
15	0x3cb9f70c	0.022700809
16	0xbbf68137	-0.007522728
17	0xbdf0c009	-0.11755378
18	0x3f57f7d5	0.84362537
19	0xbdce2e78	-0.10067457
20	0x3f336320	0.7007313
21	0x3e0c922f	0.1372764
22	0xbe91f6b8	-0.28508544
23	0x3e828024	0.2548839
24	0x3f0ad50c	0.54231334
25	0x3f1e4c08	0.61834764
26	0x403596c0	2.837326
27	0x3edf85ca	0.4365676
28	0x3e0f52e8	0.1399647
29	0x3ea92cbe	0.33041948
30	0x3e5d6186	0.21619233
31	0xbd03d6dc	-0.032187328
32	0xbab93c59	-0.0014132365
33	0xbbd5ff17	-0.006530653
34	0xbec67cc9	-0.3876708
35	0xbe81679f	-0.2527437
36	0x3e53e931	0.20694424
37	0xbeb4c946	-0.3530981
38	0xbbf917bd	-0.007601707
39	0x3c06095a	0.0081809405
40	0xbc4eb842	-0.012617173
41	0x3cea44dd	0.02859729
42	0xb9ac8f40	-0.00032913126
43	0xbd546024	-0.0518495
44	0x3f48619a	0.7827393
45	0xbb8f9198	-0.00438137
46	0x3cacb487	0.021082176
47	0x3c7ba13a	0.015358264
48	0x3c5dd5a4	0.013539705
49	0x3ecafb45	0.39644828
50	0x3eabf37f	0.3358421
51	0x3e41a958	0.18912256
52	0x3e507f8c	0.20361155
53	0x3f0a8402	0.5410768
54	0xbe9d9050	-0.30774164
55	0x3f16cf77	0.58910316
56	0xbe19edb6	-0.15032086
57	0xbee98f79	-0.45617273
58	0xbf77d905	-0.9681552
59	0x3ecbd220	0.3980875
60	0x3d6ca86c	0.057777807
61	0x3e39d5d9	0.18147983
62	0xbdcc8168	-0.0998562
63	0xbc9b24ab	-0.018938383
64	0x3d7bbf9d	0.061462034
65	0x3ca1a295	0.019730845
66	0x3e24de47	0.16100417
67	0x3eccb243	0.39979753
68	0xbf2226dd	-0.6334055
69	0xbe27b017	-0.16375767
70	0xb9af078a	-0.00033384218
71	0x3c058e9b	0.008151676
72	0x3c9a6dcc	0.018851183
73	0x3d12c1a3	0.035829198
74	0x3cd7678e	0.026294496
75	0x3de46c7e	0.11153506
76	0xbdfca577	-0.123362474
77	0x3d85f6b0	0.065411925
78	0x3d1401fb	0.0361347
79	0x3c81e587	0.015856517
80	0xbb82dd27	-0.0039936486
81	0xbee84195	-0.45362535
82	0x3ebefb3b	0.3730105
83	0xbecc3bce	-0.39889377
84	0xbe9a56c6	-0.30144328
85	0x3e4a9eae	0.19787094
86	0xbf2aac68	-0.6666932
87	0x3e4a4496	0.19752726
88	0x3ec29b75	0.3800923
89	0x3eb4da80	0.35322952
90	0x401cfea8	2.453043
91	0x3e8ebc6a	0.27878124
92	0x3e12986f	0.14315961
93	0xbeb9df2a	-0.36303073
94	0x3dce9c90	0.10088456
95	0xbcaaf2a5	-0.020867655
96	0xbd09547c	-0.033527836
97	0xbc8bcb77	-0.017064793
98	0xbed6873a	-0.41900045
99	0x3b59621e	0.0033170055
100	0xbe8b0219	-0.27150038
101	0x3d81b719	0.06333751
102	0xbd854f6e	-0.06509291
103	0xbbbc26fb	-0.0057419515
104	0xbd27c301	-0.040957455
105	0x3c9abfa5	0.018890211
106	0xbb7aae14	-0.0038250731
107	0x3dfed9dd	0.12443898
108	0x3d89275c	0.0669696
109	0xbb5de88d	-0.0033860535
110	0xbcc64c51	-0.024206312
111	0x3bf2f90e	0.0074149435
112	0x3c3f8a88	0.011690743
113	0xbdb9ac9d	-0.090661265
114	0xbd73d3a9	-0.059528027
115	0xbd717efa	-0.058958985
116	0x3d8ca0ab	0.068665825
117	0x3ef77425	0.483308
118	0xbe396613	-0.18105344
119	0x3e870728	0.26372647
120	0xbd392fcc	-0.0452116
121	0xbeea16cc	-0.45720518
122	0xbee6849c	-0.45023048
123	0x3e22e360	0.15907049
124	0xbeb83de4	-0.3598472
125	0x3ed63441	0.41836742
126	0xbdcee253	-0.10101762
127	0x3d654ce5	0.055981535
128	0xbc5557db	-0.013021435
129	0xbc7323d0	-0.014840081
130	0xbe0bdfc5	-0.1365958
131	0x3d8c4754	0.06849542
132	0x3f00a5f5	0.5025323
133	0x3ee65bee	0.44992012
134	0x3d08e4a3	0.03342117
135	0xbc08ff0c	-0.008361589
136	0x3a328ca4	0.0006811118
137	0x3cac1bf5	0.021009425
138	0xbb14e950	-0.0022722073
139	0x3ea53166	0.3226425
140	0x3e465b8e	0.19370863
141	0x3d20c817	0.03925332
142	0x3c834a56	0.016026657
143	0x3bb26197	0.0054437625
144	0x3c1f147c	0.009709474
145	0xbe9507c2	-0.2910748
146	0xbd95ad97	-0.073085
147	0xbf0028ce	-0.50062263
148	0xbe00d85b	-0.12582533
149	0x3d86e4ff	0.06586646
150	0xbe8cbe9d	-0.27489176
151	0x3e7c9366	0.24665603
152	0x3db7e8cf	0.089799516
153	0xbe8d9350	-0.27651453
154	0xbfa4aea8	-1.2865801
155	0x3ecde102	0.4021073
156	0xbed74370	-0.42043638
157	0x3d9c2d7d	0.07625864
158	0xbdd6d79c	-0.10490343
159	0xbcbfc954	-0.02341143
160	0xbbc18003	-0.0059051528
161	0xbbdc96f9	-0.0067318645
162	0xbe0b3c32	-0.13597181
163	0x3e3ea473	0.1861742
164	0x3fa89e49	1.3173305
165	0xbe2551ae	-0.1614444
166	0x3d00e3ed	0.031467367
167	0x3ba9cd47	0.0051819417
168	0x3d05d0c4	0.032669798
169	0x3d7989f3	0.060922574
170	0xbaead7b5	-0.0017917069
171	0x3d97cff2	0.07412709
172	0x3e59c372	0.21265963
173	0x3da845ee	0.08216463
174	0x3c70ed9b	0.014705087
175	0x3c5dfb7f	0.013548731
176	0x3c3a46aa	0.011369387
177	0xbe3d3dd8	-0.18480623
178	0x3e1763d2	0.14784172
179	0xbce70a43	-0.028203135
180	0x3f294dee	0.66134536
181	0x3eacfcf6	0.33786744
182	0xbe61e5ef	-0.22060369
183	0x3e384936	0.17996678
184	0x3dc46d3e	0.09591149
185	0xbf12d919	-0.57362515
186	0xbeddc8c8	-0.43317246
187	0x3de9c9a2	0.114154115
188	0xbdbeb3d7	-0.093116455
189	0xbde392b1	-0.111119635
190	0xbdc5dc0f	-0.096611135
191	0xbca723e3	-0.020402854
192	0x3cedf791	0.029048713
193	0x3b198d0c	0.0023430018
194	0x3e195dff	0.14977263
195	0x3e2a6d09	0.16643156
196	0xbecf0665	-0.40434566
197	0xbebf17a6	-0.3732273
198	0xbca77a70	-0.020444125
199	0x389c203a	7.444662e-05
200	0x3cc16e5d	0.023612196
201	0xbcd613c0	-0.026132464
202	0x3c9598fa	0.018261421
203	0xbe7bb8f5	-0.24582274
204	0xbdd3cbdd	-0.10341618
205	0xbc36f088	-0.011165746
206	0xbb74f289	-0.0037376008
207	0xbb8e9eee	-0.004352442
208	0xbbe75b3e	-0.0070604375
209	0xbe185868	-0.14877474
210	0x3e85faa1	0.26167777
211	0xbeaa0355	-0.33205667
212	0xbe79866e	-0.24367687
213	0xbf40c6c9	-0.7530332
214	0x3e5c919c	0.2153992
215	0xbe8504f4	-0.2598034
216	0x3eaa09a1	0.3321047
217	0x3d79037e	0.060794346
218	0xbe19a393	-0.15003805
219	0xbd13f916	-0.03612622
220	0x3d7c67ef	0.061622556
221	0x3e5df8d4	0.21676952
222	0x3de76421	0.11298395
223	0x3c3c73ea	0.011502245
224	0xbd8eb037	-0.06967204
225	0xba2b7032	-0.0006539851
226	0xbc33b29a	-0.010967875
227	0xbec34168	-0.38135839
228	0x3e8d38e9	0.27582482
229	0x3daa213a	0.08307119
230	0x3ce4d15d	0.027931863
231	0xbbbd3801	-0.0057744985
232	0x3aeca954	0.0018055835
233	0xbd9a9f4b	-0.07549914
234	0xbcd7cd0e	-0.026342895
235	0x3e1551d2	0.14581993
236	0xbddbdd42	-0.10735561
237	0xbcf7e5b9	-0.030260907
238	0xbcbd5184	-0.023110159
239	0xbc20531b	-0.009785439
240	0x3c89280b	0.016742727
241	0x3e8a6eef	0.2703776
242	0xbf31ef0e	-0.69505394
243	0xbdbfd690	-0.093670964
244	0xbd966175	-0.07342807
245	0xbe30993e	-0.17245957
246	0x3e8a2578	0.2698171
247	0xbe6cb3df	-0.2311549
248	0xbeaf2617	-0.34208748
249	0x3e87877a	0.26470548
250	0xbfd2019c	-1.6406741
251	0xbeccd45b	-0.40005764
252	0x3e127644	0.14302927
253	0x3eba285f	0.36358926
254	0xbd30e9fe	-0.043191902
255	0x3c90083f	0.017582057

linear_32.bias f4 [32]
0	0xbe9279d8	-0.28608584
1	0xbe774c98	-0.24150312
2	0xbe10b2ed	-0.14130755
3	0xbe65fcf8	-0.22459781
4	0xbe35c92d	-0.17752524
5	0xbe0033a3	-0.12519698
6	0x3e65587f	0.2239704
7	0x3e471ce6	0.19444618
8	0xbe7261a5	-0.23670061
9	0xbe39ea88	-0.18155873
10	0xbe9412bb	-0.2892054
11	0xbea7c848	-0.3276999
12	0xbe33aa39	-0.17545404
13	0xbed00310	-0.40627337
14	0xbd4ade3f	-0.049528357
15	0x3ea05e8f	0.31322142
16	0xbe6f4076	-0.23364434
17	0x3e7676c3	0.24068742
18	0x3de693c1	0.112586506
19	0x3ecb927c	0.39760196
20	0xbeaf564b	-0.34245524
21	0x3def1b2f	0.11675107
22	0x3e075858	0.13217294
23	0x3ee0f0b3	0.4393364
24	0x3e159b5a	0.14610043
25	0xbea74430	-0.3266921
26	0xbda9bf2f	-0.082884185
27	0xbe7462b6	-0.2386578
28	0x3e4d6b4c	0.20060462
29	0xbee6e057	-0.45093033
30	0xbee8942b	-0.45425543
31	0x3e9d1f81	0.30688098

rnn.weight_ih_l0 f4 [32, 32]
0	0x3edc3919	0.43012312
1	0x3e37a726	0.17934856
2	0xbe1fbd1c	-0.15599483
3	0xbd00ffb8	-0.031493872
4	0x3d075dcc	0.033048436
5	0xbdf87479	-0.121315904
6	0x3eacc6db	0.33745465
7	0x3e25b66e	0.16182873
8	0x3f22bb7c	0.6356733
9	0xbf0708b4	-0.52747655
10	0xbd7e4150	-0.062074006
11	0xbcf52d19	-0.02992873
12	0xbed8427c	-0.42238224
13	0xbe12cf64	-0.14336926
14	0x3ebf03a2	0.3730746
15	0xbe2baa0d	-0.16764088
16	0xbc998d80	-0.01874423
17	0xbe4fca24	-0.20291954
18	0xbe90d4ba	-0.28287297
19	0x3e89cc0a	0.26913482
20	0xbe31c906	-0.1736184
21	0x3df27570	0.11838806
22	0xbf255595	-0.6458371
23	0x3e8abe3e	0.27098268
24	0xbf11929e	-0.56864345
25	0xbda5f771	-0.08103836
26	0xbe33135d	-0.17487855
27	0xbe71da22	-0.23618367
28	0x3e87be6b	0.26512465
29	0xbeaf71fe	-0.34266657
30	0xbe4db5bf	-0.20088862
31	0xbe604a11	-0.21903254
32	0x3e39d475	0.18147452
33	0xbdb27269	-0.08713228
34	0x3e2ba155	0.16760762
35	0xbd2ae2a6	-0.041720055
36	0x3e64c224	0.22339684
37	0xbca22bae	-0.019796219
38	0x3e2dacaa	0.16960397
39	0x3d625e3f	0.05526566
40	0xbe881517	-0.2657859
41	0xbeaa744a	-0.33291847
42	0x3f17def3	0.5932457
43	0x3e0defec	0.13861054
44	0xbe5d81d1	-0.21631552
45	0x3e8c118d	0.2735714
46	0x3dc626b4	0.09675351
47	0xbe0f38fa	-0.13986579
48	0x3dbd4dd1	0.09243358
49	0x3d85b661	0.06528927
50	0xbd4fb370	-0.050708234
51	0xbe1a704e	-0.15081903
52	0x3e413bcc	0.18870467
53	0x3e48c362	0.19605783
54	0x3eee53d6	0.46548337
55	0xbe88b763	-0.26702413
56	0x3dabd38b	0.08389958
57	0x3e9f3a06	0.31098956
58	0xbec63ad0	-0.38716745
59	0xbcec3b62	-0.02883691
60	0xbe0cf6df	-0.13766049
61	0x3e9826a8	0.29716992
62	0x3e88128b	0.26576647
63	0xbe3894ad	-0.18025465
64	0x3dfe5c82	0.12419988
65	0xbd5226a9	-0.0513064
66	0x3d988971	0.0744809
67	0xbda3f6f9	-0.08006091
68	0xbd09f2ab	-0.03367869
69	0x3d100302	0.03515912
70	0xbe019248	-0.12653458
71	0x3c2501a1	0.010071189
72	0xbe71418a	-0.23560157
73	0x3dc57f77	0.096434526
74	0x3d7aab5c	0.061198577
75	0x3d0779d7	0.03307518
76	0xbe7077ff	-0.23483275
77	0x3da904bc	0.08252856
78	0xbe1a05bf	-0.15041254
79	0xbd881002	-0.06643678
80	0x3d850ef5	0.064969935
81	0x3d2bfc0c	0.041988418
82	0xbe36d4a7	-0.17854558
83	0xbc94f782	-0.018184427
84	0x3c95536e	0.018228259
85	0x3d38bc8b	0.045101684
86	0x3e491b7c	0.1963939
87	0xbd85fdfd	-0.06542585
88	0x3e6a4ea5	0.22881563
89	0x3dece906	0.11567883
90	0xbd59604b	-0.053070348
91	0xbe2263d5	-0.15858395
92	0xbe1f9c7f	-0.15587042
93	0x3e2707e3	0.16311602
94	0x3e1f01e7	0.1552807
95	0xbda3faf5	-0.08006851
96	0x3f511a78	0.81681013
97	0x3f0d581b	0.55212563
98	0x3e471d48	0.19444764
99	0x3e91d0dc	0.2847966
100	0x3ea94251	0.33058408
101	0x3ddde590	0.10834801
102	0x3e881dfa	0.2658537
103	0xbebfb890	-0.37445498
104	0xbd8a99a3	-0.06767585
105	0xbcbdb189	-0.023155944
106	0xbf32bcc7	-0.698193
107	0x3eced0d1	0.4039369
108	0xbee790bf	-0.4522762
109	0xba024062	-0.00049687
110	0x3f29976e	0.6624669
111	0xbf28022f	-0.6562833
112	0x3e876aa3	0.26448545
113	0x3ee02a73	0.43782386
114	0x3ea9ac46	0.33139247
115	0xbd9de964	-0.07710531
116	0xbc487b18	-0.012236379
117	0xbc79402a	-0.015213052
118	0x3e529f8e	0.20568678
119	0x3d914512	0.07093252
120	0xbed94826	-0.42437857
121	0xbf51349e	-0.8172091
122	0xbe4a5219	-0.1975788
123	0xbeb1f70e	-0.347588
124	0xbe2befa6	-0.16790637
125	0xbda63371	-0.081152804
126	0x3dfbfe39	0.123043485
127	0xbed0f64a	-0.40812904
128	0x3e1cbaf9	0.153057
129	0x3e586366	0.21131667
130	0xbe6084ca	-0.21925655
131	0xbc472e4c	-0.012157034
132	0x3ea9f167	0.33191988
133	0x3f1c7203	0.6111147
134	0xbe62e70f	-0.22158454
135	0x3d8f2d91	0.06991113
136	0xbc90fe76	-0.017699461
137	0xbf1be37e	-0.60894
138	0xbdb5cb1f	-0.08876633
139	0x3d6553ab	0.055987995
140	0x3ed95e2b	0.42454657
141	0x3cbc0d1a	0.022955466
142	0xbe71c5e0	-0.2361064
143	0xbe01359d	-0.12618108
144	0x3d344812	0.044014044
145	0x3f2ee075	0.68311244
146	0x3f5a4096	0.852548
147	0xbdf13067	-0.1177681
148	0x3a7e61d1	0.0009703907
149	0xbef0fb7f	-0.47066876
150	0x3f21c17e	0.6318587
151	0xbe1b4767	-0.15163957
152	0x3a158e69	0.00057051197
153	0xbee1ce98	-0.4410293
154	0x3eb61845	0.3556539
155	0xbe4c11cb	-0.19928662
156	0x3d958d39	0.07302327
157	0x3ea79666	0.32731932
158	0x3e3d54ec	0.18489426
159	0xbdae8b64	-0.085226804
160	0xbf20249b	-0.62555856
161	0x3f0697c0	0.525753
162	0x3e2dca86	0.16971788
163	0xbed21193	-0.41029033
164	0x3e593e82	0.21215251
165	0x3eb5ec02	0.35531622
166	0x3d7358e0	0.05941093
167	0xbead7c06	-0.33883685
168	0xbe44a83e	-0.19204804
169	0xbe853c2a	-0.26022464
170	0x3f8c86ee	1.0978677
171	0xbec96f1b	-0.3934258
172	0xbe228fa2	-0.15875104
173	0xbf07e260	-0.53079796
174	0x3e27c5e3	0.16384082
175	0x3f21ae02	0.6315614
176	0xbe5f1c38	-0.21788108
177	0xbe81c26b	-0.25343642
178	0x3eae6d1c	0.3406762
179	0x3efe69b9	0.49690035
180	0xbebbf126	-0.3670742
181	0x3d00dad2	0.031458683
182	0xbdc2dfe6	-0.095153615
183	0x3ee850de	0.45374197
184	0x3e8bfb66	0.2734024
185	0x3f3d7f90	0.7402277
186	0xbe87e830	-0.26544333
187	0x3dbd51b2	0.09244098
188	0xbd30be96	-0.043150507
189	0xbedf76ca	-0.43645316
190	0xbf358a81	-0.70914465
191	0x3f1bacac	0.6081035
192	0x3caeabe3	0.021322196
193	0xbe2f4147	-0.17114745
194	0x3e2b87f1	0.16751076
195	0x3e39cf30	0.18145442
196	0xbdef1753	-0.116743706
197	0xbd34c151	-0.044129673
198	0x3e43f9db	0.19138281
199	0xbe124c1c	-0.14286846
200	0x3d6d78e1	0.057976607
201	0x3e555317	0.20832478
202	0xbed4e466	-0.41580504
203	0xbd6760bb	-0.056488734
204	0x3e47f927	0.19528638
205	0xbd5d5fb9	-0.054046366
206	0x3e317f10	0.17333627
207	0xbd21cc61	-0.03950155
208	0x3cfad136	0.030617338
209	0x3d452538	0.048131198
210	0xbda73834	-0.08165017
211	0xbdbd050f	-0.092294805
212	0xbc176a3b	-0.009241636
213	0xbd9c0aad	-0.07619224
214	0xbe7a9614	-0.24471313
215	0xbd3e0203	-0.046388637
216	0xbe30cb39	-0.17265023
217	0xbeb18bb1	-0.3467689
218	0x3e3d27bd	0.1847219
219	0x3dedfc16	0.11620347
220	0xbcf47c7a	-0.029844511
221	0x3e19503d	0.14972015
222	0x3dba18cc	0.09086761
223	0x3cd7992e	0.026318159
224	0x3e347aa1	0.17624904
225	0xbed44d18	-0.41465068
226	0x3e1cf74e	0.15328714
227	0x3cfd4ebb	0.03092133
228	0x3e67958a	0.22615638
229	0x3da442b1	0.08020533
230	0x3e73c6f5	0.23806365
231	0xbdd45c17	-0.10369127
232	0xbe3f075d	-0.18655153
233	0xbf3bec25	-0.734072
234	0x3e67209b	0.22571032
235	0xbc8a1d83	-0.016859775
236	0x3e53cbaa	0.2068316
237	0x3d4ba590	0.04971844
238	0xbe25172d	-0.16122122
239	0xbdf7ef1e	-0.12106155
240	0x3d77f98b	0.060540717
241	0xbe38f5f6	-0.18062577
242	0xbd252920	-0.040322423
243	0xbd740ef7	-0.059584584
244	0x3b869f45	0.004108342
245	0xbd74bd00	-0.059750557
246	0x3ede0af2	0.43367726
247	0xbe1bc4a1	-0.15211727
248	0x3e088a25	0.13333948
249	0x3e5a9161	0.2134452
250	0x3e2e3299	0.17011489
251	0xbe938454	-0.28811896
252	0xbe00e298	-0.12586439
253	0x3e836bd6	0.2566821
254	0x3e2b4966	0.16727218
255	0xbdef7f0d	-0.11694155

rnn.weight_hh_l0 f4 [32, 32]
0	0x3d7cd1f4	0.061723664
1	0xbde07034	-0.10958901
2	0x3e33e99c	0.17569584
3	0x3e6057c6	0.21908483
4	0xbcec8715	-0.028873006
5	0xbe21542a	-0.15754762
6	0x3eb5674f	0.3543038
7	0xbe01e297	-0.12684093
8	0xbed7df68	-0.42162633
9	0xbe4c8f1c	-0.19976467
10	0x3e0ba731	0.13637997
11	0x3f00ee23	0.5036337
12	0x3e44f93f	0.19235705
13	0x3d5a0771	0.053229753
14	0x3eb697c5	0.35662666
15	0xbe6c165a	-0.23055401
16	0xbed74d8a	-0.42051345
17	0x3e7dacb7	0.24772917
18	0xbe398b8a	-0.18119636
19	0x3e324d6d	0.17412348
20	0x3d51fc88	0.051266223
21	0x3eb12d2f	0.34604785
22	0xbe3aecff	-0.1825447
23	0x3eff874f	0.4990792
24	0x3b60ba41	0.0034290703
25	0x3be9ff39	0.0071410206
26	0xbd0c59d4	-0.034265354
27	0x3e9f7f1d	0.31151667
28	0x3df3bd56	0.11901347
29	0xbc851240	-0.016244054
30	0x3e81f592	0.25382668
31	0xbe6f6c44	-0.23381144
32	0xbd89afe5	-0.06723002
33	0xbe84e28c	-0.25954092
34	0x3eae95b2	0.34098583
35	0x3de30abc	0.11086032
36	0xbe18ab59	-0.14909114
37	0x3caccb08	0.021092907
38	0xbd5cf06e	-0.05394023
39	0x3df33fcb	0.11877402
40	0xbcfb28b2	-0.030659053
41	0x3c9d722e	0.019219484
42	0x3c5bc227	0.013412989
43	0x3f09d006	0.53833044
44	0x3e460003	0.19335942
45	0xbea7d7a8	-0.3278172
46	0xbe540a5e	-0.2070708
47	0x3de48675	0.11158458
48	0x3e98ede4	0.29868996
49	0xbd18e93a	-0.037331797
50	0xbe0a45a9	-0.13503136
51	0x3dea20f7	0.11432069
52	0x3e17a00d	0.14807148
53	0xbcc897b0	-0.024486393
54	0x3dd6e6a5	0.10493211
55	0x3e0f2463	0.13978724
56	0xbed5e6ed	-0.41777745
57	0x3eaaa928	0.3333218
58	0xbe01dcdc	-0.12681907
59	0x3dd4670c	0.10371217
60	0x3ec8b51d	0.39200678
61	0x3dcc0da4	0.09963539
62	0xbd19836c	-0.03747885
63	0xbbcba55a	-0.00621478
64	0xbe9d4f26	-0.30724448
65	0x3c4fc36e	0.012680871
66	0xbee0c1c1	-0.43897822
67	0x3d92a51e	0.071604
68	0xbd7f3c8f	-0.062313613
69	0xbdff06ea	-0.12452491
70	0xbddd94a4	-0.108193666
71	0xbd200878	-0.039070576
72	0x3d5858fa	0.05281923
73	0xbbfce816	-0.0077180965
74	0x3b99d007	0.0046939882
75	0x3d2971bc	0.04136823
76	0xbda4f522	-0.08054568
77	0xbd6024ed	-0.054722715
78	0x3dbc789b	0.09202691
79	0x3e349a15	0.17636903
80	0x3eb9d017	0.36291572
81	0x3d1f5b43	0.038905393
82	0xbe300ca7	-0.17192326
83	0xbc4f2d53	-0.0126450835
84	0x3c93d6ba	0.018046726
85	0xbe4b984b	-0.19882314
86	0x3e106d0e	0.14104101
87	0x3c99170d	0.01868775
88	0xbd9da1c2	-0.076968685
89	0x3e3f0549	0.1865436
90	0xbe875a7c	-0.26436222
91	0x3e149997	0.14511715
92	0x3d43112a	0.04762379
93	0xbd739b0d	-0.05947404
94	0x3d1951f9	0.03743169
95	0x3cfdb5bf	0.030970452
96	0x3fa0c03c	1.2558665
97	0x3dc61db6	0.09673636
98	0x3d2beb64	0.041972533
99	0x3d3f5044	0.046707407
100	0x3ea4b6d6	0.32170743
101	0x3ed01f73	0.40648994
102	0xbf1a77a6	-0.6033882
103	0x3e8b1430	0.2716384
104	0x3f1dff85	0.61718017
105	0xbe0fc2d5	-0.14039166
106	0xbd34c432	-0.04413242
107	0x3f7d5f89	0.989739
108	0x3e906962	0.282054
109	0xbd3c35f4	-0.04594989
110	0xbd904288	-0.0704394
111	0x3f795eaf	0.974101
112	0x3daf4276	0.08557598
113	0x3e35f3a8	0.17768729
114	0xbea3eec6	-0.32018107
115	0x3f2f2cd7	0.68427795
116	0x3e2520c8	0.16125786
117	0xbde29083	-0.1106272
118	0x3e7e9e30	0.24865031
119	0x3ea4d6f5	0.3219525
120	0xbe97bea8	-0.29637647
121	0xbe7989b3	-0.24368934
122	0xbefe8e82	-0.497181
123	0xbed9b572	-0.42521244
124	0xbd516ef6	-0.05113121
125	0xbe7bee3c	-0.24602598
126	0xbf87b100	-1.0600891
127	0xbeceef9a	-0.40417176
128	0xbe13ec4b	-0.14445607
129	0x3e33e371	0.17567231
130	0xbdc4d091	-0.096100934
131	0xbd85a457	-0.06525486
132	0xbe8188e8	-0.25299764
133	0xbe867944	-0.26264393
134	0xbe236b41	-0.15958883
135	0xbdd1df94	-0.10247722
136	0xbd8240c5	-0.0636001
137	0xbf00d660	-0.5032711
138	0x3e2068e1	0.15665008
139	0xbda34fc2	-0.07974197
140	0xbd004efe	-0.031325333
141	0xbdfbf061	-0.12301708
142	0x3db97293	0.090550564
143	0xbddeeb26	-0.10884695
144	0xbd8f1529	-0.06986458
145	0x3dd4ff43	0.1040025
146	0x3d4905ce	0.0490778
147	0xbdad5572	-0.08463563
148	0xbeb0caf7	-0.3452985
149	0x3e2fd4ae	0.17170975
150	0x3d5e9300	0.05433941
151	0x3da435f9	0.08018107
152	0x3e8d91b1	0.27650216
153	0x3ddaf815	0.10691849
154	0x3dc829bc	0.09773585
155	0xbde78816	-0.11305253
156	0xbd9ff585	-0.07810501
157	0xba4c7ec6	-0.0007800873
158	0x3e55e238	0.20887077
159	0xbe3a7661	-0.1820922
160	0xbe1cc3d1	-0.15309073
161	0x3e39b8e1	0.18136932
162	0x3dc564e1	0.09638382
163	0x3d07538c	0.03303866
164	0x3e4cfe04	0.20018774
165	0x3ed15dfc	0.40892017
166	0x3d86a412	0.06574263
167	0x3ea97a18	0.33100963
168	0x3e3517c5	0.17684849
169	0x3f05b948	0.5223584
170	0xbf6a0124	-0.9140799
171	0xbd0adb8f	-0.033900794
172	0x3dfa2d99	0.12215728
173	0x3eb8b563	0.36075887
174	0x3d98c415	0.07459275
175	0xbe5c6435	-0.21522601
176	0xbc6df2c6	-0.014523214
177	0x3e0da0e0	0.138309
178	0xbe9614b7	-0.2931268
179	0xbea68225	-0.32521167
180	0x3efc4bc2	0.4927655
181	0xbdbe3934	-0.092882544
182	0xbc889bc5	-0.01667584
183	0xbd975808	-0.073898375
184	0xbe15be2f	-0.1462333
185	0xbe83cbe7	-0.25741503
186	0xbec54752	-0.38530976
187	0xbd5c86b9	-0.05383942
188	0x3e23c698	0.15993726
189	0xbec7ce1f	-0.39024445
190	0xbe281411	-0.16413905
191	0xbe075977	-0.13217722
192	0xbf0302e1	-0.5117627
193	0x3eb81540	0.35953712
194	0x3e238b47	0.15971099
195	0xbd31fbb0	-0.04345292
196	0x3d79b86d	0.060966898
197	0xbe490d21	-0.19633915
198	0xbf397ddd	-0.7245768
199	0x3e338546	0.17531309
200	0x3d3cb504	0.046071067
201	0x3d9b64a9	0.07587559
202	0x3e21364d	0.1574337
203	0x3c529fcd	0.012855482
204	0x3dbf1a00	0.09331131
205	0xbd9df174	-0.07712069
206	0xbe8744c9	-0.26419666
207	0x3ebcdc97	0.36887047
208	0xbeaf1303	-0.34194192
209	0xbd7de215	-0.061983187
210	0xbe025236	-0.12726673
211	0x3e801836	0.2501847
212	0xbbf115a2	-0.007357315
213	0xbe3d03a0	-0.18458414
214	0x3dc37ebe	0.095456585
215	0xbb87c806	-0.0041437177
216	0xbdd56fb2	-0.10421695
217	0x3cdbe31c	0.026841693
218	0xbd6e7d39	-0.05822489
219	0xbdc482a6	-0.09595232
220	0x3dcf64dc	0.10126659
221	0x3e5957e0	0.21224928
222	0x3dbc57bc	0.091964215
223	0x3d09cd5a	0.033643104
224	0x3c9bd99b	0.01902466
225	0xbdbe65c4	-0.09296754
226	0xbcaebc25	-0.021329949
227	0x3e5339be	0.20627496
228	0xbde95bde	-0.113944754
229	0xbe19bd77	-0.15013681
230	0x3dae9df6	0.085262224
231	0xbf334ade	-0.70036113
232	0xbd1318d9	-0.03591237
233	0xbe5e544b	-0.21711843
234	0xbd48e9fd	-0.049051274
235	0xbca15664	-0.019694515
236	0xbda59f3c	-0.08087012
237	0xbbe32ded	-0.006932965
238	0x3ce0eb70	0.027456015
239	0xbd6bac7e	-0.05753755
240	0x3e016168	0.12634814
241	0xbe1c19bb	-0.1524419
242	0x3bb10c4c	0.005403077
243	0xbde5c63e	-0.11219452
244	0x3d4781ae	0.048707657
245	0x3e4bc265	0.19898374
246	0x3ddafccc	0.106927484
247	0x3c3f3480	0.011670232
248	0xbe003062	-0.12518457
249	0x3dcc792b	0.099840485
250	0x3deb5306	0.11490445
251	0xbde96bb9	-0.113974996
252	0xbcdae4e8	-0.02672048
253	0x3e38c60f	0.18044303
254	0xbd5f6ff9	-0.054550145
255	0x3d57bcdc	0.052670345

rnn.bias_ih_l0 f4 [32]
0	0xbdbbbafb	-0.09166523
1	0x3d973889	0.0738383
2	0x3d8f6bde	0.07002996
3	0x3f9612a7	1.1724442
4	0xbe13383a	-0.14376917
5	0x3da19653	0.0789
6	0x3ab2dc84	0.0013646041
7	0xbd95aa0c	-0.073078245
8	0x3e9a60e6	0.30152053
9	0xbe682c2b	-0.22673099
10	0x3c991e3b	0.018691173
11	0xbe887233	-0.26649627
12	0xbdd888e1	-0.105729826
13	0xbde393d9	-0.11112184
14	0x3d8a47b4	0.067519575
15	0xbd83aa07	-0.064289145
16	0xbe3a1da5	-0.18175371
17	0x3e2da4b3	0.16957359
18	0xbcfb137a	-0.030648936
19	0x3cd2f597	0.025751872
20	0xbe19ab2a	-0.150067
21	0xbe95c093	-0.29248485
22	0xbe0a3bed	-0.13499422
23	0xbcf7060c	-0.03015425
24	0x3de73a16	0.11290376
25	0x3e42bfb3	0.1901844
26	0xbd3ee1f2	-0.046602197
27	0x3e72dbed	0.23716708
28	0x3d16edc0	0.03684783
29	0xbca7cccc	-0.020483397
30	0x3e7ddeeb	0.24792068
31	0x3b80d221	0.0039312993

rnn.bias_hh_l0 f4 [32]
0	0xbdbbbafb	-0.09166523
1	0x3d973889	0.0738383
2	0x3d8f6bde	0.07002996
3	0x3f9612a7	1.1724442
4	0xbe13383a	-0.14376917
5	0x3da19653	0.0789
6	0x3ab2dc84	0.0013646041
7	0xbd95aa0c	-0.073078245
8	0x3e9a60e6	0.30152053
9	0xbe682c2b	-0.22673099
10	0x3c991e3b	0.018691173
11	0xbe887233	-0.26649627
12	0xbdd888e1	-0.105729826
13	0xbde393d9	-0.11112184
14	0x3d8a47b4	0.067519575
15	0xbd83aa07	-0.064289145
16	0xbe3a1da5	-0.18175371
17	0x3e2da4b3	0.16957359
18	0xbcfb137a	-0.030648936
19	0x3cd2f597	0.025751872
20	0xbe19ab2a	-0.150067
21	0xbe95c093	-0.29248485
22	0xbe0a3bed	-0.13499422
23	0xbcf7060c	-0.03015425
24	0x3de73a16	0.11290376
25	0x3e42bfb3	0.1901844
26	0xbd3ee1f2	-0.046602197
27	0x3e72dbed	0.23716708
28	0x3d16edc0	0.03684783
29	0xbca7cccc	-0.020483397
30	0x3e7ddeeb	0.24792068
31	0x3b80d221	0.0039312993

linear_out.weight f4 [7, 32]
0	0xbb37a384	-0.0028021047
1	0x3c658ac1	0.014010132
2	0x3cc76657	0.024340792
3	0xbbc86809	-0.0061159176
4	0xbb9348f6	-0.0044947816
5	0x3af910cb	0.0019002197
6	0xbbed9636	-0.0072505726
7	0xbbaa6c47	-0.005200896
8	0x3b9037fd	0.0044012056
9	0x3b3a36f5	0.0028414105
10	0xbaafc07d	-0.0013408806
11	0xbc49ee3c	-0.012324866
12	0xbc38c1cb	-0.011276673
13	0x3bbd22ee	0.005771986
14	0xbb82b0d8	-0.0039883666
15	0xbc72a7a3	-0.0148104755
16	0x3b5519bf	0.0032516567
17	0xbc2e5709	-0.010640868
18	0x3b1e46ac	0.002415101
19	0xbbdd23ea	-0.006748666
20	0xbb9b672d	-0.004742524
21	0xbac4865b	-0.0014993654
22	0x3bec29be	0.0072071245
23	0xbc87861b	-0.016543439
24	0x3c3a8989	0.01138533
25	0xbb123d2d	-0.0022314296
26	0xbca2bc20	-0.019865096
27	0x3b89098c	0.0041820463
28	0x3d5a9ee4	0.053374186
29	0x3bdc464e	0.006722248
30	0x3b1ffd96	0.0024412624
31	0xbaa32792	-0.0012447706
32	0x3e7bf406	0.24604806
33	0x3ea7e7e9	0.3279412
34	0x3f1053ab	0.5637767
35	0x3e44f029	0.19232239
36	0x3eba0a13	0.3633581
37	0xbe75c502	-0.24000934
38	0x3f04ff43	0.51952
39	0x3f016874	0.5055001
40	0x3e8d2986	0.27570742
41	0xbe668dff	-0.22515105
42	0x3e54ace6	0.2076908
43	0x3f0c20d2	0.5473758
44	0x3f2b59d8	0.66933966
45	0x3ee49e29	0.44651917
46	0x3eb23558	0.34806323
47	0x3f2135fc	0.62973
48	0xbe356c0d	-0.17717
49	0x3ece1c7c	0.40256107
50	0xbf1204e9	-0.5703874
51	0x3f1a139c	0.6018617
52	0x3f0b6d04	0.5446322
53	0xbe4d689e	-0.2005944
54	0xbefee0f2	-0.49780995
55	0x3eff85f9	0.499069
56	0xbf39370f	-0.7234964
57	0xbf1d1f6d	-0.61376077
58	0xbee3ccbb	-0.44492134
59	0xbf0747ae	-0.5284375
60	0x3f22775f	0.63463396
61	0xbee009c9	-0.43757465
62	0xbf2eac0d	-0.6823128
63	0xbedb18cd	-0.4279236
64	0x3d8b806d	0.06811605
65	0x3dae8581	0.085215576
66	0x3d180ff4	0.03712459
67	0xbb8b93b2	-0.00425955
68	0xbc4ba740	-0.012430012
69	0x3c06fb92	0.00823869
70	0xbdd4a898	-0.10383719
71	0x3de5e5bc	0.11225459
72	0x3cd6436e	0.0261552
73	0x3cc5ed9a	0.024161149
74	0x3c027180	0.007961631
75	0x3ef45da7	0.477277
76	0xba3e5937	-0.0007261219
77	0x3c4f0e2b	0.012637655
78	0x3d7075e0	0.058706164
79	0xbea39066	-0.31946105
80	0x3b5df7b7	0.0033869573
81	0xbc515adf	-0.012778013
82	0x3cc92afe	0.024556633
83	0xbe7757b2	-0.24154547
84	0xbcfe6fed	-0.03105923
85	0x3c82d0b8	0.015968665
86	0x3d7a3828	0.06108871
87	0xbe0a4ac7	-0.13505088
88	0xbdfff54f	-0.12497961
89	0xbdff5027	-0.1246646
90	0xbe2880dc	-0.16455406
91	0x3d15e323	0.036593568
92	0xbe779a57	-0.2417997
93	0xbd6599b5	-0.05605479
94	0x3dd670e9	0.10470755
95	0xbd2c5872	-0.042076536
96	0xbd3d7bd8	-0.046260685
97	0x3d89d883	0.067307495
98	0x3e5f7b0a	0.2182428
99	0xbce4cab5	-0.02792869
100	0xbd6453d3	-0.055744004
101	0x3c84feb6	0.016234737
102	0xbd0e2a44	-0.034708276
103	0xbdfe1546	-0.12406401
104	0x3d909179	0.07058997
105	0x3d05b33a	0.032641627
106	0xbcb7f59e	-0.022455987
107	0x3afdc03f	0.0019359662
108	0xbd0a7d45	-0.033810873
109	0x3d4cda4e	0.05001288
110	0x3bfb6e56	0.007673065
111	0x3d8338d5	0.06407324
112	0x3ce21fbe	0.027603026
113	0xbdc322e4	-0.09528139
114	0x3d48fd8c	0.049069926
115	0xbd268e2c	-0.04066293
116	0x3d79f2b3	0.06102247
117	0xbc0fa28a	-0.00876678
118	0x3d1f2a68	0.0388588
119	0xbe2d1c27	-0.1690527
120	0x3d0cd86f	0.034386095
121	0xbc3d9b5b	-0.011572684
122	0xbe1ed603	-0.15511326
123	0x3cdbd75d	0.026836092
124	0x3e6ae772	0.22939852
125	0x3dd4c2cb	0.10388716
126	0x3d18e184	0.037324443
127	0x3d889077	0.066681795
128	0xbd06a92b	-0.032876175
129	0x3daf40b6	0.085572645
130	0x3e36abba	0.17838946
131	0xbd8a2cb8	-0.06746811
132	0xbb2f4196	-0.0026741973
133	0x3c9a38e6	0.01882596
134	0xbd53c87b	-0.051704865
135	0x3b1dd52c	0.002408336
136	0x3c33c5fc	0.010972496
137	0x3d1d8161	0.038453463
138	0xbca82c91	-0.020529063
139	0xbe244149	-0.1604053
140	0xbdadb454	-0.084816605
141	0xbd277992	-0.040887423
142	0xbccb9e9a	-0.0248559
143	0xbe028234	-0.12744981
144	0x3d67d945	0.05660369
145	0xbca39c17	-0.01997189
146	0x3d47d3f1	0.048786107
147	0xbdb30521	-0.08741213
148	0xbd7c68ca	-0.061623372
149	0xbcb9c343	-0.022676116
150	0x3cae0cef	0.021246402
151	0xbd60fc3e	-0.054928057
152	0x3d6e68ef	0.05820554
153	0x3cdfbe1b	0.027312329
154	0xbe03c6a0	-0.12868738
155	0x3cf74675	0.030184964
156	0x3ecc57be	0.39910692
157	0x3cbc5bac	0.022992931
158	0x3d2ba993	0.041909765
159	0xbc1b2db3	-0.009471345
160	0xbc07bfe1	-0.008285494
161	0x3a9e9c3a	0.0012101003
162	0x3d851922	0.06498934
163	0xbd03778c	-0.03209643
164	0x3ab055dd	0.0013453324
165	0x3c34af35	0.011028101
166	0xbc93c42a	-0.018037874
167	0x3b8bbf2f	0.004264734
168	0x3bf292a9	0.007402737
169	0x3cc5e37a	0.02415632
170	0xbac48fdc	-0.0014996487
171	0xbd4de4ef	-0.050267156
172	0xbd195a82	-0.03743983
173	0xbd04e179	-0.03244159
174	0xbc60b14b	-0.013714145
175	0xbd653b3d	-0.055964697
176	0x3cd66ce0	0.026174963
177	0xbc2d84a3	-0.010590705
178	0x3cebfa91	0.028806003
179	0xbd4ac3d9	-0.04950318
180	0xbcc8a59b	-0.02449303
181	0xbbfc173e	-0.0076932004
182	0xba3ec9eb	-0.0007278013
183	0xbca10be1	-0.019658985
184	0x3d11010d	0.035401393
185	0x3c6e2faa	0.014537731
186	0xbd5fbe8c	-0.05462508
187	0x3c6ae938	0.01433783
188	0x3e086cfe	0.13322827
189	0xbc091cf0	-0.008368716
190	0x3ccea22a	0.02522381
191	0xbc1af914	-0.009458799
192	0xba8ed4ff	-0.0010897218
193	0x3bb308a3	0.005463676
194	0x3c3ae4df	0.011407106
195	0xbb8d81cf	-0.004318453
196	0xbadc1f1f	-0.0016793943
197	0x3ab58c84	0.0013851081
198	0xbb49b428	-0.0030777548
199	0xba165bae	-0.0005735707
200	0x392f1172	0.000166958
201	0x3a4dec7f	0.000785537
202	0xbb0146d7	-0.0019726062
203	0xbbf5056c	-0.007477453
204	0xbbde534b	-0.0067848316
205	0x3a273520	0.00063784607
206	0xba376a2e	-0.0006996718
207	0xbc51286c	-0.012765985
208	0x3b03a89a	0.0020089508
209	0xbb8f4133	-0.004371786
210	0x3b13664f	0.00224914
211	0xbbe10470	-0.006866984
212	0xbb6d6583	-0.0036223836
213	0x3a2a6d86	0.00065013056
214	0x3ad0ab9a	0.0015920282
215	0xbbdb8c18	-0.00670005
216	0x3bebe8c9	0.007199381
217	0xb977e361	-0.00023640461
218	0xbc09088f	-0.008363857
219	0xb92ea4a4	-0.00016655267
220	0x3d1016a4	0.03517784
221	0x3ad10e45	0.0015949687
222	0x39b0cdb4	0.00033722597
223	0xbb4aa879	-0.0030923171

linear_out.bias f4 [7]
0	0x3d00fbe2	0.031490214
1	0x4155936d	13.348493
2	0xbd16de93	-0.036833357
3	0x3ea61e2b	0.3244489
4	0x3e94b255	0.29042307
5	0x3e2840e9	0.16431011
6	0x3ca10c24	0.01965911

batch_norm_layer.weight f4 [32]
0	0xba60cb4f	-0.0008575217
1	0xbb6b013c	-0.003585889
2	0x3e98b52a	0.29825717
3	0xbe8f8395	-0.28030077
4	0xbf07e2ed	-0.53080636
5	0x3e692120	0.22766542
6	0xbcc4bfcb	-0.024017235
7	0xbc6739d6	-0.01411291
8	0xbb093cfd	-0.0020940893
9	0xbc7665da	-0.015038932
10	0x39d418c6	0.0004045425
11	0xbd86e725	-0.06587056
12	0xbed23645	-0.4105703
13	0x3bd77ece	0.0065763956
14	0xbc83365a	-0.016017128
15	0xba317497	-0.00067693874
16	0xbbb7d8fc	-0.0056105834
17	0x3e2c19f1	0.16806771
18	0x3eb00042	0.34375197
19	0xbe1c4445	-0.15260418
20	0xbef8eefe	-0.48619837
21	0xbe6fc21f	-0.23413895
22	0xbeb6af5b	-0.3568066
23	0xbe94d02d	-0.29065076
24	0x3e8a8b53	0.2705942
25	0xbec340b3	-0.381353
26	0xbf0e4884	-0.555794
27	0xbe690535	-0.22755893
28	0xbe852579	-0.26005152
29	0x3ef97726	0.48723716
30	0x3c780fb6	0.0151404645
31	0x39cfc740	0.0003963057

batch_norm_layer.bias f4 [32]
0	0xbcf793eb	-0.0302219
1	0xbc2d6881	-0.010583998
2	0xbcf021e0	-0.029313028
3	0x3ef76d9b	0.4832581
4	0xbe8d6cec	-0.27622163
5	0x3e1e3309	0.15449156
6	0xbd94cbae	-0.07265411
7	0xbddb5c2f	-0.10710942
8	0xbd1e1b3c	-0.03860019
9	0xbdfd5ae8	-0.123708546
10	0xbcb816bb	-0.022471776
11	0xbcc4e351	-0.024034174
12	0xbe86b64f	-0.26310965
13	0xbd673500	-0.05644703
14	0xbdc3a462	-0.09552838
15	0xbc149fd0	-0.009071305
16	0xbcc09f91	-0.023513587
17	0x3e3a4552	0.18190506
18	0xbe169bce	-0.14707872
19	0xbefe7f91	-0.497067
20	0xbe845c4a	-0.2585166
21	0x3f00111b	0.500261
22	0x3e99f4ff	0.3006973
23	0x3dc18d7c	0.09450814
24	0x3e69bc55	0.22825749
25	0x3eabe922	0.33576304
26	0xbf23716f	-0.6384496
27	0x3f043452	0.51642334
28	0xbe7261b1	-0.23670079
29	0x3ed72b26	0.42025107
30	0xbdd94f18	-0.10610789
31	0xbb6eeb92	-0.0036456329
