VehicalStateperML_RNN_epochs_25_BS:32.pth (torch, 19458 bytes, 12 tensors)

linear_in.weight f4 [32, 9]
00000000: f3fc 513e 8a52 67bf b31e 5e3c 3488 7bbd
00000010: f22b f73d 9c91 ac3e 8bb1 f63d a593 02bc
00000020: 22ca a6be f85a 5fbe d3e1 9c3e 9b3b bd3f
00000030: 695a aebe c888 54be 1bfd 5cbe 0030 4dbe
00000040: 57a4 66bc 9e1c c93f e7a3 aa3e a4c5 6ebf
00000050: 0d72 d1bf c30f 2b3e eed9 b83e 7585 243f
00000060: 143b ad3e 6441 46bc 728f cdbf 0d03 d63e
00000070: 483d f33f b7b6 97bd fff1 3e3e 1779 4d3f
00000080: 71b5 073f d79a 513f 7f38 4d3b e2c6 c2ba
00000090: 3c5f 41be 3ac3 bebe 85c4 e9bf 4b9d 66be
000000a0: 2617 173f 80f4 f43d 2b30 283f c2c2 4fba
000000b0: 446d febf 2a83 553e f491 55be 57a3 86bd
000000c0: c96f f63d af71 863e 9e97 533e f6d1 853e
000000d0: 3814 d03c e1ac 0cbd ab1a 45be 1c40 1fbe
000000e0: 5da1 83bd fde6 6a3e 51fa f33e 314e 853e
000000f0: db5b fd3e 95c2 69bd 6595 57bf 2268 803e
00000100: 42b9 db3e 405c fc3f 0b53 e73e 3b66 0cbf
00000110: fea8 7b3d 5897 1fbf f16d 253a 55c7 ff3f
00000120: 7a2b 963e 28be 3e3e fa3f 253e 29cb d8bd
00000130: 8bab 0bbf b50f 78be 2177 1abf 32cd 493d
00000140: c697 713f 2483 333f 6368 8fbc 2964 d5bd
00000150: 26d3 773f 21e1 c13f 060c 843f 78d7 c43f
00000160: 0089 003d 3769 3cbe 20ee 1abe 7491 f0bf
00000170: 07ec c33c 312a eebd 1d03 81be a9c9 c93d
00000180: ec8b 8fbe 47d1 aebc a656 9ebe 82ae ffbe
00000190: 4dce 183f e37b e63e 69b7 10bf 72ef 10bf
000001a0: 1fc9 38bf 5894 11bf 98e1 9f3d 8c39 713f
000001b0: a3e9 0dbf b4fd 5a3f 70ec 893e 360c 3dbf
000001c0: a6ee c4be e117 0cbf 0185 bfbe 48e3 babd
000001d0: 339d 383e fe83 abbd 5da3 bf3e 30ca 623e
000001e0: 7c4f cbbd 478a 0abc f43d 01be 9259 63bc
000001f0: 820b c0b9 3ca7 443e 491a 613e 0823 c8bd
00000200: c381 373d b740 663e 9f91 9b3e 45fc 513e
00000210: 3fca a93e e40a 3bbd 21ef 1e3d fa57 41bd
00000220: 2332 e5bf 6fe9 3b3e 0969 8c3f 6397 7abf
00000230: 052a 7ebe da49 83bf 6f11 b93b 0e1d 6f3f
00000240: 9330 18bf 50fb f6bc 7053 b83d 54ae 14bf
00000250: a631 68bf c55e 00bf a13d 6bbf a259 04bc
00000260: 6fa0 9439 09e3 85bc 9ae1 0ebf 738c 1440
00000270: 37a0 fd3e 602a 033c b082 e53e 8c52 6f3c
00000280: 27e7 7e3a b011 1040 2d42 cc3f fba5 f53f
00000290: c34a 8cbe 253f a33f 6f23 1740 1601 a53f
000002a0: a552 1640 1963 3038 74ba ca3e a8ce 9cbe
000002b0: 24e0 153e 5804 213f 32fa 0bc0 2d95 31bf
000002c0: 0b1e bfbf a033 25bf 5784 30bd 2b20 a33e
000002d0: 3b5a 14c0 9836 0bc0 a016 85bd d631 45bf
000002e0: 24a9 60c0 904c febf 07d3 62c0 58cc ae3a
000002f0: b3e7 e3be 904b ce3e e0e3 6abe 79b1 13be
00000300: 9f71 113f 4059 fd3e b4d1 033f 6758 fd3e
00000310: 168c 133d 11c5 ea3c 8c95 333f 8012 8d3f
00000320: 8b3c e73f 444a 8a3f 9f86 4ebe fec8 e83e
00000330: fd7d 8ebe ef73 1b3a 19e5 f73f e763 dabe
00000340: 8d7d 873f f718 9c3f 8e4f 1ebf 1c44 7ebd
00000350: 2d97 c8be 9c67 b0bc 43f6 a93c 1b50 8b3f
00000360: 553a d3be d1dd 8e3f e56a d13e 6583 78be
00000370: 5532 57be 67b8 44bf 091f 1bbe 009d f93c
00000380: e93b 3b3f a30a ca3e 395c 1fbf 4b4a 89be
00000390: 16b9 873e f55a aa3e 1827 fd3e 416f a13e
000003a0: 4a9d 58bc ab01 b9be 0dbf fdbf 5826 09c0
000003b0: 2d2b 593e 4772 95bf 4218 39c0 87d6 d2bf
000003c0: badd 3ac0 83ff 1eb9 8386 c1be b36e 023f
000003d0: 7017 5a3f 8db4 9a3c 6988 913e 99fc 623f
000003e0: 7037 a53e fe23 693f 564c d7ba 3449 853e
000003f0: 76fc 73bf 234c 5d3f dfe5 de3e 466e 03bf
0.20506649 -0.9036032 0.013557124 -0.06140919 0.12068929 0.3370484 0.120455824 -0.0079697715
-0.3257609 -0.21812046 0.3064104 1.4783815 -0.34053352 -0.20755303 -0.21580927 -0.20037842
-0.014077268 1.5711858 0.33328173 -0.93270326 -1.636293 0.16705231 0.36103767 0.6426614
0.33834136 -0.012100551 -1.6059401 0.41799203 1.9003077 -0.07407897 0.18647002 0.80262893
0.5301123 0.8187689 0.0031314192 -0.0014860297 -0.18883985 -0.3725832 -1.8263098 -0.2252094
0.59019697 0.11960697 0.656985 -0.00079254445 -1.9877095 0.20850816 -0.20856458 -0.06574123
0.1203304 0.2625861 0.20663306 0.2613675 0.025400266 -0.034344558 -0.19248454 -0.155518
-0.06427262 0.22939678 0.47651914 0.26036218 0.49484143 -0.057070334 -0.8421233 0.25079447
0.42914778 1.9715652 0.45180544 -0.5484349 0.06144046 -0.6234031 0.0006310633 1.9982706
0.29330045 0.18627226 0.16137686 -0.10585625 -0.5455863 -0.24224742 -0.60338026 0.049267955
0.9437221 0.7012198 -0.01750583 -0.10419495 0.9680656 1.5146829 1.0316169 1.5378256
0.031380653 -0.18399511 -0.151299 -1.8794389 0.023916258 -0.11629141 -0.25197688 0.09852917
-0.2803644 -0.021340026 -0.30925483 -0.49937826 0.5968979 0.45016393 -0.5652986 -0.56615365
-0.72181886 -0.5686698 0.078067005 0.94228435 -0.55434626 0.8554337 0.269382 -0.7384676
-0.38463324 -0.54723936 -0.3740616 -0.09125382 0.18028717 -0.08374785 0.37429324 0.22147441
-0.0992727 -0.008455819 -0.1262129 -0.013876336 -0.00036629668 0.1920442 0.21982683 -0.09772307
0.044801485 0.22485624 0.30384538 0.2050639 0.33162114 -0.045664683 0.03880227 -0.04720304
-1.7905926 0.18350767 1.0969554 -0.9788725 -0.24820717 -1.0256913 0.00564783 0.9340371
-0.5944912 -0.030149132 0.090002894 -0.58078504 -0.9070076 -0.50144607 -0.91890913 -0.008078011
0.00028348292 -0.01634361 -0.5581299 2.3210723 0.49536297 0.008005708 0.4482627 0.014607083
0.00097237754 2.2510796 1.5957695 1.9191278 -0.2740079 1.2753645 2.3615377 1.2890956
2.3487942 4.205396e-05 0.39595377 -0.30626416 0.14636284 0.62897253 -2.1871457 -0.6936825
-1.4931043 -0.645319 -0.04309496 0.3186048 -2.3180072 -2.1752071 -0.06498456 -0.7702917
-3.5103235 -1.9867115 -3.54413 0.0013336046 -0.4451271 0.40292025 -0.2293849 -0.14423169
0.56814 0.49482155 0.51491857 0.49481508 0.03602227 0.028658422 0.70150065 1.1021271
1.8065351 1.0803914 -0.20168541 0.45465845 -0.27830496 0.0005930056 1.936679 -0.42654344
1.058519 1.2195119 -0.6184014 -0.062076673 -0.39177838 -0.02153378 0.02074731 1.0883821
-0.4125544 1.1161443 0.40901867 -0.24268873 -0.21015294 -0.76843876 -0.15148558 0.030470371
0.7313829 0.3946124 -0.62250096 -0.26814494 0.26508397 0.3327252 0.4944389 0.31530192
-0.013221094 -0.36134085 -1.9823929 -2.1429653 0.21207877 -1.16755 -2.8921056 -1.6471719
-2.919783 -0.0001516324 -0.37797937 0.50950164 0.8519201 0.018884921 0.28424385 0.88666683
0.32268858 0.91070545 -0.0016425948 0.26032412 -0.953071 0.864443 0.43534753 -0.5134014

linear_in.bias f4 [32]
00000000: 97f3 3e3e ee3d b3be b082 a73f 9ac9 42bf
00000010: 570d ac3f b2e7 bbbc a9da 3a3b ed36 9abf
00000020: faf9 cb3c 30a2 523d 7831 fe3f 4957 f0be
00000030: a88e 8fbe d412 3ebe b9c2 ebbb e094 5440
00000040: 2780 9bbb aeff 1e40 a9fd fbbe 2893 60be
00000050: d8d3 593f abff 863d af67 2dc0 2039 89bf
00000060: ffd9 77bf 9e0f ae3e 31d9 9a3f 3050 ebbd
00000070: c7d5 e9be 98fd d33a 05a8 aabd fd8f 63be
0.1864761 -0.35008186 1.3086758 -0.7608887 1.3441571 -0.02293763 0.002851168 -1.2048012
0.024899472 0.051424205 1.9858847 -0.46941593 -0.28038526 -0.1856187 -0.0071948436 3.3215866
-0.0047455016 2.4843554 -0.49216965 -0.21931136 0.8508887 0.065917335 -2.7094533 -1.0720558
-0.9681701 0.3399629 1.2097532 -0.11489904 -0.45670912 0.0016173599 -0.083328284 -0.22222896

linear_32.weight f4 [32, 32]
00000000: 092f c73b f1b9 523c ff31 663d 6f0e 4f3f
00000010: bb7c a53d 5793 1a3b 24eb df3c 45ea 993d
00000020: d286 013e 25ce a03b e9f9 163e 8512 ce3b
00000030: f000 a5bd e563 88bc 0a9b f039 bac0 ac3e
00000040: 4cc6 9fbb 75c8 063e df19 643d 95f7 563d
00000050: e203 853e 21e7 f23b e0c7 103e 829f b33c
00000060: 39e1 063e 7858 d23a 80e8 973e 786d c2bb
00000070: 89b9 19be 3eb1 2cbc 3009 53bc a842 10be
00000080: 0c0c 9dba 6854 91bb 7f3e 623d 3bf0 4b3f
00000090: 2daa 863d 9fdf 67bb 3193 2d3d 7f6a 6e3d
000000a0: 56ef 053e 28ec 0e3a 4e9e 1a3e 0b05 03bc
000000b0: 3430 b1bd b716 89bc 7686 98bb 00d9 a93e
000000c0: 5df2 923b 33f1 083e 5b1e 593d 9e44 7c3d
000000d0: 2543 793e 8f96 953b 64ec 0a3e 2135 1e3d
000000e0: 4c66 073e fab8 a839 c307 9b3e 1a9d 4abc
000000f0: e3b1 10be 0ba0 883c abcf 22bc 147c 12be
00000100: 6be0 33bc 4f98 68bb a325 803d 1e45 4f3f
00000110: 9df6 733d f118 4c3b eba0 003d 5861 913d
00000120: 6c83 e83d 049f babb 2a5d 0e3e 953f 873c
00000130: 2191 33bd 008c e93b ce8f 66bb ad82 a13e
00000140: 8c5e 5a3c 8f35 0a3e f7e9 3e3d ee1a de3d
00000150: 7ad9 7b3e 340a 12bc 40ae 073e b073 98bb
00000160: 42e2 fa3d a9d8 0bbc 92ec 9a3e 9e1e 1ebc
00000170: 6627 24be a2d8 69ba 0fcb 5fbc 3b15 19be
00000180: b8d3 94bb 5df7 17bc 7acd 88bd 8baf 51bf
00000190: d7f0 8dbd 1112 cc3b 3b5f 2dbd 5e13 91bd
000001a0: 82f4 fbbd 1018 963c cc56 1bbe 1205 f7bc
000001b0: 627c 993d 4f23 b83b d6e9 a1bb d6cd acbe
000001c0: 311a bdbb 2c7e 09be e9a3 8dbd ca7d 94bd
000001d0: b0c5 8cbe f3c7 8cbb de94 23be 2723 58bd
000001e0: b2ab 13be 6fdb 583c 4d3b aebe e394 b13a
000001f0: 964a 0a3e ba5d a33c a57f 333c d60c 113e
00000200: d9b2 3b37 b99b e23a 5da7 883d d9fd 493f
00000210: 5696 6c3d 5c95 20bb add6 123d 436c 7f3d
00000220: 6063 e63d a8a9 d0bc f440 103e 1cff 75bb
00000230: 5e2c 99bd 8b2d fa3b a8be 8d3c 942e 9c3e
00000240: 7374 f1bb 042a 033e 6512 553d b236 ac3d
00000250: cc31 6b3e 60a0 67bc 98ac 073e f148 833c
00000260: 5e39 f43d 97be f8bb a022 8e3e 5043 d0b9
00000270: 3095 2fbe 17a5 da3b 4dc7 afbc bece f9bd
00000280: 1f6d 703c 1618 4dbc 352f 86bd 0944 4ebf
00000290: 7976 92bd 83b1 3bbc e936 a2bc 1f4b 3dbd
000002a0: 6985 e5bd 3b9a dd3b 38e0 1bbe d9e8 d2bc
000002b0: 14de a63d 67e5 95bb e4c2 023b 60f3 9bbe
000002c0: effe 923c aae0 16be ca50 49bd 3c1a 90bd
000002d0: e845 87be 1377 b1bb 76a7 1abe b8e8 d5bc
000002e0: 6127 04be 291a 16bc e67b a1be 2e16 743c
000002f0: 3ea0 1a3e 8d58 173c 9a38 2c3a 5ad3 023e
00000300: e239 b138 ac1e 96bb b1e0 84bd 028c 4cbf
00000310: bc5d 89bd ff05 51ba b4e8 35bd f548 a3bd
00000320: a9d1 12be a96d a13c 9887 2ebe 7915 bfbc
00000330: b65b 873d 9edf 123c f1f6 85bc 87ef a6be
00000340: abb1 813c c2ab 01be 8b59 82bd 5c0b 81bd
00000350: 360c 86be 797b 233c f08f 07be d50b 5abd
00000360: a0cd 0bbe 4aea 003a 7c0f a1be e3d9 7a39
00000370: 28a1 263e 71de a13a b9a5 9f3c 14c0 023e
00000380: 5f2f 32ba 9fcf c6bb ebd1 e63d cd94 4a3f
00000390: a024 933d 132d 79bc 6ed9 3c3d 634c 6c3d
000003a0: 6f64 e33d 2d45 9cbc 3ad6 1b3e 7ebb e33c
000003b0: eac7 babd 8afd 173c a13e 04ba 8461 a73e
000003c0: 071b 083c 82d1 033e b3c2 bb3d bb30 6e3d
000003d0: f3c6 8b3e 877c 04bb 95e1 123e 5c00 743c
000003e0: 4f60 143e 8a5a 81bb f07b a53e c499 edbb
000003f0: 24d8 05be 74c1 b23b af3b 173b 04e4 07be
0.006078605 0.012861715 0.056200024 0.808814 0.08080431 0.0023586357 0.027333803 0.075153865
0.12649086 0.004907387 0.1474377 0.006288829 -0.080568194 -0.016649196 0.0004589188 0.3374079
-0.0048759338 0.13162406 0.055688735 0.052482206 0.25979525 0.0074128066 0.14138746 0.021926645
0.13171853 0.0016048094 0.2966957 -0.00593346 -0.15012182 -0.010540305 -0.012880608 -0.14087927
-0.001198174 -0.004435111 0.055235382 0.7966344 0.06575427 -0.0035381091 0.0423767 0.05820703
0.1307958 0.000545206 0.15099451 -0.007996808 -0.08651772 -0.016734464 -0.004654701 0.3317337
0.0044844584 0.1337326 0.053007465 0.061588876 0.2434202 0.004565067 0.13566738 0.038624886
0.13222617 0.00032181275 0.3027936 -0.0123665575 -0.14130358 0.016677877 -0.009937207 -0.14305145
-0.010978798 -0.0035491174 0.06257179 0.8096484 0.05956136 0.0031142796 0.031403463 0.07098645
0.11353192 -0.0056952257 0.13902727 0.01650981 -0.043839578 0.007127285 -0.003518093 0.3154501
0.013328206 0.13496993 0.046609845 0.1084498 0.2459468 -0.008913565 0.13250065 -0.004652463
0.122501865 -0.0085355425 0.30258614 -0.009650854 -0.16030654 -0.00089205254 -0.013659253 -0.14949505
-0.0045418404 -0.009275285 -0.066798165 -0.8190848 -0.06930702 0.0062277396 -0.042327147 -0.07083772
-0.123024955 0.01832202 -0.15169829 -0.030153785 0.07494427 0.0056194435 -0.0049412055 -0.3375079
-0.0057709445 -0.13427037 -0.06916029 -0.07250555 -0.27494574 -0.0042962967 -0.15974757 -0.0527679
-0.14420965 0.013235911 -0.34029618 0.00135484 0.13505015 0.019942153 0.010955726 0.14165053
1.118771e-05 0.0017288841 0.06672547 0.78902966 0.05776056 -0.0024503088 0.035849262 0.062359106
0.11249423 -0.025471523 0.14087278 -0.003753609 -0.074791655 0.0076348237 0.017302826 0.30504286
-0.007368618 0.12808996 0.052019496 0.0840887 0.22968215 -0.0141373575 0.13249433 0.016025992
0.119250044 -0.0075910795 0.27760792 -0.00039723003 -0.17146754 0.0066725123 -0.021457339 -0.12197636
0.014674454 -0.01251795 -0.06551973 -0.80572563 -0.07151503 -0.011455896 -0.019801574 -0.04621422
-0.112070866 0.0067627705 -0.15222251 -0.025745796 0.08147827 -0.004574466 0.001995259 -0.30459118
0.017943827 -0.1473414 -0.049149312 -0.07036254 -0.26420522 -0.005415806 -0.15102944 -0.026111946
-0.12905647 -0.0091615105 -0.3153984 0.014897866 0.1510019 0.009237421 0.00065697136 0.12775937
8.450799e-05 -0.004581293 -0.06488169 -0.79901135 -0.067073315 -0.0007973611 -0.044411376 -0.079729
-0.14337792 0.01970561 -0.17043912 -0.023325669 0.06609289 0.008964447 -0.016353102 -0.3260462
0.015831789 -0.12663177 -0.06364735 -0.06300995 -0.2618119 0.009978169 -0.13238502 -0.05323394
-0.13652658 0.0004917724 -0.31457126 0.00023923027 0.16272414 0.0012349618 0.019488202 0.12768584
-0.000679722 -0.006067231 0.112705074 0.791333 0.0718472 -0.0152085 0.046105795 0.057690036
0.111031406 -0.019075954 0.1521844 0.027799364 -0.09120162 0.009276757 -0.0005044733 0.32691586
0.008307225 0.1287289 0.09167995 0.05815194 0.27300224 -0.0020215826 0.14343865 0.014892664
0.14489864 -0.0039475607 0.3232112 -0.0072509963 -0.13070732 0.0054551903 0.0023076346 -0.13270575

linear_32.bias f4 [32]
00000000: a85c 8ebd b331 94bd 7d5c 8fbd bc1a 973d
00000010: 96d7 9cbd bd09 923d 84ef 8e3d e64f 98bd
00000020: bbb9 8fbd 113f 993d d45d 95bd ce04 973d
00000030: 683f 9dbd 3956 9d3d e86a 95bd 45d8 96bd
00000040: 9f20 933d 690b 8cbd 42c3 96bd 55eb 97bd
00000050: fe69 9b3d 473a a23d 5fd9 8fbd 9dc8 8ebd
00000060: 3685 903d 5ebc 93bd 8113 9c3d f148 9b3d
00000070: ea17 943d 40b8 99bd 30a3 98bd f9f9 92bd
-0.069512665 -0.07236042 -0.070000626 0.07378146 -0.07658307 0.07130764 0.06979278 -0.074371144
-0.07017847 0.07482732 -0.07293287 0.07373963 -0.076781094 0.07682461 -0.072957814 -0.07365469
0.07183956 -0.06838114 -0.07361461 -0.07417933 0.07588576 0.07921272 -0.07023882 -0.06971858
0.07056658 -0.072136626 0.076209076 0.07582272 0.07231124 -0.07505846 -0.074530005 -0.07176585

rnn.weight_ih_l0 f4 [32, 32]
00000000: 4ca8 693d df1c 2e3d 3ff9 783d 4264 41bd
00000010: fc9b 2e3d 599a 4abd 09ba 5cbd c0a7 6d3d
00000020: 79bd 7d3d 6580 7fbd ee46 123d 131d 9fbd
00000030: 08ca 513d 8f4a 6ebd 7ad4 4d3d 02ed 573d
00000040: ce82 44bd e1de 133d 2915 6b3d 3e93 983d
00000050: 8438 47bd 0468 64bd 789d 923d afc9 1f3d
00000060: 1945 86bd ccc1 873d 720a 5bbd b7ac 9abd
00000070: 9e70 a4bd 488a 553d d2b1 2c3d 037b 533d
00000080: 1809 7e3d 91f5 913d 6b44 663d 6f0b 8fbd
00000090: 681e 7d3d 3ab0 65bd fe9b 83bd 6f23 2b3d
000000a0: 5edf 693d 51d4 62bd 5004 653d d38a 85bd
000000b0: f4bf 683d 0baa 53bd 607a 213d ddfb 183d
000000c0: 0b75 82bd 7de7 253d 705b 873d b697 833d
000000d0: 732e 39bd 2dd6 82bd ebea 7d3d 6bc7 8b3d
000000e0: 1911 69bd b7b5 8b3d 5fe0 3cbd a9e4 9abd
000000f0: f13e 9cbd f30b 793d 5d7b 803d 2bda 5d3d
00000100: 8cb1 22bd 5b74 47bd e905 77bd cd90 893d
00000110: 3243 80bd 1dcc 7b3d 5739 533d 33fa f3bc
00000120: ab4b 63bd f19c 763d 4a4a 7bbd 5633 323d
00000130: f0e9 6fbd 38d8 333d 0b5a 26bd bfce 22bd
00000140: 8865 273d 613e 1dbd b9b5 45bd af7c 6fbd
00000150: 56af 833d cc56 013d 40c0 8bbd e7ae 64bd
00000160: d547 6b3d 9c8c 57bd 39c7 873d ca50 613d
00000170: 8dd2 203d aa8e 5ebd ec81 85bd f2ba e9bc
00000180: ebe2 6ebd 0662 88bd 932d 76bd 3823 493d
00000190: 1395 6ebd b5f5 873d a29a 813d 5179 27bd
000001a0: 20e1 39bd e9ce 9c3d 2fa1 6fbd ccb6 833d
000001b0: a8d1 6ebd 0ab5 853d 30c9 a7bd de90 92bd
000001c0: b3d4 763d 34bd 35bd 40f7 82bd 007c 93bd
000001d0: a5b6 a33d 3104 7e3d 193f 7abd 1fbd 89bd
000001e0: 4a38 983d ec01 44bd 8b87 613d 7572 833d
000001f0: 14f9 933d 406d 0dbd 8278 4fbd f385 58bd
00000200: a7ae 8bbd 0dcc 86bd f300 3dbd 0eef 543d
00000210: 04f4 53bd 2df2 4d3d 6d86 933d 8c9c 58bd
00000220: b72c 7cbd df77 643d 87fe 7ebd 2596 2d3d
00000230: d197 a7bd 6e8d 663d c39a 66bd 4706 7bbd
00000240: a2eb 833d 47d9 6abd 345a 93bd 336d 7abd
00000250: e83b 913d 5994 523d 52d5 a6bd 5090 70bd
00000260: 7f3a 6f3d c65e 81bd 0ca7 123d ee5f 6f3d
00000270: ef2a 813d 5417 43bd ba22 88bd ba94 5ebd
00000280: 5c52 67bd 2dbf 45bd efcf 82bd f785 943d
00000290: 8de8 62bd f754 543d 6ac0 5d3d efe1 66bd
000002a0: 3725 56bd fe08 913d 4334 40bd 0359 893d
000002b0: eb9f 86bd 0939 003d 63c2 82bd 9444 9ebd
000002c0: e087 853d a3cc 25bd 12aa 47bd 6cd8 1abd
000002d0: ce63 9f3d 3973 603d 15fb 44bd 953d 4abd
000002e0: a18f 543d af7d 80bd 5528 913d a637 8d3d
000002f0: fc21 5d3d 9cad 4fbd 086c 9bbd 663d 5ebd
00000300: 83a8 7a3d 2819 533d 5dea 2a3d 9081 89bd
00000310: 0b22 503d b83b 77bd a865 2bbd 4bca 7d3d
00000320: 29a5 1e3d a32e 36bd 95df fb3c 5df8 f2bc
00000330: 7ce4 a93d 2c2c 5abd 9ca3 703d ca01 a33c
00000340: 11dc 4abd 8889 ed3c d644 663d adeb 573d
00000350: a96d 89bd 78c9 49bd a153 1f3d fa92 593d
00000360: b0e4 22bd 6f65 763d f890 37bd 1737 67bd
00000370: 4c06 8fbd eeee 163d dc66 983d f738 5b3d
00000380: b2c2 99bd 25f8 91bd 2c91 33bd 967c 903d
00000390: c182 4cbd 2e04 943d cb1c 6b3d b85c 86bd
000003a0: 1ebf 54bd f129 8b3d 9f38 73bd 2dc7 4b3d
000003b0: 8ce2 0fbd d0b8 683d 2842 59bd da61 4ebd
000003c0: e0e8 483d 43e5 79bd 5af5 80bd d155 55bd
000003d0: 3ad3 863d 5974 523d 4ece 88bd 6778 85bd
000003e0: d29c 803d 989a 96bd 3d80 683d ab1e 993d
000003f0: f7bf 153d eeb3 67bd c40d 6bbd 74fa 1abd
0.057045266 0.042508002 0.060784575 -0.047214754 0.042629227 -0.049463604 -0.053888354 0.058021307
0.061948273 -0.062378306 0.035712175 -0.07769217 0.051218063 -0.058176573 0.05025146 0.052716263
-0.047976308 0.036101226 0.057393227 0.07449959 -0.048637882 -0.05576326 0.07158941 0.0390107
-0.06556148 0.06628761 -0.05347676 -0.07552474 -0.080292925 0.05213383 0.04216177 0.051630985
0.06202039 0.07126916 0.056217592 -0.06984603 0.061796576 -0.056076266 -0.064262375 0.04178184
0.057097785 -0.055378262 0.055912316 -0.06520619 0.056823686 -0.051675837 0.039423347 0.03734957
-0.063699804 0.040503968 0.06609237 0.06425421 -0.045210313 -0.06388507 0.061991613 0.06825145
-0.05690107 0.06821769 -0.046112414 -0.07563145 -0.076291926 0.06080241 0.0627353 0.05416314
-0.039720103 -0.04869495 -0.06030837 0.06717072 -0.062628165 0.061473954 0.051568355 -0.02978239
-0.055492084 0.060208265 -0.061350144 0.04350599 -0.05857271 0.043907374 -0.040613215 -0.03974795
0.040868312 -0.038389567 -0.048269007 -0.058468517 0.06429927 0.031576917 -0.06823778 -0.055830862
0.05744155 -0.05262433 0.066297956 0.055008687 0.039263297 -0.054335274 -0.06518921 -0.028531525
-0.058321875 -0.066593215 -0.060102057 0.049105853 -0.058247637 0.06638662 0.06328322 -0.04088718
-0.04538071 0.076566525 -0.058503326 0.0643135 -0.058305413 0.06528671 -0.0819267 -0.071565375
0.06026144 -0.04436989 -0.063948154 -0.072013855 0.07993821 0.062015716 -0.06109533 -0.06725525
0.07432611 -0.047853395 0.055060904 0.06418315 0.07225242 -0.034528017 -0.050652035 -0.05286212
-0.06820422 -0.06581888 -0.046143483 0.051985793 -0.051746383 0.050279785 0.07203374 -0.05288367
-0.06156608 0.05577838 -0.062254455 0.042379517 -0.081832536 0.05628722 -0.056299936 -0.061285283
0.06441428 -0.057336118 -0.07194939 -0.061139297 0.07091504 0.051411007 -0.08146156 -0.058731377
0.058405396 -0.06316905 0.03580384 0.058441095 0.06307017 -0.04762967 -0.066472486 -0.054341055
-0.05647503 -0.048278023 -0.063873164 0.07252114 -0.05539756 0.05183884 0.05413858 -0.05636781
-0.052281585 0.07081793 -0.04692484 0.06706431 -0.06573471 0.031304393 -0.063847326 -0.07727924
0.06520057 -0.04047836 -0.048746176 -0.037804052 0.07782708 0.054797385 -0.048091013 -0.049375135
0.051894788 -0.06273972 0.07087771 0.0689538 0.05398749 -0.050702676 -0.07588965 -0.054257773
0.06119586 0.051537663 0.041727412 -0.06714165 0.050813716 -0.060359687 -0.041844994 0.0619605
0.038731728 -0.04447807 0.03074626 -0.029659444 0.08295533 -0.05326478 0.05874978 0.019898314
-0.049526278 0.028996244 0.05621799 0.052714992 -0.06710369 -0.0492644 0.038898114 0.053118683
-0.039768875 0.06015533 -0.044815987 -0.056449022 -0.06983623 0.036848955 0.07441494 0.053521123
-0.07507838 -0.07127408 -0.04383962 0.07055013 -0.049929384 0.0722736 0.057400506 -0.065606534
-0.051940076 0.06795109 -0.05938017 0.049750496 -0.03512816 0.056816876 -0.053041607 -0.050386287
0.049050212 -0.061009657 -0.06296797 -0.052083794 0.06583257 0.05138049 -0.066799745 -0.065171055
0.06279911 -0.07353705 0.056762923 0.074765526 0.036560025 -0.05656808 -0.057386175 -0.037836507

rnn.weight_hh_l0 f4 [32, 32]
00000000: 6e52 80bd 5d65 af3c 36f8 e43b be1c 543b
00000010: 9340 8d3c 6ab2 843b 90e6 5abc 38de 18bb
00000020: a43e 8fbb 88f4 22bc 0f1b 283b cfd5 b5bd
00000030: 748a fa3b 3b5c 983c f1d2 e0bb fbf7 aabc
00000040: 487a bf3d 8c36 863b aa51 54bb 34ea d7bc
00000050: ad2d 09bc 1e78 bebb 4e48 60bd 542b 523b
00000060: 8b36 43bc baa9 4b3b bc22 94bd f468 693c
00000070: 8d65 b7bc eb2c 1fbb f2c1 3b3a dbe9 e73c
00000080: 2cff 00bd af74 b3bd edcb 093c fdd1 683c
00000090: 9ea3 2b3c 8f37 ddbb 78ec f63b 95d1 e43c
000000a0: bbb7 cf3c ba7f bebc 36d4 5cbb ac7e 8bbd
000000b0: ae65 ed3b 0eb6 50bc 486b edbc c690 cdbc
000000c0: ac3a 043e 041a ec3b cd0e d0bc eb16 8cb9
000000d0: d7c1 4c3c 6d27 a5bc a756 06bd 0643 d1bb
000000e0: f042 7a3c b884 c03c 4c33 a8bc c30d ce3c
000000f0: 24ae 24bd a477 84bc cb86 5fba b884 caba
00000100: 9e29 e63b 9a3c aa3c 723d 8cbd 465c adbc
00000110: 49e7 7b3c 10cd 6a3b 544a 92b8 bcd8 13bd
00000120: d024 a73c 037d 81bb d7f7 9c3b adc2 a83d
00000130: d058 cebc 2ce1 f73c 6561 013c f848 633c
00000140: cf7c cdbd 71e2 7dbb 6128 0bbc 9077 953c
00000150: 7b9e 2fbc ee66 c63b 4b5b 803d 4c33 f93b
00000160: 3ced 43bc b658 74bc 8a96 783d 2d8b 1c39
00000170: ba2c ef3c 9908 7a3c 3e39 66bb 9378 59bc
00000180: 912a aaba 7075 bb3c 2d2f 87bc 66e9 cdbd
00000190: eb85 15bc c952 aebc 5d2a 153b dbd8 afbc
000001a0: e324 c1bc 96ac 05bc 86ae 0ebc 42ac 283d
000001b0: 9c83 80bc 9847 9aba 888e 703b 3335 1d3c
000001c0: e702 a9bd 0588 873c 9842 133b e190 f63c
000001d0: b140 ecbc 1efa 223d 9f25 023d db37 8e3b
000001e0: e192 98bc b569 4dbc 1e91 0c3d b70d 77bc
000001f0: eda1 d53c e02f b63c c4db 95bc b845 0cb8
00000200: cc30 c63b 7351 3fbb 5e5c fdbc f201 b4bb
00000210: 1521 d3bd 3c87 9cbc 2fea d43c 8532 9b3c
00000220: a09d 42bc 8bc0 fbbc 1346 2b3c 6f0f 8a3d
00000230: f667 06bc 58c2 fd3b 1c49 2d3b 93fa 52bb
00000240: d128 b1bd 1daa 4a3b c9c2 293d c101 323c
00000250: 0d1c 22bc 37be eabc 9de8 433d 5caf 8f3b
00000260: 937a 103b 56db 013c 5245 8c3d 960e f3bb
00000270: 57c3 e7bb 54ca 47bc 13f0 b4bb 2e10 1cbc
00000280: 8cbc 733c 0e92 2c3a 7d9a 493a 3a89 0e3c
00000290: fac9 4e3b e728 b6bd 7dfb 673c 0f05 98bc
000002a0: 35b5 b4bc 1f86 2dbc f7e1 27bc d2e9 ae3d
000002b0: bde9 a83b 63df 123c 9029 94ba 55fc 413c
000002c0: e0e0 07be 6e65 3b3b 0e06 483c 4056 983c
000002d0: 9eab 023c 9d5a 703c 62fa 743d cda3 f63b
000002e0: c719 7a3c 8bcb c93b e208 6c3d 2a24 56bc
000002f0: 3d66 093c 2089 dd3b d1e6 f3bb 1bad 7ebc
00000300: 9657 8bba 85fa 93bc d057 623c d2b8 df3c
00000310: a0a5 113d 3454 003c d9f7 b3bd 7ee6 8c3c
00000320: 833b b43b 84aa 093c abaa 0a3d ee83 91bd
00000330: 098c c33c 3a5a 08bc 9bc1 5ebc 8ff6 3cbc
00000340: 53fe c03d 6a8d a13a 9be5 86bc 0318 12bc
00000350: 90bd ecbb 5f7e 28bc 8237 91bd 4e30 a8bb
00000360: 795d 9c3c 7106 093c a27d 2ebd 728f 8cb9
00000370: 9e68 3cbc 9c19 86bc 6afe fa3a 43cb 123d
00000380: 1abe 8d3c 68bf 6eba 86c3 45bc ec86 84bc
00000390: 12b8 a5bc f48d ca3c f4fb f2ba 930f e0bd
000003a0: 86f5 61bc be11 42bc 55b9 d6bc 17ea fd3c
000003b0: 6de9 d63b 1067 243c ed25 c43c ef53 833b
000003c0: 4807 e8bd b72e a9b8 25d6 c7bb 14c8 a33c
000003d0: 8360 aabc b238 893c 2cec 133d 02ba 87bc
000003e0: cfac dabc 6969 c8bc d56a bf3c 1bcd 9ebc
000003f0: 9b2a 0f3c 36aa 8e3b 6434 f2bb 29aa be3c
-0.06265722 0.021410638 0.006987597 0.0032365764 0.017242705 0.004049589 -0.013360634 -0.0023325812
-0.004371481 -0.009945996 0.0025650894 -0.088786714 0.0076458994 0.018598666 -0.0068610837 -0.0208702
0.09349495 0.004095858 -0.0032397308 -0.026356794 -0.008372706 -0.005812659 -0.054756455 0.0032069283
-0.0119148595 0.0031076507 -0.072331876 0.014246214 -0.02238729 -0.0024288248 0.0007162384 0.028309753
-0.03149335 -0.0876249 0.008410436 0.014210221 0.010476021 -0.006751008 0.0075355135 0.027931968
0.025356164 -0.023254264 -0.0033695824 -0.0681127 0.007244787 -0.012738718 -0.02898182 -0.025093447
0.12913007 0.0072052497 -0.025397683 -0.00026719956 0.012497387 -0.020160401 -0.032797482 -0.0063861636
0.015274748 0.023500785 -0.020532273 0.025153046 -0.040205136 -0.01617033 -0.00085268606 -0.001545093
0.007024004 0.02078085 -0.06847657 -0.021162163 0.015374967 0.0035827793 -6.975667e-05 -0.036095366
0.020403296 -0.00395167 0.004790287 0.082402565 -0.025188833 0.030258738 0.007896756 0.013872378
-0.10033571 -0.0038739706 -0.008493514 0.018245488 -0.010718937 0.0060547506 0.06267413 0.007604992
-0.011958417 -0.014913728 0.06069044 0.00014929166 0.029196132 0.015260839 -0.0035129334 -0.013273376
-0.0012982656 0.022883147 -0.016501987 -0.10054283 -0.009126167 -0.02127971 0.0022760846 -0.02146571
-0.02357716 -0.0081588235 -0.008708602 0.041179903 -0.015687756 -0.0011770604 0.003670605 0.009595203
-0.08252507 0.016544351 0.0022470113 0.03009838 -0.028839441 0.03978931 0.03177416 0.0043401546
-0.018624725 -0.01253741 0.034318082 -0.0150789535 0.026078189 0.022239625 -0.018293269 -3.344353e-05
0.0060482975 -0.0029192835 -0.030927833 -0.005493396 -0.10309044 -0.019107454 0.025990574 0.018944988
-0.011878401 -0.03073146 0.010453719 0.06741225 -0.008203497 0.007744115 0.0026441282 -0.003219281
-0.08650363 0.003092415 0.041445527 0.010864676 -0.009894383 -0.028655155 0.04782926 0.004384918
0.0022045716 0.007925829 0.06849159 -0.0074175103 -0.007072847 -0.012194235 -0.005521783 -0.009525342
0.014876496 0.0006583043 0.0007690562 0.00869971 0.0031553493 -0.0889452 0.014159081 -0.0185571
-0.022059062 -0.010591059 -0.010246745 0.085406914 0.005154817 0.008964392 -0.001130389 0.011839946
-0.13269377 0.0028594392 0.012208475 0.018595815 0.007975487 0.014670041 0.059809096 0.007526851
0.015264935 0.0061582974 0.05762566 -0.013070146 0.008386192 0.0067607313 -0.007443287 -0.015544201
-0.0010630961 -0.018063793 0.013814881 0.027309809 0.035558343 0.007832576 -0.087875076 0.017199751
0.0055002584 0.0084024705 0.033854168 -0.07105242 0.023870485 -0.008322293 -0.013595964 -0.0115333935
0.094235085 0.001232547 -0.016466906 -0.008916858 -0.007224746 -0.0102840355 -0.070906654 -0.0051327115
0.01908754 0.008363352 -0.04260028 -0.00026809756 -0.011499552 -0.016369633 0.0019149308 0.035838377
0.017302562 -0.0009107501 -0.012070542 -0.016177617 -0.020229373 0.024725892 -0.0018538223 -0.109404705
-0.0137914475 -0.01184505 -0.02621142 0.030995412 0.0065585882 0.010034338 0.023943866 0.0040078084
-0.11329514 -8.067249e-05 -0.006098526 0.019992866 -0.020797973 0.016750667 0.036113903 -0.016568188
-0.02669373 -0.024464326 0.023366371 -0.019384911 0.008738185 0.004353787 -0.0073914994 0.023274498

rnn.bias_ih_l0 f4 [32]
00000000: 4f95 9b3d 6d5f 003e 467a a5bd cdb0 dfbd
00000010: 721c 8fbd 440a 99bd 4824 a13d ba28 06be
00000020: c5a6 adbd 5c99 b5bd 329a e1bd 7ca6 7d3d
00000030: 227e 11be 8830 c33d 026f e33d ea81 0c3e
00000040: 7384 1ebd 2dba b93d 291e ab3d 589f fc3d
00000050: 2b32 e4bd 779f c93d 9e87 7f3d 7735 9f3d
00000060: 8cf1 c8bd c45f cabd 4068 623d 687e cbbd
00000070: 4075 d43d 630c f83d 420d c1bd 3a88 acbd
0.07596838 0.12536402 -0.080799624 -0.10922394 -0.069878474 -0.07472661 0.07868248 -0.13101473
-0.084790744 -0.088671416 -0.110157385 0.06192635 -0.14208272 0.09530741 0.111051574 0.13721433
-0.038700532 0.09068713 0.08355362 0.1233508 -0.11142381 0.09844869 0.062385194 0.077738695
-0.098116964 -0.09881547 0.0552752 -0.099362195 0.10373926 0.121117376 -0.09426357 -0.08424421

rnn.bias_hh_l0 f4 [32]
00000000: 4f95 9b3d 6d5f 003e 467a a5bd cdb0 dfbd
00000010: 721c 8fbd 440a 99bd 4824 a13d ba28 06be
00000020: c5a6 adbd 5c99 b5bd 329a e1bd 7ca6 7d3d
00000030: 227e 11be 8830 c33d 026f e33d ea81 0c3e
00000040: 7384 1ebd 2dba b93d 291e ab3d 589f fc3d
00000050: 2b32 e4bd 779f c93d 9e87 7f3d 7735 9f3d
00000060: 8cf1 c8bd c45f cabd 4068 623d 687e cbbd
00000070: 4075 d43d 630c f83d 420d c1bd 3a88 acbd
0.07596838 0.12536402 -0.080799624 -0.10922394 -0.069878474 -0.07472661 0.07868248 -0.13101473
-0.084790744 -0.088671416 -0.110157385 0.06192635 -0.14208272 0.09530741 0.111051574 0.13721433
-0.038700532 0.09068713 0.08355362 0.1233508 -0.11142381 0.09844869 0.062385194 0.077738695
-0.098116964 -0.09881547 0.0552752 -0.099362195 0.10373926 0.121117376 -0.09426357 -0.08424421

linear_out.weight f4 [7, 32]
00000000: 7f64 e9ba 14ad 14bb c45b 713b 9ce8 093b
00000010: 3d9f 063b 3dea 663b b530 4abb 5c84 b8b9
00000020: 0f2c e23a c777 bb3a d935 9c3b 9699 ce3b
00000030: afbb 1d3b f557 2ebb 8a24 0339 683c 84bb
00000040: acf8 57bc e536 88bb 5df1 91bb 8a23 9d3a
00000050: a1de 743b fac8 79bb 4dab bf3b dfe4 5dbb
00000060: 5ea7 c73a ad4b 853a 0836 da3b 908e ae3a
00000070: 6f6a 9438 3513 5ebb 23b6 843b 800a 8b3a
00000080: 5da8 313f 95ed 383f de79 32bf d666 3fbf
00000090: 4b44 32bf 32ed 31bf 86ce 333f 2eb8 3cbf
000000a0: 84a1 37bf 537a 33bf 1d50 37bf bd22 843f
000000b0: 40cb 3abf 2f2b 353f 891d 373f 1098 363f
000000c0: 2ff4 f43e 2bb7 343f c07e 323f e94d 3e3f
000000d0: 67f1 3dbf d86e 383f 4665 863f 70ca 333f
000000e0: 9392 33bf a854 36bf c650 843f be7f 39bf
000000f0: c106 3d3f 9712 3d3f 6d39 32bf 03e5 39bf
00000100: 00c6 90bc 3bf4 123c 5a2b 9c3c 1347 a73c
00000110: cb16 0339 c37e c13a a5c6 523b a455 0e3c
00000120: 8318 123b ef10 b0bb a201 23bb 2544 1aba
00000130: 0cfc b23c 0db9 6dba c059 d5bb ba24 edbb
00000140: a580 973b c25f a53c 4ad6 3cbc 2850 0b3c
00000150: ea6f 85bb 4dc7 babb 6bcb bbbc 9221 54bb
00000160: 9f4d 933c 6626 723c 7167 17bc 70a3 27bc
00000170: 8341 333c 2174 0ebc d652 0ebc 93e6 963b
00000180: 4b51 a3bc 2469 9abc 10a3 e53c 2ab3 153c
00000190: 1f9d 893c 7db2 ee3c 8e53 79bc 24a0 bbba
000001a0: 7392 bb3c 967f 0e3c 8be6 af3c 25b6 673d
000001b0: b539 d43c e4bb c6bc 1e35 6fbc d41c bbbc
000001c0: 2870 93bd aa5d debc f1ff e8bc b95b 80bb
000001d0: 4230 af3c 5bed fabc 48dc 733d c632 b0bc
000001e0: 44cc cd3c c562 c03c 6901 513d aa3d 8d3c
000001f0: 25db 93bb 697c cbbc b6b7 b03c 2fc1 8a3c
00000200: d04c b0bc c939 aebc d34c bc3c 0c5d 1f3c
00000210: 0865 4f3c bc47 013d 4f8b 96bc a01b 813b
00000220: a30e 883c f2cc 473c 83a5 a03c be7b ec3c
00000230: 4994 753c 5514 c2bc afc8 6ebc 786f 58bc
00000240: fbc7 c7bd 36b2 f0bc 5bee eabc eb42 43bb
00000250: 2536 9e3c 3435 9ebc 3d7e 173d 413b d2bc
00000260: f729 9e3c fb6e 823c 487a 2f3d f100 493c
00000270: a434 4dbc 6136 82bc 051f bd3c d34b 3c3c
00000280: a3f5 f3bb 582b 25bc ee03 023c 4c89 b53b
00000290: e572 a83b 8bd7 313c 614a 1fbc 9971 e83b
000002a0: e437 043c d0ff f93b d3ca 1f3c ea0c e33b
000002b0: b746 963b 1544 53bc 636a d9bb 31d0 b2bb
000002c0: e07c 24bd 9f2e 76bc 0c76 5abc 8cf6 edbb
000002d0: 0706 333c c7d8 d0bb 776d f63b 6a5c 29bc
000002e0: 0c27 1b3c df34 103c f1db 523c af8b 303b
000002f0: ae71 f1bb 98ad f1bb c1fb 353c d986 e13b
00000300: 28ba 90ba f0a7 c4ba bf70 e13a 8839 bf3a
00000310: 2aae 2539 203c ee3a f1ab c1ba 6128 4fba
00000320: 1a77 e539 4312 a63a d453 2b3b 1e50 9b3a
00000330: 968c 0f3b acbf a2ba bfc9 0eba cb5a 2cbb
00000340: b28c 00bc 49fa 4eba 9f5c 01bb 2ef6 073a
00000350: 8e0a 163b 0d54 b4ba ae5c 2e3b cd0b 06bb
00000360: 4ee1 e23a 9fec 463a 511d 733b 1dd6 0aba
00000370: 48a2 0aba f3f4 85ba 46fb 053b 2877 0c3a
-0.001780644 -0.002268617 0.0036828378 0.0021043187 0.002054169 0.0035234832 -0.0030851786 -0.0003519383
0.0017255562 0.0014302664 0.0047671613 0.00630493 0.0024068167 -0.002660272 0.00012506745 -0.0040355213
-0.013181847 -0.0041569346 -0.0044538216 0.0011988741 0.0037364142 -0.0038114176 0.005849278 -0.0033858342
0.0015232374 0.0010169648 0.006659273 0.0013317633 7.077015e-05 -0.003388596 0.0040500327 0.0010607988
0.69397527 0.7223752 -0.69717205 -0.7476629 -0.69635457 -0.69502556 0.70237005 -0.73718536
-0.7173083 -0.70108527 -0.7160662 1.0323101 -0.72966385 0.7076902 0.7152944 0.7132578
0.47842547 0.7059199 0.69724655 0.7433763 -0.74196476 0.72044134 1.0499656 0.7023077
-0.7014553 -0.71222925 1.033715 -0.72460544 0.7383843 0.7385649 -0.69618875 -0.7261507
-0.017672539 0.008969362 0.01906364 0.020419633 0.00012501625 0.0014762509 0.0032161858 0.0086874105
0.0022292442 -0.0053731124 -0.00248728 -0.0005884788 0.021848701 -0.0009068407 -0.006510943 -0.007237044
0.00462349 0.020187262 -0.0115257 0.008502997 -0.004072179 -0.005700028 -0.022924146 -0.0032368642
0.017981349 0.014779663 -0.009240971 -0.010231838 0.010940912 -0.0086946795 -0.008686742 0.0046051233
-0.019936224 -0.018848963 0.028031856 0.009136954 0.016798554 0.029137844 -0.015217675 -0.0014314693
0.02289698 0.008697411 0.021472236 0.05657019 0.025906423 -0.024259515 -0.0146000665 -0.022840895
-0.071991265 -0.027144272 -0.028442355 -0.003917184 0.021385316 -0.030630758 0.05953625 -0.021508586
0.025121816 0.023484597 0.051026735 0.017241318 -0.004512208 -0.024839597 0.021571975 0.01693782
-0.021521002 -0.021267788 0.022985851 0.009726774 0.012658365 0.03156255 -0.018376974 0.0039400607
0.016608542 0.012194859 0.019610172 0.028867599 0.014988967 -0.023691336 -0.014574214 -0.01321017
-0.0975494 -0.029381853 -0.02867811 -0.0029794525 0.019312927 -0.019312479 0.036985625 -0.02566302
0.01930712 0.01592206 0.042841226 0.012268291 -0.0125247575 -0.01589507 0.02308608 0.011492687
-0.0074450537 -0.010081135 0.007935507 0.0055400487 0.0051406496 0.010854612 -0.009722323 0.00709362
0.008069966 0.007629372 0.009752947 0.0069290297 0.0045860666 -0.01289465 -0.0066349967 -0.0054569473
-0.040158153 -0.015025764 -0.013333809 -0.0072620567 0.01092673 -0.006373498 0.0075203734 -0.010336975
0.009469759 0.008801668 0.012869821 0.0026938727 -0.007368288 -0.0073754303 0.011107386 0.00688253
-0.0011041807 -0.0015003663 0.0017199739 0.0014589289 0.00015800507 0.0018175878 -0.0014775974 -0.000790244
0.0004376702 0.0012670237 0.0026142495 0.0011849438 0.0021903864 -0.0012416742 -0.00054469326 -0.0026299234
-0.007846044 -0.0007895572 -0.0019739044 0.0005186525 0.0022894475 -0.0013757959 0.0026605534 -0.002045381
0.0017309578 0.000758836 0.0037096331 -0.00052961876 -0.0005288464 -0.0010220095 0.002044396 0.0005358332

linear_out.bias f4 [7]
00000000: f5a9 613d 51a6 8640 f104 2f3d 39f0 f53e
00000010: 88b5 b93e 7ca8 413e 91b8 d83c
0.055093724 4.2078023 0.042729322 0.48034838 0.3627131 0.18911928 0.026455196

batch_norm_layer.weight f4 [32]
00000000: 81a1 04ba 7717 13bb d968 b0bd a8a0 e73e
00000010: e7ae 4abd 9230 0f38 689d c7bd 8b30 7c3d
00000020: 7c57 563e 0d7d c6bb 947a febd 9072 123d
00000030: ef63 b43d 8493 643b 286e 20ba f8e2 2cbe
00000040: 0c26 ac36 c378 cbbd 5f5c 8b3d a811 ee3d
00000050: 752f 7bbe b4f9 6bb9 3612 b53d f4ba 893d
00000060: 647f 1c3e ed83 d2b6 a0dd 6ebe f4a4 f03a
00000070: 4196 7b3e ae16 f3b9 497d b83a f92a 5b3e
-0.00050594663 -0.0022444406 -0.08613748 0.45239758 -0.049483206 3.413909e-05 -0.0974682 0.06156973
0.2093181 -0.0060573877 -0.12425724 0.035753787 0.08808123 0.0034877965 -0.000611993 -0.16883457
5.1304287e-06 -0.09935143 0.06804728 0.116244614 -0.24529822 -0.00022504368 0.08841364 0.067251116
0.1528297 -6.273846e-06 -0.2332673 0.0018359707 0.24569036 -0.0004636547 0.0014075424 0.21403112

batch_norm_layer.bias f4 [32]
00000000: 6cca a9ba 727e ccbc a43c 203e e353 cdbe
00000010: dde8 193e cd8d 3bbb 09ef 58bc 28b6 243e
00000020: 2abc 1e3c 43fb 28bd a5cd 533e fc49 d73b
00000030: e3c9 d0bd 6011 39bc 63af 85bb 584f a23e
00000040: 5bb9 36b8 f826 753e 171b 843d 3b3d d03d
00000050: 91f7 2c3e 07bc 23bb 2634 803e ca00 c23d
00000060: fde5 353e d1dd 86b8 bc6c 3c3e 9650 b4bb
00000070: 66cf a13d 8f34 56bb f28e 7abc a52b cebd
-0.0012954003 -0.024962638 0.15648133 -0.40103063 0.15030237 -0.0028618455 -0.013240584 0.16085112
0.0096884165 -0.041255247 0.20683916 0.006570099 -0.10194757 -0.011295646 -0.0040797456 0.3170116
-4.3564807e-05 0.23940647 0.064504795 0.10167929 0.16891314 -0.00249839 0.25039786 0.09472807
0.17763515 -6.4309344e-05 0.18400854 -0.0055027707 0.07900886 -0.0032685136 -0.01529287 -0.10066918
