VehicalStateperML_RNN_epochs_50_BS:32.pth (torch, 19458 bytes, 12 tensors)

linear_in.weight f4 [32, 9]
0	0xbfaedb0b	-1.3660597
1	0x3f5402be	0.82816684
2	0x3ef6039b	0.48049626
3	0xbed66244	-0.41871846
4	0xbf85f5d5	-1.0465647
5	0xbf9bdc33	-1.2176574
6	0xbf831d69	-1.024335
7	0x3d84db00	0.064870834
8	0x3f3168f3	0.69300765
9	0x3e7b269b	0.24526446
10	0x3de5fc0a	0.11229713
11	0xbdc94dd1	-0.098292954
12	0x3ea4381f	0.32074067
13	0x3ece7208	0.40321374
14	0x3e0813c4	0.1328879
15	0x3ec6e2d9	0.38844946
16	0x3d0a82a1	0.033815984
17	0xbbffea4a	-0.007809912
18	0x3eee5ab4	0.46553576
19	0xc011cec3	-2.2782447
20	0xbf86c637	-1.052924
21	0xbeaebc88	-0.34128213
22	0x3eaeb10d	0.34119454
23	0x3f339ccb	0.7016112
24	0x3ea35d62	0.31907183
25	0xbd424149	-0.047425542
26	0xbf5196fb	-0.81871
27	0x3f12cd8f	0.5734491
28	0x40140725	2.312936
29	0xbf32b731	-0.6981078
30	0x3f277a4a	0.65420973
31	0x3f69eb67	0.9137482
32	0x3f2c6aad	0.67350274
33	0x3f6f2df2	0.9342948
34	0x3c3148d3	0.010820585
35	0xbf08f779	-0.53502613
36	0xbe3f3c8e	-0.18675444
37	0x3e94706b	0.28992018
38	0x3e8c392b	0.27387366
39	0xbdf0ee35	-0.117641844
40	0xbdebad44	-0.11507657
41	0xbe0efda4	-0.13963944
42	0xbdae3fc8	-0.08508259
43	0x3af70799	0.0018846869
44	0x3e95616f	0.29175898
45	0xbf598069	-0.84961563
46	0xbf81ae14	-1.013125
47	0x3e55ab4d	0.20866127
48	0xbf1c7c6e	-0.61127365
49	0xbf9f0572	-1.2423537
50	0xbf243026	-0.6413597
51	0xbfa224af	-1.2667445
52	0x3a649455	0.0008719613
53	0xbe393ec7	-0.18090354
54	0xbc24f158	-0.010067306
55	0xbf45cfc6	-0.7727016
56	0xbfda0ac6	-1.7034538
57	0xbf01a5a4	-0.5064337
58	0x3edf9fe5	0.43676677
59	0x3f0c163e	0.5472144
60	0x3ed8178e	0.4220547
61	0x3db13414	0.08652511
62	0xbfdb1956	-1.7117107
63	0xbe8535eb	-0.260177
64	0xbccfe5c0	-0.025378108
65	0xbfa74815	-1.3068873
66	0x40340ab5	2.8131535
67	0x3eba22b2	0.36354595
68	0x3fd52aed	1.6653725
69	0x3ecb46cb	0.39702448
70	0x3d6bc6c7	0.057562616
71	0xbf212886	-0.6295246
72	0x3f08f4fb	0.5349881
73	0x3e6a64d7	0.2289003
74	0x3e9fcb6c	0.31209886
75	0x3ead65b7	0.33866665
76	0xbf8d7d09	-1.1053783
77	0xbf109ed1	-0.56492335
78	0xbf9d997a	-1.2312462
79	0x3db6194a	0.08891542
80	0x3fcf7dbf	1.621025
81	0xbe5ffadc	-0.21873039
82	0xc0080bc3	-2.1257179
83	0x3eafec86	0.3436014
84	0x3fea757a	1.8317101
85	0xbfe53d91	-1.7909414
86	0xbf62d6a6	-0.8860878
87	0xbfeefb37	-1.8670415
88	0x3b621042	0.0034494554
89	0x3ff7f775	1.9372393
90	0xbd865f61	-0.06561161
91	0x3f96a9ce	1.177057
92	0x40005327	2.0050752
93	0x3ec3edcc	0.38267362
94	0x3dd93ade	0.10606931
95	0xbeb1485d	-0.3462552
96	0x3e0e0f42	0.13873008
97	0x3b89a3a9	0.004200418
98	0x3fe9198e	1.8210924
99	0x3f6ac61a	0.9170853
100	0x3f066f93	0.52514
101	0xc01649af	-2.3482473
102	0xbf9fc3c9	-1.2481624
103	0x3ebddbd2	0.37081772
104	0xbeb8bd72	-0.36082035
105	0x3eb2ceb9	0.34923342
106	0xbb1f8e79	-0.0024346395
107	0xc03ebc48	-2.9802418
108	0x3e6b2a26	0.22965297
109	0xbe176e27	-0.14788114
110	0xbdfcc6c3	-0.12342598
111	0x3e6ce1f2	0.23133066
112	0x3ece5be9	0.40304497
113	0x3e67d4aa	0.22639719
114	0x3ed99bce	0.42501682
115	0xbd445e2d	-0.047941376
116	0xbe804102	-0.25049597
117	0x3fab4d35	1.3382937
118	0x3da2d6ac	0.07951102
119	0x409af96c	4.842947
120	0x3fe1e307	1.7647408
121	0x3e7711ea	0.24127927
122	0x3ef97ef7	0.4872968
123	0x3e22b0fe	0.1588783
124	0xba3f33b0	-0.0007293774
125	0xbef39f28	-0.47582364
126	0xc024dd37	-2.576002
127	0xc02f9999	-2.7437499
128	0x3f4986b0	0.7872114
129	0xbfc20c58	-1.5160017
130	0xc07116fc	-3.7670279
131	0xc014f3b2	-2.327374
132	0xc070d2ae	-3.7628589
133	0x3b25bdfe	0.0025290246
134	0xbed631d3	-0.41834888
135	0xbe9a8169	-0.30176857
136	0x3f291093	0.66040915
137	0x3ef65728	0.4811337
138	0xbe388310	-0.18018746
139	0xbe358db1	-0.17729832
140	0xbe951493	-0.2911726
141	0xbe2df5a5	-0.16988237
142	0x3c0f2281	0.008736254
143	0x3f3049ac	0.68862414
144	0xc01259a3	-2.286721
145	0xc016bf7c	-2.3554373
146	0x3f323a9e	0.6962069
147	0xbf85d6d1	-1.0456182
148	0xc058a2a4	-3.3849268
149	0xbff82c2a	-1.9388478
150	0xc059467e	-3.3949275
151	0xbb19f9e6	-0.0023494898
152	0x3cd6184d	0.026134634
153	0x3e929e2f	0.2863631
154	0x3fa8d134	1.3188844
155	0xbe9f42cd	-0.31105652
156	0x3e8dc0ca	0.2768615
157	0x3f21c7c3	0.6319544
158	0x3e683516	0.226765
159	0x3f2752cc	0.65360713
160	0x3c49e8d4	0.012323577
161	0x3e6213e5	0.22077902
162	0x3eefa0ff	0.46802518
163	0xbfee8a14	-1.8635888
164	0x3d99fe85	0.07519249
165	0x40125a98	2.2867794
166	0xbf642d01	-0.8913117
167	0xbe95445b	-0.29153714
168	0xbf69de2d	-0.9135464
169	0x3c8c66c7	0.017138852
170	0x3e564418	0.20924413
171	0x3d4a0ad1	0.04932672
172	0x3dc17720	0.094465494
173	0x3e9afe36	0.30272073
174	0xbcd3d7e8	-0.025859788
175	0xbed36c86	-0.41293734
176	0xbe573240	-0.21015263
177	0xbee8b531	-0.45450738
178	0x3d9c9ff0	0.07647693
179	0x3f31d736	0.6946901
180	0x3c14e74e	0.00908835
181	0xbbfca8aa	-0.007710536
182	0x3c96c65b	0.01840513
183	0xbb9681a4	-0.004593091
184	0x3c0bf142	0.008541407
185	0xba1ec7d4	-0.00060569984
186	0xbb8ff211	-0.0043928702
187	0xbc9a2f73	-0.018821454
188	0xbc4afa81	-0.012388826
189	0xbea6c089	-0.32568768
190	0x3e8fe6b1	0.2810569
191	0x40751916	3.8296561
192	0x3f42a022	0.76025593
193	0xbeeffedf	-0.4687414
194	0x3e26c735	0.16286929
195	0xbf03f7c0	-0.5154991
196	0x3b0ab8e9	0.0021167344
197	0x4013c595	2.3089345
198	0x401e2cc8	2.4714832
199	0x4025b9a3	2.5894554
200	0xbf9f387a	-1.243911
201	0x3fbaaaa7	1.4583329
202	0x4063a1c3	3.5567482
203	0x40122f9d	2.284156
204	0x40642971	3.5650294
205	0xbb9dded0	-0.004817821
206	0xbe4098df	-0.18808316
207	0xc02a0a8a	-2.6568933
208	0xc02ecc5e	-2.7312236
209	0x3f42afee	0.760497
210	0xbfa7f005	-1.3120123
211	0xc07986e1	-3.8988574
212	0xc01a90d0	-2.4150887
213	0xc079f958	-3.9058437
214	0x3af8c0f3	0.0018978402
215	0xbe792205	-0.24329384
216	0xbf3425f3	-0.70370406
217	0x3e04793a	0.1293687
218	0x3e88b758	0.2670238
219	0xbf88ffac	-1.0703025
220	0xbf5abfca	-0.85448897
221	0xbf22c8e3	-0.6358778
222	0xbf561ae4	-0.8363478
223	0xbc2715b3	-0.010198045
224	0xbdc06ba6	-0.09395532
225	0xbe566a3a	-0.2093896
226	0x3f18f832	0.59753716
227	0xbe956cae	-0.2918448
228	0xbe1d9332	-0.15388182
229	0xbdcde41f	-0.10053276
230	0xbe89ed34	-0.26938784
231	0xbda6ca31	-0.08144034
232	0xbaf51663	-0.0018698688
233	0xbea53d0f	-0.32273147
234	0x3f2ff101	0.6872712
235	0x3f6e12ad	0.92997247
236	0xbe84bcc4	-0.25925267
237	0x3f041f0c	0.51609874
238	0x3f81d263	1.014233
239	0x3f157679	0.583839
240	0x3f813c87	1.0096596
241	0xba4033c8	-0.0007331935
242	0x3e2babca	0.16764751
243	0x3e1e97f6	0.15487656
244	0xbeb92f89	-0.3616908
245	0xbd322483	-0.04349185
246	0x3d5e8895	0.054329474
247	0x3daa34c8	0.083108485
248	0x3e18ab7e	0.14909169
249	0x3d69bc5a	0.05706439
250	0xbb273634	-0.0025514485
251	0xbde050e6	-0.1095293
252	0xbf64f882	-0.8944169
253	0xbf65cf12	-0.8976909
254	0xc0257065	-2.584985
255	0xbfabd7b3	-1.3425201

linear_in.bias f4 [32]
0	0xbf7af3ef	-0.98028463
1	0x3cb3d725	0.021953175
2	0x40a4fa3b	5.1555457
3	0xc017ce9a	-2.371985
4	0xbdd1485a	-0.10218878
5	0x3e4ebdd9	0.20189609
6	0x3f1e64bc	0.6187246
7	0x3e50bb2a	0.20383897
8	0xbc7c8d67	-0.015414572
9	0x408f0ce4	4.4703236
10	0xbf3a8d5d	-0.72871953
11	0xc07bc182	-3.9336858
12	0xbc814ea7	-0.015784575
13	0xbf453a8f	-0.7704248
14	0x3fe0cfb5	1.7563387
15	0xbeb2ba4b	-0.34907755
16	0x3eeb8113	0.45996913
17	0xbe4f0040	-0.20214939
18	0x3f81290d	1.0090653
19	0x3ce372fe	0.027764793
20	0xb0538dca	-7.6962847e-10
21	0x3fba97ce	1.4577577
22	0xbf25b024	-0.64721894
23	0x3fadd7fe	1.358154
24	0xbdfa7e1e	-0.12231086
25	0xbeaa7031	-0.3328872
26	0xbe22a1d7	-0.1588205
27	0x3de5c048	0.11218315
28	0x40b1e743	5.55948
29	0xc030a785	-2.7602246
30	0x3ca5fa9f	0.020261107
31	0xbeadbef8	-0.3393476

linear_32.weight f4 [32, 32]
0	0xbdf9b2f9	-0.121923395
1	0x3c00e572	0.007867204
2	0x3eafca41	0.34333995
3	0x3fdc6900	1.7219543
4	0x3cb70e6f	0.02234575
5	0x3cc699e2	0.024243299
6	0xbd6ca8fe	-0.05777835
7	0x3d147410	0.0362435
8	0x3e183e71	0.1486757
9	0x3e46ca65	0.19413145
10	0x3effcbf2	0.49960285
11	0x3e1cfa5d	0.15329881
12	0x3c8d404f	0.017242579
13	0x3e09e97d	0.13467975
14	0x3eac1080	0.33606339
15	0x3ce162dc	0.02751296
16	0x3cc18635	0.023623565
17	0x3c8c2dc0	0.017111659
18	0x3e2323e1	0.15931655
19	0x3cf3ecce	0.029776003
20	0xbaa81a05	-0.0012825137
21	0xbd9c45d7	-0.076305084
22	0x3e041f41	0.12902547
23	0x3e9d2304	0.30690777
24	0xbb0f3383	-0.0021850772
25	0x3cd35bd6	0.025800627
26	0x3c4590b0	0.012058422
27	0x3afe2187	0.0019388654
28	0x3e582867	0.21109162
29	0x3dd0eb17	0.1020109
30	0x3c9532c6	0.018212687
31	0x3ca89938	0.020580873
32	0x3e375498	0.17903364
33	0xbc35b65e	-0.011090843
34	0x3e0b43f1	0.13600136
35	0xbfac9b4d	-1.3484894
36	0xbc072705	-0.008249049
37	0x3c6cf2df	0.014462202
38	0x3d4afabe	0.049555533
39	0xbebcaa04	-0.36848462
40	0xbdf1411d	-0.117799975
41	0xbce57497	-0.028009696
42	0xbda7e2a1	-0.08197523
43	0x3bee11a7	0.007265288
44	0xbb484574	-0.0030558975
45	0x3e173576	0.14766487
46	0xbe2664d3	-0.16249399
47	0x3bba49e5	0.0056850784
48	0x3d80737f	0.06272029
49	0x3c4baad2	0.012430863
50	0xbf307c8c	-0.68940043
51	0x3c5d991c	0.013525274
52	0xbc03fdac	-0.008056086
53	0x3e2b0623	0.1670156
54	0x3d8b7cbe	0.06810902
55	0xbdd0132c	-0.10159907
56	0x3b6f9554	0.0036557512
57	0x3b532a7e	0.0032221372
58	0x3c3d56f2	0.011556374
59	0xbb7a316d	-0.0038176433
60	0xbe110202	-0.14160922
61	0xbd69784a	-0.056999482
62	0x3d81b09e	0.06332515
63	0x3cebc9eb	0.028782805
64	0xbdf5ac6a	-0.11995776
65	0x3b4169dc	0.002951256
66	0x3daa2ffd	0.08309934
67	0x3f9ecec6	1.2406852
68	0x3c803f68	0.015655234
69	0xbc1b3316	-0.009472629
70	0xbe99361c	-0.29924095
71	0x3d58860a	0.052862205
72	0x3e890d56	0.26767987
73	0x3da59b5a	0.080862716
74	0xbec6a9a2	-0.38801295
75	0x3ef8fed4	0.48631918
76	0x3a29bcbf	0.0006474964
77	0xbeb2eeda	-0.34947854
78	0x3e8980d4	0.268561
79	0x3c65eeff	0.014034032
80	0x3bc93eb0	0.006141506
81	0xbc84e021	-0.016220154
82	0xbd24e221	-0.040254716
83	0xbb9d2717	-0.0047959196
84	0xbbdba6de	-0.0067032417
85	0x3e9ffd3b	0.31247887
86	0x3c66a82e	0.014078183
87	0x3e44db69	0.19224323
88	0xbc15b9e3	-0.009138557
89	0xbc73a50e	-0.014870895
90	0xbb4ec940	-0.003155306
91	0x3b1fd17b	0.0024386335
92	0x3cc565b9	0.024096357
93	0xbd91bf94	-0.07116619
94	0x3d49c288	0.049257785
95	0xbbee14cb	-0.0072656623
96	0xbdd1c9b6	-0.102435514
97	0x3b1dcca1	0.0024078267
98	0x3eb41332	0.35170895
99	0x3fd94c46	1.6976402
100	0x3bd58dce	0.0065171486
101	0x3ca738dc	0.020412855
102	0xbd867caa	-0.065667465
103	0x3ceeaa5a	0.029133964
104	0x3e2f8a3d	0.17142577
105	0x3e5cd633	0.21566086
106	0x3efc03cc	0.49221647
107	0x3e1afb46	0.15134916
108	0xbacd3cb7	-0.0015658353
109	0x3ddc37f2	0.10752858
110	0x3eb8229d	0.35963908
111	0x3c88dc75	0.016706685
112	0x3cfa6722	0.030566756
113	0x3c764b05	0.0150325345
114	0x3e1f2bc8	0.15544045
115	0x3d0e423a	0.034731127
116	0x3cfe91ca	0.031075377
117	0xbd51629b	-0.051119428
118	0x3e02b7ed	0.12765475
119	0x3e9e09af	0.30866763
120	0x3cac54b3	0.021036481
121	0x3b05d034	0.0020418288
122	0x3cceabd8	0.025228426
123	0x3c848cda	0.016180445
124	0x3e52e077	0.20593439
125	0x3df6eda3	0.12057044
126	0x3c6d5a53	0.014486867
127	0x3cde7ec5	0.027160058
128	0xbe3e6fa4	-0.18597275
129	0x3c7285f1	0.014802442
130	0x3dd7398b	0.10509022
131	0x3fb98929	1.4494983
132	0x3c65507a	0.013996238
133	0xbce73bb7	-0.028226716
134	0xbe5b1e04	-0.21398169
135	0x3c9654c9	0.018350976
136	0x3e491f46	0.19640836
137	0x3d8af1df	0.067844145
138	0xbe7be090	-0.24597383
139	0x3e8f855f	0.28031442
140	0x3c76fc49	0.015074798
141	0xbe60a314	-0.2193721
142	0x3e5d682d	0.21621771
143	0xbc8272d2	-0.015923891
144	0xbd7e8caa	-0.062145866
145	0xbc2bbf0f	-0.010482564
146	0xbc93bd08	-0.018034473
147	0x3c2e8da7	0.01065389
148	0xbc70b8bb	-0.014692481
149	0x3de0a2a6	0.10968523
150	0xbc1e63ad	-0.009667319
151	0x3e1dd570	0.15413451
152	0x3ad954c0	0.0016581044
153	0x3c5bb069	0.013408759
154	0xbc1a53e8	-0.009419419
155	0x3b9329e5	0.004491078
156	0x3d6475d8	0.055776447
157	0xbd6b732b	-0.05748288
158	0x3c92e6a7	0.01793225
159	0xbcb669bc	-0.022267215
160	0x3e11d591	0.14241625
161	0x3b307600	0.0026925802
162	0xbe21b9f5	-0.15793593
163	0xbfbe0742	-1.4845965
164	0x3c197944	0.009367291
165	0xbbde2259	-0.006778997
166	0x3e9a5208	0.3014071
167	0x3d44fe0d	0.048093844
168	0xbe803bde	-0.25045675
169	0xbd896dda	-0.06710406
170	0x3eb4c59c	0.35307014
171	0xbeb5c22b	-0.354997
172	0xba30783e	-0.00067317847
173	0x3e6c9b2a	0.23106065
174	0xbe6c5c32	-0.23082045
175	0x3ccdcc47	0.025121821
176	0x3d16bcf6	0.0368013
177	0x3d009394	0.03139074
178	0x3e1b0c87	0.15141498
179	0x3cca2801	0.024677278
180	0xbc8a1098	-0.016853616
181	0xbe2dc5de	-0.16970012
182	0xbc7cbd45	-0.015425985
183	0xbe296e66	-0.1654602
184	0x3c01ad3d	0.007914838
185	0xbb1534df	-0.002276711
186	0x3c244846	0.010026997
187	0xbc59e654	-0.013299543
188	0xbcd7c2f7	-0.026338084
189	0x3de29f6d	0.11065564
190	0xbcbf2d80	-0.023337126
191	0xb970c47a	-0.00022961377
192	0x3e99c8ef	0.30036113
193	0x3bb22073	0.005435997
194	0xbd1e856b	-0.038701456
195	0xbfcdbabf	-1.6072615
196	0x3ba2b75d	0.0049657063
197	0x3bbc64b3	0.005749309
198	0x3e2dbf4a	0.16967502
199	0xbe65bc2f	-0.22435068
200	0xbd124b5a	-0.035716392
201	0xbdfbe372	-0.12299241
202	0xbf081695	-0.5315946
203	0xbd6240fd	-0.05523776
204	0xbc982b09	-0.018575208
205	0x3bcc92d5	0.0062430897
206	0xbe65536d	-0.22395106
207	0x3a43c759	0.0007468365
208	0x3d586432	0.05282993
209	0x3c6bec48	0.014399596
210	0xbf3f09cc	-0.74624324
211	0x3bc7cfad	0.006097755
212	0xbc6981ac	-0.014252108
213	0x3e2856d4	0.16439372
214	0xbc5dc039	-0.013534599
215	0xbe2dea64	-0.16983944
216	0x3b0c6bf3	0.0021426647
217	0xbafe4560	-0.0019399337
218	0x3c16f692	0.00921406
219	0x3ae9e8c3	0.0017845858
220	0xbe1cd311	-0.1531489
221	0xbdfaff83	-0.12255766
222	0x3d96dfca	0.07366903
223	0x3c551604	0.013005737
224	0xbe711639	-0.23543634
225	0x3c82b043	0.015953189
226	0x3e74d626	0.23909816
227	0x3fdef90b	1.7419752
228	0x39d92602	0.00041417783
229	0x3c8aa703	0.01692534
230	0xbd9f3b28	-0.07774955
231	0x3e096372	0.13416842
232	0x3dcca13b	0.0999169
233	0x3e66c36d	0.22535487
234	0x3edd57d0	0.43231058
235	0x3e4b99c9	0.19882883
236	0x3c004e2f	0.00783114
237	0x3c998ce1	0.018743934
238	0x3eb8fd31	0.3613067
239	0x3ca5d003	0.02024079
240	0x3d06483a	0.032783724
241	0x3c8dfda7	0.017332865
242	0x3eb6ec3b	0.35727105
243	0xbc021fb4	-0.007942129
244	0x3c52ea0f	0.012873187
245	0xbd468e38	-0.048475474
246	0x3e118a8f	0.14213012
247	0x3ea0c5e5	0.31400982
248	0xbb9cce74	-0.0047853533
249	0x3cd46108	0.025925174
250	0x3c927193	0.017876422
251	0x3beab0e4	0.0071622003
252	0x3e57c383	0.21070676
253	0x3e016c00	0.12638855
254	0xb74ecc8d	-1.23261825e-05
255	0x3c4f0e59	0.012637698

linear_32.bias f4 [32]
0	0xbe01a528	-0.12660658
1	0x3d35d8bc	0.044396147
2	0xbdc6db4e	-0.09709798
3	0xbdffdb3b	-0.12492987
4	0xbdaadd5b	-0.083430015
5	0x3db7b948	0.089708865
6	0x3dd0a420	0.10187554
7	0xbdf3953c	-0.118936986
8	0x3dc5c1bb	0.09656092
9	0xbdd0261f	-0.10163521
10	0x3df52374	0.11969653
11	0xbdf3b7ac	-0.11900267
12	0xbdef2451	-0.11676849
13	0x3dc55398	0.09635085
14	0x3dc9988b	0.098435484
15	0xbdf1b2e8	-0.11801702
16	0x3dbe5ae3	0.09294679
17	0xbe00b52b	-0.1256911
18	0x3e02e85c	0.1278395
19	0xbdf7c1f4	-0.120975405
20	0x3dffb54c	0.124857515
21	0x3db775ff	0.08958053
22	0x3de1d6c5	0.11027292
23	0xbdea11dd	-0.114291884
24	0xbdf28f5c	-0.1184375
25	0x3dc07762	0.093977705
26	0x3df3fd3f	0.11913537
27	0xbddb0770	-0.10694778
28	0xbdd58ef2	-0.10427655
29	0xbdbf04db	-0.09327098
30	0xbdfb3a75	-0.12267009
31	0x3dc13246	0.09433417

rnn.weight_ih_l0 f4 [32, 32]
0	0x3df461ed	0.1193274
1	0x3c1f0e18	0.00970795
2	0x3bf5dba9	0.007502992
3	0x3de7e02e	0.11322056
4	0x3c401a4f	0.011725022
5	0xbbb091c6	-0.0053884713
6	0xbc6d4b0a	-0.014483223
7	0x3ddb2914	0.107011944
8	0xbbda705a	-0.0066662254
9	0x3bb23c10	0.005439289
10	0xbd9c0b4e	-0.07619344
11	0x3e0ccd06	0.13750085
12	0x3d4a58e6	0.049401186
13	0xbc9bdfd9	-0.019027637
14	0xbc060743	-0.008180442
15	0x3d891bc4	0.06694749
16	0xbc2d0617	-0.010560534
17	0x3de292f3	0.110631846
18	0xbe03ac4f	-0.128587
19	0x3dbeda0d	0.09318934
20	0xbd65082b	-0.055915993
21	0xbb128cc7	-0.0022361742
22	0xbcf727f1	-0.030170413
23	0x3d4000b3	0.046875667
24	0x3d9b1ca6	0.07573824
25	0x3cf1bf35	0.02951012
26	0xbd92c097	-0.0716564
27	0x3cbec14f	0.023285536
28	0x3d0acae4	0.033884898
29	0x3b39e2b1	0.0028363878
30	0x3d9cfc36	0.07665293
31	0x3be58759	0.00700466
32	0xbde21009	-0.11038215
33	0x3d04e4d6	0.032444797
34	0xbd408d31	-0.04700965
35	0xbdf9dc80	-0.1220026
36	0xbce6da24	-0.02818019
37	0x3d27e4f9	0.04098985
38	0x3d055546	0.032552026
39	0xbdb22633	-0.08698692
40	0x3d40648c	0.04697089
41	0xbcbf27f9	-0.02333449
42	0x3db2a932	0.08723678
43	0xbe1a7be6	-0.15086326
44	0xbd8bad72	-0.068201914
45	0x3d451e6a	0.04812471
46	0x3d37b1b4	0.044847205
47	0xbd86b794	-0.065779835
48	0x3cf3126b	0.029671868
49	0xbe04e5fe	-0.1297836
50	0x3dca86cc	0.09888992
51	0xbdc5259d	-0.09626315
52	0x3d8be6a6	0.06831102
53	0x3d05a6ed	0.032629896
54	0x3d009a65	0.031397242
55	0xbd62ee49	-0.055403028
56	0xbdc28e4f	-0.094997995
57	0x3d4ff973	0.050775003
58	0x3d5fc34a	0.0546296
59	0xbcfc6a0d	-0.030812288
60	0xbd0535be	-0.032521956
61	0xbc8e2c5d	-0.017355138
62	0xbd865289	-0.06558711
63	0x3cde0e6a	0.027106483
64	0xbdd1c01a	-0.102417186
65	0x3ba8b6d1	0.0051487465
66	0xbd564379	-0.05231044
67	0xbdee78d9	-0.116441436
68	0xbd3b9d27	-0.04580417
69	0x3d1facfd	0.038983334
70	0x3c1ffb52	0.009764509
71	0xbdbce392	-0.09223093
72	0x3d3c13a1	0.045917157
73	0xbd62cf00	-0.05537319
74	0x3db11672	0.08646859
75	0xbe00e303	-0.12586598
76	0xbd328a10	-0.043588698
77	0x3d501208	0.050798446
78	0x3b85c3e7	0.0040821913
79	0xbdceec98	-0.101037204
80	0x3ccc7098	0.024956033
81	0xbddf866f	-0.10914313
82	0x3d99ae97	0.075040035
83	0xbda9b049	-0.08285577
84	0x3d58cc11	0.052928988
85	0x3ccb8797	0.024844928
86	0x3cbac1d4	0.022797503
87	0xbd6e86cb	-0.058234017
88	0xbd9049be	-0.07045315
89	0x3d8c226c	0.06842503
90	0x3d666c24	0.056255475
91	0xbcbec7f1	-0.023288699
92	0xbc96c1a1	-0.018402876
93	0xbcfd78e5	-0.030941436
94	0xbd5fdec0	-0.05465579
95	0x3d0c7c2e	0.034298114
96	0xbe2bdac8	-0.16782677
97	0xbd931b11	-0.07182897
98	0x3e35c0f2	0.17749384
99	0xbe12dd85	-0.14342315
100	0x3dd18abd	0.1023154
101	0xbdd85153	-0.10562386
102	0x3d5d76e7	0.054068472
103	0xbdd806f1	-0.10548199
104	0xbdb02be9	-0.08602125
105	0x3d1f236b	0.038852137
106	0x3e160feb	0.1465451
107	0xbe238406	-0.15968332
108	0xbdbb1645	-0.09135107
109	0xbdcc118f	-0.099642865
110	0xbc07aae7	-0.008280492
111	0xbdece327	-0.11566763
112	0xbd89892d	-0.06715617
113	0xbe1c9926	-0.15292796
114	0x3e32dbde	0.17466685
115	0xbe192c69	-0.14958347
116	0x3e21214d	0.1573536
117	0xbda4a811	-0.080398686
118	0x3d4d0904	0.050057426
119	0xbdb0146c	-0.08597645
120	0xbdc0ff96	-0.09423749
121	0xbe6aff45	-0.2294894
122	0x3dad7ce1	0.084710844
123	0x3bc03361	0.0058655
124	0xbd482ff0	-0.04887384
125	0x3d8db101	0.069185264
126	0xbe055d84	-0.13023955
127	0xbdbd5ad3	-0.09245839
128	0xbdd90995	-0.10597531
129	0xbd7a5d8f	-0.06112438
130	0xbe557adf	-0.20847653
131	0xbdf8cd37	-0.121485166
132	0xbdf198ec	-0.11796746
133	0x3e41346f	0.18867658
134	0xbdaa17f9	-0.08305354
135	0xbda0c391	-0.07849801
136	0x3d886f20	0.066618204
137	0xbc86f696	-0.016475003
138	0x3dc2aefd	0.095060326
139	0xbe05b158	-0.13055933
140	0x3c633d2d	0.013869566
141	0x3d4ad41b	0.049518686
142	0xbd937c78	-0.07201475
143	0xbd42928e	-0.047503047
144	0x3be59c77	0.0070071775
145	0xbdb182be	-0.08667515
146	0x3d8ecf42	0.06973125
147	0xbd955fea	-0.07293685
148	0x3c799cdc	0.015235152
149	0x3d3d5630	0.046224773
150	0xbce4c855	-0.027927557
151	0xbb2e1c89	-0.0026567301
152	0xbd6f0b8c	-0.05836062
153	0x3e899558	0.26871753
154	0x3c9f9024	0.019477911
155	0xbbd7dc3c	-0.0065875333
156	0x3d05ee56	0.032697998
157	0xbd61ac72	-0.055096097
158	0xbd3ecaec	-0.04658024
159	0x3d9085ea	0.07056792
160	0xbe14e0b3	-0.14538841
161	0xbcf6a9d2	-0.030110274
162	0xbda623f1	-0.08112324
163	0xbe10a949	-0.14127077
164	0xbd20fc25	-0.039302964
165	0x3d9ca54e	0.07648717
166	0xbc1421b7	-0.009041241
167	0xbda38976	-0.07985203
168	0xbbed1e5d	-0.0072362856
169	0x3c905ab5	0.017621377
170	0x3dd1127e	0.10208605
171	0xbe08b72f	-0.13351129
172	0xbd1165a8	-0.035497338
173	0xbbe4bfbe	-0.0069808653
174	0xbccb58f2	-0.024822686
175	0xbd8f274e	-0.06989919
176	0x3c6f0b1f	0.014590054
177	0xbdfac784	-0.12245086
178	0x3df4c361	0.11951328
179	0xbde97d0a	-0.114008024
180	0x3d7be741	0.061499838
181	0x3b82dc1e	0.003993525
182	0xb9db63ab	-0.00041845193
183	0xbd2750b8	-0.040848464
184	0xbd974d92	-0.07387842
185	0x3d8489bb	0.064715825
186	0x3d6bc2df	0.05755889
187	0xbc850393	-0.016237056
188	0x3b029e3a	0.0019930736
189	0xbbaabc85	-0.0052104616
190	0xbd83979f	-0.06425404
191	0x3c13fd57	0.009032569
192	0x3e3c4742	0.18386558
193	0xbeadf6d4	-0.33977377
194	0xbc862438	-0.016374692
195	0x3e315d19	0.1732067
196	0x3d99a639	0.075024076
197	0x3c4dd2bb	0.012562449
198	0xbeafbf6a	-0.34325725
199	0x3e9c7f16	0.3056571
200	0xbeb7e185	-0.35914245
201	0x3ea34fe6	0.31896895
202	0xbe44254d	-0.19154854
203	0x3e5e0a18	0.21683538
204	0x3e89bb8f	0.26900908
205	0xbe9f4e94	-0.31114638
206	0xbeaf493b	-0.34235558
207	0x3e946a86	0.2898752
208	0xbeac9b5e	-0.33712286
209	0x3e35e743	0.17764
210	0xbde0b065	-0.109711446
211	0x3e7749b7	0.24149214
212	0xbe0f2a7b	-0.13981049
213	0xbe8db0f3	-0.27674064
214	0xbed547e2	-0.41656405
215	0x3e8cacab	0.27475485
216	0x3e9c98d9	0.30585364
217	0x3cc306ec	0.023807012
218	0xbe8c1568	-0.27360082
219	0x3e9fc997	0.31208488
220	0x3eb8dcb9	0.36105898
221	0x3e78cda8	0.24297202
222	0x3e59a0ae	0.212527
223	0xbe885dd1	-0.26634076
224	0xbdc3d466	-0.09561996
225	0x3e3c9f92	0.18420246
226	0xbe607e6c	-0.21923226
227	0xbdf62dae	-0.120204315
228	0xbd562118	-0.052277654
229	0xbc7ebf2f	-0.015548511
230	0x3de6d4f2	0.11271085
231	0xbe5d21a2	-0.21594861
232	0x3ebef97f	0.37299725
233	0xbe6d0e8d	-0.23150082
234	0x3d5cf8a0	0.053948045
235	0xbe1f03bd	-0.1552877
236	0xbd9b2077	-0.075745516
237	0x3e91167e	0.28337473
238	0x3e454921	0.19266178
239	0xbe3b61e4	-0.18299061
240	0x3e58ab36	0.21159062
241	0xbd8f2987	-0.069903426
242	0xbc7c002f	-0.015380903
243	0xbe037e72	-0.12841204
244	0xbd32e635	-0.043676574
245	0x3e47bdff	0.19506072
246	0x3e6a9121	0.22906925
247	0xbdbee386	-0.093207404
248	0xbe1a9a9d	-0.15098043
249	0x3ece8a58	0.40339923
250	0x3e23a064	0.15979153
251	0xbe32e408	-0.174698
252	0xbe00bad2	-0.12571266
253	0xbe2e3660	-0.1701293
254	0xbd4655a0	-0.048421502
255	0x3e88aa37	0.26692364

rnn.weight_hh_l0 f4 [32, 32]
0	0xbe20a5db	-0.15688269
1	0x3c673ed5	0.014114101
2	0xbc15f725	-0.009153162
3	0x3ceb0450	0.02868858
4	0x3b669d1b	0.0035188857
5	0x3a8b6acd	0.0010636688
6	0xbdfed873	-0.12443628
7	0x3d886f1e	0.06661819
8	0x3c08278b	0.008310209
9	0xbcdedece	-0.02720585
10	0x3c324ae9	0.010882118
11	0xbca71c9c	-0.020399384
12	0xbbf91ea8	-0.0076025315
13	0xbb79b7e6	-0.0038103997
14	0xbbd10574	-0.006378824
15	0xbcb59ac7	-0.02216853
16	0xbc57f8f1	-0.013181911
17	0x3c645eda	0.01393863
18	0xbbe85780	-0.007090509
19	0xbcb6b974	-0.022305228
20	0x3c8322f9	0.016007887
21	0xbc60d32e	-0.013722224
22	0xbb8128bd	-0.003941624
23	0x3a4f9fa0	0.00079202093
24	0x3a0a689a	0.0005279869
25	0xbc96c094	-0.018402375
26	0xbc288b32	-0.010287093
27	0x3c0033f0	0.007824883
28	0x3c99b950	0.018765122
29	0x3ce92873	0.02846167
30	0xbc36f190	-0.011165991
31	0xbd2dafab	-0.04240386
32	0xbc86e410	-0.01646617
33	0xbe3a4fcf	-0.18194507
34	0xbca547cc	-0.020175837
35	0xbc28c7a7	-0.010301507
36	0xbd62c2cf	-0.055361565
37	0x3c936900	0.017994404
38	0x3de7e3db	0.11322757
39	0xbd1e89c5	-0.038705606
40	0x3c75ef08	0.015010603
41	0x3ced73a5	0.028985808
42	0xbd11ef21	-0.03562844
43	0x3c791c57	0.015204511
44	0x3c28a586	0.01029337
45	0x3c26dd2f	0.01018457
46	0x3bbb788d	0.005721158
47	0x3d270b6b	0.040782373
48	0x3aa3a687	0.0012485542
49	0xbb2c324e	-0.00262751
50	0xbc292571	-0.010323868
51	0xbb979bea	-0.0046267407
52	0xbcc6090c	-0.024174236
53	0xbbb10e61	-0.0054033254
54	0x3c77f3b0	0.015133783
55	0x3cf098df	0.02936977
56	0x3c2125cb	0.009835671
57	0xbc5a1843	-0.0133114485
58	0xbc902f2d	-0.01760062
59	0xbcc5c6cd	-0.024142647
60	0xbc650d70	-0.0139802545
61	0x3ac121da	0.001473482
62	0xbc8e0c00	-0.017339706
63	0x3cf78437	0.030214412
64	0x3c72428c	0.014786374
65	0xbc487500	-0.012234926
66	0xbe3897fe	-0.1802673
67	0x3c435105	0.011921172
68	0x3c61e8dd	0.013788429
69	0xbc4c1f6b	-0.0124586625
70	0x3da5a478	0.080880105
71	0xbd1b8ba6	-0.037974976
72	0xbbe318aa	-0.0069304304
73	0x3ce5dbca	0.028058905
74	0x3ca13cba	0.019682277
75	0x3b89c9ea	0.0042049782
76	0x3bc7cb9f	0.0060972716
77	0xbbab0a0d	-0.005219704
78	0xbc9be457	-0.01902978
79	0xbc90547e	-0.017618414
80	0x3c8ef126	0.017448973
81	0x3c3616ce	0.0111138355
82	0xbc6d6ab8	-0.014490776
83	0xbc5a5d16	-0.0133278575
84	0x3cb3c05c	0.02194231
85	0xbc82bf61	-0.015960397
86	0xbc4fa226	-0.012672937
87	0x3c533182	0.012890222
88	0x3c2b6de4	0.010463212
89	0xbc6b45e5	-0.014359926
90	0x3cca9b2d	0.024732197
91	0x3be0f20c	0.0068647917
92	0x3c40e65d	0.011773673
93	0x3bd3433b	0.0064472235
94	0xbc287cfc	-0.010283705
95	0x3add3a42	0.0016878324
96	0xbca80e0f	-0.020514516
97	0x3a4bc5a6	0.00077732874
98	0xbcdfe507	-0.027330888
99	0xbe270cc4	-0.16313463
100	0xbce969d9	-0.028492855
101	0x3c9ef07e	0.019401785
102	0x3dd57809	0.104232855
103	0xbd27e145	-0.04098632
104	0x3c738cff	0.014865159
105	0x3c9e1bdd	0.019300396
106	0xbd36aad1	-0.044596497
107	0x3bc66462	0.006054447
108	0x3c137be3	0.009001705
109	0xbbaf4732	-0.0053490633
110	0xbd1606b3	-0.036627483
111	0x3d108f35	0.035292823
112	0xbd21f68a	-0.03954176
113	0xbcea3693	-0.028590476
114	0x3d173495	0.03691538
115	0x3bb9313a	0.00565162
116	0xbd601d9e	-0.054715745
117	0x3c06f13a	0.008236224
118	0x3c5892fb	0.013218637
119	0xbca4b301	-0.020104887
120	0x3cc7a409	0.02437021
121	0x3c1df38d	0.009640587
122	0xbd205c45	-0.039150495
123	0xbcf67407	-0.030084623
124	0xbca5b1f9	-0.020226466
125	0xbca93d91	-0.02065924
126	0x3b81805a	0.0039520683
127	0xbc8a943f	-0.016916392
128	0x3d35f95a	0.044427253
129	0x3c7396f4	0.014867533
130	0xbb36ba9d	-0.0027882226
131	0xbceb3151	-0.02871004
132	0xbe27551a	-0.16341057
133	0x3c8b8da5	0.017035315
134	0x3dcbfb29	0.099600144
135	0xbd4059b8	-0.046960562
136	0xbd1ce27d	-0.038301934
137	0x3caddd84	0.021223791
138	0x3cf4285a	0.029804397
139	0x3cb5d70c	0.022197269
140	0x3c434944	0.011919323
141	0xbcc63dac	-0.02419933
142	0x3c06a9d4	0.008219201
143	0x3c2c3ef6	0.010513058
144	0x3cacec8b	0.021108886
145	0x3c4afadb	0.01238891
146	0xbcacd824	-0.021099158
147	0xbc44072e	-0.011964602
148	0x3d7d556a	0.061849035
149	0xbc68e701	-0.014215232
150	0xbc167047	-0.009182042
151	0xbd1775f0	-0.03697771
152	0xbc9908b7	-0.018680913
153	0xbc250408	-0.010071762
154	0x3d50e45a	0.050999023
155	0x3c895119	0.016762303
156	0x3cec095e	0.02881306
157	0x3cc4d079	0.024025189
158	0xbc872d8e	-0.016501214
159	0x3c0fcbe0	0.008776635
160	0xbcba7287	-0.022759689
161	0x3c0fb580	0.0087713
162	0xbc171431	-0.009221123
163	0xbcf99cde	-0.030470308
164	0xbbc8df1f	-0.0061301137
165	0xbe3d7c56	-0.18504462
166	0x3dea8c5a	0.11452551
167	0xbd869abd	-0.06572483
168	0xbbf0da2c	-0.007350227
169	0x3c81d504	0.015848644
170	0x3c4e2d66	0.012584066
171	0x3ad2c184	0.0016079401
172	0xbca885a0	-0.02057153
173	0x3bca7cce	0.0061794287
174	0xbb8034f4	-0.0039125625
175	0x3c61ea87	0.013788826
176	0xbcd331f2	-0.025780652
177	0x3cd655bd	0.02616393
178	0xbb2d4260	-0.0026437268
179	0xbb47cc7a	-0.0030486868
180	0x3bd95387	0.0066322717
181	0xbb8c04a0	-0.0042730123
182	0x3c1020c7	0.008796877
183	0xb8ce1959	-9.827567e-05
184	0xbbbc9c85	-0.0057559633
185	0xbd049b6e	-0.03237479
186	0xbc8e4a02	-0.017369274
187	0x3c9d2010	0.019180328
188	0xbcf7aead	-0.03023466
189	0xbc20cd68	-0.009814598
190	0xbcee4080	-0.02908349
191	0x3d2ba851	0.041908566
192	0xbe3df825	-0.18551691
193	0x3e614eee	0.22002766
194	0x3e3ad893	0.18246679
195	0x3da463c5	0.08026842
196	0x3e8d64c5	0.27615944
197	0x3e5e8e47	0.21733962
198	0xbf0c9024	-0.5490744
199	0x3ee42acc	0.445639
200	0x3e5b2799	0.21401824
201	0xbe77de1f	-0.24205826
202	0xbe0c6537	-0.13710485
203	0xbe62bca1	-0.22142269
204	0xbe5233fe	-0.20527646
205	0x3e76de45	0.24108227
206	0x3e97ffc4	0.2968732
207	0xbe839aed	-0.25704136
208	0xbe1303de	-0.14356944
209	0x3e8c3d18	0.2739036
210	0x3e0a1753	0.1348546
211	0x3e65c30f	0.2243769
212	0x3e8cbc81	0.27487567
213	0x3e51837f	0.20460318
214	0x3e5a57a6	0.21322498
215	0x3e558d8f	0.20854782
216	0xbe55ac24	-0.20866448
217	0x3e5ac7c4	0.21365267
218	0xbe33e45b	-0.1756758
219	0x3e989ae8	0.29805684
220	0xbe6bc476	-0.23024163
221	0xbe526789	-0.20547308
222	0xbe890f16	-0.26769322
223	0x3d160981	0.036630157
224	0x3e09e767	0.13467179
225	0xbdf64d12	-0.12026419
226	0xbdd1660e	-0.102245435
227	0xbe3cd4a4	-0.18440491
228	0xbdd2d7b3	-0.102950476
229	0xbe0a862c	-0.13527745
230	0x3ec1752b	0.37784705
231	0xbe90c38c	-0.2827419
232	0xbe3ffb9a	-0.18748322
233	0x3e02b47d	0.12764163
234	0x3e38c5d9	0.18044223
235	0x3dab5bc2	0.08367111
236	0x3dce94b8	0.100869596
237	0xbddbf274	-0.10739604
238	0xbd9b7b07	-0.07591825
239	0x3ddd125f	0.1079452
240	0x3e36e9b0	0.17862582
241	0xbd84000c	-0.064453214
242	0xbe44b435	-0.19209369
243	0xbdc7ffc6	-0.09765582
244	0xbde355c9	-0.111003466
245	0xbdd75875	-0.10514919
246	0xbe019f1a	-0.12658349
247	0xbe01ccfe	-0.12675855
248	0x3ddf3123	0.10898044
249	0xbe0e8576	-0.13918099
250	0x3e19b8fe	0.15011975
251	0xbdbef3db	-0.093238555
252	0x3e2226a5	0.15835054
253	0x3e0b218b	0.13587014
254	0x3e1ca24a	0.15296283
255	0x3a6c5c52	0.00090164423

rnn.bias_ih_l0 f4 [32]
0	0x3d8b8079	0.068116136
1	0xbd827abe	-0.063710675
2	0xbdc86ebb	-0.09786745
3	0xbd427b0f	-0.04748064
4	0xbda89a23	-0.08232524
5	0xbd8ac5c1	-0.06776
6	0x3e4314a0	0.19050837
7	0xbe0157e7	-0.12631188
8	0xbd4d67aa	-0.05014769
9	0x3dca9bfd	0.09893034
10	0x3d6503cf	0.055911835
11	0x3dce0f56	0.10061519
12	0x3d981a3f	0.07426881
13	0xbd9934f8	-0.07480806
14	0xbdb05308	-0.08609587
15	0x3dc1ed99	0.09469146
16	0x3d879f8b	0.06622227
17	0xbd618270	-0.055056036
18	0xbd65591f	-0.055993196
19	0xbda1eebc	-0.07906863
20	0xbd96b350	-0.0735842
21	0xbd972c12	-0.073814526
22	0xbd969714	-0.073530346
23	0xbd65b61f	-0.056081887
24	0x3dd3e9bc	0.10347316
25	0xbd843e5a	-0.06457205
26	0x3d870dc9	0.06594426
27	0xbdb83ad7	-0.08995598
28	0x3d2de8db	0.042458396
29	0x3d71b202	0.059007652
30	0x3d2afdc6	0.041745923
31	0x3c6a6585	0.014306431

rnn.bias_hh_l0 f4 [32]
0	0x3d8b8079	0.068116136
1	0xbd827abe	-0.063710675
2	0xbdc86ebb	-0.09786745
3	0xbd427b0f	-0.04748064
4	0xbda89a23	-0.08232524
5	0xbd8ac5c1	-0.06776
6	0x3e4314a0	0.19050837
7	0xbe0157e7	-0.12631188
8	0xbd4d67aa	-0.05014769
9	0x3dca9bfd	0.09893034
10	0x3d6503cf	0.055911835
11	0x3dce0f56	0.10061519
12	0x3d981a3f	0.07426881
13	0xbd9934f8	-0.07480806
14	0xbdb05308	-0.08609587
15	0x3dc1ed99	0.09469146
16	0x3d879f8b	0.06622227
17	0xbd618270	-0.055056036
18	0xbd65591f	-0.055993196
19	0xbda1eebc	-0.07906863
20	0xbd96b350	-0.0735842
21	0xbd972c12	-0.073814526
22	0xbd969714	-0.073530346
23	0xbd65b61f	-0.056081887
24	0x3dd3e9bc	0.10347316
25	0xbd843e5a	-0.06457205
26	0x3d870dc9	0.06594426
27	0xbdb83ad7	-0.08995598
28	0x3d2de8db	0.042458396
29	0x3d71b202	0.059007652
30	0x3d2afdc6	0.041745923
31	0x3c6a6585	0.014306431

linear_out.weight f4 [7, 32]
0	0x39205905	0.00015291951
1	0x3ae38d4e	0.0017360838
2	0x3b78ada3	0.0037945292
3	0xbae0d833	-0.0017154276
4	0xb82f4249	-4.1784984e-05
5	0xba3302b3	-0.00068287103
6	0xbca87d94	-0.020567693
7	0x3ce0a092	0.027420316
8	0xbaad82e9	-0.0013237867
9	0x3aefcdbe	0.0018295569
10	0xb78f7915	-1.7103312e-05
11	0x3a801923	0.0009773116
12	0xbb4fc780	-0.0031704605
13	0x39aecd87	0.00033340996
14	0x3b509609	0.003182771
15	0x39fa972a	0.00047796342
16	0x3a322ac8	0.0006796536
17	0xba62bad6	-0.00086490565
18	0x3b5ba1d3	0.0033513203
19	0x3ac0742c	0.0014683059
20	0xbb097709	-0.0020975491
21	0x3b28e555	0.0025771458
22	0xba439525	-0.0007460884
23	0x3b417457	0.0029518807
24	0x3a6e1e69	0.0009083511
25	0x3aadd796	0.0013263102
26	0xbb6ecbd8	-0.0036437418
27	0x3afb1977	0.0019157369
28	0x3ab3b7b5	0.0013711365
29	0xbb162a6d	-0.0022913471
30	0x3b1f9efa	0.0024356232
31	0x3c40f2a2	0.011776598
32	0x3f1db292	0.616006
33	0xbf231d0d	-0.637162
34	0xbf2bc43d	-0.6709631
35	0xbf2d2936	-0.6764101
36	0xbf2703b0	-0.6524
37	0xbf24428e	-0.64164054
38	0x3efd0b57	0.49422714
39	0xbf1994b4	-0.5999253
40	0xbf221c99	-0.63324887
41	0x3f31e47f	0.6948928
42	0x3f1d3fc0	0.614254
43	0x3f2ecc55	0.68280536
44	0x3f21c953	0.6319782
45	0xbf28873a	-0.6583134
46	0xbf29689b	-0.6617524
47	0x3f2d064a	0.6758772
48	0x3f205ab2	0.6263839
49	0xbf20cefe	-0.62815845
50	0xbf1d5c50	-0.6146898
51	0xbf29a3a6	-0.6626533
52	0xbf23ddc9	-0.6401029
53	0xbf1fc2a7	-0.6240639
54	0xbf269e2e	-0.65085113
55	0xbf1e4f86	-0.61840093
56	0x3f2ee8ca	0.6832396
57	0xbf21e87a	-0.63245356
58	0x3f2165d0	0.6304598
59	0xbf2c0ab5	-0.6720384
60	0x3f1bed52	0.60909
61	0x3f1cdaf7	0.61271614
62	0x3f16c986	0.5890125
63	0x3f10afb0	0.5651808
64	0x3c81099a	0.015751649
65	0x3c0cda4e	0.00859697
66	0x3c54ec42	0.012995781
67	0xbe1ba92b	-0.15201251
68	0x3d94b86e	0.0726174
69	0x3c2c6f84	0.010524634
70	0x3d919825	0.071090974
71	0x3dfd0e33	0.12356224
72	0xbce9726f	-0.028496949
73	0xbe102742	-0.14077476
74	0x3d83ee57	0.06441944
75	0xbd59cc12	-0.053173132
76	0xbcaa7dd7	-0.020811958
77	0x3c69142f	0.014226004
78	0x3d8bfac7	0.06834941
79	0xbd7ebe67	-0.0621933
80	0x3d451007	0.048110988
81	0x3cdac566	0.026705455
82	0xbd27abf2	-0.040935464
83	0x3d89e49d	0.06733058
84	0x3d4e6c10	0.050396025
85	0xbb2b1182	-0.0026102965
86	0x3bc55bd9	0.006022912
87	0xbcf9bd7f	-0.030485867
88	0xbcc98e84	-0.02460409
89	0x3be5fd43	0.0070187165
90	0x3c0d5de5	0.008628343
91	0x3de05d1f	0.109552614
92	0x3d0966eb	0.033545416
93	0x3c88a321	0.016679348
94	0x3c66e160	0.0140918195
95	0x3fa5aae0	1.2942772
96	0xbc23925e	-0.009983627
97	0x3ced5d79	0.028975235
98	0x3cfa14ff	0.03052759
99	0xbd0fe1bf	-0.035127398
100	0xbb8e07d3	-0.004334429
101	0xbc69fe2d	-0.014281792
102	0xbe666491	-0.224993
103	0x3e8f2a3b	0.27961907
104	0xbd1eca7e	-0.03876733
105	0x3c14fdbb	0.009093697
106	0xbc1efdb1	-0.009704039
107	0xbba90683	-0.005158247
108	0xbbcc7e60	-0.006240651
109	0xbbff4f0a	-0.0077914046
110	0x3cde4434	0.027132131
111	0x3c6f857e	0.014619229
112	0x3c4dfa99	0.012571954
113	0xbb76e75a	-0.0037674517
114	0x3c920187	0.017822994
115	0x3cc3d325	0.023904392
116	0xbd249210	-0.04017836
117	0x3c7662cf	0.015038206
118	0x3bb6e551	0.005581536
119	0x3c939f49	0.018020289
120	0xbba0452f	-0.00489106
121	0x3c7c7a80	0.015410066
122	0xbce631c8	-0.02809991
123	0xbbaba883	-0.005238594
124	0x3d238e7a	0.039930798
125	0xbca8ed7d	-0.020621056
126	0x3ccbf8bf	0.024898885
127	0x3e340c90	0.17582917
128	0xbc1bd323	-0.009510788
129	0x3c19fb81	0.009398342
130	0x3bb49aaa	0.0055116015
131	0xbc921864	-0.017833896
132	0x3ca38fc4	0.019966014
133	0x3b4170ee	0.0029516774
134	0xbdd52c0e	-0.104087934
135	0x3e0960f6	0.13415894
136	0x3aa7e514	0.001280936
137	0xbb39f3f3	-0.0028374165
138	0x3bfc1244	0.007692607
139	0xbaa16c71	-0.0012315643
140	0xbbf11523	-0.007357256
141	0x3c3dc52f	0.011582657
142	0x3c900aaf	0.01758322
143	0xbbd5ebc7	-0.006528351
144	0xbab97a88	-0.0014150897
145	0x3c2f1e85	0.010688429
146	0x3c3a815a	0.011383379
147	0x3b8fcb97	0.0043882835
148	0x3c1afbc8	0.009459443
149	0x3c52103b	0.012821252
150	0x3b889dc2	0.004169197
151	0x3c5da9a9	0.01352922
152	0x369806db	4.530751e-06
153	0x3c552a38	0.013010554
154	0xbb367ed6	-0.0027846596
155	0x3c8ec8b4	0.017429687
156	0x3855da71	5.0986597e-05
157	0xbc6254e6	-0.013814187
158	0xbbd962aa	-0.006634076
159	0x3d87b630	0.066265464
160	0xbbfa3679	-0.007635888
161	0x3b4710d9	0.0030375032
162	0x3b7a638b	0.0038206305
163	0xba079ff4	-0.0005173676
164	0x3c340dac	0.010989588
165	0x3b82fc99	0.003997397
166	0xbcb2fa64	-0.021847911
167	0x3cd7a21a	0.026322413
168	0x3b886e6b	0.0041635535
169	0xbbc87baf	-0.00611826
170	0xb8dd13ec	-0.00010541812
171	0xbaa388b0	-0.0012476649
172	0xbbb03e7d	-0.005378543
173	0x3bdb9e67	0.0067022326
174	0x3c1e3441	0.009656013
175	0xbbe16dd4	-0.0068795476
176	0xbbc49e96	-0.00600035
177	0x3c1d7ead	0.009612721
178	0x3bbc4332	0.005745315
179	0x3b19a2cb	0.002344298
180	0x3c552e2d	0.013011497
181	0x3bb007b7	0.0053720134
182	0x3a26f332	0.00063686364
183	0x3c026564	0.007958744
184	0xba0f0da9	-0.00054570526
185	0x3c2564b0	0.010094807
186	0x3ad12a35	0.0015958013
187	0x3c4a7749	0.012357541
188	0xbc03411b	-0.008011128
189	0xbc160e89	-0.009158739
190	0xbc12c593	-0.008958238
191	0x3cb7273d	0.022357577
192	0xb731cec6	-1.0598165e-05
193	0x3a26876c	0.0006352577
194	0x3a569e23	0.00081870164
195	0x3917776f	0.00014444975
196	0x39d5cd08	0.00040779286
197	0x3a032539	0.00050028
198	0xbbea0127	-0.0071412507
199	0x3c0cbca2	0.008589895
200	0x3a77472e	0.0009432909
201	0x394de0d1	0.00019634074
202	0xb9945f5b	-0.00028299805
203	0x3a182c53	0.00058049447
204	0xbaceadd3	-0.0015768356
205	0x39dbb104	0.00041902822
206	0x39c56010	0.0003764634
207	0x39814b0b	0.0002466071
208	0x399dab53	0.0003007302
209	0xb99d8471	-0.0003004405
210	0x3a86a30a	0.0010271978
211	0x3a07e1e0	0.00051834993
212	0xb8c4f3d5	-9.3914256e-05
213	0x39b2e864	0.0003412395
214	0x39fff7eb	0.00048822103
215	0x3a22fcf1	0.0006217501
216	0x3a82cd69	0.000997943
217	0x3a8666f6	0.0010254073
218	0xbabc687f	-0.0014374404
219	0x3adc8210	0.001682343
220	0x3a5cf83c	0.0008429324
221	0xbaab0705	-0.0013048357
222	0x39e1c5c9	0.00043062706
223	0x3b8c7b2f	0.0042871456

linear_out.bias f4 [7]
0	0x3d1003a6	0.03515973
1	0x40f5add2	7.6774683
2	0x3aa0628f	0.0012236404
3	0x3eb144ce	0.34622806
4	0x3e839d5e	0.25706
5	0x3e114c1a	0.14189187
6	0x3c7f5816	0.015584966

batch_norm_layer.weight f4 [32]
0	0x3e8cde99	0.2751358
1	0x360451d0	1.9717154e-06
2	0xbe19866f	-0.14992689
3	0x3f09845b	0.53717583
4	0x3b1ed9c6	0.002423869
5	0xb7f74206	-2.9475439e-05
6	0xbe1a2b12	-0.15055493
7	0xbe41ff42	-0.1894503
8	0x3e820ef0	0.2540202
9	0xbe0f4d8b	-0.13994424
10	0x3e87d1a3	0.26527128
11	0x3e0de04b	0.13855092
12	0xb9e244aa	-0.00043157238
13	0x3e0656dd	0.13119073
14	0xbe99f269	-0.30067757
15	0xba22bdc9	-0.000620809
16	0xbaa114fb	-0.0012289578
17	0x3aa26734	0.0012390376
18	0xbe9c8c76	-0.30575913
19	0x3b2e7cf8	0.002662478
20	0x39f04b40	0.00045832433
21	0xbe4bea75	-0.19913657
22	0x3de7ea36	0.11323969
23	0xbe83835a	-0.2568615
24	0x3908cd64	0.00013046485
25	0x3b43f601	0.0029901268
26	0x37e3af64	2.7142181e-05
27	0xbb0c1ed4	-0.002138068
28	0xbdc8691d	-0.09785674
29	0x3df5805f	0.119873755
30	0xbbb3dafe	-0.0054887524
31	0x36ca2d21	6.025323e-06

batch_norm_layer.bias f4 [32]
0	0xbe0e0b6e	-0.13871548
1	0xb853df27	-5.0514147e-05
2	0x3e89d9fb	0.26924118
3	0xbf2864c6	-0.6577877
4	0xbc4ab5c5	-0.012372439
5	0xb9982bb2	-0.00029024255
6	0xbd8549dd	-0.06508229
7	0x3dd4dd8e	0.10393821
8	0x3d092577	0.033482995
9	0x3e7c8584	0.24660307
10	0xbe72358f	-0.23653243
11	0x3e8f49c0	0.27985954
12	0xbd06df09	-0.032927547
13	0x3e10ad86	0.14128694
14	0x3e72a902	0.23697284
15	0xbbb14a22	-0.0054104486
16	0xbba2ebde	-0.004971965
17	0xbc425fe0	-0.011863679
18	0xbe28fea0	-0.16503382
19	0xbcb446a0	-0.022006333
20	0xbc2a82f4	-0.010407198
21	0xbd8576c9	-0.06516797
22	0x3da72535	0.081613936
23	0x3e42796c	0.18991631
24	0xbad0e46a	-0.0015937213
25	0xbcb26473	-0.021776414
26	0xb9021b1a	-0.00012407862
27	0xbc8d9541	-0.017283084
28	0x3e8b572b	0.2721494
29	0x3e2b3910	0.16720986
30	0xbdbfd20e	-0.093662366
31	0xb9752226	-0.00023377742
