VehicalStateperML_RNN_epochs_100_BS:32.pth (torch, 19471 bytes, 12 tensors)

linear_in.weight f4 [32, 9]
000000 d7 cc cd bf 13 58 55 3f 4a b5 52 40 61 b8 aa c0
       -1.6078137 0.83337516 3.292315 -5.335007
000010 9e 0c f7 bf c8 e6 35 c0 03 22 f5 bf c8 8d 91 bd
       -1.9300725 -2.8422108 -1.9151005 -0.07107121
000020 5b 85 19 3f 73 7e ca be 0a a1 0a 3e be 6a 88 3f
       0.5996911 -0.39549598 0.13537994 1.0657575
000030 c4 fa 3b 3f 28 ed 92 3f 50 69 48 40 15 0a 97 3f
       0.7342951 1.1478624 3.1314278 1.1799952
000040 3d f1 ae 3d 74 8b 41 3f 45 ef 33 c0 77 35 f7 3e
       0.08542106 0.75603414 -2.8114789 0.48282978
000050 db e9 ef bd c4 6c bc be 35 96 4a c0 44 a7 2d c0
       -0.11714526 -0.36801732 -3.165418 -2.713334
000060 37 e8 4b c0 50 ae ed 3d 6f 4f 58 3f ca ff 9b 3e
       -3.1860483 0.11605513 0.84496206 0.3046859
000070 26 41 47 bf 37 fa 76 3d de 28 97 3e 8b 1e f9 3d
       -0.77833784 0.060297217 0.29523367 0.12164029
000080 69 9f c1 3e 16 ec a1 3d bc 0c c4 bb 2a 90 19 3e
       0.37816933 0.07906358 -0.0059829634 0.149964
000090 24 b6 42 40 f6 af 31 3f 77 60 4b c0 8b c9 aa bf
       3.042367 0.6940912 -3.1777627 -1.3342756
0000a0 99 9d 08 40 67 f3 b1 bd 10 88 07 40 d5 cf 0c 3c
       2.134619 -0.086890034 2.1176796 0.008594473
0000b0 34 03 64 c0 5e 0c 16 3f 30 30 04 be b2 55 ba be
       -3.5626955 0.5861262 -0.12909007 -0.36393505
0000c0 48 17 90 3f de b5 4b 3f 68 05 58 3f ee 6d 4f 3f
       1.1257105 0.7957438 0.8438325 0.81027114
0000d0 e0 fe d5 3b d0 56 1a 3d 40 74 39 3f d5 a4 43 40
       0.0065306276 0.037680447 0.7244301 3.0569355
0000e0 86 4f 46 bf 67 46 0f 40 53 cc 7c 3f 28 45 fa 3e
       -0.77465093 2.238672 0.98749274 0.48880887
0000f0 42 c9 7c 3f 99 a0 a2 3c 63 65 79 bf 47 54 5f 3d
       0.98744595 0.01985197 -0.9742033 0.054523733
000100 03 ec db be c9 b0 d3 be 60 70 71 3d ec bd 97 bc
       -0.429535 -0.41345814 0.05894506 -0.018523179
000110 c0 ac 08 3d d8 a6 0f bd e9 83 e7 bc a8 1d a8 be
       0.033367872 -0.035071224 -0.028261142 -0.32835126
000120 7a 01 b8 3e ce 94 75 3e 71 bf 25 3f e6 70 bd 3e
       0.35938627 0.23982546 0.6474524 0.37000197
000130 7c 4b 51 bf 20 dd 47 be 3f 06 68 bf cf 64 ab 3d
       -0.81755805 -0.19517946 -0.9063453 0.08368837
000140 76 41 e3 3f 9d 1c 76 be ca 24 66 3f 1a 20 93 3e
       1.7754352 -0.24034353 0.89899886 0.2873543
000150 de 7a 5e be 36 28 a9 3c 6c 52 96 be 06 f3 08 3d
       -0.21726558 0.020649057 -0.29359758 0.03343489
000160 14 56 00 3c f7 6e 58 3e 94 fe 1d c0 f9 9d 31 bf
       0.007833023 0.2113608 -2.4686632 -0.6938167
000170 73 7c 58 c0 c6 1c 29 c0 db 6e 7a 3f 99 6e 66 be
       -3.3825958 -2.6423812 0.978254 -0.22503127
000180 60 3a a0 3f 5e 9b b8 3b 63 99 ee bf 0a 54 ab c0
       1.2517815 0.0056337556 -1.864056 -5.3540087
000190 05 26 51 bf e6 ce f9 bf 87 d1 36 c0 22 3c a7 c0
       -0.8169864 -1.9516265 -2.8565385 -5.2260904
0001a0 86 af 14 c0 1d e3 a3 c0 9d 7a 3b bc 41 91 8c bd
       -2.323213 -5.121474 -0.0114428075 -0.068636425
0001b0 5d df e5 3d 08 65 0e bf 67 ff da be 8c 3d 2c 3d
       0.11224244 -0.5562291 -0.42772982 0.042050883
0001c0 9b 1a 3d bb 56 37 f6 3d ef 82 de ba 41 a1 b3 3b
       -0.002885497 0.12022273 -0.0016976277 0.0054818694
0001d0 56 1a b4 be f6 14 94 be 2a a2 78 3e db 8d 4f 3e
       -0.35176343 -0.28922242 0.2428061 0.20268957
0001e0 05 4f 1b be b3 d1 b7 be e7 8b bd be 62 fb b4 be
       -0.15166862 -0.35902175 -0.370208 -0.3534804
0001f0 15 b6 6d 3b 5b fd 14 3e 28 60 ce 3e 85 15 e3 bf
       0.003627186 0.14549772 0.40307736 -1.7740942
000200 3b c4 2d c0 50 19 4d bf 91 68 0e 3f 69 e0 88 3f
       -2.715102 -0.8011675 0.55628306 1.0693485
000210 f8 ce ff 3e a9 9c b8 bb 1e c7 2e c0 17 69 92 3f
       0.49962592 -0.0056339097 -2.7309031 1.1438321
000220 4e 8d 91 3f b8 91 65 bd 82 3f ce 3f b6 8d c9 bf
       1.1371248 -0.05604717 1.6113131 -1.5746372
000230 6a a8 f6 be ca 96 c8 bf 39 e3 23 be b2 d2 b6 3f
       -0.48175365 -1.5671017 -0.16004647 1.4283049
000240 1e 05 d4 3f 68 d1 8b 3d f2 0a 56 3f 3b cb 14 3f
       1.6564062 0.068270504 0.8361045 0.58122605
000250 4d 8c c9 bf 02 5b 2f be bc ba e4 bf 2f c8 59 3d
       -1.5745941 -0.1712456 -1.7869487 0.053169426
000260 5d a3 f3 3f 24 26 08 be 59 6c c9 3e b0 b9 f0 3e
       1.903423 -0.132958 0.39340475 0.47016668
000270 24 a3 bc bc 50 df 16 bd 96 a8 dd bd 9e 70 e7 bc
       -0.02302701 -0.03683406 -0.10823171 -0.028251942
000280 fb 06 47 bd 3e a3 c8 3e 4b 1e a1 3c 29 04 b5 be
       -0.04859064 0.39187044 0.019667765 -0.35354736
000290 6c 88 6c be 38 b1 0e 3d af 17 c6 bd 89 18 f4 3c
       -0.23098916 0.034836978 -0.09672486 0.029796856
0002a0 62 51 01 be b4 d0 b8 bc 08 66 66 be e7 10 59 bf
       -0.12628701 -0.022560455 -0.2249986 -0.84791416
0002b0 2e 9f 5c c0 92 e5 38 bd ae 96 57 40 ab 82 8b c0
       -3.4472156 -0.04514081 3.3685718 -4.3597007
0002c0 d7 2b 14 c0 f0 97 90 c0 49 d1 ac 3c 13 2e b3 3f
       -2.3151758 -4.518547 0.021095889 1.3998436
0002d0 21 2c 7e c0 e2 d1 45 c0 d3 79 0d 40 bc 2e 5f bf
       -3.9714434 -3.0909352 2.2105606 -0.87180686
0002e0 8a c3 b9 c0 b1 5c 70 c0 7b 81 b8 c0 ed ab 8f bb
       -5.8051195 -3.7556574 -5.7658057 -0.004384509
0002f0 3a 7a 49 3e 81 14 a2 3f fd d4 50 c0 27 2e a1 3f
       0.19675532 1.2662507 -3.2629998 1.259221
000300 a1 20 9a 40 24 5b 9f bf 31 d2 8c be 29 dc a5 bf
       4.816483 -1.2449689 -0.27504113 -1.2957813
000310 79 20 6f 3d da 58 eb 3f e7 5a f2 3d 69 d2 01 bf
       0.058380578 1.838649 0.118337445 -0.50711685
000320 89 b7 e8 be 10 e9 b6 3d 83 2a 3b bb ff 36 39 3d
       -0.45452526 0.08931172 -0.0028559275 0.045218464
000330 c9 41 9e bc 84 bd 7e bc ad 02 e9 be 19 18 93 be
       -0.019318478 -0.015548114 -0.45509854 -0.28729323
000340 5b 2e 19 3e c7 8c 9e c0 17 2e 07 40 45 15 98 bf
       0.1495909 -4.9546847 2.112188 -1.1881491
000350 93 d3 e9 bf b2 be 9b bf 17 8c 24 bb ec cc f2 bc
       -1.8267692 -1.216757 -0.0025107914 -0.02963873
000360 14 f3 22 bf 71 41 49 bf a6 69 f7 3d 6b 19 8e 3e
       -0.6365216 -0.7861548 0.12080698 0.27753767
000370 9b 66 ae 3f 06 d0 cc 3f 51 eb b7 3f a8 f8 29 be
       1.3625063 1.6000984 1.4368688 -0.16598761
000380 12 94 aa bf f7 93 a8 bd b2 e6 84 3f 39 f1 84 bc
       -1.3326437 -0.08231347 1.0382903 -0.016228305
000390 44 6b 30 bf 62 9f ef 3e 7f 32 19 3c 76 b4 01 3f
       -0.68913674 0.46801287 0.009350418 0.50665987
0003a0 0d a3 d6 3b 5c 00 33 bf ad b2 26 bd 34 95 b0 3e
       0.006550199 -0.69922423 -0.040697742 0.34488833
0003b0 a4 e2 b7 3d 39 02 f7 bd 62 c4 c4 3c 31 13 51 bd
       0.08978775 -0.12060971 0.024019424 -0.051043693
0003c0 18 e8 d7 3c 85 c9 e0 3c 0e 18 6c 3a 07 45 82 bf
       0.026355788 0.027439842 0.000900627 -1.0177315
0003d0 4c 99 05 40 44 aa c0 bc c4 a8 ac bf 83 b4 9e 3f
       2.0874815 -0.023518689 -1.3489003 1.2398838
0003e0 12 fa 3d bf 6a 48 c1 3f 2d af 92 3d 01 22 c3 3f
       -0.742097 1.5100224 0.071623184 1.5244752
0003f0 13 ee d3 be 57 6d 3c 3f f4 2b f9 3e db 7d 5a be
       -0.41392574 0.7360434 0.48666346 -0.21337073

linear_in.bias f4 [32]
000000 e8 f1 a3 bf 0b 6c 1d 3d b8 fa 7d bf db 59 02 3f
       -1.2808199 0.038433116 -0.9921069 0.5091836
000010 73 96 0f c1 fb 58 44 3d 94 fd 57 c0 03 cf 4e 3e
       -8.974231 0.04793642 -3.3748522 0.20196156
000020 ac e1 c6 bd 19 7e 08 bf 47 b2 c3 40 ea c2 87 40
       -0.09711012 -0.5331741 6.1155124 4.242543
000030 90 61 20 3e b6 a6 8b bc 8f d4 63 3f 3e 14 f7 be
       0.15662217 -0.017047267 0.88996214 -0.4825763
000040 dc dd b9 bc 3d 93 17 be b2 00 02 3e 55 c1 ea 40
       -0.022688799 -0.1480226 0.12695578 7.3361
000050 64 52 0c 40 17 29 76 3f f9 63 23 3e 51 9f d5 bf
       2.1925287 0.9615645 0.15956105 -1.6689245
000060 fa 6d 8b 3e 06 c7 2c bf c1 4c 30 be b8 b2 6c c0
       0.27232343 -0.67491186 -0.1721678 -3.6984081
000070 85 e7 d2 be a7 99 20 c0 e6 e2 5b c0 38 b3 1c 3c
       -0.4119226 -2.5093782 -3.4357238 0.009564213

linear_32.weight f4 [32, 32]
000000 af e1 da bb f2 b3 5f 3e d5 af 8d be 67 8e 4b b9
       -0.0066797356 0.21845987 -0.27673212 -0.00019412638
000010 fb 76 66 3c 36 8c 83 3c 98 c3 88 3f a0 ca a1 3c
       0.014066453 0.016058069 1.068469 0.01974994
000020 c0 50 2a bd 83 ff 06 bc b3 76 8e be 44 b2 22 bd
       -0.041580915 -0.00823963 -0.27824935 -0.03972079
000030 e1 75 3e bc cd 9b 97 bb 0a 93 88 be ab 1b 24 be
       -0.011624784 -0.004626727 -0.26674682 -0.1602618
000040 8c 2c 38 bd 1f c0 3b 3c cd 22 6c b8 9d df 74 3e
       -0.04496436 0.011459379 -5.6299195e-05 0.23913427
000050 21 8c 22 be 5c 85 15 be 9b 3b 85 3b 7f 46 83 be
       -0.15873767 -0.14601654 0.0040659434 -0.25639722
000060 4c b8 df 3c ce 3b 08 bc 25 ee 2f 3b c4 b2 1b 3e
       0.02730956 -0.00831504 0.0026844826 0.15204912
000070 73 11 b0 3c 2b 4d af bd 2c ac c0 3d f5 72 3c bc
       0.021492695 -0.085596405 0.09407839 -0.011502017
000080 52 bb 29 be cd 96 95 be be 9d 7c 3e 08 a9 6b bc
       -0.16575363 -0.29216614 0.24669549 -0.014383562
000090 4e 9a e9 bd 73 23 d0 3b 8c 2c 80 bf 7c 89 16 3c
       -0.114063844 0.006351882 -1.0013595 0.009188052
0000a0 d2 cc a3 bd d9 c2 02 3c 3f 76 8d be ed c2 b4 b9
       -0.07998051 0.007981026 -0.27629277 -0.00034477506
0000b0 f9 85 da 3c 12 7d 87 bb e1 a9 2b bf 3f b1 63 3e
       0.026675211 -0.0041347826 -0.6705609 0.22235583
0000c0 ad 76 3f bd 1a 2d c7 bb 07 55 21 3b ad 1c 7f bd
       -0.046744037 -0.0060783746 0.002461733 -0.062283207
0000d0 26 58 b8 3d aa d3 71 3e f7 66 94 bb b6 a2 8d 3e
       0.09001188 0.236159 -0.004528876 0.276632
0000e0 cd 6f 71 be 86 fd 84 bb 0f e9 07 bb 61 cb 47 be
       -0.23577805 -0.0040585427 -0.002073828 -0.19511177
0000f0 0b dc ab bc 0d 65 0a 3c af cc da 3d 00 3f d6 bb
       -0.020978948 0.008446944 0.106835715 -0.006538272
000100 bf 21 58 bd 71 a2 36 be d3 54 b7 be 6c 8e 98 3b
       -0.052766558 -0.17835404 -0.35806903 0.00465565
000110 b0 fa 6a 3e 79 0e ef 3b 14 ef e7 3f fa cf 4a 3c
       0.22947192 0.0072954264 1.8119836 0.012378687
000120 db 29 55 bd 13 36 d6 3a 49 ad 5e 3d de 20 44 bb
       -0.05204187 0.001634302 0.054364476 -0.0029926817
000130 b0 df 1d bc 1d cb 10 3b 49 65 a2 3e 06 0c ae bd
       -0.009635851 0.0022093721 0.317179 -0.08498387
000140 c7 47 2d be 05 0d 06 3b ee 31 01 3c 98 54 b1 3e
       -0.16921912 0.0020454538 0.007885439 0.34634852
000150 a4 69 51 3e 77 da ff 3e a1 af c3 3c 7a c6 34 3d
       0.20450455 0.49971363 0.023887457 0.044134595
000160 da 66 c0 bd 89 a7 69 3b b4 53 84 3c f8 9d 7f 3c
       -0.093946174 0.0035652837 0.016153194 0.0156016275
000170 8a a0 87 bc cc e5 34 3e ec d2 b0 3e bb 72 67 3c
       -0.016556043 0.17665786 0.3453592 0.014126475
000180 33 e5 58 3d f4 37 4f be 55 2f 9e 3e 4d 55 a4 ba
       0.052952956 -0.20236188 0.30895486 -0.0012537629
000190 71 58 bf 3d 57 cb 32 bc a5 b2 91 bf dd 2d 16 bb
       0.09343041 -0.010912738 -1.1382643 -0.002291552
0001a0 eb db 4a 3d 79 d0 aa bc a9 2e bc 3e c6 b8 0d 3d
       0.049526136 -0.02085136 0.3675435 0.03460004
0001b0 29 dd 17 3d ab 16 ba bb c1 9a 94 3e 30 15 40 3e
       0.03707615 -0.0056789718 0.29024318 0.18758082
0001c0 46 38 82 3d 11 fd 92 3b 2a 24 f4 bb 9a f0 89 be
       0.063583896 0.0044857343 -0.0074506 -0.26941377
0001d0 81 f2 5b 3e b4 74 92 bc 8c dc e4 bb 64 a1 00 3e
       0.21479227 -0.017877914 -0.006984299 0.12561566
0001e0 2d bf eb 3c b9 88 78 bc 74 a3 fe bb 56 8a 72 be
       0.028777683 -0.015169316 -0.00777095 -0.23685583
0001f0 78 fd 13 bc 19 74 aa 3d d7 fc 3f be 80 31 34 3c
       -0.0090326 0.08322925 -0.18748794 0.01099813
000200 7e 79 0a 3f b1 9d 4d 3e d2 1a 9b be a2 e4 32 bb
       0.5409163 0.20079686 -0.302939 -0.002729692
000210 b3 8e 5e bd c9 58 43 bc 11 19 61 bf 6a ce db 3c
       -0.054335307 -0.0119230235 -0.87928873 0.026831824
000220 e6 38 53 3b 9a 68 7a bb 72 2d 0e 3f 8f 8f 65 be
       0.003222996 -0.003820932 0.55538094 -0.22418045
000230 2f 70 9b bc 8c a0 a6 3b 05 34 28 be f3 1c a8 be
       -0.018974392 0.0050850566 -0.16426094 -0.32834587
000240 e1 9e 90 3e 88 58 c3 ba 2c 96 68 bb 9e 20 f9 3e
       0.28246215 -0.0014903704 -0.00354899 0.48657697
000250 02 11 01 be e5 7d 7d 3f b1 52 a9 bb 94 a8 81 be
       -0.12604144 0.99020225 -0.0051673283 -0.25323927
000260 46 6d 9b 3d db 4f c1 bc 3a a8 de 3a bc 70 c5 be
       0.07589202 -0.023597648 0.0016987391 -0.38562572
000270 87 ab cc 38 4c ac dc be 36 2f 82 bd 89 2d 4c bc
       9.7594275e-05 -0.43100202 -0.06356661 -0.012462028
000280 f9 2f 4c bb 55 57 ca bd 2a 9e 86 be 22 4b a9 3c
       -0.0031156524 -0.098799385 -0.26292545 0.020665709
000290 fc b9 75 3e 9a 2b 32 bc 4e 99 f6 3f 75 84 2a 3c
       0.23996729 -0.010874653 1.9265535 0.010407557
0002a0 d5 ca f2 3c 0d 92 84 3a a4 b0 47 3e 50 c6 c2 3d
       0.029637733 0.0010114327 0.19500977 0.09510481
0002b0 b5 10 aa bc f9 db cf 3a 36 26 21 3f 5b a8 86 bd
       -0.02075992 0.0015858404 0.6294893 -0.0657508
0002c0 08 90 a1 bd 07 80 14 3d aa ef 98 bb be 20 d1 3e
       -0.078888 0.03625491 -0.004667242 0.40845293
0002d0 e5 c1 a5 3e 87 b4 ea 3e 09 e5 fa 3a e6 40 a5 bd
       0.32374492 0.45840856 0.0019141744 -0.08069019
0002e0 77 1b 5f 3d ce 26 46 3c 15 0a d4 bb 08 d1 cb 3d
       0.054469552 0.012094213 -0.0064709284 0.09951979
0002f0 77 5f 58 3c 50 1b 93 3e 58 08 d7 3e c1 3e c0 ba
       0.013206354 0.28731775 0.41998553 -0.001466714
000300 50 fb 12 3d 72 ac d1 3c 65 e7 72 be a6 1f e2 3c
       0.0358842 0.025594924 -0.23721083 0.027602982
000310 16 d5 57 3e d7 7d dc 3b 1a d2 f6 3f 0a 18 f6 39
       0.2107738 0.0067288685 1.9282868 0.00046938687
000320 df 8c c3 3d 88 80 a3 3c 75 7c 73 3e ae ed a3 3d
       0.095483534 0.01995875 0.23777945 0.08004318
000330 5d be b3 bc 15 21 8c bb 89 4b 35 3f 8f cf 5e bd
       -0.021941358 -0.0042764046 0.7081838 -0.054397162
000340 ed 29 62 3c 96 77 83 3c d9 1c 13 3c c7 3e ab 3e
       0.013803941 0.016048234 0.008979046 0.33446333
000350 a9 bc 88 3e 79 b7 a3 3e 78 25 a5 3c 8d 76 2e be
       0.26706436 0.31975916 0.020159468 -0.17037411
000360 71 cf d2 3d f6 5b 89 ba 2b 4b 41 3b 33 4c 0f 3e
       0.102934726 -0.0010479677 0.0029494266 0.13993911
000370 c8 98 ed 3b 52 8b 83 3e 0e 92 af 3e ea 5f 87 bc
       0.007250879 0.2569223 0.34291118 -0.016525228
000380 80 3e 2e 3e e0 12 53 be 6f a2 85 3e 5b 84 04 bb
       0.1701603 -0.20612669 0.2610049 -0.0020220492
000390 d5 31 9b 3d 86 51 90 3c 51 6f 42 bf 42 a5 a0 bb
       0.07577864 0.017616998 -0.75951105 -0.0049025128
0003a0 e8 89 de 3c 68 30 40 3c 61 d0 17 3f 33 40 d5 be
       0.027165368 0.011730291 0.59302336 -0.41650543
0003b0 4e 2c 0a 3c 3f f4 ee 3a 70 67 b4 bc ef 86 10 3e
       0.008433415 0.001823075 -0.02202198 0.14113973
0003c0 b7 ab 17 3d ef f4 a9 bc a6 d4 20 bc 04 85 bf be
       0.037028994 -0.020746676 -0.009816324 -0.3740617
0003d0 10 69 89 3e c1 a4 47 bf e7 3f 90 bb 03 54 67 3e
       0.2683797 -0.7798577 -0.004402149 0.22590642
0003e0 1a 42 9a bd 9c 31 81 3c 58 e2 9d 3b 38 6a b4 3d
       -0.07532139 0.015770726 0.004818242 0.08809322
0003f0 6d d2 14 bd fa de 25 3e 5e c3 06 bd f7 75 58 bb
       -0.03633349 0.1619834 -0.03290116 -0.0033029297

linear_32.bias f4 [32]
000000 a4 7d bd 3c 8f 74 24 3e 3e e2 7a be ba 59 63 bd
       0.0231312 0.16060089 -0.24500367 -0.05550549
000010 7b 16 2a be d7 e0 78 be 3c 00 75 be df 85 7c bd
       -0.16610138 -0.2430452 -0.2392587 -0.061651107
000020 10 14 26 be 9f 69 c2 3d 1a 50 9b 3d 3a 29 6a be
       -0.1621859 0.09492802 0.075836375 -0.22867289
000030 42 92 ca 3d 15 06 d2 3c 2b 32 75 be 8b f6 86 bd
       0.09891178 0.025637666 -0.23944919 -0.06589993
000040 ba 64 c7 39 31 a7 71 be 83 66 aa 3c ac d5 35 3d
       0.00038031285 -0.23598935 0.020800835 0.044393227
000050 4f 43 bf 3d 5c fe 69 3e aa 1c 46 be 42 55 6f 3e
       0.0933901 0.22850937 -0.19346872 0.23372367
000060 3e 63 6f be 56 2e cc 3d 48 d7 48 3d 97 31 bd 3d
       -0.23377702 0.099697754 0.049033433 0.09237974
000070 52 8f 76 3e 2b ca 6a bd df cf 1c be 3e d6 34 bc
       0.2407811 -0.05732171 -0.15313672 -0.011037407

rnn.weight_ih_l0 f4 [32, 32]
000000 c3 f7 22 bd f0 32 d4 3c 61 c6 21 3e dc 3d 03 bc
       -0.039787065 0.025903195 0.15798332 -0.008010354
000010 e8 9b fc bc 64 2c 14 3e fa 12 82 3d ad e6 54 3e
       -0.03083606 0.14470059 0.06351276 0.20791121
000020 77 37 12 3f 0b 78 90 be 76 35 05 bd 75 eb 51 3e
       0.5711588 -0.28216586 -0.032521687 0.20499976
000030 cb 51 e2 bc 94 2e 96 bd 2a ee ad 3d 3c 04 c6 3c
       -0.027626893 -0.07333103 0.08492692 0.024171941
000040 16 97 19 bd d1 9c 2d 3d a9 a6 2d be c6 e8 d3 3e
       -0.037497602 0.04238588 -0.16958107 0.4138853
000050 3f 54 8c 3d 8f 5f 53 3b 91 bc 9e 3f 57 b4 2e be
       0.06852006 0.0032253002 1.2401296 -0.17060982
000060 4b b6 8c 3e 52 8d ea 3d 0e 3f bd be 6b ed 98 3d
       0.27482828 0.11452736 -0.3696217 0.07467159
000070 72 0a 25 be 17 bb fc 3d 19 47 ae 3f 30 17 89 bd
       -0.16117266 0.12340372 1.3615447 -0.06693876
000080 b2 da 23 3d 83 60 7e bc 47 d2 28 3e df 5b 7a bc
       0.040003486 -0.01552594 0.16486464 -0.015280693
000090 b4 43 5a 3e e3 d4 4f 3e 4d 34 c3 3d 7a 72 ab 3e
       0.21314889 0.20296054 0.0953146 0.33485776
0000a0 cd 3e 91 3d 17 88 aa bd 5e ea c9 bd 53 fe 97 3e
       0.070920564 -0.08326738 -0.09859155 0.2968622
0000b0 2d 98 0b be 8f ca 1c 3d 8e 49 03 3e 2f be 0d 3e
       -0.13632269 0.038279112 0.12821028 0.1384208
0000c0 c3 dc 8a bd 55 29 d1 3d c6 fe 30 3d fc 40 b1 3d
       -0.06780388 0.102129616 0.04321172 0.08654973
0000d0 8a 30 a5 bd 09 c0 8c bc e3 d7 dd 3d 6c 5c f3 bd
       -0.08065899 -0.017181413 0.10832193 -0.118828624
0000e0 c7 e7 15 3e c0 0c 40 bd c5 7e e9 bd 44 07 39 bd
       0.14639197 -0.04688716 -0.114011325 -0.045172945
0000f0 75 5b 03 be d8 3c 48 be c1 23 04 be f4 56 91 bd
       -0.12827857 -0.1955446 -0.12904264 -0.07096663
000100 fd 02 81 bd 3b aa d0 3c 42 1a 89 bd ab 4c 94 3d
       -0.06299398 0.025471797 -0.066944614 0.07241186
000110 ff cd d8 3d b0 63 1f be 17 87 f9 bd d5 67 93 bc
       0.10586166 -0.15565372 -0.121839695 -0.017993847
000120 75 b4 60 3d 2d 7c 9a bd 71 55 f3 3b 49 69 c8 bd
       0.054859597 -0.07543216 0.007425957 -0.097857065
000130 eb ce d1 bc 80 3e 07 bd f6 ed 74 bd 0e 66 89 bd
       -0.025611361 -0.03301859 -0.05979725 -0.067089185
000140 1b 23 f6 ba 6f 67 84 bd 40 5e 56 bd 6a ed 68 be
       -0.0018778773 -0.06465041 -0.052335978 -0.22746816
000150 76 81 d8 3c 8b 03 ce 3d 1c d1 b0 bc e9 0f 35 3e
       0.02642892 0.100592695 -0.021584086 0.1768185
000160 2a 5f 5a be 78 8b c4 3c b2 a7 e7 3c 15 3f 1c 3d
       -0.21325365 0.023992285 0.028278206 0.038146097
000170 9a 9e 1e 3e 04 04 a6 3e 57 1e 06 be 04 23 ca 3c
       0.15490189 0.3242494 -0.13097511 0.0246749
000180 31 b3 22 3e 9f e4 db be 3b bc e7 3e 7a 91 b9 be
       0.15888669 -0.42947862 0.45260796 -0.36243802
000190 41 a3 59 3e 17 dc 38 3f 8f 3f 31 3f da 40 a3 be
       0.21253683 0.7221083 0.6923761 -0.31885415
0001a0 0a d0 91 3e 29 ad d7 3d 2f 2b 9d be 21 c1 d6 3d
       0.28479034 0.105310746 -0.3069701 0.10486055
0001b0 75 1e f8 bc eb bb 9a 3e 11 3a 31 3f 12 52 4f 3a
       -0.03028796 0.30221495 0.6922923 0.0007908653
0001c0 09 8e a9 be 85 f2 0c 3f 20 14 5f 3e 17 45 65 3d
       -0.33116177 0.55057555 0.21785021 0.055974092
0001d0 03 cd 63 be 43 20 20 bf 50 33 e5 bd c8 ef 1f bf
       -0.22246175 -0.6254923 -0.11191428 -0.6247525
0001e0 60 36 39 3f fc 06 bd be 86 28 15 be db cb c6 3e
       0.72348595 -0.3691939 -0.1456624 0.38827404
0001f0 9a 18 42 bf 32 e3 c2 be 40 a2 a6 bd 24 2d a3 be
       -0.7581879 -0.3806396 -0.081364155 -0.31870377
000200 60 ed 5c 3d 54 09 09 3e d9 25 2c 3e 58 51 21 be
       0.053937316 0.13382465 0.16811313 -0.15753686
000210 04 49 94 bd 1e 61 07 3e a3 35 ab 3d 40 7b 0c 3e
       -0.07240489 0.13220641 0.0835984 0.13718891
000220 28 74 79 be 84 48 6f 3d e8 24 30 bd 0c 57 a4 3e
       -0.24360716 0.058418766 -0.043003947 0.32097661
000230 97 8d 7d 3d 95 6d 4f bd d0 64 82 3d 24 76 d8 bb
       0.06190261 -0.050641615 0.06366885 -0.0066058803
000240 27 8f a0 bb f8 e7 81 3d 04 c4 e5 bd 52 74 de 3e
       -0.0048998776 0.06343073 -0.11219028 0.4344812
000250 6f 18 30 3e b0 61 d4 3c 1e dc 4f 3e 6a 84 a6 bd
       0.1719682 0.025925487 0.20298812 -0.08130725
000260 b5 5b 1d 3e 2a 40 1e 3e 6c de 91 be 6b 5a 19 3e
       0.15367015 0.15454164 -0.28490007 0.14975898
000270 69 f5 f2 bd f7 1e f6 be e0 68 83 bd e2 da b0 bc
       -0.118632145 -0.480705 -0.06416488 -0.021588746
000280 c5 9c af bc d2 c4 7b 3d 1e 97 fa 3d 98 a3 ae bd
       -0.021437058 0.061467 0.122358546 -0.08527297
000290 1d a5 45 3f cd 2d 47 3e 4b 37 04 3e ef 5e 18 bf
       0.7720507 0.19451065 0.12911718 -0.5951986
0002a0 0c a9 3b bd d8 c7 1e 3f 5d f5 7e bd 32 4a d8 3d
       -0.045815513 0.6202369 -0.062245715 0.10561027
0002b0 aa c5 d9 be 09 62 91 bd ba 6e f5 3d e5 3d 28 3d
       -0.42533618 -0.07098777 0.1198401 0.041074652
0002c0 f3 e7 9c bc e8 11 a3 3d 41 87 8d bd f8 ae ce bd
       -0.01915357 0.079624 -0.06910563 -0.100919664
0002d0 2f 47 97 3e 9b 7d 89 bd e9 49 83 3e 52 d6 30 be
       0.29546496 -0.067134105 0.25642326 -0.17269257
0002e0 9e af 83 3e fa 60 ec 3d 7a 2d ae bd de 50 47 bf
       0.25719923 0.11541934 -0.08504768 -0.7785777
0002f0 e9 12 26 be 07 87 31 3f 30 99 68 3e e3 34 8f 3c
       -0.16218151 0.6934666 0.22714686 0.017481273
000300 34 31 e8 bd 9d 62 e9 bc e9 97 1b be a1 5e 0e 3e
       -0.1133751 -0.028489405 -0.15194668 0.13903286
000310 71 1d 8f 3d 27 1e 18 be 2d 07 b2 bd 04 23 41 be
       0.069880374 -0.14855252 -0.08692775 -0.18861014
000320 d2 4b c8 3e fd 76 a3 bd ab a4 bd 3c 4a cf 8a be
       0.39120346 -0.079816796 0.023149809 -0.27111274
000330 17 63 b7 bd 8a 59 d9 bc 6e 84 e1 bd 0e 96 5b 3d
       -0.08954447 -0.026531953 -0.11011587 0.0536099
000340 b6 a6 98 3c 2e 16 db bd 82 b7 ef bd 77 bf 90 be
       0.018634181 -0.1069759 -0.11704923 -0.28271076
000350 38 ff 02 3d ef 99 89 3a 28 21 6a bd ec 02 c3 3d
       0.031981677 0.0010498146 -0.057160527 0.09522042
000360 90 bb 1d be ae 3f cb bb 5e 70 09 3e 3c d3 6c bd
       -0.1540358 -0.0062026596 0.13421771 -0.057818636
000370 c7 66 07 3e 83 58 0b 3f 50 68 4c 3e c9 f1 05 bc
       0.132228 0.54431933 0.19961667 -0.008175322
000380 a3 bc 50 3d 15 86 ab bb 72 37 a0 bd 94 e0 a1 bd
       0.050961148 -0.0052344897 -0.07823075 -0.07904163
000390 3c fc b4 3e a1 f8 50 be 95 de 2d be d1 63 e9 bc
       0.3534869 -0.20407344 -0.1697944 -0.028489979
0003a0 2e 51 55 3e bc 9c a1 bd 4f 87 e9 bc 20 9c c9 bd
       0.20831749 -0.07891223 -0.028506903 -0.098442316
0003b0 2b 97 3d be 59 aa 0f 3d 97 ce 9e bd a7 f4 7c 3d
       -0.18514697 0.035074566 -0.07754248 0.061756756
0003c0 21 58 16 bd 32 de 61 bd 23 4a 6c 3d bd a0 66 be
       -0.03670514 -0.055143543 0.05768789 -0.22522254
0003d0 0f f5 32 bd 0f e1 0f 3e 64 d4 33 3d 50 e1 3b 3e
       -0.043690737 0.14050697 0.043903723 0.18347669
0003e0 fc 64 80 be 04 d5 73 3c d7 95 7b bc f3 91 74 be
       -0.25077045 0.01488233 -0.015355549 -0.238838
0003f0 e0 ef 29 3e 2c 0f cb 3e f2 7c ae bd c8 85 a7 bb
       0.16595411 0.39660013 -0.08519925 -0.0051123835

rnn.weight_hh_l0 f4 [32, 32]
000000 ab 28 2e bf 0a 18 88 bd 44 a0 79 3d 51 d7 7b 3e
       -0.68030804 -0.0664521 0.060943857 0.24593855
000010 79 9d 72 be 76 3e 39 3d e7 ea fa 3d 9d 3e 36 3d
       -0.23692884 0.045225583 0.12251835 0.044493306
000020 d8 01 19 3c 97 f1 85 3e 68 ad 04 3e d3 de 78 bd
       0.0093388185 0.2616088 0.12956774 -0.060759377
000030 6f 16 73 be bf cc 99 3d 91 e2 62 be de 85 c6 bd
       -0.23739026 0.07509755 -0.2215674 -0.09693502
000040 c3 6c 78 3e 72 ac 2b 3e f9 44 65 be 9c 0a 3e be
       0.2426024 0.16765001 -0.22389592 -0.18558735
000050 02 e8 40 be d0 ac 3c be 9a e2 11 3e 1b c2 8b 3e
       -0.18838504 -0.18425298 0.14246598 0.27296528
000060 e9 8e 4e be ee ba c6 3b c5 db 7b 3d 20 0c f0 3b
       -0.20171703 0.006064764 0.061488885 0.007325664
000070 78 9d b4 3d a6 5f 48 3d a4 83 87 bd ec 58 be 3d
       0.08819097 0.048919342 -0.06616905 0.09294304
000080 75 36 48 bd 83 b7 ac be af 66 73 3d 45 40 cf 3e
       -0.04888006 -0.33733758 0.0594241 0.4047872
000090 69 50 01 be ec 2f a3 3d 6d 6d fb 3d 1f aa 40 3d
       -0.1262833 0.07968125 0.12276731 0.04703724
0000a0 00 81 da 3d 9f 2d c4 bd 8c a5 9b 3d f1 70 ce bc
       0.10669136 -0.09579014 0.07599935 -0.025200339
0000b0 df 73 4c be 64 1e 8f 3d f1 de 2c bd 98 95 cd bd
       -0.19966076 0.069882184 -0.0422048 -0.10038298
0000c0 e7 1e 8a 3d a2 76 bf 3d b2 eb b5 bd 96 e2 19 3d
       0.067441754 0.09348799 -0.08882846 0.037569605
0000d0 8b d4 05 bc dc d4 f0 3d c3 6b dc 3c 7a 5c e8 bd
       -0.00816835 0.1175935 0.026906854 -0.113457635
0000e0 0a b6 4c bd ea 62 24 3d ec df 60 bc 25 e0 78 bc
       -0.049978293 0.040133394 -0.013725262 -0.015190159
0000f0 76 2f 54 3c 84 15 9e 3d 4a 16 ab bd 81 45 83 bb
       0.012950769 0.077189475 -0.08353861 -0.0040060882
000100 c7 65 2e 3d 34 52 b1 3d 60 10 70 be bd 1d 88 be
       0.04257753 0.08658257 -0.23443747 -0.26585189
000110 06 1d 49 3d 88 65 08 3e 69 0e a3 bb b5 06 cf bc
       0.049099945 0.13319981 -0.004976083 -0.025271753
000120 5a 46 2c 3d c0 f0 ed 3d 3d 2e 16 3b e5 e6 b7 bd
       0.04205928 0.11618185 0.0022915744 -0.089795865
000130 89 a7 24 3e 1a 50 1c 3a bf f9 25 3d 03 dd cc 3b
       0.16079535 0.0005962864 0.04052138 0.0062519326
000140 66 3a 08 bd 32 70 96 bd a2 7b 35 3d 37 85 5b 3d
       -0.033258818 -0.07345618 0.04430736 0.05359384
000150 4d 3f 5b 3c 4e cc 89 3d e0 68 70 3c ad 53 3a bd
       0.013381791 0.06728421 0.014673442 -0.045489956
000160 c4 e0 93 bd 6e ef 36 bd 41 4f e6 bc e3 cd 45 3d
       -0.07220605 -0.04466193 -0.028113963 0.048292052
000170 d7 86 34 bd 64 14 a7 3b 47 6c 3e 3d 11 f3 e4 bc
       -0.044073906 0.0050988663 0.04648998 -0.027947934
000180 0a 18 67 3f 74 c2 d5 be 9c 0d 0e bd a9 ba 40 3e
       0.90271056 -0.41749918 -0.034680948 0.18821205
000190 af 2d 91 bd 82 bd b8 3e 2e f9 e6 3d 70 de f8 3b
       -0.070887916 0.36082083 0.11277996 0.007594876
0001a0 11 53 4c 3e 1b 55 76 bb 03 28 3a 3e fb 9e ea 3e
       0.19953562 -0.0037587348 0.18179326 0.45824417
0001b0 87 a4 a8 bc 35 8d 8d bc 6f f3 12 3e ff 57 63 3e
       -0.020586265 -0.017279247 0.14350675 0.22201537
0001c0 e3 7d 8c 3d a2 0c 82 3e 5b 65 07 bd e0 5a 15 bf
       0.068599485 0.25400263 -0.033055644 -0.5834179
0001d0 82 89 6c be 96 e9 bf 3d 84 57 39 be 38 f5 85 bf
       -0.2309933 0.09370725 -0.18099791 -1.046546
0001e0 01 4f 10 bf b8 36 cd 3d 19 0d 4d 3e 07 83 8a be
       -0.5637055 0.100202024 0.20024528 -0.2705309
0001f0 24 f3 3b 3e cd 75 96 3e a1 74 db bd c9 c4 b8 bd
       0.1835447 0.2938675 -0.107156046 -0.09021909
000200 0f fb 9e 3d af 81 2f bd 56 77 aa 3d d8 89 75 3e
       0.077627294 -0.042848285 0.08323543 0.23978364
000210 67 81 e4 be 09 06 49 be 6e c8 d7 3d e6 90 50 bd
       -0.44629976 -0.19631208 0.10536276 -0.050919436
000220 b2 f0 cc bc 72 d7 66 be d7 0a 1b bd ac 83 50 3b
       -0.025017116 -0.22543123 -0.037852135 0.0031816764
000230 a4 9f 33 be 85 75 18 bd f1 c2 ab bc af 70 89 bd
       -0.17541367 -0.03722145 -0.020966979 -0.06710946
000240 8b 8b 06 bd 33 b7 d3 3d 24 1f c6 bd d1 c0 51 bd
       -0.032847922 0.10337677 -0.09673908 -0.051209275
000250 e5 28 31 bc 2d b3 91 bd 22 9a 81 bc 1a e7 3c bd
       -0.010812973 -0.07114253 -0.015820567 -0.046118833
000260 5c 67 0a 3e 8e 13 f6 3c a1 a1 a1 bc 04 92 07 bc
       0.13515991 0.030038621 -0.019730391 -0.008274559
000270 e3 5d 9c 3d 6e 88 91 bd 35 0e a9 bd 10 5b 3b bd
       0.07635095 -0.071061 -0.08254663 -0.04574114
000280 6a 34 0c bf 47 2c 04 be d7 1a 40 bd 8e 14 ea 3e
       -0.5476748 -0.12907515 -0.046900596 0.45718807
000290 24 b8 cf 3d 76 9c b5 be 1e a2 1a be e8 aa dc 3c
       0.10142544 -0.35470933 -0.15100905 0.026936963
0002a0 9a 66 84 3e 11 3e 05 bf 5a a5 a3 3d 3f b6 8e 3e
       0.2585953 -0.5204783 0.07990523 0.27873418
0002b0 6f a1 2f be 14 49 83 bd bf b2 1e bc c1 8e 81 bb
       -0.17151426 -0.06410423 -0.009686171 -0.003953785
0002c0 5e 5d 2e 3e 04 53 aa 3d e4 32 88 3d 1f c5 8c bd
       0.17027804 0.08316615 0.066503316 -0.06873535
0002d0 a6 cf e2 bd 87 70 a9 bd 32 8f 2f bc 1a d7 85 3e
       -0.11074762 -0.08273416 -0.010715293 0.26140672
0002e0 d3 d6 f7 bd 6b a9 c7 bc d5 54 c3 3d a1 3e 09 3c
       -0.12101521 -0.024372777 0.09537665 0.008376748
0002f0 0a 8e 62 3d 46 4e 4b 3e c4 71 14 bd fd d5 fb bd
       0.05531124 0.19854078 -0.036241308 -0.122966744
000300 74 47 ac bd ae bd 87 3c fe 9e 8a bd 62 d8 78 be
       -0.08412066 0.016569939 -0.067686066 -0.24301293
000310 3a 21 28 3e 71 21 9c 3e 5e 6a ca be 4e 07 c0 3c
       0.16418925 0.30494264 -0.39534277 0.023440983
000320 00 a7 0f 3d e5 9f c4 3d 4d fd ca 3d 58 59 ba 3d
       0.035071373 0.0960081 0.099115945 0.09099072
000330 95 13 23 3e a7 ea fe 39 bb 4d 95 bc d7 a7 93 3c
       0.15925439 0.00048621485 -0.018225541 0.018024368
000340 0b 91 50 3e 91 ec 95 bd c8 a6 88 3d 7e 18 8d 3b
       0.2036783 -0.07320512 0.06672436 0.004305898
000350 30 15 65 bd 5d f9 a8 bd dc 86 06 3d 23 ba b6 3d
       -0.05592841 -0.08250687 0.032843456 0.089222215
000360 86 9e 20 bd ce a8 e4 bb 71 59 8a 3d 74 58 ea bb
       -0.03921368 -0.006978131 0.06755341 -0.0071516577
000370 78 93 c0 bc d8 db cf 3d dd fc 92 3d f9 19 b8 3a
       -0.023507819 0.10149354 0.07177136 0.0014045826
000380 ef c8 b4 3d d9 95 85 3c a0 c5 07 bd cf 74 50 be
       0.088273875 0.016306804 -0.033147454 -0.20357059
000390 de ae 6c 3d 70 92 21 3e d7 20 15 bd 89 19 85 be
       0.057783954 0.15778518 -0.03640827 -0.25996044
0003a0 0f 40 2b 3e 34 cf 20 bd ce 9d 42 3d 7a 23 c3 bc
       0.16723655 -0.039260104 0.047513776 -0.023820627
0003b0 36 d3 17 3e 0e 24 45 bc 91 b9 24 bd 53 15 b1 bd
       0.14826664 -0.012032522 -0.040216032 -0.086466454
0003c0 bf 3d 03 3e d7 aa f3 bc e0 9f 2e 3d 64 1a df bb
       0.12816523 -0.029744549 0.042632937 -0.006808566
0003d0 0e f5 8c bd 21 ad 71 3d 41 dd 91 3d 36 37 a2 bd
       -0.06882678 0.059003 0.07122279 -0.07920687
0003e0 8b 25 a1 bd 46 33 93 3c df 43 08 3e 93 d5 a6 3c
       -0.07868489 0.017968785 0.13307141 0.020365512
0003f0 9e bf 31 3d e1 8d 09 3e b7 c8 56 3d d2 38 95 3d
       0.04339563 0.13433029 0.05243751 0.07286228

rnn.bias_ih_l0 f4 [32]
000000 96 a4 a7 3b 97 ae 08 3c de d2 f4 bc 47 58 08 3f
       0.0051160557 0.008342407 -0.029885706 0.532597
000010 d0 09 fe 3d 05 18 bd bc fe d4 02 be d6 a0 5c bd
       0.12404215 -0.023082742 -0.12776563 -0.053864323
000020 ae ac af bd 97 83 06 bc d3 4d 0a bb 89 73 7b 3d
       -0.08577858 -0.008210084 -0.0021103516 0.06138948
000030 4f 4c 6c 3d 0e 88 9d bd 63 fe 80 3a fc 98 34 bc
       0.05768996 -0.07691966 0.0009841438 -0.011022802
000040 48 a0 3b 3e 28 20 ce bc 3b 92 c9 3d 8a 98 d2 3b
       0.18322861 -0.025161818 0.098423444 0.0064268755
000050 5a 4e 69 bd 8b 42 84 bd 58 f5 a7 ba fe 00 89 bd
       -0.056959487 -0.064580046 -0.0012814207 -0.06689642
000060 96 2d b7 3c 64 e7 59 bc 01 8c 87 3d 5f 50 54 bb
       0.022360604 -0.013299797 0.066185005 -0.0032396538
000070 96 70 4d bd d3 f4 34 bd 86 6d 70 3c db 8f c8 ba
       -0.0501562 -0.044178795 0.01467455 -0.0015301661

rnn.bias_hh_l0 f4 [32]
000000 96 a4 a7 3b 97 ae 08 3c de d2 f4 bc 47 58 08 3f
       0.0051160557 0.008342407 -0.029885706 0.532597
000010 d0 09 fe 3d 05 18 bd bc fe d4 02 be d6 a0 5c bd
       0.12404215 -0.023082742 -0.12776563 -0.053864323
000020 ae ac af bd 97 83 06 bc d3 4d 0a bb 89 73 7b 3d
       -0.08577858 -0.008210084 -0.0021103516 0.06138948
000030 4f 4c 6c 3d 0e 88 9d bd 63 fe 80 3a fc 98 34 bc
       0.05768996 -0.07691966 0.0009841438 -0.011022802
000040 48 a0 3b 3e 28 20 ce bc 3b 92 c9 3d 8a 98 d2 3b
       0.18322861 -0.025161818 0.098423444 0.0064268755
000050 5a 4e 69 bd 8b 42 84 bd 58 f5 a7 ba fe 00 89 bd
       -0.056959487 -0.064580046 -0.0012814207 -0.06689642
000060 96 2d b7 3c 64 e7 59 bc 01 8c 87 3d 5f 50 54 bb
       0.022360604 -0.013299797 0.066185005 -0.0032396538
000070 96 70 4d bd d3 f4 34 bd 86 6d 70 3c db 8f c8 ba
       -0.0501562 -0.044178795 0.01467455 -0.0015301661

linear_out.weight f4 [7, 32]
000000 3d 59 e3 bb 3e ec 8a bb 44 4a d6 3b 39 bf 27 3b
       -0.0069381283 -0.004239588 0.006539615 0.0025596155
000010 e2 7a 3e bc 34 b7 f8 bb b3 45 ac 3b 97 be 69 3b
       -0.011625977 -0.007590199 0.005257332 0.003566658
000020 0f af ed 3b 8a 2c ae bd f0 05 67 ba 6b d8 e3 bc
       0.0072535346 -0.08504589 -0.00088128354 -0.027813157
000030 91 a7 24 3c 68 ff fc 3b be 46 8b bc 01 0d 27 bc
       0.010049717 0.0077208765 -0.017001506 -0.0101959715
000040 07 b0 34 bb f8 cd 80 3b 2a 3e cd bb de f2 9e 3b
       -0.002757074 0.0039308034 -0.006263514 0.0048507294
000050 eb f5 7b 3b af 30 1b 3c 71 bf 98 3c c0 d3 b1 3a
       0.003844614 0.009472056 0.018645974 0.0013567135
000060 15 2e ac 3b 11 e5 e0 3b c0 e2 1f ba ff 2c 85 bb
       0.005254517 0.0068632443 -0.0006099157 -0.004064202
000070 1f 33 61 3c 70 e9 d6 3b 00 23 29 bc d5 a0 f0 3c
       0.013745098 0.0065585896 -0.010323286 0.029373566
000080 8b 57 03 3f 81 f8 04 3f a8 d1 0e bf 32 8c 72 3e
       0.51305455 0.51941687 -0.5578866 0.23686293
000090 40 da 09 3f 55 df fa 3e 8f 9f 00 bf 2f 10 08 bf
       0.5384865 0.48998514 -0.5024347 -0.53149694
0000a0 17 6d dc be 7a 54 f1 3d 22 d7 0d bf 07 7c 0c bf
       -0.4305198 0.11783691 -0.5540639 -0.5487675
0000b0 ca bb eb 3e a3 3e 04 bf 17 22 07 bf e0 02 0a bf
       0.4604171 -0.51658076 -0.5278639 -0.53910637
0000c0 f8 ea b7 3e c9 40 0d bf 90 c6 0a 3f 75 7b 03 bf
       0.35921454 -0.5517698 0.5420923 -0.51360255
0000d0 59 bc fb be a7 f2 dc be 2b 92 0b 3f 1f c0 b9 be
       -0.49167135 -0.4315388 0.5451991 -0.3627939
0000e0 2b 4b 12 bf 54 3f 0b bf 28 0e 04 3f a4 18 0a 3f
       -0.5714595 -0.54393506 0.515841 0.5394385
0000f0 0a ea fd be 4e 48 eb be cd 1d 0e 3f da ed 02 3f
       -0.4959262 -0.45953602 0.5551422 0.5114418
000100 0b ca 57 be d6 fe 85 3d a2 5f 17 3d c1 dc 52 3c
       -0.21073167 0.06542747 0.036956437 0.012870015
000110 00 4c 06 be e7 42 2f bd 51 23 20 3c 40 5f 33 3d
       -0.13114929 -0.042788412 0.009774045 0.04379201
000120 76 5a 31 3c 4f d7 b4 3f 5e 3c 03 b9 ad 8c d8 be
       0.01082479 1.4128207 -0.00012515622 -0.42294827
000130 e8 dd 5e bd b0 16 6f 3d d7 a8 b0 bd e2 ad 9a bd
       -0.054410845 0.058371246 -0.08625954 -0.07552697
000140 3e 07 84 bb ff d1 33 3d 57 6b f3 bd d4 01 66 3c
       -0.0040291836 0.04390144 -0.11885708 0.014038522
000150 52 ac 2c 3d 2e 83 c9 3d b5 b9 1d 3d 27 56 a6 bd
       0.042156525 0.09839474 0.038507182 -0.08121901
000160 1e 8d 0a be 78 8a 90 bd 56 65 8b bd 46 3a b1 3d
       -0.13530394 -0.07057661 -0.06806438 0.08653693
000170 4a c6 8e 3c 4c 5c 15 bd e3 a8 30 bd 96 9a 11 3d
       0.017428536 -0.036464974 -0.043129813 0.035547815
000180 88 40 02 bd 05 d8 da bc 6b 35 05 bc 81 2a 04 3c
       -0.031799823 -0.026714334 -0.008130412 0.008066774
000190 da b0 73 bc ee 49 2b be 1b c9 16 3a bd f1 59 bc
       -0.014873708 -0.1672742 0.0005752013 -0.013302264
0001a0 b4 e5 1b 3e 81 e0 9f be 1a cd a2 3b 79 9c ff bd
       0.15224344 -0.3122597 0.0049682977 -0.12481017
0001b0 9a d7 a6 3d 9e f2 ab 3c 16 da f0 bd 85 58 8e bd
       0.081465915 0.020989712 -0.117603466 -0.069504775
0001c0 97 fa 3d 3c e4 10 87 3c 0e c4 25 bd 7e aa 47 bc
       0.01159539 0.016487546 -0.040470175 -0.012186645
0001d0 9b e5 9f bc 6e 0a 2a 3e 4f 39 ec 3d 94 fe eb bc
       -0.019518664 0.16605541 0.11534368 -0.028807916
0001e0 63 4e 97 bc c7 71 a9 3d e9 6a 3f 3d 7f 41 21 39
       -0.018469995 0.082736544 0.046732817 0.00015378556
0001f0 78 bc 32 3e fa 90 0b 3e 8b a1 8e bd 52 ba 85 3e
       0.17454708 0.13629523 -0.069644056 0.26118714
000200 b3 01 9b bd 92 66 c9 bc d7 8e 9c 3d 39 f6 96 3c
       -0.075686835 -0.024585042 0.07644432 0.018427955
000210 12 2e a2 bd 54 15 09 bd b6 4c 36 3d 61 5c 44 3d
       -0.079189435 -0.033467606 0.04450675 0.047939662
000220 a1 e9 54 3b 52 6b 27 bf 88 88 16 3d 1e 33 80 be
       0.0032487886 -0.6539813 0.0367513 -0.25039
000230 a7 4d aa 3d 19 4b 71 3d 00 b1 18 be 25 0c cf bd
       0.08315592 0.05890951 -0.1491127 -0.10109738
000240 55 ee 5e 37 e6 cd 4e 3d d5 fd 8f bd 30 00 57 3d
       1.3287722e-05 0.05048933 -0.070308365 0.052490413
000250 5f 60 1f 3d 20 d8 f1 3c ba d0 26 3e bb 74 58 3d
       0.038910266 0.029522002 0.1629056 0.052845698
000260 0f b3 8e 3d 2f 7e 23 3d ca eb 4a bd bd c1 20 bd
       0.069677465 0.03991526 -0.049541272 -0.039247263
000270 a6 32 fa 3c ee 01 45 3c 6e 0e 69 bd fb 3b 27 3e
       0.03054173 0.012024386 -0.056898527 0.16331474
000280 9f 49 37 bd 4c 20 64 bc 11 42 20 3d 14 87 bf bb
       -0.044747945 -0.013923716 0.039125506 -0.00584496
000290 13 0f 95 bc fe f9 0d 3a e8 72 8a 3c c7 27 a5 3c
       -0.018195665 0.0005415975 0.016900495 0.020160569
0002a0 a0 4f 1e bc 3f 59 37 be 8f 8b b5 3c c3 43 8e bd
       -0.009662539 -0.17905138 0.022161273 -0.06946518
0002b0 81 ad 11 3d f1 f7 a3 3c fb fc 18 bd a9 ac a5 bc
       0.035565857 0.020015689 -0.037350636 -0.020223932
0002c0 d9 2c eb bb 8f 25 f5 3b 91 a7 ee bc 81 44 e2 3c
       -0.007176977 0.007481284 -0.029132636 0.027620556
0002d0 f2 6c a4 3c c2 6b a9 39 b7 f4 0c 3d 09 81 b1 3c
       0.02007148 0.00032314478 0.034413066 0.021667974
0002e0 7c e9 cc 3c 88 86 ff 3b a5 fa da bc 12 e7 84 bc
       0.025013678 0.00779802 -0.026730845 -0.016223464
0002f0 75 5b 44 bc eb 7d 16 bc 31 31 80 bc 44 e9 4c 3d
       -0.011984696 -0.009185295 -0.015648456 0.050027147
000300 0b 60 17 bb 1a 68 10 bb e4 34 df 3b f3 df 8d b9
       -0.0023098018 -0.0022034706 0.006811725 -0.0002706047
000310 9d 7f bf bb 4d 5a d5 b8 f1 b7 89 3b aa 2c a3 3b
       -0.00584407 -0.00010173451 0.0042028357 0.0049796896
000320 3b 01 92 ba 9b 90 5d bd 7b 57 ad 37 47 65 9c bc
       -0.0011139283 -0.054092985 2.0663943e-05 -0.019091262
000330 8c 26 82 3b b5 cf da 3b de 00 18 bc 65 03 c5 bb
       0.0039718803 0.0066775926 -0.0092775505 -0.0060123676
000340 0a 86 77 ba a0 85 a9 3a db d0 62 bb 82 d5 ea 3b
       -0.00094422756 0.00129335 -0.003460935 0.0071665654
000350 5d 4b a3 3b 42 f9 56 3b 11 46 1e 3c 6c 89 a4 3b
       0.0049833492 0.0032802378 0.00966026 0.005021265
000360 70 51 70 3b 89 0e 1b 3b b0 89 40 bb 37 bb e0 ba
       0.0036669634 0.0023659787 -0.0029378943 -0.0017145638
000370 97 4a 70 3b f8 3d df ba c5 30 b5 bb 0f a8 4e 3c
       0.0036665553 -0.0017032018 -0.0055294954 0.0126133105

linear_out.bias f4 [7]
000000 dc 17 c0 3c 91 57 4a 41 e9 9c 4a 3d 4f 63 70 3e
       0.023448877 12.6463785 0.049466047 0.23475383
000010 6b a8 29 3e b8 1e c8 3d 75 ba 64 3c
       0.16568153 0.09771484 0.01396047

batch_norm_layer.weight f4 [32]
000000 75 78 17 3e 0e ef 51 be 18 28 73 3e 56 81 32 ba
       0.14792044 -0.20501348 0.23745763 -0.00068094337
000010 eb 45 2c 3e f8 8c 0e 3a 6c 36 e1 3e b4 c0 0b bc
       0.16823547 0.0005437876 0.43986833 -0.008529831
000020 6d 95 b9 3b 2d a3 84 38 47 c6 0c be 76 a4 3b be
       0.005663565 6.324644e-05 -0.13747512 -0.18324456
000030 b0 a7 ca 3a 7e 44 a5 37 ee 7d af be 2e 69 90 3e
       0.0015461352 1.9701427e-05 -0.34275764 0.28205246
000040 8b 49 0d 3e 1a 9d 31 bc 62 05 83 bb 49 9b 2c be
       0.13797586 -0.010840679 -0.0039984444 -0.16856112
000050 c3 74 94 be 75 d3 f7 be 77 29 22 bc f2 53 4f 3e
       -0.28995332 -0.48403516 -0.009897581 0.20246866
000060 af af a4 be 00 83 4c 39 35 75 bc 3b 5d 8c 12 3e
       -0.32165286 0.00019503757 0.005751277 0.14311357
000070 b8 f6 0f 3c f2 76 5f 3e 0d 00 a6 3e fc 36 75 3b
       0.00878685 0.21822718 0.32421914 0.0037416806

batch_norm_layer.bias f4 [32]
000000 53 44 14 3e b9 6b 18 3c 7d a9 2c be eb ba 3b bb
       0.14479189 0.009303027 -0.1686153 -0.0028645347
000010 e8 6d d0 3e f1 96 d1 bb 04 77 0a bf b6 16 61 bd
       0.40708852 -0.0063961674 -0.54087853 -0.0549533
000020 90 30 1f bd ab aa dc b9 c3 4b b9 3e d3 dd a2 3e
       -0.038864672 -0.00042088827 0.36190614 0.31809863
000030 a8 26 91 bd eb dc 41 b9 e8 fb a3 be 36 50 d9 bd
       -0.07087451 -0.00018488213 -0.32028127 -0.10611002
000040 8e 1b 00 3d 8f c7 8a bd 73 e3 03 bd 20 86 ba 3e
       0.03127628 -0.06776344 -0.032199334 0.36430454
000050 4c ca 4d 3e bc c7 50 be 44 c4 5a bd ed c0 87 3d
       0.20096701 -0.20388693 -0.05340983 0.066285945
000060 70 2a 8c 3d c0 43 79 ba 61 94 29 bd d4 bc 6e 3e
       0.06844032 -0.0009508692 -0.04140127 0.2331422
000070 b5 b7 77 bd 02 1d 55 3e e4 89 8d 3e 0e 87 a4 bc
       -0.06047793 0.20811847 0.27644265 -0.02008393
