VehicalStateperML_RNN_epochs_25_BS:8.pth (torch, 19445 bytes, 12 tensors)

linear_in.weight f4 [32, 9]
0	0x3fdb8d0d	1.715242
1	0x4050e0b0	3.2637138
2	0xbf8fde02	-1.1239626
3	0x3fb92f98	1.446765
4	0x4013e0a4	2.310586
5	0x40076550	2.1155586
6	0x40153bf0	2.3317833
7	0x3c8655da	0.01639836
8	0xbf43da74	-0.7650521
9	0xc01f6c9b	-2.4910038
10	0x3e039a33	0.12851791
11	0x3e97f95d	0.29682437
12	0xc0963278	-4.6936607
13	0xbfd620de	-1.672878
14	0xbea23f39	-0.3168886
15	0xbfce3024	-1.6108441
16	0x3d36a4eb	0.04459087
17	0x3d2ed8a1	0.042687062
18	0xc02b3fda	-2.6757722
19	0x3da59c14	0.0808641
20	0x3ea067ed	0.3132929
21	0xc0a51492	-5.158761
22	0xbfe718d9	-1.8054458
23	0xbfd304ad	-1.6485802
24	0xbfe0248a	-1.7511151
25	0xbb6e39f0	-0.0036350451
26	0xbe9c9fbf	-0.30590627
27	0xc042c41a	-3.043219
28	0x3fcec29c	1.615314
29	0xbf04e513	-0.5191204
30	0xbfc8f086	-1.5698402
31	0xc02ca64a	-2.6976495
32	0xbf873eeb	-1.0566076
33	0xc024bd1d	-2.5740426
34	0xbd1705e4	-0.036870852
35	0xbfaddaee	-1.3582437
36	0x3e9ed071	0.31018403
37	0xbe803d4e	-0.25046772
38	0xbf54c56f	-0.8311376
39	0xbcf165d6	-0.029467504
40	0x3ead047c	0.33792484
41	0x3ef3dd24	0.47629654
42	0x3ea4953c	0.32145107
43	0xbcef2948	-0.02919449
44	0xbf663b06	-0.8993381
45	0xbd818baf	-0.06325471
46	0x3efe723f	0.49696538
47	0x3de50037	0.111816816
48	0x3d804f5d	0.06265137
49	0xbd8cbf96	-0.068724796
50	0xbe187dfd	-0.1489181
51	0xbd8d508b	-0.06900128
52	0xbba4a74f	-0.0050248276
53	0x3dea1953	0.114306115
54	0xc0006f42	-2.0067906
55	0xbf28be5e	-0.6591548
56	0x3ef62646	0.48076075
57	0xc007f563	-2.1243522
58	0xc042f70c	-3.0463285
59	0xbfc942a3	-1.5723461
60	0xc047b86c	-3.1206312
61	0x3bc4c399	0.0060047624
62	0xbcc5da28	-0.024151877
63	0x400c3725	2.1908658
64	0xbfa78871	-1.3088514
65	0xbfc299ad	-1.5203148
66	0x40a7ad32	5.239892
67	0x3eb7de6b	0.3591188
68	0x3f1e5b98	0.6185851
69	0x3eaa61d2	0.33277756
70	0x3bfe3b75	0.0077585527
71	0xbfabd241	-1.3423539
72	0x3b890000	0.004180908
73	0xbe773f1d	-0.2414517
74	0xbb902b58	-0.004399698
75	0xbc405903	-0.011739972
76	0x3d187c9a	0.037228204
77	0x3cf6eaee	0.03014132
78	0x3d0f937b	0.035052758
79	0x3c178972	0.009249078
80	0x3c49eb5c	0.01232418
81	0x3f01ee15	0.5075391
82	0x3f7aac10	0.97918797
83	0xbe7765dc	-0.2415995
84	0xbad134c6	-0.0015961162
85	0x3f20a9e1	0.62759215
86	0x3e22d8d8	0.15903032
87	0x3f22dda7	0.63619465
88	0xbe089c66	-0.13340911
89	0xbf55a798	-0.8345885
90	0xbcd2ca61	-0.025731267
91	0x3e97df9b	0.29662785
92	0x3d2fd429	0.04292694
93	0x3b7a387e	0.0038180645
94	0xbd636eb3	-0.055525493
95	0xbdab7ee5	-0.083738126
96	0xbd8a7544	-0.06760648
97	0xbb1de3a6	-0.0024091988
98	0x3d999943	0.074999355
99	0x3ec83ee7	0.3911049
100	0x3e17fbb0	0.14842105
101	0x3fbff588	1.4996805
102	0xbeb045f4	-0.3442837
103	0xbd8802f4	-0.06641188
104	0xc00c4150	-2.1914864
105	0xbadb415e	-0.0016727855
106	0x3cb23985	0.021755943
107	0xbfd28ec2	-1.6449816
108	0x3eccf791	0.40032628
109	0x3e5a6456	0.21327338
110	0x3f14ff7a	0.58202326
111	0xbf8591c5	-1.043511
112	0xbeac8314	-0.33693755
113	0xbe056384	-0.13026243
114	0xbeaa31d8	-0.33241153
115	0x3e0484b1	0.12941243
116	0xbf9228a6	-1.1418655
117	0xbe74bd00	-0.23900223
118	0xbf3835af	-0.71956915
119	0xbd7b2013	-0.061309885
120	0xbe03f55b	-0.12886564
121	0xbeab0162	-0.33399493
122	0x3ba95eb3	0.0051687597
123	0xbeb8a4a0	-0.360631
124	0xbc88fb05	-0.016721258
125	0xbe249b60	-0.16074896
126	0x4068d8b3	3.6382263
127	0x403e8ecc	2.9774656
128	0xc0175f99	-2.3652098
129	0x3e0efa17	0.13962589
130	0x409d8e3a	4.9236116
131	0x408f6978	4.4816246
132	0x409ca1a3	4.894731
133	0xba92188a	-0.0011146229
134	0xbfbd5654	-1.479197
135	0xbf822dc2	-1.0170214
136	0xbf268d95	-0.6505979
137	0xc0227ee0	-2.5389938
138	0xc0399684	-2.8998117
139	0xbeb095d3	-0.34489307
140	0x3d02b8cf	0.03191453
141	0xbebcec1e	-0.36898893
142	0x3b3c9b5e	0.002877913
143	0xc07d5935	-3.9585698
144	0xbe9d6936	-0.30744332
145	0x3f662ee9	0.8991533
146	0xbe07bec6	-0.13256368
147	0x3e5e5131	0.2171066
148	0xbe8bd15c	-0.27308166
149	0xbecdd6e3	-0.40203008
150	0xbe70e49e	-0.2352471
151	0x3d010881	0.03150225
152	0x3d0fbae5	0.035090346
153	0xbf983171	-1.1890088
154	0xbfb10d7a	-1.3832238
155	0xbf8f131f	-1.117771
156	0xbf87ac53	-1.0599464
157	0xc0062550	-2.0960274
158	0xbfbc3bd6	-1.470576
159	0xc005228a	-2.080233
160	0x3aa79a13	0.0012787007
161	0xc09b4d67	-4.8531985
162	0xc080a9b2	-4.0207148
163	0xbeb735cf	-0.3578324
164	0xbf359fb5	-0.7094682
165	0xc00197bd	-2.0248864
166	0xc0ab8008	-5.359379
167	0xc0748611	-3.8206828
168	0xc0aba3da	-5.3637514
169	0xb91ff312	-0.00015253972
170	0xbebc19b2	-0.36738354
171	0x3d9dfcbe	0.07714222
172	0xbfc7ab44	-1.5599141
173	0xbf8aec63	-1.085339
174	0x3f0b9504	0.54524255
175	0xbf65cfb0	-0.8977003
176	0x3eb32ed4	0.34996665
177	0xbf730798	-0.9493346
178	0xbc963ad9	-0.018338608
179	0xbe1b8477	-0.1518725
180	0x3f093004	0.5358889
181	0x3f54814f	0.8300981
182	0xbedddc11	-0.4333196
183	0x3ea1473e	0.31499666
184	0x3f3977cd	0.72448426
185	0x3ef4b2f1	0.4779277
186	0x3f3c8d5f	0.73653215
187	0x3cb6eeb3	0.022330618
188	0xbeac1e65	-0.3361694
189	0x3e913398	0.28359675
190	0xbfb99a96	-1.4500301
191	0xbf12326b	-0.5710818
192	0xbee5d859	-0.44891623
193	0xbdc5a5b0	-0.09650743
194	0x3f9923c0	1.1964035
195	0xbe65502e	-0.22393867
196	0xbd58c1f3	-0.05291934
197	0xbfe744ef	-1.8067912
198	0x3f933aaf	1.1502284
199	0x3f0c92a5	0.5491126
200	0xc005d500	-2.0911255
201	0x3fa12cd1	1.2591802
202	0x3e9f80bb	0.311529
203	0xbecb9bdf	-0.39767358
204	0x3ea763e6	0.32693404
205	0x3b7a1edb	0.0038165364
206	0xc0bb3a20	-5.8508453
207	0xc009c74f	-2.1527898
208	0xc036a1e2	-2.8536305
209	0x3ff52fe3	1.9155239
210	0x3f791d53	0.9731037
211	0xc06bece6	-3.6863341
212	0xc04508db	-3.0786655
213	0xc06d81a1	-3.711037
214	0x3c1f1c79	0.009711378
215	0x403a48f2	2.9107022
216	0xc09c63f5	-4.887202
217	0x3f2a66b1	0.66562945
218	0xbe8b09bc	-0.27155864
219	0x3fb5853f	1.4181288
220	0xc0eca58e	-7.3952093
221	0xc0736c67	-3.8034914
222	0xc0eb65f4	-7.3561954
223	0xbd062429	-0.03274933
224	0x3ebb999c	0.36640632
225	0x3feceea8	1.8510332
226	0xbf05e6b4	-0.5230515
227	0x3ec875a4	0.39152253
228	0x40404ec4	3.0048075
229	0x3f6a8eb2	0.91623986
230	0x3f544241	0.82913595
231	0x3f545f4c	0.8295791
232	0x3de55cef	0.11199366
233	0x3ff032db	1.876552
234	0x3d69ad5f	0.057050105
235	0x3d4ffd68	0.050778776
236	0xbfbff044	-1.4995198
237	0x3d6a266f	0.05716556
238	0xbedbba28	-0.42915463
239	0xbf2daa1e	-0.67837703
240	0xbeea39cf	-0.4574723
241	0xbcaf40be	-0.021393176
242	0xc03cb787	-2.9487016
243	0xbf18e599	-0.5972534
244	0xbe514f85	-0.2044049
245	0x3dda0b33	0.10646667
246	0x3f4792f1	0.7795859
247	0xbf0e5e54	-0.55612683
248	0x3fc01e69	1.500928
249	0xbf2b3a49	-0.6688581
250	0x3e24e046	0.16101179
251	0x40700878	3.750517
252	0x3f042cfa	0.5163113
253	0xbf1ae935	-0.60512096
254	0xbf4a006b	-0.7890689
255	0x3f1fde9f	0.6244907

linear_in.bias f4 [32]
0	0xc10ff4ca	-8.997263
1	0x400cc78f	2.19968
2	0x40481105	3.1260388
3	0x3ddc9f3d	0.1077256
4	0x3f1e7d01	0.6190949
5	0xbec18fc0	-0.37804985
6	0x3ee1082b	0.43951544
7	0x3f9a37cc	1.2048278
8	0x3dd07490	0.101784825
9	0xbfbc7a7c	-1.4724879
10	0xbe19228a	-0.14954582
11	0xbfe2ca4b	-1.7717985
12	0x3eac4f2c	0.33654153
13	0x3db7798d	0.08958731
14	0xc12acd5b	-10.675136
15	0x4156602d	13.39848
16	0xbf60b164	-0.87770677
17	0x40e3db80	7.1205444
18	0x400d4406	2.2072768
19	0x4071244d	3.7678406
20	0xbe749812	-0.23886135
21	0x40457026	3.08497
22	0xc1260308	-10.37574
23	0x4150df90	13.054581
24	0x400cccfd	2.2000115
25	0xbfc0832d	-1.5040032
26	0xbb45dbf9	-0.0030190928
27	0x40251a42	2.5797276
28	0x3f8e3c5c	1.111217
29	0xbec54ccc	-0.38535154
30	0xbf8b72e5	-1.0894438
31	0xbe812f76	-0.25231522

linear_32.weight f4 [32, 32]
0	0x3fea2652	1.8292944
1	0xbe1134fc	-0.14180368
2	0x3bb71998	0.005587768
3	0xbd9fc8ca	-0.07801969
4	0xbd1d30cf	-0.038376626
5	0x3bfef56b	0.007780721
6	0xbc40da22	-0.011770757
7	0x3ea93cc1	0.33054164
8	0xbc9c4f9e	-0.019080933
9	0xbcf94016	-0.030426066
10	0x3a860336	0.0010224346
11	0x3c1c6dc2	0.009547653
12	0xbe81185a	-0.2521389
13	0xbd27f347	-0.04100349
14	0x3f255457	0.6458182
15	0x3e96e1ee	0.29469246
16	0x3b3c94e0	0.002877526
17	0x3e9c1dbd	0.30491439
18	0x3dad6d0d	0.084680654
19	0xbe2a4e41	-0.16631414
20	0x3c7a698b	0.0152839525
21	0x3c4ec34f	0.012619807
22	0x3e398055	0.18115361
23	0x3ecb06c0	0.39653587
24	0xbe7df948	-0.24802125
25	0xbcaf5201	-0.021401407
26	0xbe738447	-0.23780929
27	0xbdc46ad9	-0.09590692
28	0xbc7983ef	-0.015229209
29	0xbda37ff2	-0.07983388
30	0xbc774d46	-0.015094107
31	0xbd1255e4	-0.035726443
32	0xbfd8511f	-1.6899756
33	0x3e3efb4b	0.18650548
34	0x3c4cc360	0.012497753
35	0x3dd80970	0.10548675
36	0x3cc61585	0.024180183
37	0xbc93921e	-0.01801401
38	0xbc703cd3	-0.014662939
39	0xbeb191a8	-0.3468144
40	0xbb944cbc	-0.004525749
41	0x3bcc1991	0.0062286337
42	0xbd08a401	-0.03335953
43	0x3cec136b	0.028817853
44	0x3e99e2e6	0.30055922
45	0x3d852f54	0.06503168
46	0xbf32cb03	-0.6984102
47	0xbeb27ad6	-0.3485934
48	0x3c3985f5	0.011323442
49	0xbeac7388	-0.33681893
50	0xbe2753f3	-0.16340618
51	0x3e6fbbd7	0.23411499
52	0xbbb148cb	-0.005410289
53	0x3cfb33f6	0.030664425
54	0xbe5f00f4	-0.21777707
55	0xbedfbbb1	-0.43697885
56	0x3e86cd72	0.26328617
57	0x3dc9a75b	0.09846374
58	0x3e819d2e	0.2531523
59	0x3deb2d09	0.11483199
60	0xbb34af41	-0.002757028
61	0x3db9d443	0.09073689
62	0x3d371d41	0.044705633
63	0x3d8912c3	0.06693032
64	0xbfe116aa	-1.7585042
65	0x3e13d8ac	0.14438123
66	0x3e06ea6d	0.13175364
67	0xbe89ac58	-0.268893
68	0x3a709936	0.00091781036
69	0xbbd2a52b	-0.006428381
70	0x3ec8bf9c	0.39208686
71	0xbee0589c	-0.43817604
72	0xbc7b4f5e	-0.015338747
73	0x3c82e026	0.015976023
74	0xbc4db0e3	-0.01255438
75	0xbe1f1c08	-0.15538037
76	0xbccfbd0e	-0.025358703
77	0xbc744b52	-0.014910536
78	0x3e38bd95	0.1804107
79	0xbe2a9e8f	-0.16662048
80	0xbd05276d	-0.032508302
81	0xbde7bae4	-0.113149434
82	0x3e2738d7	0.16330276
83	0x3e4bcdc9	0.1990272
84	0x3d14347c	0.036182866
85	0xbdc6e085	-0.097107925
86	0xbea82aa9	-0.32845047
87	0x3e810d90	0.2520566
88	0x3e9ade7c	0.30247867
89	0xbda48d87	-0.08034807
90	0x3e0ed3c0	0.13947964
91	0xbe1acab0	-0.15116382
92	0x3c0e0e95	0.008670469
93	0xbcd1b308	-0.025598064
94	0x3caa9b0e	0.020825889
95	0xbd599a4f	-0.053125676
96	0xbf352fa6	-0.7077583
97	0x3df285e7	0.11841946
98	0x3e46c534	0.19411165
99	0xbe45dca9	-0.19322456
100	0xbc92e7ae	-0.01793274
101	0xbab014ac	-0.0013433895
102	0xbefcd6e2	-0.49382693
103	0xbe7b1931	-0.24521329
104	0x3bfbff1e	0.0076903244
105	0xbd14e895	-0.03635462
106	0x3c0623d8	0.008187257
107	0x3cde3f9e	0.027129944
108	0x3db62777	0.08894246
109	0xbcf761e5	-0.030198047
110	0x3e2fd856	0.1717237
111	0x3ecbd91a	0.39814073
112	0x37a05cae	1.9116644e-05
113	0x3ec20069	0.37890938
114	0xbeb7f111	-0.35926107
115	0xbf3985cd	-0.7246979
116	0xbc6b477d	-0.014360306
117	0xbebdf39e	-0.37099928
118	0x3ec09733	0.37615356
119	0x3da87855	0.082260765
120	0xbeae7d90	-0.34080172
121	0x3e4f2475	0.20228751
122	0xbf2be545	-0.6714671
123	0x3e1bbbfd	0.1520843
124	0xbc03cb28	-0.008044042
125	0xbd7ea288	-0.06216672
126	0x3c4a29fd	0.012339112
127	0xbd986788	-0.07441622
128	0x3fcebbb6	1.6151035
129	0xbe8fdd0f	-0.28098342
130	0xbdc788eb	-0.09742912
131	0xbe1bd6a2	-0.15218595
132	0xbb59956e	-0.003320064
133	0x3b959c11	0.0045657237
134	0x3d235e68	0.039884955
135	0x3ed441c5	0.41456428
136	0xbcf75dc9	-0.030196087
137	0x3c132b4f	0.008982494
138	0x3baeac5d	0.005330606
139	0xbd74fad5	-0.059809525
140	0xbed287a1	-0.41119102
141	0xbdab7d7e	-0.08373545
142	0x3f40b27a	0.75272334
143	0x3ec333e8	0.3812554
144	0xbcc7f3c1	-0.024408223
145	0x3ec0d7cf	0.3766465
146	0x3e5de29c	0.21668476
147	0xbe94b537	-0.29044506
148	0xbb694fe6	-0.0035600602
149	0xbcbe70ed	-0.023247207
150	0x3e5ef0b8	0.21771514
151	0x3ef15a9c	0.47139442
152	0xbe8207e4	-0.25396645
153	0xbe1d45b2	-0.15358618
154	0xbe9620a9	-0.29321793
155	0xbe342ae5	-0.17594488
156	0xba7fdf11	-0.00097607175
157	0xbe24871c	-0.16067165
158	0xbc042f7d	-0.008067963
159	0xbde16820	-0.110061884
160	0x401bc2a8	2.4337559
161	0x3eb4e299	0.3532913
162	0x3eb04b8e	0.34432644
163	0x3ece41ed	0.40284672
164	0x3cb8c849	0.02255644
165	0x3ad94a86	0.0016577996
166	0xbe397d9a	-0.1811432
167	0x3ea1a9e1	0.3157492
168	0x3ceb495f	0.02872151
169	0xbc8ceb24	-0.017201968
170	0x3ce10e83	0.02747274
171	0x3e4070c3	0.18793015
172	0x3e72ebea	0.23722807
173	0x3c97d51f	0.018534241
174	0x3ed83234	0.42225802
175	0x3e4347a9	0.19070305
176	0x3c674c81	0.014117361
177	0x3e9a757d	0.3016776
178	0xbe894d0c	-0.26816595
179	0x3dc6f31b	0.097143374
180	0xbccd90ad	-0.0250934
181	0x3e6f9253	0.23395662
182	0x3e7f83a1	0.24952556
183	0x3ea54dbf	0.32285878
184	0xbdff5350	-0.124670625
185	0x3eefa3dc	0.46804702
186	0xbcf98a72	-0.030461524
187	0x3e746515	0.23866685
188	0x3b9b32a7	0.004736263
189	0x3e9a0602	0.3008271
190	0xbc5d1bb0	-0.013495371
191	0x3de528d4	0.11189428
192	0xbf7aaa4e	-0.97916114
193	0xbdd89c95	-0.10576741
194	0xbe01e9b1	-0.12686802
195	0xbd56222e	-0.05227869
196	0x3bc7306a	0.0060787695
197	0xbc92fe1d	-0.017943436
198	0x3ee2ecc4	0.44321263
199	0xbe8cffcf	-0.27538916
200	0xbce15b39	-0.027509319
201	0x3c9c75e8	0.01909919
202	0x3ba7dd90	0.005122848
203	0xbed281d8	-0.41114688
204	0x3dd62388	0.10455996
205	0x3a9f4da8	0.0012153881
206	0x3d766d68	0.06016293
207	0xbf01bdd8	-0.50680304
208	0xbc02384b	-0.007947992
209	0xbe5c0f38	-0.2149018
210	0x3e973707	0.2953417
211	0x3ed09fc5	0.40746894
212	0x3c13a606	0.009011751
213	0x3dabbedd	0.08386014
214	0x3e336134	0.17517549
215	0x3e028f41	0.1274996
216	0x3e637bb1	0.22215153
217	0xbd41050c	-0.047123954
218	0x3ed4e340	0.41579628
219	0xbe40bbfd	-0.18821712
220	0x3bd7bfd9	0.0065841493
221	0xbd8668dd	-0.0656297
222	0x3bc3e8b3	0.0059786676
223	0x3939227b	0.0001765582
224	0x3ff5c68d	1.9201218
225	0x3e9802f2	0.29689747
226	0x3e8769f9	0.26448038
227	0x3e3e2905	0.18570335
228	0x3c86f67c	0.016474955
229	0x3c8adc16	0.016950648
230	0xbf020034	-0.5078156
231	0xbe591a32	-0.21201399
232	0x3c11e656	0.008905014
233	0xbc38cdc0	-0.011279523
234	0x3c3a222f	0.011360689
235	0x3d2edecc	0.042692944
236	0x3dfb5985	0.12272934
237	0x3d1a77b0	0.0377118
238	0x3de626d0	0.11237872
239	0x3e37f302	0.17963794
240	0x3d11fa75	0.035639245
241	0xbd7ae312	-0.061251707
242	0xbea659b1	-0.32490304
243	0xbeab2987	-0.3343012
244	0xbcb8cafd	-0.02255773
245	0x3e1543eb	0.1457669
246	0x3e1977a8	0.14987051
247	0x3dad8a1c	0.08473608
248	0xbe88e001	-0.267334
249	0x3e72748d	0.23677273
250	0xbddbcc9e	-0.10732387
251	0x3e573f44	0.21020228
252	0xbb920db1	-0.0044571985
253	0x3ca82008	0.020523086
254	0xbb4e9c46	-0.0031526252
255	0x3da69ea4	0.08135727

linear_32.bias f4 [32]
0	0xbe65d813	-0.22445707
1	0x3e715a3b	0.23569576
2	0x3dee3f36	0.1163315
3	0xbe3061d3	-0.17224817
4	0xbe722f29	-0.23650803
5	0xbe30e628	-0.17275298
6	0x3de8a256	0.11359088
7	0xbe1b811b	-0.15185969
8	0xbd9db218	-0.07699984
9	0xbded9244	-0.116001636
10	0xbdfc4adb	-0.12318965
11	0x3d90e4ed	0.07074914
12	0xbe6ca2e5	-0.23109014
13	0x3e225d00	0.15855789
14	0x3e52710b	0.20550935
15	0xbe368c16	-0.17826876
16	0x3e36ec30	0.17863536
17	0x3e72a0ed	0.23694201
18	0xbe3bfe78	-0.18358791
19	0xbe402def	-0.18767522
20	0xbe271ec4	-0.1632033
21	0x3e2ba73d	0.16763015
22	0x3e58b141	0.21161367
23	0xbe28c188	-0.16480076
24	0xbdbfdd09	-0.09368331
25	0x3e454a85	0.19266708
26	0xbe145486	-0.14485368
27	0xbe2c7752	-0.16842392
28	0x3e60bc44	0.21946818
29	0xbe1dd73f	-0.15414141
30	0xbe6fc909	-0.23416533
31	0xbdf5dbdf	-0.12004828

rnn.weight_ih_l0 f4 [32, 32]
0	0xbb121133	-0.0022288084
1	0xbc349e2d	-0.01102404
2	0xbd3c8e64	-0.04603423
3	0xbd37c590	-0.044866145
4	0xbba8105c	-0.0051289033
5	0x3e0255ad	0.12727995
6	0xbdb0b242	-0.0862775
7	0xbc3d233c	-0.011544045
8	0xbe3b3ca3	-0.1828485
9	0xbdfddef3	-0.1239604
10	0xbe00480c	-0.12527484
11	0xbe9cb17c	-0.3060416
12	0xbd6317df	-0.055442687
13	0x3dc06efa	0.09396167
14	0x3d88cf5f	0.06680178
15	0x3dc30ecd	0.095243074
16	0x3e3e12a3	0.18561797
17	0x3c258fb5	0.010105063
18	0xbe8c0629	-0.2734845
19	0xbea3fe39	-0.32029894
20	0xbe3b41bb	-0.18286793
21	0x3dab5759	0.083662696
22	0x3d8ef3a5	0.06980065
23	0x3e26ccf9	0.16289128
24	0x3f05c326	0.522509
25	0xbd613dc3	-0.05499054
26	0x3d57ca6e	0.052683286
27	0x3de720da	0.11285563
28	0x3d1e3738	0.03862688
29	0x3d22dfe8	0.039764315
30	0xbd0830a5	-0.033249516
31	0xbd07c27e	-0.033144467
32	0x3ec7d1c8	0.39027238
33	0xbeb2671b	-0.34844288
34	0xbe8fc758	-0.28081775
35	0x3e8902d4	0.2675997
36	0x3e3b2a7e	0.18277928
37	0x3fe6da62	1.8035395
38	0xbe63e088	-0.2225362
39	0x3f5bec52	0.8590747
40	0x3e991bfd	0.29904166
41	0x3f24bf4d	0.643544
42	0x3e451ed0	0.19250035
43	0xbddc3aa8	-0.10753375
44	0x3e6c25ee	0.23061344
45	0xbea7dfae	-0.32787842
46	0xbeeca8d9	-0.4622257
47	0x400d8655	2.211324
48	0xbe33014a	-0.1748096
49	0xbe93f925	-0.2890102
50	0x3e28718d	0.16449566
51	0x3ea747c9	0.32671955
52	0x3ee9398b	0.45551714
53	0xbeadbe65	-0.33934322
54	0xbe6a7d8e	-0.22899458
55	0x4001b00c	2.02637
56	0x3ded37e2	0.115829244
57	0xbe6577cb	-0.22408979
58	0x3f36dbf2	0.7142936
59	0x3fab02a3	1.336018
60	0xbebe329c	-0.37147987
61	0x3f614994	0.88002896
62	0x3e75b245	0.23993786
63	0x3f1a7871	0.6034003
64	0xbf6180a2	-0.88086903
65	0x3f8f2269	1.1182376
66	0x3e486233	0.1956871
67	0xbf5d3774	-0.8641274
68	0xbfb2041a	-1.3907502
69	0xbdf5d36d	-0.12003217
70	0x3e5ba564	0.2144981
71	0xbbba74ff	-0.0056902166
72	0xbe501b1e	-0.20322844
73	0x3cbf59aa	0.023358185
74	0xbf08a1a4	-0.53371644
75	0x3f4b4bb0	0.79412365
76	0xbfa27013	-1.2690452
77	0x3f2e47f9	0.6807857
78	0x3f15ac1f	0.5846576
79	0xbe22c411	-0.15895106
80	0x3f0730de	0.5280894
81	0x3f9367ed	1.1516091
82	0xbf30f5f2	-0.6912528
83	0xbeaef571	-0.34171632
84	0xbebf67a2	-0.37383753
85	0x3eb761bd	0.35816756
86	0x3f70a36c	0.9399936
87	0x3de63d7c	0.11242196
88	0xbf818290	-1.011797
89	0x3f9b971f	1.2155493
90	0x3d89347b	0.06699463
91	0x3d1392b7	0.03602859
92	0x3f4f4737	0.8096804
93	0x3bdf86e1	0.0068214987
94	0xbfa49a21	-1.2859536
95	0x3de53a1e	0.111927256
96	0xbe4f1a70	-0.20224929
97	0x3e929ab6	0.2863366
98	0xbc5b7f11	-0.013396994
99	0xbe942fd1	-0.2894273
100	0xbe9f9ee7	-0.3117592
101	0xbd1d5091	-0.038406912
102	0xbe093e29	-0.13402618
103	0x3dc15331	0.094396956
104	0xbece11a1	-0.40247825
105	0x3e3c94fe	0.18416211
106	0xbea2c988	-0.3179438
107	0x3e981c35	0.2970902
108	0xbe5e6951	-0.21719863
109	0x3d717e01	0.058958057
110	0xbe2a825d	-0.16651292
111	0xbd849d90	-0.06475365
112	0x3a86ba54	0.0010278919
113	0x3e8f3b4d	0.2797493
114	0xbe04b9d9	-0.1296152
115	0x3e2f6bfc	0.17131037
116	0x3da89f90	0.08233559
117	0xbe261063	-0.16217189
118	0x3e4e5862	0.20150903
119	0xbcc9b829	-0.024623947
120	0xbe9915d6	-0.29899472
121	0x3e0ec24f	0.1394131
122	0x3dbb376a	0.09141429
123	0x3d51889a	0.051155664
124	0x3d5cd925	0.053918023
125	0x3e0b2cfa	0.13591376
126	0xbeaf4531	-0.34232476
127	0x3dac0845	0.08400015
128	0x3d96dd56	0.07366435
129	0xbd9e144b	-0.07718714
130	0xbd9568e9	-0.07295401
131	0x3de08bdf	0.10964178
132	0x3dd648d1	0.104631074
133	0x3d66c366	0.05633869
134	0x3d41948b	0.047260802
135	0x3d06d7f2	0.032920785
136	0x3ec5dae9	0.38643578
137	0x3c5fc184	0.013656978
138	0x3e827a5c	0.25483978
139	0xbe42d6a9	-0.19027199
140	0x3d82a898	0.06379813
141	0x3ca2a059	0.01985185
142	0x3e435094	0.19073707
143	0x3d70888c	0.05872397
144	0xbc0f4898	-0.008745335
145	0xbdacd4f1	-0.08439053
146	0x3da63ab5	0.08116666
147	0xbcfe0964	-0.031010337
148	0xbd730dec	-0.05933945
149	0x3ddbfcef	0.10741603
150	0xbd172466	-0.036899947
151	0x3daa4ef1	0.08315838
152	0x3e2cb440	0.16865635
153	0xbc432773	-0.011911261
154	0x3c78c6de	0.015184132
155	0xbc0316a2	-0.008001002
156	0x3b7a78bd	0.0038218938
157	0xbc028b03	-0.007967713
158	0x3e0a930f	0.13532661
159	0x3d80aae0	0.06282592
160	0x3d52e2b9	0.05148575
161	0xbd986de3	-0.07442834
162	0x3ce68be0	0.02814287
163	0xbe6cefba	-0.23138323
164	0x3d95e85c	0.0731971
165	0x3e1f7818	0.15573156
166	0xbd933e3b	-0.07189604
167	0x3d26f414	0.040760115
168	0xbe8c8271	-0.2744327
169	0xbd3eae7d	-0.046553124
170	0xbe9a993d	-0.30195037
171	0x3b39c352	0.002834518
172	0x3bf2ece5	0.007413494
173	0x3de6ddcd	0.11272774
174	0x3bc37668	0.005965043
175	0x3e14e1e6	0.14539298
176	0x3e3bb962	0.18332437
177	0xbd751f5e	-0.059844367
178	0xbe8e8af5	-0.2784039
179	0xbe31c7c4	-0.17361361
180	0xbe404018	-0.1877445
181	0x3d990bbf	0.074729435
182	0x3c326bbb	0.010889943
183	0x3e4b444b	0.1985027
184	0x3e015695	0.12630685
185	0x3dcfc5cb	0.10145148
186	0x3dab00bf	0.08349752
187	0x3e2b85c1	0.16750242
188	0xbc909f50	-0.017654091
189	0x3da8b64d	0.08237896
190	0x3d598e7d	0.053114403
191	0x3c3087a4	0.010774527
192	0xbe19eb4d	-0.15031166
193	0x3e2f87b2	0.17141607
194	0xbd819088	-0.06326395
195	0x3c2ade7b	0.01042902
196	0xbe41919a	-0.18903199
197	0xbe03dd2e	-0.12877342
198	0xbda45383	-0.08023741
199	0x3ca7168a	0.02039649
200	0xbdc702b7	-0.09717315
201	0xbd3ced2d	-0.046124626
202	0xbcf10660	-0.029421985
203	0xbd808cf7	-0.06276887
204	0xbe0c99d4	-0.13730556
205	0x3dc17dcf	0.09447824
206	0x3d3f21ac	0.04666297
207	0xbe1b0bb2	-0.1514118
208	0x3b84a24f	0.004047669
209	0x3e17ffb0	0.14843631
210	0xbc9c4aa3	-0.019078558
211	0xbd2302eb	-0.039797705
212	0xbd8d9f93	-0.06915202
213	0x3da3c205	0.07995991
214	0x3e0d4474	0.13795644
215	0xbe08ea05	-0.13370521
216	0x3e0a6433	0.13514785
217	0xbd4e60ea	-0.050385393
218	0x3cc30aa3	0.023808783
219	0xbd25f3ad	-0.04051559
220	0x3dc2cbb6	0.09511511
221	0x3d3b90b2	0.04579229
222	0xbe48a7b2	-0.1959522
223	0x3d3d502a	0.04621903
224	0xbe95faf7	-0.29293033
225	0x3ec5926d	0.38588277
226	0xbe188fe0	-0.14898634
227	0xbea83081	-0.32849506
228	0xbedfe0bd	-0.4372615
229	0xbda3775e	-0.07981752
230	0xbdcf3b73	-0.10118761
231	0x3dc2c93a	0.09511037
232	0xbe442f76	-0.1915873
233	0x3e4520be	0.19250771
234	0xbe9ad702	-0.30242163
235	0x3e8a1fa6	0.2697727
236	0xbeacecaa	-0.3377431
237	0x3d732811	0.059364382
238	0xbdd882b0	-0.10571802
239	0xbdfab12b	-0.12240823
240	0x3df64d31	0.12026442
241	0x3ebad638	0.3649156
242	0xbe7cd328	-0.24689925
243	0x3d914589	0.07093341
244	0x3db08015	0.0861818
245	0xbde2a8ca	-0.1106735
246	0x3e84cda1	0.25938132
247	0xbda7824f	-0.08179151
248	0xbe8163c6	-0.25271434
249	0x3e9219ec	0.28535402
250	0x3dbffb2f	0.09374081
251	0x3cbaf9e5	0.022824237
252	0x3e2cdc4d	0.16880913
253	0x3df9a928	0.12190467
254	0xbee0fc2a	-0.43942386
255	0x3e0b0b7c	0.135786

rnn.weight_hh_l0 f4 [32, 32]
0	0xbed04a79	-0.40681818
1	0xbe29ad9d	-0.16570134
2	0x3e2064db	0.15663473
3	0x3e0a6f5d	0.13519044
4	0xbe1e81ed	-0.1547925
5	0x3e38e21d	0.18055005
6	0xbdb19768	-0.086714566
7	0xbdb6e34a	-0.08930071
8	0xbde61dd0	-0.11236155
9	0xbe47773f	-0.19479083
10	0x3c378524	0.011201177
11	0x3cda6870	0.026661128
12	0x3d84e8e0	0.0648973
13	0x3d9e911d	0.07742522
14	0x3cb1c58f	0.021700649
15	0x3d02134f	0.031756695
16	0x3c9fa682	0.019488577
17	0xbd991bda	-0.074760154
18	0x3e5a1f3f	0.21300982
19	0xbdd50d57	-0.10402935
20	0xbc603f67	-0.013686991
21	0x3caf9892	0.021435056
22	0xbd41fc21	-0.04735959
23	0xbe7c5dcd	-0.24645157
24	0x3b237353	0.0024940565
25	0xbd8edac4	-0.0697532
26	0x3da9a103	0.08282664
27	0x3e7ff6db	0.24996512
28	0x3dd20be9	0.10256178
29	0x3e377969	0.17917408
30	0xbe046c99	-0.12932052
31	0xbce2b3de	-0.027673658
32	0x3e2d7dc1	0.16942503
33	0x3e993c88	0.29928994
34	0x3dbc8a6b	0.09206089
35	0x3dfc391c	0.1231558
36	0xbd4a82c0	-0.0494411
37	0xbdfdbfc5	-0.12390093
38	0xbd1630ed	-0.036667753
39	0x3e78e202	0.24304965
40	0x3cc4d51d	0.024027402
41	0xbe7c7aec	-0.24656266
42	0x3c7e6068	0.015525915
43	0xbe7ced92	-0.24700001
44	0xbdc558f8	-0.0963611
45	0xbd5954b8	-0.05305931
46	0xbe354673	-0.17702655
47	0x3e5ea00e	0.21740744
48	0x3d560ab8	0.052256316
49	0x3d37205d	0.0447086
50	0x3e237c0e	0.15965292
51	0x3d2a9f63	0.04165591
52	0xbecc2039	-0.39868334
53	0x3e160957	0.14652
54	0x3e88c71e	0.26714414
55	0xbe57d708	-0.21078122
56	0x3e9a5776	0.30144852
57	0xbe9ef69e	-0.3104753
58	0x3dcd7359	0.100317664
59	0x3dd13b8a	0.10216434
60	0xbe0ccb37	-0.13749395
61	0x3e481283	0.19538312
62	0x3d7e6491	0.062107626
63	0x3dd3a137	0.10333484
64	0x3d9853bc	0.07437846
65	0xbed797f3	-0.42108116
66	0x3e1030cc	0.14081115
67	0xbfca277a	-1.5793297
68	0x3f8b2a63	1.087231
69	0x3f6c7cb8	0.92377806
70	0xbfc5e300	-1.54599
71	0xbf9abfc3	-1.2089771
72	0xbf8eed4f	-1.1166171
73	0xbf002cdc	-0.5006845
74	0xbf3df7ee	-0.74206436
75	0x3faa918b	1.3325666
76	0x3fb5688f	1.4172534
77	0x3e52f1a9	0.20599999
78	0x3f58d68f	0.8470239
79	0xbf8f50bb	-1.1196512
80	0xbeaba94d	-0.33527604
81	0xbf95345a	-1.1656601
82	0x3f840271	1.0313245
83	0xbf4d9735	-0.8030885
84	0x3f88df52	1.0693152
85	0xbf9effd3	-1.2421821
86	0xbfbad0ff	-1.459503
87	0x3f9a4af4	1.2054124
88	0xbf98d947	-1.1941308
89	0x3fdb93e8	1.7154512
90	0xbf364528	-0.71199274
91	0xbe2ca6a1	-0.16860439
92	0x3fa98353	1.3243202
93	0x3f5850e7	0.8449845
94	0xbf98e1bc	-1.1943889
95	0x3fd3c5ed	1.6544777
96	0xbc008be9	-0.007845857
97	0xbe18ba3c	-0.14914793
98	0xbecf7bfb	-0.40524277
99	0xbf26cd4c	-0.6515701
100	0xbdb15886	-0.08659463
101	0x3dc97b3d	0.09837959
102	0xbc6367f3	-0.013879764
103	0xbec6e75a	-0.38848382
104	0xbd804fcb	-0.06265219
105	0xbe417f4d	-0.18896218
106	0xbdfb185d	-0.12260506
107	0x3baf2462	0.0053449133
108	0x3c260577	0.010133139
109	0x3c832245	0.016007552
110	0x3d45f7e5	0.048332114
111	0xbd82db2f	-0.06389462
112	0xbd9ae513	-0.07563224
113	0x3dbc5482	0.09195806
114	0xbd3700c8	-0.04467848
115	0xbcb7392b	-0.022366127
116	0x39a346d2	0.00031142548
117	0xbe6298d1	-0.22128607
118	0xbb91f132	-0.0044538015
119	0xbe1e889c	-0.154818
120	0x3e093a44	0.13401133
121	0xbc97b4b6	-0.018518787
122	0x3e0a2e67	0.13494264
123	0xbdea00a8	-0.114259064
124	0xbbf0fa4e	-0.0073540574
125	0x3de4e70c	0.11176881
126	0xbd803740	-0.06260538
127	0xbdb6c222	-0.08923747
128	0xbd1a2bc0	-0.03763938
129	0xbbc5fa84	-0.0060418267
130	0x3e393fd8	0.1809076
131	0x3e5568f6	0.2084082
132	0xbede51bb	-0.4342173
133	0x3d632977	0.055459466
134	0x3c5f0814	0.013612766
135	0x3dbcf793	0.092269085
136	0xbe0b96f2	-0.136318
137	0x3e0dca1e	0.13846633
138	0x3dbc94a5	0.09208039
139	0xbcbb799a	-0.022885133
140	0x3d733af9	0.059382413
141	0xbc5dfb07	-0.013548619
142	0x3985189b	0.0002538607
143	0xbbded822	-0.0068006674
144	0x3d1477ad	0.036246944
145	0xbcc434ea	-0.023951013
146	0x3d177732	0.036978908
147	0x3d0f4298	0.034975618
148	0xbd6d5078	-0.05793807
149	0x3dc46d7f	0.09591197
150	0xbd0ca90f	-0.034340914
151	0xbd6dcb3a	-0.05805514
152	0x3c1f4e0a	0.009723196
153	0x3badc10d	0.0053025545
154	0xbd7ca6d5	-0.06168254
155	0x3db9390b	0.09044083
156	0x3d99cd8a	0.075099066
157	0xbd700a6f	-0.0586037
158	0xbd88d640	-0.0668149
159	0x3d5a6257	0.05331644
160	0xbe01afdb	-0.1266474
161	0x3d436107	0.047699954
162	0xbd99bf9e	-0.07507251
163	0xbe20a160	-0.1568656
164	0xbda5906b	-0.08084186
165	0xbedcc55f	-0.43119332
166	0x3cfad888	0.030620828
167	0xbe033c49	-0.12815966
168	0x3d8d18b9	0.06889481
169	0xbd98a122	-0.07452609
170	0x3ce0a8a5	0.027424166
171	0xbe03a97b	-0.1285762
172	0xbdd130b5	-0.10214368
173	0xbdb9a11e	-0.09063934
174	0xbd94dbab	-0.07268461
175	0x3cebe537	0.028795822
176	0x3e63817d	0.22217365
177	0x3dc2e364	0.095160276
178	0x3db8f77a	0.090315774
179	0x3b97c6af	0.004631839
180	0xbd7801cd	-0.060548592
181	0xbd8cdaee	-0.06877695
182	0xba844b4d	-0.0010093242
183	0xbe5f799b	-0.21823733
184	0x3e0614c3	0.13093857
185	0xbcbeb27e	-0.023278471
186	0x3df9211d	0.12164519
187	0x3da05cb5	0.078301825
188	0xbdb467eb	-0.08808883
189	0x3db98ff1	0.09060658
190	0x3e1054dc	0.14094871
191	0xbd1dc8d7	-0.038521614
192	0x3dd96534	0.10615006
193	0xbde4e035	-0.111755766
194	0xbd50ca04	-0.050973907
195	0xbd5518e3	-0.052025687
196	0x3b747f71	0.0037307406
197	0x3e1a87dd	0.1509089
198	0xbf075f63	-0.52879924
199	0xbd56603c	-0.05233787
200	0xbe0bdda7	-0.13658772
201	0xbb961113	-0.004579672
202	0x3be70cee	0.007051102
203	0x3d793933	0.060845565
204	0x3e1aa6c7	0.15102683
205	0x3dc618e6	0.09672718
206	0x3df05a29	0.11735947
207	0x3c395e05	0.01131392
208	0xbdc23a31	-0.094837554
209	0x3b977b39	0.0046228436
210	0xbcf1e672	-0.02952883
211	0xbdd0edaa	-0.10201581
212	0xbc34bebe	-0.011031805
213	0xbd31f2aa	-0.043444313
214	0xbda50f65	-0.08059577
215	0xbb298454	-0.0025866227
216	0x3d72469b	0.059149366
217	0x3c1b0370	0.009461269
218	0xbd83ebb0	-0.06441438
219	0xbc9e89c2	-0.019352797
220	0x3d9e3f92	0.07726969
221	0xbaa801b8	-0.0012817895
222	0xbdf915b5	-0.121623434
223	0x3ceea8f6	0.029133301
224	0xbe2fed01	-0.17180254
225	0xbdc43c29	-0.09581787
226	0xbe2d880b	-0.16946428
227	0xbdb901e8	-0.09033567
228	0xbd42f51c	-0.047597036
229	0x3b45e548	0.0030196477
230	0x3da8449d	0.08216212
231	0xbf0a0172	-0.53908455
232	0xbd64846a	-0.055790342
233	0xbcf5146d	-0.029916966
234	0x3dbcca93	0.092183255
235	0x3e011d56	0.12608847
236	0x3b23cf41	0.002499536
237	0xbdb42b19	-0.08797283
238	0x3cd86346	0.026414525
239	0x3883f0ab	6.291395e-05
240	0xbe8ef615	-0.2792212
241	0x3cc693b4	0.024240352
242	0xbdf118db	-0.11772319
243	0x3d83bba9	0.06432278
244	0xbd044361	-0.03229082
245	0xbdf049c3	-0.11732819
246	0xbe2eab1f	-0.17057465
247	0x3c2db6b9	0.0106026465
248	0x3d755194	0.059892252
249	0xbb90805b	-0.0044098324
250	0x3de7459e	0.11292575
251	0x3d00fa01	0.031488422
252	0x3dd78e4e	0.10525189
253	0xbd913624	-0.07090405
254	0xbcdc48c7	-0.026890172
255	0xbd4f44db	-0.050602775

rnn.bias_ih_l0 f4 [32]
0	0xbe54f0b8	-0.20794952
1	0x3da2319f	0.07919621
2	0x3e9e8349	0.30959538
3	0xbe1a91f7	-0.15094744
4	0x3dae6dfa	0.0851707
5	0xbd2afe41	-0.04174638
6	0xbd840d12	-0.064478055
7	0xbd80cdeb	-0.06289276
8	0x3c279a4b	0.010229657
9	0xbe76de91	-0.2410834
10	0x3d3d7870	0.046257436
11	0x3d4a8f31	0.049452964
12	0xbb69abd4	-0.0035655396
13	0xbe2e91ea	-0.1704785
14	0xbda1392e	-0.07872234
15	0xbd971820	-0.07377648
16	0xbd28d3de	-0.041217677
17	0x3bae94c9	0.005327795
18	0x3f2866bb	0.65781754
19	0x3d02bb11	0.03191668
20	0xbce2af8c	-0.027671598
21	0xbd922abe	-0.07137059
22	0xbd94b71b	-0.07261487
23	0x3e1b584b	0.151704
24	0xbd8de6e8	-0.069288075
25	0x3d7358c7	0.059410837
26	0x3da8a512	0.0823461
27	0xbdb3b293	-0.08774295
28	0xbd1d1957	-0.038354244
29	0x3f0c2145	0.54738265
30	0x3d3f7ad9	0.046748016
31	0x3df22fe1	0.118255384

rnn.bias_hh_l0 f4 [32]
0	0xbe54f0b8	-0.20794952
1	0x3da2319f	0.07919621
2	0x3e9e8349	0.30959538
3	0xbe1a91f7	-0.15094744
4	0x3dae6dfa	0.0851707
5	0xbd2afe41	-0.04174638
6	0xbd840d12	-0.064478055
7	0xbd80cdeb	-0.06289276
8	0x3c279a4b	0.010229657
9	0xbe76de91	-0.2410834
10	0x3d3d7870	0.046257436
11	0x3d4a8f31	0.049452964
12	0xbb69abd4	-0.0035655396
13	0xbe2e91ea	-0.1704785
14	0xbda1392e	-0.07872234
15	0xbd971820	-0.07377648
16	0xbd28d3de	-0.041217677
17	0x3bae94c9	0.005327795
18	0x3f2866bb	0.65781754
19	0x3d02bb11	0.03191668
20	0xbce2af8c	-0.027671598
21	0xbd922abe	-0.07137059
22	0xbd94b71b	-0.07261487
23	0x3e1b584b	0.151704
24	0xbd8de6e8	-0.069288075
25	0x3d7358c7	0.059410837
26	0x3da8a512	0.0823461
27	0xbdb3b293	-0.08774295
28	0xbd1d1957	-0.038354244
29	0x3f0c2145	0.54738265
30	0x3d3f7ad9	0.046748016
31	0x3df22fe1	0.118255384

linear_out.weight f4 [7, 32]
0	0xbc76d0f9	-0.015064471
1	0xbbc145c8	-0.005898211
2	0xbae1059b	-0.0017167808
3	0xbbac815e	-0.005264445
4	0xbbed0751	-0.007233538
5	0xbb62ba76	-0.0034596003
6	0xbc31b677	-0.010846726
7	0x3c1101b8	0.008850507
8	0x3c440e11	0.011966244
9	0x3c2973b8	0.010342531
10	0x3c6002ad	0.013672513
11	0x3be4c831	0.0069818725
12	0xbc20b961	-0.009809823
13	0xbc362094	-0.011116166
14	0xbc4d790d	-0.012541068
15	0xbc5ff3e8	-0.013668992
16	0xbb4e7661	-0.0031503665
17	0xbc5f6cea	-0.013636807
18	0xbc1a3a91	-0.009413377
19	0x3c2a02dd	0.010376659
20	0xbc83da4b	-0.016095301
21	0x3bbbb042	0.0057277987
22	0xbc9cd35a	-0.019143749
23	0x3c22840d	0.009919179
24	0xbc8aa024	-0.016922064
25	0x3c7fb1b0	0.015606329
26	0x3c5d5b53	0.013510543
27	0xbbefba48	-0.0073159076
28	0xbc080a01	-0.008303166
29	0xbc286753	-0.010278541
30	0x3b9de39a	0.004818392
31	0x3c937b77	0.018003209
32	0x3f2e4832	0.6807891
33	0x3eb7f48f	0.3592877
34	0x3ea2fd83	0.3183404
35	0xbf0c186a	-0.5472475
36	0x3f3c4ed6	0.73557794
37	0x3f2eb4ed	0.6824482
38	0xbf1fe2fe	-0.6245574
39	0xbee74d6e	-0.45176262
40	0xbf29ae2e	-0.662814
41	0xbeb33e0e	-0.3500828
42	0xbf11b635	-0.5691865
43	0x3f3d847e	0.7403029
44	0x3f3fce01	0.7492371
45	0x3f2b5722	0.6692983
46	0x3f2ace4c	0.66721034
47	0xbf1d2e14	-0.61398435
48	0x3eb214cd	0.34781495
49	0xbf3923ec	-0.7232044
50	0x3ea940cd	0.33057252
51	0xbf18f5a6	-0.5974983
52	0x3f22a109	0.6352697
53	0xbf060f84	-0.52367425
54	0xbf3b1ef7	-0.73094124
55	0x3f24308f	0.64136595
56	0xbf1c6a8f	-0.61100096
57	0x3f3038e5	0.68836814
58	0xbf28f5d4	-0.66000104
59	0x3eb6aced	0.35678807
60	0x3f334919	0.70033413
61	0x3ead9fd6	0.33911008
62	0xbf2d17ac	-0.67614245
63	0x3f342b70	0.7037878
64	0xbda9ad3e	-0.082849964
65	0xbc9b3a10	-0.018948585
66	0x3c18259b	0.00928631
67	0x3d0174a9	0.031605396
68	0xbe5c6bc3	-0.21525483
69	0x3cda8c2c	0.026678167
70	0xbcd95343	-0.02652896
71	0x3caaeb19	0.020864056
72	0x3d4b426b	0.049623888
73	0x3b4b7c0a	0.0031049275
74	0x3d034f21	0.032057885
75	0xbd60cb4d	-0.054881383
76	0xbe4b031b	-0.19825403
77	0xbcb794f5	-0.022409895
78	0xbdc8c570	-0.09803283
79	0x3c95b37e	0.018274065
80	0x3cf05706	0.029338371
81	0x3df49f9c	0.119445056
82	0x3c0bcd30	0.008532807
83	0xbd2fc37a	-0.04291103
84	0x3f17813d	0.59181577
85	0x3a4a53c3	0.000771817
86	0x3bfce40e	0.007717616
87	0x3e552fc5	0.20819004
88	0xbeb228e2	-0.34796816
89	0xbc2809e0	-0.010256261
90	0x3ce09866	0.02741642
91	0xbcd7eafe	-0.02635717
92	0xbd0b0d02	-0.033947952
93	0x3c400031	0.011718796
94	0x3d2d989e	0.042381875
95	0xbe054e93	-0.13018255
96	0xbe3c76f3	-0.1840475
97	0xbd07bba0	-0.033137918
98	0xbb53dae8	-0.0032326523
99	0xbc784a14	-0.01515438
100	0xbcb4c5c0	-0.02206695
101	0xbdc477ec	-0.09593186
102	0xbd9300c0	-0.071778774
103	0x3c86d328	0.016458109
104	0x3df92b76	0.12166493
105	0x3d12cb85	0.035838623
106	0x3dceddbf	0.101008885
107	0xbb7e3393	-0.0038788065
108	0x3d519874	0.05117078
109	0xbd99c2ca	-0.07507856
110	0xbd94af36	-0.07259981
111	0xbe2f5c7f	-0.17125128
112	0xbd0a097e	-0.03370046
113	0xbda79511	-0.08182729
114	0xbcaa90dd	-0.02082103
115	0x3dd52639	0.10407681
116	0xbd133156	-0.035935722
117	0x3bf76fb4	0.007551158
118	0xbcd9b0f1	-0.02657363
119	0x3e010df1	0.12602974
120	0xbd869636	-0.06571619
121	0x3df02419	0.11725635
122	0x3e23721a	0.15961495
123	0xbd02840f	-0.031864222
124	0x3b7f310b	0.0038939144
125	0xbcfa2a66	-0.030537795
126	0x3c15114d	0.009098363
127	0x3e298177	0.16553293
128	0xbd9ad449	-0.075600214
129	0xbd1d767c	-0.038443074
130	0x3b7c14d2	0.0038464558
131	0xbd729a46	-0.059229158
132	0xbc26f1b7	-0.010189465
133	0xbbf75f54	-0.007549206
134	0xbd4f2841	-0.0505755
135	0x3d013522	0.031544812
136	0x3d65b613	0.056081843
137	0x3db5244c	0.08844814
138	0x3d1946b4	0.037420943
139	0x3d888307	0.066656165
140	0xbdb8b7a2	-0.090194
141	0xbd8df477	-0.069313936
142	0xbd8ecf0f	-0.06973087
143	0xbd502c0a	-0.05082325
144	0xbd5c3940	-0.053765535
145	0xbdb50229	-0.08838303
146	0xbdb228fd	-0.08699224
147	0x3d86a0f8	0.06573671
148	0xbde8eab2	-0.113728896
149	0x3d018afb	0.031626683
150	0xbde26f00	-0.11056328
151	0x3d9817b6	0.074263975
152	0xbd994b41	-0.07485057
153	0x3d96ad1c	0.07357237
154	0x3d90baca	0.07066877
155	0xbd63e1fc	-0.055635437
156	0xbd78504d	-0.060623456
157	0xbdbe230a	-0.09284027
158	0x3d0ab280	0.033861637
159	0x3da78045	0.08178762
160	0xbc481c69	-0.012213805
161	0xbd0533db	-0.032520156
162	0xbbf06d1a	-0.0073372247
163	0xbcb435f1	-0.021998378
164	0xbbf01647	-0.0073268744
165	0x3c123440	0.00892359
166	0xbc980a2e	-0.018559542
167	0x3bea036d	0.0071415217
168	0x3c463059	0.012096488
169	0x3d582dbe	0.052778
170	0x3c109f1a	0.008826995
171	0x3d064464	0.032780066
172	0xbd6d5c36	-0.057949267
173	0xbcc7fd8e	-0.024412896
174	0xbcb9503b	-0.022621265
175	0xbc807a4f	-0.015683321
176	0xbd0cea2a	-0.034403004
177	0xbcbc9def	-0.023024527
178	0xbc968039	-0.018371688
179	0x3caf998f	0.021435527
180	0xbd5a92cb	-0.05336265
181	0x3c47144d	0.012150836
182	0xbd2a869d	-0.041632283
183	0x3cc2b2f5	0.023766974
184	0xbd0b7666	-0.03404846
185	0x3d01d2be	0.03169512
186	0x3c801fb2	0.015640114
187	0xbcf73fbc	-0.030181758
188	0xbcfe10fa	-0.031013954
189	0xbd101341	-0.035174612
190	0x3ce08ffa	0.027412403
191	0x3c1df8f4	0.009641875
192	0xbba16a1b	-0.004925979
193	0xbb9123b8	-0.004429307
194	0xba6c6e9f	-0.00090191694
195	0xbba96810	-0.005169876
196	0xbbb27b0a	-0.0054467963
197	0x3a233f04	0.00062273466
198	0xbbe7a79f	-0.0070695425
199	0x3b706fcb	0.0036687728
200	0x3b8bdcea	0.0042682784
201	0x3bed65bd	0.007244794
202	0x3bdedf24	0.006801503
203	0x3b655f8f	0.0034999584
204	0xbc1d4400	-0.009598732
205	0xbba920ba	-0.005161372
206	0xbbbb5b6a	-0.0057176845
207	0xbb56e2bd	-0.0032788955
208	0xba8ad0ab	-0.0010590752
209	0xbbf93bbb	-0.0076059974
210	0xbbcab9e2	-0.0061867097
211	0x3bb52309	0.005527858
212	0xbc4a387f	-0.012342571
213	0x3b2ac8ef	0.0026059707
214	0xbc60d753	-0.013723212
215	0x3abc6be3	0.0014375414
216	0xbc23b37d	-0.009991524
217	0x3be9efb7	0.007139172
218	0x3b92b106	0.0044766692
219	0xbbad3086	-0.0052853255
220	0xbbbb9504	-0.005724551
221	0xbbfac44b	-0.0076527945
222	0x3b81d095	0.0039616325
223	0x3c02d735	0.00798588

linear_out.bias f4 [7]
0	0x3d864372	0.06555833
1	0x410a4b8e	8.643446
2	0x3c0cc4df	0.00859186
3	0x3edbebaf	0.4295325
4	0x3ef09d45	0.46994987
5	0x3e780faf	0.24224733
6	0x3d1ce5d7	0.03830513

batch_norm_layer.weight f4 [32]
0	0x3f06886e	0.52551925
1	0x3ea4c534	0.32181704
2	0x3e95b6ba	0.29240972
3	0x3e684a73	0.2268465
4	0xbc014c0e	-0.007891668
5	0x3baf5326	0.0053504882
6	0xbee6ac8e	-0.45053524
7	0xbee67712	-0.45012718
8	0xbaa9b832	-0.0012948571
9	0xbc1ca84f	-0.009561612
10	0x3c049457	0.008092008
11	0x3e36c0c2	0.17846969
12	0x3eb47d02	0.35251623
13	0xbd5fe296	-0.05465945
14	0x3f0e4503	0.55574054
15	0xbe42d4ee	-0.19026539
16	0x3c14d5a1	0.009084136
17	0xbee90062	-0.45508105
18	0xbeb2e243	-0.3493825
19	0xbed5cfb3	-0.41760024
20	0xbc89810e	-0.01678517
21	0xbe86e1e8	-0.26344228
22	0x3e47825c	0.19483322
23	0xbe68a2c9	-0.22718348
24	0x3e81f9ea	0.25385982
25	0xbea2ed78	-0.318218
26	0x3e6a080d	0.22854634
27	0xbe7e3ccb	-0.24827878
28	0xba977fea	-0.0011558507
29	0x3e2e4a6e	0.1702058
30	0xbc19852f	-0.009370132
31	0x3b40a2ad	0.0029393837

batch_norm_layer.bias f4 [32]
0	0xbf16141b	-0.5862443
1	0xbdf91697	-0.12162512
2	0xbdc200e2	-0.09472825
3	0x3e32728b	0.17426507
4	0xbd6a865c	-0.05725704
5	0xbd06670d	-0.03281312
6	0xbd402b0d	-0.046916056
7	0xbe3a7c97	-0.1821159
8	0xbc69eb8e	-0.014277352
9	0xbd80e900	-0.06294441
10	0xbcdfedff	-0.027335165
11	0x3da2224d	0.079166986
12	0xbe307be2	-0.17234758
13	0xbe4b7465	-0.1986862
14	0x3e5ae40e	0.21376058
15	0x3ed4ed2d	0.415872
16	0xbd097238	-0.033556193
17	0x3e817c69	0.2529023
18	0x3db52a85	0.088460006
19	0xbe304e5d	-0.17217393
20	0xbd9f3068	-0.07772905
21	0x3e47ddb7	0.19518171
22	0x3ecdf054	0.40222418
23	0x3eb4ea63	0.35335073
24	0x3e5172ae	0.20453903
25	0xbdacb856	-0.08433597
26	0xbe8eddcf	-0.27903602
27	0x3e1db791	0.15402056
28	0xbbb6bd8f	-0.0055767964
29	0x3dfb5b15	0.12273232
30	0xbd35d981	-0.04439688
31	0xbd5604fa	-0.05225084
