VehicalStateperML_RNN_epochs_2000_BS:64.pth (torch, 15388 bytes, 12 tensors)

linear_in.weight f4 [32, 6]
0	0x3bfbec99	0.0076881167
1	0xbbdb0b18	-0.006684672
2	0xbbf274b5	-0.0073991665
3	0xbc831081	-0.01599908
4	0x3c47545c	0.012166109
5	0x3c3ada92	0.01140465
6	0xbca201fa	-0.019776333
7	0x3b89af4e	0.004201806
8	0x3b1d9cb2	0.0024049697
9	0xbb80c4e4	-0.003929721
10	0x3ac0f061	0.0014720076
11	0x3c3ddfe7	0.011589027
12	0x3c3da213	0.011574286
13	0xbc261be0	-0.010138482
14	0x3c929ae7	0.017896129
15	0xba3a87ed	-0.00071155914
16	0xbbdb8b78	-0.0066999756
17	0x3abfdc24	0.001463775
18	0xbb337739	-0.0027384295
19	0xbc82c1a3	-0.015961474
20	0x3bb42581	0.005497635
21	0xbca34f2b	-0.019935211
22	0xba51a6e9	-0.0007997589
23	0x3c1deb96	0.009638688
24	0xbb1e9fdf	-0.0024204177
25	0xbc45dfb3	-0.01207726
26	0x3af8c969	0.0018980923
27	0x3b863b4f	0.0040964256
28	0x3cbca2e5	0.023026893
29	0xbbf0114e	-0.0073262816
30	0xbc2f67e7	-0.010705925
31	0xbb9d43f7	-0.004799362
32	0x3c62ae1b	0.013835455
33	0x3bc0511d	0.0058690445
34	0x3b87c790	0.0041436628
35	0xbb5c0be2	-0.0033576419
36	0x3a174edf	0.00057719456
37	0xbc39713e	-0.011318503
38	0xbc0c49cd	-0.008562517
39	0x3c91600f	0.017746
40	0x3cf20a6a	0.029545981
41	0xbc14e135	-0.009086897
42	0xbb67c73d	-0.0035366558
43	0xbb7f295c	-0.0038934564
44	0xbc872432	-0.016496751
45	0xba69168e	-0.00088916055
46	0xbb9cc266	-0.0047839163
47	0xbaf80397	-0.0018921968
48	0x3c671ed4	0.014106471
49	0xbc99202e	-0.018692102
50	0xbc472229	-0.0121541405
51	0x3bd9eeef	0.0066507976
52	0xbb8554af	-0.004068933
53	0x3c027267	0.007961846
54	0xbc1085bd	-0.008820948
55	0xbb96319c	-0.0045835506
56	0x3b80c76f	0.0039300243
57	0x3b81727f	0.0039504166
58	0xbbad6db7	-0.00529262
59	0xbc6b8f2c	-0.014377397
60	0xbc2c65fb	-0.010522361
61	0x3b8a5806	0.004221919
62	0xbb95f776	-0.004576619
63	0xbbc48873	-0.0059977113
64	0xbc1bab78	-0.009501331
65	0x3c73e4be	0.014886079
66	0xbc05346b	-0.008130173
67	0xbc84656d	-0.016161645
68	0xbc90e3b4	-0.017686702
69	0xb926251d	-0.0001584482
70	0x3c5e374e	0.01356299
71	0xbb1fc3d4	-0.0024378197
72	0xbc9187d2	-0.01776496
73	0xbba5cad9	-0.0050595817
74	0xbb3a30d7	-0.0028410458
75	0xbb2fe63d	-0.0026840114
76	0xbb17b114	-0.0023146318
77	0x3a93a7c0	0.0011265203
78	0xbbe7bc92	-0.00707204
79	0xbca69be5	-0.020338008
80	0x3c4398b3	0.011938262
81	0xbb2e86bc	-0.00266306
82	0xbc093387	-0.0083741015
83	0x3bc48c8b	0.0059981993
84	0x3c130157	0.008972487
85	0xbc0cc5b3	-0.008592057
86	0x3c50d152	0.012745218
87	0xba096925	-0.0005241803
88	0xbc400259	-0.01171931
89	0x3b32eac9	0.0027300587
90	0xbc19b54e	-0.009381605
91	0x3bcea55b	0.006306333
92	0xbb12a612	-0.0022376818
93	0x3c01061b	0.007874991
94	0x3bb0e925	0.0053988867
95	0x3bc87b84	0.00611824
96	0x3c43bf1c	0.0119474195
97	0x3c118a0d	0.0088830115
98	0x3b24e8cb	0.002516317
99	0xbc16a15d	-0.009193745
100	0x3b86e8e3	0.0041171177
101	0xbb98abc7	-0.0046591493
102	0x3a75e5c9	0.0009380249
103	0xbb9cb89b	-0.004782749
104	0xbc246f3d	-0.010036287
105	0xb9efcff0	-0.00045740558
106	0x3c2ace69	0.010425189
107	0x3bd7c7a5	0.006585079
108	0xbca0cdce	-0.019629385
109	0x3bff15f5	0.0077846
110	0xbc6e716e	-0.014553411
111	0x3aebd554	0.0017992654
112	0x3adf5834	0.0017039836
113	0x3c302d40	0.010752976
114	0x3d02f3ad	0.03197067
115	0x3b2d9847	0.002648847
116	0x3c9486e3	0.018130725
117	0x3be0c74f	0.006859697
118	0xbafda0b4	-0.0019350261
119	0xbbf27cc6	-0.007400128
120	0xbb7a0d40	-0.003815487
121	0xbb9689c3	-0.004594059
122	0xbc4fb67c	-0.012677785
123	0xbb8089a3	-0.0039226576
124	0x39ba8244	0.0003557374
125	0xbb85b274	-0.004080111
126	0xbb80a80f	-0.003926284
127	0x3c165df7	0.009177676
128	0x3c3120fd	0.010811088
129	0xbc30373d	-0.010755357
130	0xbb9579cc	-0.0045616385
131	0xbb74bb38	-0.0037343036
132	0xbc46de64	-0.012137983
133	0xbbd14a24	-0.006387012
134	0x3c4d1d66	0.012519216
135	0x3be93f5d	0.007118149
136	0x3b2d0ef4	0.0026406618
137	0x3c4114ef	0.011784776
138	0xba3d373e	-0.00072180096
139	0x3b309ebb	0.002695008
140	0x3bc27204	0.005934002
141	0x3abe088e	0.0014498399
142	0xbbd9face	-0.0066522127
143	0xbc071093	-0.008243698
144	0xbb88e90b	-0.0041781715
145	0xbbb79a72	-0.005603128
146	0xbad8e530	-0.0016547795
147	0x3c0fc56f	0.008775099
148	0x3c8c7322	0.017144743
149	0x3b966246	0.004589352
150	0x3b99b26c	0.004690459
151	0x3c0a804e	0.008453442
152	0xbb38a40b	-0.002817395
153	0xbc703520	-0.0146611035
154	0xbb9fa637	-0.0048721093
155	0xbc878067	-0.01654072
156	0x3c2ec0f9	0.010666125
157	0xbc0f1d6b	-0.008735041
158	0x3b1704d7	0.0023043656
159	0xbc7b36fd	-0.015332934
160	0xbaafe53d	-0.0013419759
161	0xbbb83080	-0.005621016
162	0xbbc81065	-0.00610547
163	0xbc87cc29	-0.016576843
164	0xbb46f80d	-0.0030360252
165	0xbbf32e86	-0.0074213175
166	0xbca367f2	-0.019947026
167	0x3bd0f3d8	0.0063767247
168	0xbbdcffb0	-0.0067443475
169	0x3c53f666	0.012937164
170	0x3ba99505	0.005175235
171	0xbb9b900c	-0.0047473963
172	0xbc0026fc	-0.007821795
173	0x3c16784b	0.0091839535
174	0xbb3e1ce6	-0.0029008924
175	0xbc90de43	-0.017684108
176	0xbbbbde4a	-0.005733286
177	0x3c174790	0.00923337
178	0x3b866ed1	0.004102566
179	0xbbe4ba8a	-0.006980245
180	0xbcc7e525	-0.024401257
181	0xbc191970	-0.009344444
182	0xbc6ee972	-0.014582025
183	0x3945934f	0.00018842261
184	0xbbb68d42	-0.0055710385
185	0xbc07a0a3	-0.008278045
186	0x3c1257c6	0.00893206
187	0x3c420c79	0.011843794
188	0xbca45093	-0.020057952
189	0x389dcd24	7.524554e-05
190	0xbc3c87fd	-0.0115070315
191	0x3c67c507	0.014146096

linear_in.bias f4 [32]
0	0x00000000	0.0
1	0x00000000	0.0
2	0x00000000	0.0
3	0x00000000	0.0
4	0x00000000	0.0
5	0x00000000	0.0
6	0x00000000	0.0
7	0x00000000	0.0
8	0x00000000	0.0
9	0x00000000	0.0
10	0x00000000	0.0
11	0x00000000	0.0
12	0x00000000	0.0
13	0x00000000	0.0
14	0x00000000	0.0
15	0x00000000	0.0
16	0x00000000	0.0
17	0x00000000	0.0
18	0x00000000	0.0
19	0x00000000	0.0
20	0x00000000	0.0
21	0x00000000	0.0
22	0x00000000	0.0
23	0x00000000	0.0
24	0x00000000	0.0
25	0x00000000	0.0
26	0x00000000	0.0
27	0x00000000	0.0
28	0x00000000	0.0
29	0x00000000	0.0
30	0x00000000	0.0
31	0x00000000	0.0

linear_32.weight f4 [32, 32]
0	0x3d5605ec	0.05225174
1	0xbb8d1cb5	-0.0043064007
2	0xb843dc31	-4.6696692e-05
3	0x3ca9c6bf	0.020724652
4	0xbbf977e8	-0.007613171
5	0xbecea17a	-0.40357572
6	0xbc4861e2	-0.012230368
7	0x3f0fedde	0.5622233
8	0xbc4bd054	-0.012439806
9	0xbc7e918b	-0.01553763
10	0x3dd3aa25	0.10335187
11	0xbc9a56b9	-0.01884018
12	0x3d173735	0.036917884
13	0xbbd5dbec	-0.006526461
14	0xbbc59d2b	-0.006030699
15	0x3b4fa178	0.0031681936
16	0xbbdc753e	-0.0067278435
17	0x3e9ebf42	0.31005293
18	0xbcd5719d	-0.026055152
19	0xbeef248c	-0.4670757
20	0x3c2673aa	0.010159412
21	0x3c97972d	0.018504703
22	0x3c150517	0.009095452
23	0x3ba0e892	0.004910537
24	0xbc4cadb6	-0.012492588
25	0xbe0a02c9	-0.13477625
26	0xbe9d1193	-0.3067747
27	0x3bbe02b5	0.0057986625
28	0x3abf1862	0.001457941
29	0x3e857b2e	0.2607054
30	0xbc4f5009	-0.012653359
31	0xbf35a190	-0.7094965
32	0xbb819db7	-0.0039555687
33	0xbcd3e9fb	-0.025868407
34	0xbce96951	-0.028492602
35	0xbc5d8f0d	-0.0135228755
36	0xbbcc50a9	-0.0062352014
37	0x3e907acd	0.2821869
38	0xbc036583	-0.008019808
39	0xbf7109ca	-0.9415556
40	0xbca6e5fd	-0.020373339
41	0xbce74bde	-0.028234418
42	0x3f32ed00	0.69892883
43	0xbd1a39bc	-0.037652716
44	0x3b977d0f	0.0046230624
45	0xbd3f7c98	-0.04674968
46	0x3b506f82	0.0031804745
47	0xbbefc855	-0.0073175826
48	0xbcc7e04a	-0.024398942
49	0xbdca8ac5	-0.098897494
50	0xbcff0a8e	-0.031132963
51	0xbc4f37f7	-0.01264762
52	0x3caf08e5	0.021366546
53	0xbc299846	-0.010351246
54	0xbc09dede	-0.008414952
55	0x3d33c4cb	0.04388885
56	0xbcfa2ada	-0.030538011
57	0x3e4dbe81	0.20092203
58	0x3e36d06e	0.17852947
59	0xbc8808e5	-0.016605804
60	0xbce0bbfa	-0.027433384
61	0x3f781d65	0.9691985
62	0x3b9d8f98	0.0048083775
63	0x3f419ed6	0.7563299
64	0x3faff9ef	1.3748149
65	0x3c648f9c	0.013950255
66	0x3bfa0715	0.007630239
67	0x3ce39215	0.027779618
68	0xbc86204c	-0.016372822
69	0xbe074110	-0.13208413
70	0x3cf009e5	0.029301593
71	0x3efe6c92	0.49692208
72	0xbc8c9582	-0.017161135
73	0x3cafd52c	0.021463953
74	0x3f90550a	1.1275952
75	0x3c81ae8d	0.015830303
76	0x3cd74c73	0.026281571
77	0xbb8cf902	-0.004302145
78	0x3b3272fc	0.002722918
79	0xbc82f3e5	-0.015985439
80	0x3ca9dc15	0.020734826
81	0x3e936f8d	0.28796044
82	0xbc9c06a8	-0.019046143
83	0xbe3432e3	-0.17597537
84	0x3cd4fb1b	0.025998643
85	0x3bc4916a	0.00599878
86	0xb9dae340	-0.00041749515
87	0xbc091adb	-0.008368219
88	0xbb8c75b1	-0.004286491
89	0xc006c1a4	-2.105569
90	0x3edac964	0.42731774
91	0x3bed146a	0.0072350996
92	0x392b38fb	0.00016329058
93	0x3fc76ccb	1.5580076
94	0x3cc94420	0.024568617
95	0xbf000872	-0.50012887
96	0xbcc3e77a	-0.023914088
97	0xbabb9aac	-0.0014313064
98	0x3c0133bf	0.007885872
99	0xbb8e88ee	-0.0043498194
100	0xbba25b50	-0.004954733
101	0x3e78fb99	0.24314727
102	0xbc9f93be	-0.019479629
103	0xbf1c2fed	-0.6101063
104	0xbc522985	-0.012827282
105	0xbcc889ee	-0.024479833
106	0xbf99af9f	-1.200672
107	0xbad3cbfb	-0.0016158813
108	0x3cdab46a	0.026697356
109	0x3cbc3c7c	0.02297806
110	0x3ac709cd	0.0015185416
111	0x3bea02a8	0.00714143
112	0x3c8585b3	0.016299104
113	0x3d5612e3	0.052264106
114	0x3cf508b0	0.02991137
115	0x3dc95f3c	0.09832618
116	0xbca8a3be	-0.02058589
117	0x3bb02b8d	0.0053762854
118	0x3b047f08	0.0020217318
119	0xbd13f047	-0.03611782
120	0x3c1bf937	0.009519867
121	0x3fc8bb87	1.5682229
122	0x3ec6c1da	0.38819772
123	0x3c180c32	0.009280251
124	0x3cae050f	0.021242647
125	0xbfee5908	-1.862092
126	0xbc55fbd0	-0.013060525
127	0x3f13f05d	0.5778864
128	0x3bc069fd	0.00587201
129	0xbe436044	-0.19079691
130	0x3dcef5c4	0.1010547
131	0x3cef07a7	0.029178454
132	0x3b41f096	0.0029592863
133	0xbbdd686c	-0.006756833
134	0x3c417024	0.011806522
135	0x3c0a7f40	0.00845319
136	0xbc800841	-0.015628936
137	0xbc2d67e3	-0.010583851
138	0x3cd9511a	0.02652793
139	0x3e0c4773	0.1369913
140	0xbb4bf491	-0.0031121115
141	0xbe5e5e94	-0.21715766
142	0x3e1b31ca	0.15155712
143	0x3d2347c9	0.03986338
144	0xbe1d6dce	-0.15373918
145	0xbbd45d23	-0.0064808293
146	0xbd382480	-0.044956684
147	0xbd1f4cfc	-0.038891777
148	0xbe6e9a37	-0.23301016
149	0xbd2dbe97	-0.04241809
150	0x3e95c401	0.29251102
151	0x3c6263b0	0.013817713
152	0x3ba6276c	0.0050706174
153	0xbe55db81	-0.20884515
154	0xbdadc9ab	-0.08485731
155	0xbe904056	-0.28174084
156	0xbe2fb694	-0.17159492
157	0x3d3270c6	0.04356458
158	0xbc0611fd	-0.008183
159	0xbbfc550c	-0.007700568
160	0x3f800ca6	1.000386
161	0x3bb447cd	0.0055017234
162	0x3bb6eca6	0.00558241
163	0xbbb95e98	-0.0056570284
164	0xbb87ed9e	-0.004148199
165	0x3fbc3dae	1.4706323
166	0x395ae2ea	0.00020874632
167	0xbf2384c6	-0.6387447
168	0xbbae403f	-0.0053177173
169	0xbb2bd5d9	-0.0026219992
170	0xbff3bff3	-1.9042953
171	0xbc5f83e5	-0.013642286
172	0x3b82eb96	0.003995369
173	0xbb282c18	-0.0025661048
174	0xbc18e7a7	-0.009332574
175	0x3b477b2d	0.0030438409
176	0xbc5e8c69	-0.013583281
177	0x3e60f055	0.2196668
178	0x3a8c6e8c	0.0010714098
179	0x3d643566	0.055714987
180	0x3ad39e17	0.0016145137
181	0xba70b7d8	-0.0009182668
182	0xbb416988	-0.0029512364
183	0x3bf0dcbf	0.0073505337
184	0xbbbeb512	-0.005819925
185	0xbfc1c3d1	-1.5137883
186	0x3ee9b3c8	0.45644975
187	0xbc6885cf	-0.014192059
188	0xbbfab5f2	-0.007651084
189	0xc01b4c44	-2.42653
190	0xbc478f1a	-0.012180114
191	0x3f5fb064	0.87378526
192	0xbeb5615c	-0.35425842
193	0xbbb4d8b2	-0.005518996
194	0x3a641456	0.000870054
195	0xbc949ba2	-0.018140618
196	0x3b6dbae6	0.003627473
197	0xbf2572a7	-0.6462807
198	0xbbc455ee	-0.005991689
199	0x3e667a1a	0.22507516
200	0x3a737e15	0.0009288502
201	0xbb0611f0	-0.002045747
202	0xbfb3b5a1	-1.4039804
203	0x3c2747f5	0.010210027
204	0xbd08602c	-0.03329484
205	0xbbd0867c	-0.006363688
206	0x3c7b05f5	0.0153212445
207	0xbb96329a	-0.004583669
208	0xb98f6f0d	-0.00027357825
209	0xbe7324f3	-0.23744564
210	0x3b970058	0.0046081953
211	0x3d85d94b	0.06535586
212	0xbc64ecee	-0.013972504
213	0xbc2828a7	-0.0102635985
214	0x3b9ef5c9	0.004851077
215	0xbb869f10	-0.004108317
216	0xbc48e1f9	-0.012260907
217	0x4058cb9d	3.3874276
218	0xbcdf555c	-0.027262382
219	0x3c008b9b	0.007845785
220	0x3bf00d4f	0.0073258053
221	0xbfb40fe9	-1.4067355
222	0xbaff6e50	-0.0019487832
223	0x3e324523	0.17409186
224	0xbe0653a0	-0.13117838
225	0xbb85b50f	-0.0040804218
226	0x3afd56e0	0.0019328259
227	0xbce7b826	-0.028286051
228	0xbc9e9c5a	-0.019361664
229	0x3e3480fa	0.17627326
230	0x3c1c4300	0.009537458
231	0xbf66c27a	-0.901405
232	0xbad12804	-0.001595736
233	0x3c298572	0.010346757
234	0x3f49fbda	0.7889992
235	0xba2f52a7	-0.00066880364
236	0xbcbbba47	-0.022915972
237	0xbbd39d9b	-0.006457997
238	0x3be2a090	0.006916113
239	0x3b2c9c38	0.002633823
240	0xbc39fbda	-0.01135155
241	0xbe040e95	-0.12896188
242	0x3c90ccad	0.017675722
243	0x3db956e2	0.09049775
244	0xbb41c8f8	-0.002956925
245	0xbafd4dbd	-0.0019325536
246	0xbc0b7715	-0.008512278
247	0x3ccdfcf8	0.025145039
248	0x3c26ae6c	0.010173421
249	0x3ed2eaed	0.4119486
250	0x3e1b76f6	0.15182099
251	0x3ba1f04f	0.004941977
252	0x3b570ecc	0.0032815216
253	0x3f8cc4b1	1.0997525
254	0xbbae7983	-0.005324544
255	0x3f47db36	0.78068864

linear_32.bias f4 [32]
0	0x3ea0565a	0.3131588
1	0xbdf1907e	-0.11795138
2	0x3d352d28	0.044232517
3	0x3c9b325b	0.01894491
4	0xbebaac7e	-0.36459726
5	0xbed25273	-0.4107853
6	0x3da75dde	0.081722006
7	0xbe1e2f95	-0.15447839
8	0x3e80a554	0.25126135
9	0x3e5ef7ac	0.21774167
10	0x3e875a91	0.26436284
11	0x3e8ccd46	0.2750036
12	0x3e9e2e02	0.30894476
13	0x3e8e3165	0.2777206
14	0xbe07b686	-0.13253221
15	0xbf2e8bbc	-0.6818197
16	0x3e974980	0.29548264
17	0xbe82434f	-0.25441977
18	0x3e8bedef	0.27329966
19	0x3ea0c999	0.31403807
20	0x3e75f073	0.24017505
21	0xbdea38b7	-0.11436599
22	0x3e9a42ea	0.30129176
23	0xbd693efc	-0.056944832
24	0xbd8c61da	-0.06854601
25	0x3ebb7139	0.3660982
26	0xbda31d9a	-0.079646304
27	0xbe07ee40	-0.13274479
28	0x3e6858f9	0.2269019
29	0x3e899a5a	0.26875573
30	0xbbb9a748	-0.0056656934
31	0x3e97eb82	0.29671866

rnn.weight_ih_l0 f4 [32, 6]
0	0xbea98d7a	-0.3311575
1	0xbda5cd49	-0.08095796
2	0x3f95f159	1.1714278
3	0xbf6ce20b	-0.92532414
4	0x3c0f2bae	0.008738441
5	0x3db1d163	0.086825155
6	0xbeb63cba	-0.35593206
7	0xbfb9dc96	-1.4520442
8	0xbf36ca7b	-0.7140271
9	0xbf64543d	-0.8919104
10	0x3e8a19dd	0.26972857
11	0x3ea45762	0.32097918
12	0x3f08de17	0.5346388
13	0x3fc3702a	1.5268605
14	0x3f4a8a07	0.79116863
15	0x3f83329e	1.0249822
16	0x3c5aa0ad	0.013343972
17	0xbe725299	-0.23664321
18	0x3fb880d5	1.4414316
19	0xbe2b804f	-0.16748165
20	0x3f862b98	1.0482054
21	0x3f9d0e91	1.227007
22	0x3f991ba6	1.1961563
23	0x3f9a2a9d	1.2044255
24	0xbd859b65	-0.0652378
25	0xbe4dfdc2	-0.20116332
26	0xbfd34774	-1.6506181
27	0xbdf0f903	-0.11766245
28	0xbefe7079	-0.49695185
29	0xbe8e9b2e	-0.27852768
30	0x3f521500	0.82063293
31	0x3f31e176	0.6948465
32	0xbe4c08ba	-0.19925204
33	0x3e1a5743	0.1507235
34	0xbd9900e4	-0.07470873
35	0xbe1d2c0c	-0.15348834
36	0xbf56bcc4	-0.83881783
37	0xbf65b7db	-0.89733666
38	0x3e21a90c	0.15787143
39	0xbf225b28	-0.63420343
40	0xbed005d4	-0.40629447
41	0xbec6892a	-0.38776523
42	0xbe7d0c66	-0.24711761
43	0x3ec65a93	0.38740978
44	0xbc973a63	-0.018460458
45	0xbd2c7306	-0.042101882
46	0xbfa78bae	-1.3089502
47	0xbf9fec59	-1.2494003
48	0x3eb89e7c	0.36058414
49	0x3f7d31b9	0.98903996
50	0xbe80765e	-0.25090307
51	0x3f21c001	0.631836
52	0x3e095940	0.13412952
53	0x3d7e11fc	0.06202887
54	0x3ef5d30c	0.48012578
55	0xbfad1691	-1.3522512
56	0x3eada1dc	0.3391255
57	0xbd4abb20	-0.049494863
58	0x3eba2aa5	0.3636066
59	0x3ea85321	0.32875922
60	0xc0df8b87	-6.985782
61	0x3e9d8a52	0.30769593
62	0xbf1d966c	-0.6155765
63	0xbf64d662	-0.8938962
64	0x3f0a9a45	0.54141647
65	0x3f155fa4	0.5834906
66	0xbf057329	-0.52128845
67	0xbf765d5f	-0.96236223
68	0xbe876ac1	-0.26448634
69	0xbf76c32c	-0.9639156
70	0xbf003836	-0.5008577
71	0xbeec8c21	-0.4620066
72	0xbc68c202	-0.014206411
73	0xbf2d7a58	-0.67764807
74	0x3f97ae72	1.1850111
75	0xbe72d849	-0.23715319
76	0xbf194170	-0.59865475
77	0xbea86ad7	-0.32894012
78	0x3c91efe8	0.017814592
79	0x3fab4ece	1.3383424
80	0xbebb7d21	-0.36618903
81	0x3e855a9d	0.26045695
82	0x3c6472ee	0.013943417
83	0xbcb8f7fe	-0.02257919
84	0x3dd9214e	0.106020555
85	0xbf9a4f30	-1.2055416
86	0x3e806b5b	0.25081906
87	0xbd5b8459	-0.053593013
88	0x3dc3261c	0.09528753
89	0x3d7bee9b	0.06150685
90	0x3e64ce5f	0.2234435
91	0x3fc80c84	1.562882
92	0x3c10f805	0.008848195
93	0x3e73bb93	0.23802023
94	0x3cc3f861	0.023922147
95	0xbce09340	-0.027413964
96	0xbea19eff	-0.31566617
97	0xbf6f7de7	-0.93551487
98	0xbe25060e	-0.16115591
99	0xbf0571fa	-0.5212704
100	0xbed241f7	-0.41065952
101	0xbec36aea	-0.38167506
102	0x3f1ff6af	0.62485784
103	0xbfa31f88	-1.2743998
104	0x3e3f7f30	0.18700862
105	0x3e4fc87d	0.20291324
106	0x3f37da25	0.7181724
107	0x3f39494e	0.7237748
108	0x3f05957f	0.5218124
109	0x3fb9e0b6	1.4521701
110	0xbe77b18f	-0.24188827
111	0x3f425c2e	0.75921905
112	0x3e70ab9c	0.23502964
113	0x3e809eb7	0.2512109
114	0xbe16f0c1	-0.14740278
115	0xbf2792c6	-0.65458333
116	0xbc7314e9	-0.014836528
117	0x3cb2cce5	0.021826217
118	0x3efd89fe	0.49519342
119	0x3f0a96c6	0.5413631
120	0xbdb42d19	-0.08797664
121	0x3fb856aa	1.4401448
122	0xbf825111	-1.018099
123	0xbd8a18a2	-0.067429796
124	0xbe257df2	-0.16161326
125	0xbe017848	-0.1264354
126	0xbcf97d59	-0.030455278
127	0xbfb62244	-1.4229207
128	0xbd4bc1ea	-0.049745478
129	0xbf3ae276	-0.730018
130	0xbd392a0f	-0.045206126
131	0xbd8642a0	-0.065556765
132	0x3ca4b9c6	0.020108115
133	0x3fcd5fe1	1.6044885
134	0xbe1bea65	-0.15226133
135	0x3e3ba06a	0.18322912
136	0x3d3d8397	0.046268072
137	0xbc5885f2	-0.013215529
138	0xbe12c9a9	-0.1433474
139	0xbfbc07ef	-1.4689921
140	0x3df138c6	0.11778407
141	0xbe824c48	-0.25448823
142	0xbe252568	-0.1612755
143	0xbe3913d5	-0.18073972
144	0x3f65b7c9	0.8973356
145	0xbfa21980	-1.2664032
146	0xbea7c01b	-0.32763752
147	0x3f00ce80	0.50315094
148	0x3f4405ad	0.7657116
149	0x3f0e1e68	0.55515146
150	0x3f98535e	1.1900442
151	0xbee2412b	-0.44190344
152	0xbefe907e	-0.49719614
153	0x3e937942	0.2880345
154	0xbda98dd8	-0.08279008
155	0x3dca71a9	0.0988496
156	0xc018f328	-2.389841
157	0x3f086bca	0.53289473
158	0x3db036c2	0.08604194
159	0xbe7ecace	-0.24882051
160	0xc069a164	-3.6504755
161	0xc066c2c5	-3.6056378
162	0x3d338fdd	0.04383837
163	0x3fad0ce3	1.3519558
164	0xbe4c76c4	-0.1996718
165	0x3cad43a3	0.021150416
166	0xbe0b53d8	-0.13606203
167	0xbe09808b	-0.13427942
168	0xbeae6137	-0.34058544
169	0xbfa24840	-1.2678299
170	0x3e9915b9	0.29899386
171	0xbf27ea8f	-0.65592283
172	0xbea50073	-0.32226905
173	0xbeb8cc18	-0.3609321
174	0x3fcc6118	1.5967131
175	0xbed942e0	-0.42433834
176	0x3f4f7566	0.8103851
177	0x3fa34aa9	1.275716
178	0xbdda2233	-0.10651054
179	0xbe13fa4e	-0.14450952
180	0xbe1bfe19	-0.1523365
181	0xbfb8e695	-1.4445368
182	0x3ecfb085	0.4056436
183	0xbea852c8	-0.32875657
184	0xbd934d51	-0.07192481
185	0xbd9218bb	-0.07133623
186	0x3ebbec8c	0.36703908
187	0xbea7cca5	-0.3277332
188	0x3b4ca1c5	0.0031224352
189	0x3d21361a	0.039358236
190	0xbe4c34e4	-0.19942051
191	0xbe36d051	-0.17852904

rnn.weight_hh_l0 f4 [32, 32]
0	0xbf3cdd43	-0.7377512
1	0xbebeb4e0	-0.37247372
2	0x3ef016b6	0.46892327
3	0x3f0a5e21	0.5404988
4	0xbe46c70a	-0.19411865
5	0x3f74341c	0.9539201
6	0x3eaa4fc7	0.3326399
7	0x3f24dd8b	0.6440055
8	0x3e2ad596	0.16683039
9	0xbe026061	-0.12732078
10	0xbe34ad74	-0.17644292
11	0xbdb7837d	-0.08960626
12	0xbe8130aa	-0.2523244
13	0x3e501150	0.20319104
14	0xbe36ca9e	-0.1785073
15	0x3edf5a71	0.4362369
16	0xbe4d1467	-0.20027314
17	0x3e0b1985	0.13583954
18	0x3eb227b4	0.34795916
19	0xbd20ac57	-0.039226856
20	0x3ec863e6	0.39138716
21	0xbebaa65f	-0.36455056
22	0x3f073525	0.5281547
23	0xbe3f5e11	-0.18688227
24	0xbe8f5696	-0.27995747
25	0xbf675315	-0.9036115
26	0x3f083a7a	0.5321423
27	0x3eb435ac	0.35197198
28	0xbe816d51	-0.25278714
29	0xbd248b34	-0.040171817
30	0xbec4c23a	-0.38429433
31	0xbf4963c1	-0.7866784
32	0xbe1ec097	-0.15503155
33	0x3e599fbb	0.21252339
34	0xbe0f1050	-0.13971066
35	0xbe2baeb3	-0.16765861
36	0x3f578f1b	0.84202737
37	0xbe50a535	-0.20375521
38	0xbd8c59ee	-0.0685309
39	0xbd3843d5	-0.044986565
40	0xbf861fc8	-1.0478449
41	0xbdabbbb2	-0.083854094
42	0xbea33d61	-0.31882766
43	0x3daab1c1	0.08334685
44	0x3f06fc55	0.5272878
45	0xbebb728c	-0.3661083
46	0x3df9ce0f	0.12197506
47	0x3cdcc039	0.026947128
48	0xbd925412	-0.071449414
49	0x3f630f25	0.88694984
50	0xbed35981	-0.41279224
51	0xbd051154	-0.03248723
52	0xbed39d0d	-0.41330758
53	0x3c97c830	0.018528074
54	0xbf0682cd	-0.52543336
55	0x3f69dc0b	0.91351384
56	0x3ccf2909	0.025288122
57	0xbe0950aa	-0.13409677
58	0xbda4fa0b	-0.080555044
59	0xbd981b2e	-0.07427059
60	0x3e22b82b	0.15890567
61	0xbee7e4da	-0.45291787
62	0x3f366e24	0.7126181
63	0x3d7e9197	0.062150564
64	0xbe815807	-0.25262472
65	0xbe935ae5	-0.28780285
66	0xbd6a7e51	-0.05724937
67	0x3e621030	0.22076488
68	0xbf40a6cc	-0.7525451
69	0x3ecc6368	0.3991959
70	0x3e1fe5dc	0.15615028
71	0x3dc62832	0.096756354
72	0x3f801694	1.000689
73	0xbec366ba	-0.38164312
74	0x3ee9c227	0.4565594
75	0x3dd48f42	0.10378887
76	0xbf30b788	-0.69030046
77	0xbd777e53	-0.060423207
78	0x3d9f8a8a	0.07790096
79	0x3e04d00a	0.12969986
80	0x3ea0bec5	0.31395546
81	0xbf556337	-0.83354515
82	0x3eccf597	0.4003112
83	0xbe0a1e1e	-0.13488051
84	0x3e009e47	0.12560378
85	0xbce2e649	-0.0276977
86	0x3ebeb083	0.37244043
87	0xbf23753f	-0.6385078
88	0x3dc53a9e	0.09630321
89	0x3e708586	0.23488435
90	0x3e2072c9	0.15668787
91	0xbba9c643	-0.0051811053
92	0x3e70a3aa	0.23499933
93	0x3e497581	0.1967373
94	0xbf662c1d	-0.8991106
95	0xbe0c1549	-0.13679995
96	0xbdf1a00b	-0.11798104
97	0x3f5fd3e1	0.87432677
98	0xbf5304a2	-0.82428944
99	0xbf385978	-0.7201152
100	0x3ef1b664	0.47209466
101	0x3fad2acc	1.3528686
102	0x3f0f6616	0.56015146
103	0x3ec5a008	0.38598657
104	0xbf4bb7f4	-0.79577565
105	0x3f468cca	0.7755858
106	0x3e5bf361	0.2147956
107	0x3ec27fd0	0.37988138
108	0x3f0c33fb	0.54766816
109	0xbf0e2c5e	-0.5553645
110	0x3f327063	0.6970274
111	0xbf211ab1	-0.6293135
112	0x3e9f5a38	0.3112352
113	0x3f1f924f	0.62332624
114	0xbf74bc2b	-0.9559962
115	0x3cfdfc65	0.03100414
116	0xbf2ef577	-0.683433
117	0x3f8c6b80	1.0970306
118	0xbf449273	-0.76785964
119	0x3f382d4a	0.71944106
120	0x3e586b9c	0.211348
121	0x3d584727	0.05280223
122	0x3f160ca8	0.5861306
123	0xbf8ba6a2	-1.0910227
124	0x3f753738	0.9578738
125	0xbef5fbc0	-0.48043633
126	0x3f51a893	0.8189785
127	0x3cd2dcb9	0.025740014
128	0xbf54d7dd	-0.8314188
129	0x3ec6f3e3	0.38857946
130	0xbf0c3306	-0.54765356
131	0x3e53c45a	0.20680371
132	0x3c666449	0.014061996
133	0x3eab9493	0.3351179
134	0xbd586021	-0.05282605
135	0x3f63b0ac	0.88941455
136	0xbeaa3e9f	-0.332509
137	0x3e9762b2	0.29567486
138	0x3f25c90d	0.64759904
139	0xbc240d02	-0.010012867
140	0x3f07d9af	0.53066534
141	0xbed05e56	-0.40696973
142	0xbe01c0dd	-0.12671228
143	0xbeb96079	-0.36206415
144	0x3e49c42e	0.19703743
145	0xbefae236	-0.4900071
146	0xbe58f0cd	-0.21185608
147	0x3e595ad9	0.21226062
148	0xbe85d3e3	-0.2613822
149	0x3eb529cc	0.3538345
150	0xbec7bbbf	-0.39010426
151	0x3eb342ef	0.35012004
152	0xbf192abc	-0.5983083
153	0xbf6bcab5	-0.9210618
154	0x3f40281b	0.75061196
155	0xbe2d1265	-0.16901548
156	0x3e232078	0.15930355
157	0xbe38abe0	-0.18034315
158	0x3e9c0840	0.30475044
159	0xbf18c2e3	-0.59672374
160	0xbd5156c0	-0.051108122
161	0x3f323b00	0.69621277
162	0xbef08b04	-0.4698106
163	0x3b8ca455	0.004292051
164	0x3f1ab209	0.6042791
165	0xbea261d8	-0.31715274
166	0xbe24d90e	-0.16098425
167	0xc02ccce6	-2.700006
168	0xbeb77eca	-0.3583892
169	0x3eb03a6e	0.34419578
170	0x3dbd216b	0.092348896
171	0x3ec4a297	0.38405296
172	0x3e9bfe78	0.30467582
173	0xbef7916d	-0.4835314
174	0x3edbe9d7	0.42951843
175	0xbf1996de	-0.5999583
176	0x3eef70b6	0.4676568
177	0x3f544651	0.82919794
178	0xbf166e70	-0.58762264
179	0x3fab5278	1.3384542
180	0xbf13e962	-0.5777799
181	0x3f1d0d7b	0.61348695
182	0xbefbf0e7	-0.4920723
183	0x3ef3dd8b	0.4762996
184	0x3ed3db9a	0.4137848
185	0x3deb0501	0.11475564
186	0xbec02261	-0.3752623
187	0xbf08437e	-0.53227985
188	0x3efbb090	0.49158144
189	0xbdbe05ca	-0.09278448
190	0x3f12f70a	0.574082
191	0x4037b23b	2.8702533
192	0xbbf199e7	-0.007373083
193	0x3f1ac70d	0.6045998
194	0xbf1649ed	-0.5870655
195	0x3b20c8ea	0.0024533817
196	0x3e13ad9a	0.14421692
197	0x3ed5b2eb	0.41738066
198	0xbe50bfd8	-0.20385683
199	0xbe9253b0	-0.28579473
200	0xbf044496	-0.51667154
201	0x3ee0dfc2	0.43920714
202	0x3e2a7202	0.16645053
203	0x3ead1063	0.33801565
204	0x3e8e7837	0.27826092
205	0xbecbd956	-0.39814252
206	0x3eb654d2	0.35611588
207	0xbec25a23	-0.37959394
208	0x3e8de032	0.2771011
209	0x3e450dab	0.19243495
210	0xbf20977a	-0.62731135
211	0x3ea79084	0.32727444
212	0xbefaefa9	-0.4901097
213	0x3f1a9b7e	0.6039351
214	0xbefbac9e	-0.49155134
215	0x3f015b7f	0.50530237
216	0x3c3b3634	0.011426497
217	0x3e92a27a	0.28639585
218	0x3d9426b3	0.07233944
219	0xbf2382bf	-0.6387138
220	0x3f141ffd	0.5786131
221	0x3ee66d94	0.45005476
222	0x3f075b88	0.5287404
223	0xbd3b5f6b	-0.045745295
224	0x3c81aa19	0.01582818
225	0x3f0bb47b	0.54572266
226	0xbf150e9c	-0.5822542
227	0x3e33f74e	0.17574808
228	0x3d3e0eea	0.046400942
229	0x3d1ae3e2	0.037814982
230	0x3ea68f3b	0.3253115
231	0xbebd8e5a	-0.37022668
232	0xbef2fe42	-0.47459608
233	0x3ece5574	0.4029957
234	0xbac125c3	-0.0014735985
235	0x3e0e5f24	0.13903481
236	0x3e408e66	0.1880432
237	0xbea83fad	-0.3286108
238	0x3ebd99cd	0.37031403
239	0xbeb63082	-0.35583884
240	0x3e262f9a	0.16229096
241	0xbd3517d5	-0.04421218
242	0xbf326817	-0.6969008
243	0xbdb40e2a	-0.08791764
244	0xbefdaa29	-0.49543884
245	0x3f4332a5	0.7624915
246	0xbf064ab6	-0.5245775
247	0x3ed9d12d	0.425424
248	0xbe57df61	-0.21081306
249	0xbd08ad5d	-0.033368457
250	0x3d147be1	0.036250953
251	0xbf42fc27	-0.76166004
252	0x3f2c9054	0.6740773
253	0xbca1e218	-0.01976113
254	0x3f0c7199	0.54860836
255	0xbf627a40	-0.8846779

rnn.bias_ih_l0 f4 [32]
0	0x3ed1224e	0.40846485
1	0xbf460141	-0.77345663
2	0x3f027898	0.5096526
3	0xbfd504d5	-1.66421
4	0x3ed495e1	0.415206
5	0xbf2b1b9a	-0.6683899
6	0xbfe6b7fc	-1.8024898
7	0xbf1b92ab	-0.6077067
8	0x3e96bcb6	0.2944085
9	0xbf26fc29	-0.65228516
10	0xbe954bc0	-0.29159355
11	0xbfb1737d	-1.3863369
12	0xbe7837a7	-0.2423998
13	0x3f4f95a7	0.81087726
14	0xbf9b358c	-1.2125716
15	0x3eeffc32	0.46872097
16	0xbf70ca40	-0.9405861
17	0x3e157c47	0.1459819
18	0x3f2ae338	0.6675296
19	0x3edb8f17	0.42882606
20	0x3f5a285b	0.8521783
21	0xbf4d6153	-0.8022663
22	0x3ed5b32b	0.41738257
23	0xbf1bf807	-0.60925335
24	0x3e533acd	0.206279
25	0x3ed2ccd6	0.41171902
26	0xbf51c8f7	-0.81947273
27	0x3f6d7e45	0.92770797
28	0xbf8eecfd	-1.1166073
29	0x3ea0d662	0.3141356
30	0xbf3c846b	-0.73639554
31	0x3f0ab3c1	0.5418053

rnn.bias_hh_l0 f4 [32]
0	0x3ed1224e	0.40846485
1	0xbf460141	-0.77345663
2	0x3f027898	0.5096526
3	0xbfd504d5	-1.66421
4	0x3ed495e1	0.415206
5	0xbf2b1b9a	-0.6683899
6	0xbfe6b7fc	-1.8024898
7	0xbf1b92ab	-0.6077067
8	0x3e96bcb6	0.2944085
9	0xbf26fc29	-0.65228516
10	0xbe954bc0	-0.29159355
11	0xbfb1737d	-1.3863369
12	0xbe7837a7	-0.2423998
13	0x3f4f95a7	0.81087726
14	0xbf9b358c	-1.2125716
15	0x3eeffc32	0.46872097
16	0xbf70ca40	-0.9405861
17	0x3e157c47	0.1459819
18	0x3f2ae338	0.6675296
19	0x3edb8f17	0.42882606
20	0x3f5a285b	0.8521783
21	0xbf4d6153	-0.8022663
22	0x3ed5b32b	0.41738257
23	0xbf1bf807	-0.60925335
24	0x3e533acd	0.206279
25	0x3ed2ccd6	0.41171902
26	0xbf51c8f7	-0.81947273
27	0x3f6d7e45	0.92770797
28	0xbf8eecfd	-1.1166073
29	0x3ea0d662	0.3141356
30	0xbf3c846b	-0.73639554
31	0x3f0ab3c1	0.5418053

linear_out.weight f4 [4, 32]
0	0xba868159	-0.0010261937
1	0xba802181	-0.000977561
2	0xbb710146	-0.003677444
3	0x3aa5c934	0.0012648464
4	0x3d01e142	0.031708963
5	0x3c2e8378	0.010651462
6	0xbb7c726b	-0.0038520347
7	0xbaa2d45f	-0.0012422911
8	0x3ca69dd4	0.02033893
9	0xbc0a066f	-0.008424385
10	0x3ac1ab58	0.0014775796
11	0x3cb819e2	0.02247328
12	0x3ba2318d	0.0049497546
13	0xbcdcb99f	-0.02694398
14	0xba433056	-0.0007445862
15	0x3e5dc1eb	0.21656005
16	0x3c7e5fd1	0.015525774
17	0xbaf04b07	-0.0018332907
18	0x3c77ccbb	0.015124495
19	0xbb93343b	-0.0044923103
20	0x3bf3156e	0.007418326
21	0x3a5aae02	0.0008341969
22	0xbcfc9af8	-0.030835614
23	0xb98df440	-0.00027075596
24	0x3930731e	0.00016827552
25	0x3c0d5982	0.008627297
26	0xb8b6a99c	-8.7100285e-05
27	0x3a553215	0.0008132768
28	0x3c5345e8	0.012895085
29	0x3bf8b8cf	0.0075903903
30	0xbb81b5a0	-0.003958419
31	0xbc1ecaf1	-0.00969194
32	0xbee3addf	-0.4446859
33	0x3ef26c20	0.47348118
34	0xbeca7a90	-0.39546633
35	0x3ec98d8a	0.39365798
36	0x3df60bdf	0.12013983
37	0x3f0fea65	0.5621703
38	0x3e6c5456	0.23079047
39	0x3ef55739	0.47918108
40	0xbeeb07a3	-0.45904264
41	0xbece8d9a	-0.40342408
42	0xbee5661b	-0.44804463
43	0xbeda5f6a	-0.4265092
44	0xbeea8b1d	-0.4580926
45	0xbedc4857	-0.4302394
46	0x3ee6e392	0.45095497
47	0xbd02689b	-0.03183804
48	0xbeea10c2	-0.4571591
49	0x3f054859	0.5206352
50	0xbeee3322	-0.46523386
51	0xbee9cc78	-0.4566381
52	0xbede6f08	-0.43444085
53	0x3ee35bb7	0.4440591
54	0xbed2fd5d	-0.41208926
55	0x3ef02aab	0.46907553
56	0x3eec2a15	0.46125856
57	0xbee9bf8c	-0.4565395
58	0x3ee98664	0.45610344
59	0x3eea4ee9	0.4576333
60	0xbeeb6a6a	-0.45979625
61	0xbf016754	-0.5054829
62	0xbe869cdf	-0.26291558
63	0xbeea53e9	-0.45767143
64	0x3bd30691	0.0064399918
65	0xbd82eff7	-0.06393426
66	0xbe83237f	-0.2561302
67	0x3e2d790b	0.16940705
68	0xbe1be0f7	-0.15222536
69	0xbd0be3ca	-0.034152783
70	0x3f02f188	0.511498
71	0xbd586e87	-0.052839782
72	0xbc5b3549	-0.013379403
73	0xbc97eac5	-0.018544564
74	0x3d88afc7	0.06674152
75	0x3c1ace0a	0.009448538
76	0x3d7d3a08	0.06182292
77	0xbc49b484	-0.012311105
78	0x3be65a85	0.0070298337
79	0xbe9e0a2d	-0.30867139
80	0x3cce059b	0.025149157
81	0xbc64eaf7	-0.013972036
82	0x3d0700dd	0.032959808
83	0x3b178b03	0.002312363
84	0xbc57384b	-0.01313598
85	0xbebdb458	-0.37051654
86	0x3c806b01	0.015676023
87	0xbd818e0b	-0.06325921
88	0x3c1824ce	0.009286119
89	0x3d0407d6	0.032234035
90	0x3bd667e9	0.006543149
91	0x3cb82b77	0.022481663
92	0x3c1bb191	0.009502784
93	0x3e36ab46	0.17838773
94	0xbf23f728	-0.64049006
95	0x3cf990ce	0.030464556
96	0xbb7b2abc	-0.0038325032
97	0xbd651016	-0.055923544
98	0xbd03ce8e	-0.032179408
99	0x3d402b45	0.046916265
100	0x3dfc44e9	0.12317831
101	0x3e9df96d	0.3085436
102	0xbcfa9d0e	-0.030592468
103	0xbd93e260	-0.07220912
104	0x3e1d0e6b	0.15337531
105	0xbd8754de	-0.06607984
106	0x3c5ebcdd	0.013594833
107	0x3e2d40e5	0.16919287
108	0x3d2baf7d	0.041915406
109	0xbe7e7747	-0.24850188
110	0xbd535411	-0.051593844
111	0x3e45f976	0.19333443
112	0x3dfcb224	0.12338665
113	0xbe3c7140	-0.18402576
114	0x3df0c9fb	0.11757275
115	0xbcf04e79	-0.029334294
116	0x3d743523	0.059620988
117	0xbad4fe0d	-0.001625003
118	0xbea46abd	-0.32112685
119	0xbc220bc0	-0.009890497
120	0x3c614252	0.013748722
121	0x3d879ff9	0.06622309
122	0xbbb84b34	-0.0056241993
123	0x3d706059	0.058685634
124	0x3dcd7ef9	0.10033984
125	0x3d818a41	0.06325198
126	0xbcd9206e	-0.026504721
127	0xbd9caa3b	-0.076496564

linear_out.bias f4 [4]
0	0xbba0226b	-0.0048869154
1	0x4198c921	19.098207
2	0x3cced93f	0.025250075
3	0x3dd27d31	0.102777846

layer_norm.weight f4 [32]
0	0xbeb5af70	-0.3548541
1	0x3b1e5dd0	0.0024164803
2	0xbb476859	-0.0030427186
3	0x3b2b5e97	0.002614891
4	0xbb29ec11	-0.002592806
5	0x3f2cf049	0.67554146
6	0xba5616b2	-0.0008166834
7	0xbf4bcd2c	-0.7960994
8	0xba9194af	-0.0011106933
9	0x39344684	0.00017192407
10	0x3eca3183	0.394909
11	0x3adb452a	0.0016728987
12	0x3b730696	0.0037082783
13	0x3a5cb222	0.0008418878
14	0xbbb53e45	-0.0055311047
15	0x3b3a1870	0.0028395914
16	0xbacc7635	-0.0015599193
17	0x3f0176cd	0.505719
18	0x3b33581e	0.0027365754
19	0xbf0e299b	-0.55532235
20	0xbb1a5292	-0.002354775
21	0x3a8b6bfe	0.0010637043
22	0x3ae3c38b	0.0017377002
23	0xba18c3ea	-0.00058275333
24	0xb90dad24	-0.00013511308
25	0xbee48dfd	-0.44639578
26	0x3ee786c9	0.4522002
27	0xba7b9a4f	-0.0009597884
28	0xbb2d0baa	-0.0026404657
29	0xbe8c2785	-0.273739
30	0xbb60613e	-0.0034237648
31	0xbf432b4c	-0.7623794

layer_norm.bias f4 [32]
0	0x3ee922d5	0.45534387
1	0x3b05dfcd	0.0020427585
2	0x3b3fd78e	0.0029272768
3	0x3acaaa65	0.0015462158
4	0x39eb91e3	0.00044931387
5	0xbe6a70a1	-0.22894527
6	0xbb3b5014	-0.0028581666
7	0xbe1e37ae	-0.15450928
8	0x3b494006	0.0030708327
9	0xbacf173d	-0.0015799772
10	0x3e14b582	0.14522365
11	0x3adb1940	0.0016715899
12	0x3b130a2d	0.0022436485
13	0x39ac7f39	0.00032901185
14	0xbb744457	-0.003727218
15	0xba67ce72	-0.00088427134
16	0xb94db1d7	-0.00019616574
17	0x3ea63490	0.32461977
18	0xba70568d	-0.00091681705
19	0xbe59a593	-0.21254568
20	0xba441e85	-0.00074813544
21	0x3b09471e	0.002094693
22	0xb93bbdae	-0.00017904371
23	0xbb4bb160	-0.0031081066
24	0x3a10df09	0.0005526399
25	0x3e3d4d6e	0.18486568
26	0x3ebee064	0.3728057
27	0x3b0d88de	0.0021596472
28	0xba400674	-0.00073251803
29	0xbe02a499	-0.12758102
30	0xbb4015e2	-0.0029309918
31	0x3ab81af5	0.001404612
