VehicalStateperML_RNN_epochs_5000_BS:128.pth (torch, 15657 bytes, 12 tensors)

linear_in.weight f4 [32, 6]
0.008342473 0.0025262972 0.018738294 0.0034583085 0.003549296 -0.0030569523 -0.0118459 0.009544854
0.0114107905 -0.009055054 0.0049149343 -0.0010253614 0.022075852 -0.019307386 0.0013144288 -0.007620491
0.01105352 -0.0008612893 0.0068003866 -0.009535607 -0.005175206 6.2529325e-05 -0.006356559 0.007903904
-0.003364272 0.005425555 -0.008004207 0.006951877 0.0060838065 0.015605643 0.011742333 0.015761374
-0.010199706 -0.001954734 -0.008347553 0.0028865098 0.0017996095 0.0020364313 -0.0010807096 0.007567285
0.0038635752 0.008535839 -0.009684654 -0.0006310142 -0.0009411679 -0.0016525494 -0.013826455 0.010346719
-0.008308911 0.0035404947 0.02560374 0.0063010165 0.00599984 -0.0017003764 -0.011328813 -0.009195414
-0.012715963 -0.0024765516 -0.018242922 -0.009854602 -0.011182204 0.004938264 -0.0020812014 0.014422719
-0.0069421176 0.002129538 -0.012871778 -0.0054462324 0.007308317 0.012738974 0.00074277417 0.00018908938
-0.007169528 -0.002546117 -0.00091086025 -0.0016547029 -0.019520056 -0.019345626 0.0021143146 0.001757516
-0.0013648592 -0.0074239 0.0053290855 -0.0064503616 -0.0002995947 -0.009994315 -7.909554e-05 0.0039665266
-0.0015071514 -0.02882599 -0.013122245 0.013659515 -0.014249176 -0.0019989929 0.0033330608 0.0032291587
0.0053339633 -0.024729315 0.0076069715 -0.008437408 0.022453489 -0.010356277 -0.016654354 -0.0028005068
-0.0036872213 0.010512235 0.004459819 -0.0012017417 0.009256582 0.0010762955 0.01926067 0.0024289002
-0.00069153425 0.022666292 0.009046005 0.0103104375 0.029287633 0.0027110523 -0.0133644305 -0.00030807283
-0.015181284 -0.00241752 0.010371385 0.0069889156 0.0011238715 0.017153896 0.014795048 -0.006861233
-0.0007895727 -0.005579012 0.0129355965 -0.010006872 0.0014277898 -0.013628701 0.0064024073 0.010190194
-0.016143704 -0.010483341 -0.0014784507 -0.005664227 0.010826137 0.0015571325 0.005504043 0.001219392
0.020179283 0.008698986 0.014901926 0.006298331 0.01100527 0.010910431 -0.006546105 -0.010302651
-0.0039341636 -0.0034899 -0.019021584 -0.00953253 0.009369791 -0.008438826 0.004487314 -0.0026345171
-0.007270967 -0.023798347 -0.0043347436 0.003377142 0.0070377975 -0.005498204 -0.010818682 -5.297122e-06
-0.019402884 -0.0057318 -0.00601163 -0.0016703411 -0.00859874 -0.0029138392 0.010561613 -0.009892356
0.009520276 -0.008098481 -0.009252687 -0.0058451295 -0.011316295 -0.0032539582 -0.0156095 0.003946481
0.017366314 0.016387954 -0.0023674855 -0.012282837 0.021673772 0.009911373 -0.009530796 -0.006050717
00000000: deae 083c 3c90 253b 0d81 993c caa4 623b
00000010: 4e9b 683b 2657 48bb 4e15 42bc 0562 1c3c
00000020: 53f4 3a3c a65b 14bc 750d a13b 6b65 86ba
00000030: 6bd8 b43c 862a 9ebc e948 ac3a 50b5 f9bb
00000040: d319 353c 26c8 61ba c7d5 de3b 3c3b 1cbc
00000050: c694 a9bb 2d22 8338 af4a d0bb 607f 013c
00000060: 1e7b 5cbb dbc8 b13b 1424 03bc 92cc e33b
00000070: ab5a c73b d0ae 7f3c ea62 403c ff1d 813c
00000080: ab1c 27bc ff1a 00bb 2dc4 08bc 992b 3d3b
00000090: e0e0 eb3a a675 053b 99a6 8dba fdf6 f73b
000000a0: 0934 7d3b e7d9 0b3c 62ac 1ebc a56a 25ba
000000b0: b5b8 76ba 5b9a d8ba 5b88 62bc 4985 293c
000000c0: 1922 08bc a507 683b efbe d13c c278 ce3b
000000d0: 4e9a c43b 2adf deba 7c9c 39bc 5da8 16bc
000000e0: 9d56 50bc a44d 22bb 2e72 95bc 3275 21bc
000000f0: 9035 37bc 29d1 a13b c464 08bb 454d 6c3c
00000100: b47a e3bb b88f 0b3b 26e4 52bc 4f76 b2bb
00000110: 9b7a ef3b 21b7 503c bbb6 423a 4b46 4639
00000120: 5cee eabb c1dc 26bb ccc6 6eba 9ee2 d8ba
00000130: 86e8 9fbc b87a 9ebc 5090 0a3b 735c e63a
00000140: 13e5 b2ba 3044 f3bb 9c9f ae3b 8e5d d3bb
00000150: ec12 9db9 32bf 23bc 18e0 a5b8 a3f9 813b
00000160: 9c8b c5ba 7c24 ecbc affe 56bc 29cc 5f3c
00000170: 6075 69bc 8901 03bb 7b6f 5a3b 4ba0 533b
00000180: 87c8 ae3b 2295 cabc e743 f93b 0e3d 0abc
00000190: 61f0 b73c 60ad 29bc b66e 88bc b588 37bb
000001a0: 4fa5 71bb 823b 2c3c ac23 923b c383 9dba
000001b0: eba8 173c 7c12 8d3a 8dc8 9d3c 2f2e 1f3b
000001c0: 1448 35ba a9ae b93c b235 143c 1ced 283c
000001d0: 9eec ef3c e9ab 313b 7cf6 5abc d684 a1b9
000001e0: ecba 78bc 416f 1ebb beec 293c 4603 e53b
000001f0: df4e 933a 5486 8c3c ee66 723c 32d4 e0bb
00000200: 54fb 4eba 25d0 b6bb d3ef 533c ddf3 23bc
00000210: ad24 bb3a ea4a 5fbc 49cb d13b c5f4 263c
00000220: cd3f 84bc 52c2 2bbc 93c8 c1ba fb9a b9bb
00000230: 1c60 313c b218 cc3a 425b b43b 02d4 9f3a
00000240: 064f a53c 3186 0e3c 3527 743c 3b62 ce3b
00000250: 734f 343c aac1 323c b580 d6bb 73cc 28bc
00000260: 28ea 80bb ceb6 64bb 27d3 9bbc 542e 1cbc
00000270: c083 193c 0043 0abc 510a 933b dda7 2cbb
00000280: 4b41 eebb c0f4 c2bc 770a 8ebb 0a53 5d3b
00000290: 539d e63b 472a b4bb d740 31bc eebd b1b6
000002a0: ccf2 9ebc d3d1 bbbb 35fd c4bb 59ef daba
000002b0: bbe1 0cbc 1cf6 3ebb 9e0a 2d3c 8c13 22bc
000002c0: effa 1b3c 7eaf 04bc 9598 17bc 8088 bfbb
000002d0: fb67 39bc 5c40 55bb fdbe 7fbc 7b51 813b
000002e0: cd43 8e3c 0840 863c d127 1bbb f43d 49bc
000002f0: 328d b13c 5063 223c 0e27 1cbc 1845 c6bb

linear_in.bias f4 [32]
0.0 0.0 0.0 0.0 0.0 0.0 0.0 0.0
0.0 0.0 0.0 0.0 0.0 0.0 0.0 0.0
0.0 0.0 0.0 0.0 0.0 0.0 0.0 0.0
0.0 0.0 0.0 0.0 0.0 0.0 0.0 0.0
00000000: 0000 0000 0000 0000 0000 0000 0000 0000
00000010: 0000 0000 0000 0000 0000 0000 0000 0000
00000020: 0000 0000 0000 0000 0000 0000 0000 0000
00000030: 0000 0000 0000 0000 0000 0000 0000 0000
00000040: 0000 0000 0000 0000 0000 0000 0000 0000
00000050: 0000 0000 0000 0000 0000 0000 0000 0000
00000060: 0000 0000 0000 0000 0000 0000 0000 0000
00000070: 0000 0000 0000 0000 0000 0000 0000 0000

linear_32.weight f4 [32, 32]
-0.0011576418 0.39626926 0.0044405772 0.55334425 0.0035705145 -0.0087253135 -0.111260675 0.008217276
-0.18372506 0.002040307 1.8139862 0.015625425 -0.27245635 -0.29959658 0.2403882 -1.6460705
-0.21342278 -0.7171148 -0.5356264 -0.0034204398 0.009942297 0.1681643 -0.13376504 0.49492314
-0.32383868 0.35859793 -0.2879562 -0.9053217 -0.025961885 -0.00756212 -0.0034874908 -0.010415966
0.0012100632 0.18031368 0.00019178745 -0.060738407 0.0003632651 -0.0029775002 0.10852758 -0.01079745
-1.0305258 -0.023381587 -1.2894561 -0.0027656357 0.22666484 0.21778378 -0.6954474 0.93862236
-0.09914909 0.43951583 0.17370898 -0.0015791988 0.01606849 0.43105525 -0.655698 0.31832242
0.38841018 -0.48257306 0.16840304 -0.06440967 -0.01706431 0.0072256 0.0013678239 0.008326695
-0.017051235 -0.32171726 0.020671535 0.023491926 -0.018534295 0.014776456 0.29815477 -0.0072968653
0.4338883 0.0030565949 1.1618848 0.021104686 0.20076764 -0.3889922 0.7488098 -0.70952487
0.012284503 -0.807533 0.13702974 0.0121292975 0.001921328 -0.4937361 0.6331914 -0.07980103
0.4967936 0.12042351 -0.26920375 0.048457153 -0.0060028024 -0.021095606 0.0103092315 0.0043112035
0.032657992 0.5498637 -0.019550724 0.44312024 0.00069972454 -0.0027210908 0.07708832 -0.011643367
-0.5170138 -0.00403753 1.1134343 -0.017038198 -0.007697674 -0.26787218 -0.17670153 -0.76481324
-0.2003115 -0.40068606 -0.23475905 0.022446528 -0.019724878 0.5891231 -0.48176676 0.4047958
-0.026463985 0.02641397 -0.14305012 -0.9340468 -0.0053509767 0.03918041 -0.019121181 0.004703288
0.0024858676 0.5202683 0.014451594 0.2237352 -0.04351824 0.017841788 0.066501535 -0.0345446
-0.68521744 -0.01881675 0.29635686 0.022192538 0.036333207 0.021912748 -0.5321481 -0.15986367
0.0016423352 -0.053820238 0.005443925 -0.003936803 -0.016487984 0.74856585 -0.6704276 -0.029888997
-0.11238732 -0.20280439 0.093094476 -0.71664757 0.005945404 -0.0067006703 0.011899595 0.019044297
0.007707343 -0.5284112 -0.021774225 -0.11133772 -0.0179136 0.015385361 0.35817146 -0.022172865
0.6360921 0.013173467 -0.14444825 -0.0066465307 0.38981128 -0.099450745 0.18121883 0.082646534
-0.10460784 0.5224997 0.029954217 0.0005688817 -0.03685702 -0.31273016 0.30947712 -0.043069664
0.26825902 -0.021021197 -0.31174913 0.36303228 0.01386945 0.00556672 0.0074247383 0.021901868
-0.012998928 -0.5238197 0.0016419011 -0.08743812 0.0025327045 -0.0049216654 0.4060072 0.0076383725
0.90976954 0.040411744 -0.30653933 -0.013684921 0.26789963 0.28603706 0.057437513 0.33954668
-0.11551514 0.03953632 0.07098083 0.04558503 -0.028019939 -0.3581225 0.2401606 -0.05115973
-0.05683343 0.17627287 -0.6522646 0.44851488 0.042159706 -0.026585339 -0.00750388 -0.014672948
-0.5365245 -0.056059744 -0.13066387 -0.035380393 -0.43347722 0.3630501 0.04016825 0.38489014
-0.11505135 0.033793688 0.07033371 0.0049008764 0.050664987 -0.004800471 -0.047305 0.07066912
-0.024114443 -0.07543926 0.06582231 -0.1433271 -0.4589445 -0.02790401 0.004016382 0.11540811
0.02749874 -0.0951792 0.039971475 0.11391791 -0.0019840202 0.32101682 -0.28813517 -0.4817501
00000000: 03bc 97ba cee3 ca3e 4382 913b f8a7 0d3f
00000010: 4bff 693b 9ef4 0ebc a3dc e3bd c1a1 063c
00000020: 6c22 3cbe acb6 053b b330 e83f e400 803c
00000030: 667f 8bbe b964 99be 5328 763e 70b2 d2bf
00000040: 808b 5abe d694 37bf d01e 09bf 7529 60bb
00000050: 04e5 223c 4333 2c3e b4f9 08be 9166 fd3e
00000060: 2fce a5be 269a b73e ff6e 93be 2ac3 67bf
00000070: 05ae d4bc a9cb f7bb 638e 64bb baa7 2abc
00000080: fc9a 9e3a 26a4 383e 8d1a 4939 d6c8 78bd
00000090: 9e74 be39 2a22 43bb b543 de3d cae7 30bc
000000a0: 45e8 83bf be8a bfbc e60c a5bf ab3f 35bb
000000b0: d41a 683e b602 5f3e d708 32bf 8e49 703f
000000c0: ae0e cbbd 3808 e13e c4e0 313e 1efd ceba
000000d0: 11a2 833c 46b3 dc3e d3db 27bf 28fb a23e
000000e0: b3dd c63e d113 f7be d971 2c3e 38e9 83bd
000000f0: 74ca 8bbc bac4 ec3b 8e48 b33a b16c 083c
00000100: 08af 8bbc 20b8 a4be 5a57 a93c 2472 c03c
00000110: 3cd5 97bc f318 723c bea7 983e 8b1a efbb
00000120: 9b26 de3e 2751 483b a4b8 943f bce3 ac3c
00000130: 0896 4d3e fc29 c7be 00b2 3f3f 6ca3 35bf
00000140: f144 493c 7cba 4ebf 8651 0c3e f6b9 463c
00000150: 12d5 fb3a faca fcbe d518 223f b96e a3bd
00000160: bb5b fe3e 9aa0 f63d 13d5 89be 027b 463d
00000170: 28b3 c4bb b1d0 acbc 0de8 283c ff44 8d3b
00000180: 63c4 053d dec3 0c3f d728 a0bc a8e0 e23e
00000190: b86d 373a 5454 32bb 7be0 9d3d d2c3 3ebc
000001a0: 045b 04bf 424d 84bb 0485 8e3f b193 8bbc
000001b0: c53c fcbb 8b26 89be 3ff1 34be cdca 43bf
000001c0: 751e 4dbe b926 cdbe ad64 70be c8e1 b73c
000001d0: 1196 a1bc c5d0 163f 22aa f6be 6541 cf3e
000001e0: 00cb d8bc 1c62 d83c bb7b 12be b11d 6fbf
000001f0: 3f57 afbb a37b 203d 06a4 9cbc 0a1e 9a3b
00000200: f0e9 223b 4e30 053f 61c6 6c3c d71a 653e
00000210: 2f40 32bd f128 923c f531 883d a37e 0dbd
00000220: 696a 2fbf 9625 9abc 16bc 973e 20cd b53c
00000230: 21d2 143d 5d82 b33c dc3a 08bf 4db3 23be
00000240: a043 d73a 9c72 5cbd f462 b23b 4c00 81bb
00000250: cf11 87bc 03a2 3f3f 25a1 2bbf c5d9 f4bc
00000260: 532b e6bd f4ab 4fbe 51a8 be3d 3776 37bf
00000270: aad1 c23b 4c91 dbbb 85f6 423c c902 9c3c
00000280: e18d fc3b f545 07bf dc5f b2bc 0805 e4bd
00000290: 8bbf 92bc e212 7c3c 4062 b73e dea3 b5bc
000002a0: efd6 223f 86d5 573c 3eea 13be 24cb d9bb
000002b0: 5895 c73e d5ac cbbd 6e91 393e 9642 a93d
000002c0: a33c d6bd 8ac2 053f 8c62 f53c 0121 153a
000002d0: 63f7 16bd 2b1e a0be c973 9e3e d169 30bd
000002e0: 3f59 893e a534 acbc 959d 9fbe 5edf b93e
000002f0: b13c 633c 0869 b63b 384b f33b 8c6b b33c
00000300: 75f9 54bc 0c19 06bf 0f35 d73a c212 b3bd
00000310: bbfb 253b ec45 a1bb 2de0 cf3e 504b fa3b
00000320: a8e6 683f c986 253d b9f2 9cbe b836 60bc
00000330: 242a 893e 7373 923e 9943 6b3d 10d9 ad3e
00000340: 3493 ecbd d6f0 213d 665e 913d 5eb7 3a3d
00000350: 128a e5bc d55b b7be a9ec 753e dd8c 51bd
00000360: 2cca 68bd e080 343e d0fa 26bf bea3 e53e
00000370: a8af 2c3d 7fc9 d9bc 1ce3 f5bb ce66 70bc
00000380: ab59 09bf e79e 65bd c0cc 05be 08eb 10bd
00000390: baf0 ddbe b4e1 b93e 7787 243d 5210 c53e
000003a0: 0ba0 ebbd 406b 0a3d 1f0b 903d 8897 a03b
000003b0: 1786 4f3d 454d 9dbb e3c2 41bd f9ba 903d
000003c0: a78b c5bc e67f 9abd d9cd 863d 57c4 12be
000003d0: c6fa eabe f396 e4bc db9b 833b 165b ec3d
000003e0: 0a45 e13c 50ed c2bd 21b9 233d cb4d e93d
000003f0: 5606 02bb 515c a43e 7486 93be f3a7 f6be

linear_32.bias f4 [32]
0.053606495 0.06713186 0.17018889 0.00400816 -0.03957463 0.29461718 0.2771433 -0.40161613
0.25896242 0.12178445 -0.21922798 0.31695443 -0.6126406 0.23681857 -0.10452072 0.09095238
0.014474059 0.30305517 -0.020663155 0.2587457 0.022808228 0.23974171 0.34941626 -0.52832156
0.3053278 -0.3205247 -0.016865456 -0.030429436 0.30459675 0.30494806 -0.034948356 0.32051662
00000000: 7c92 5b3d 6e7c 893d ff45 2e3e e256 833b
00000010: 0219 22bd 10d8 963e bae5 8d3e a1a0 cdbe
00000020: b996 843e 206a f93d 4d7d 60be da47 a23e
00000030: 04d6 1cbf 9180 723e f60e d6bd 3e45 ba3d
00000040: 9b24 6d3c 0c2a 9b3e c745 a9bc 517a 843e
00000050: 52d8 ba3c da7e 753e b0e6 b23e 1540 07bf
00000060: ed53 9c3e d01b a4be 6d29 8abc 2747 f9bc
00000070: 1bf4 9b3e 2722 9c3e 0226 0fbd c11a a43e

rnn.weight_ih_l0 f4 [32, 6]
-0.2715513 -1.2875775 -0.14713699 -0.438642 -0.3423145 -0.3782808 1.2928975 0.26297575
-0.08747756 -0.07838272 -0.0042938506 -0.18154372 0.2415805 -0.06282229 -0.111452475 -0.05377041
0.022752106 0.043560233 -0.7541989 -0.36029872 0.26938924 -0.09060136 -0.41003075 -0.33261845
0.483949 1.2831658 0.029970005 0.50938404 0.08504536 0.12402196 -0.31016204 -1.2119578
-0.17830977 -0.5525279 0.08427689 0.07457461 0.6376353 0.26367393 -0.19717966 -0.13504507
-0.33460516 -0.42917725 0.23963472 1.159408 0.111688666 0.43401667 0.015045461 0.0077693895
-2.0531313 -0.2765383 -0.18504918 -0.35049987 -0.3355528 -0.24158825 -0.53531784 -0.466371
-0.24639635 -0.64298356 -0.11793018 0.06373495 0.37427884 0.14132895 -1.2273313 0.21007432
0.3162827 0.31078112 -0.99889374 -0.03214018 0.068334974 0.04197374 0.06840387 0.05088127
-0.1623751 -0.5427871 0.23140113 0.5919067 -0.12450452 -0.10981144 0.0773851 -0.03449505
1.0460368 -1.3869469 0.38770404 0.43729657 -0.9118374 0.23411475 0.22041036 -0.078103475
-0.6891947 -0.7262879 0.76939315 0.19363087 -0.92693657 0.18955228 0.06984853 -0.08589079
-0.10098307 -0.48118824 -0.032338314 0.06345946 0.123988405 0.26049855 0.2645461 -0.33442074
-1.0273578 -0.25315762 1.0723267 1.2005544 1.3431176 -0.034691878 -0.6193289 -0.27542272
2.179033 2.176844 -0.7372306 -0.51274943 -0.07976285 -1.1173824 -0.5377206 -0.40988284
0.068656474 1.0070307 -0.051808517 0.177099 0.23974806 0.26935732 -2.6627812 0.1442527
-0.06860343 -0.01186998 -1.9369141 -1.9354361 -1.2347003 0.2120164 -0.19775838 -0.023737552
-0.7107957 -0.72074664 1.3403438 -0.06273348 -0.12044125 1.0071518 -1.0575863 -1.1472218
0.18513602 -0.84494686 0.038558923 0.3866126 0.5664217 0.6380178 1.1812592 0.10530861
0.82312506 0.44772574 1.3491938 1.3256835 2.8627527 0.11150319 0.61240965 1.1286739
0.8951011 0.93788767 -1.2842247 -0.35532686 0.026805863 0.24105057 0.060647707 0.25259432
0.6061794 0.024867078 -0.028476277 -0.17245066 0.06565701 -0.021050472 -0.21675318 -1.1771864
0.049781796 -0.43261462 -0.14175965 -0.16782199 -0.5142075 -1.2881418 -0.19656 -0.6561875
-0.06785271 -0.059287183 0.0057690768 1.1791323 0.06955491 0.24755022 -0.14113103 -0.1362895
00000000: c608 8bbe 57cf a4bf 14ab 16be af95 e0be
00000010: d943 afbe 05ae c1be aa7d a53f c2a4 863e
00000020: 6f27 b3bd 1f87 a0bd 6eb3 8cbb 99e6 39be
00000030: e160 773e f9a8 80bd 3241 e4bd 5d3e 5cbd
00000040: a062 ba3c 376c 323d 2e13 41bf 1379 b8be
00000050: 63ed 893e 358d b9bd 8def d1be f74c aabe
00000060: 2ac8 f73e c73e a43f a883 f53c fe66 023f
00000070: 432c ae3d 3aff fd3d 8fcd 9ebe 6f21 9bbf
00000080: d696 36be 7872 0dbf 5d99 ac3d 93ba 983d
00000090: 113c 233f 4500 873e 77e9 49be 4149 0abe
000000a0: 5e51 abbe 1fbd dbbe ce62 753e 7b67 943f
000000b0: 07bd e43d 6f37 de3e 3d81 763c 5d96 fe3b
000000c0: 8166 03c0 6e96 8dbe 887d 3dbe b874 b3be
000000d0: 94cd abbe e962 77be 970a 09bf 2ec8 eebe
000000e0: 534f 7cbe 929a 24bf 6185 f1bd 7887 823d
000000f0: 7aa1 bf3e 89b8 103e 3119 9dbf b91d 573e
00000100: ceef a13e b41e 9f3e 80b7 7fbf 6ca5 03bd
00000110: 35f3 8b3d a8ec 2b3d 5417 8c3d e168 503d
00000120: a945 26be 18f4 0abf 6bf4 6c3e 3387 173f
00000130: 3afc febd d2e4 e0bd 147c 9e3d ae4a 0dbd
00000140: 89e4 853f 7a87 b1bf 2581 c63e 56e5 df3e
00000150: 2d6e 69bf c7bb 6f3e 41b3 613e b7f4 9fbd
00000160: 106f 30bf 01ee 39bf f3f6 443f 2c47 463e
00000170: b74b 6dbf fe19 423e bf0c 8f3d 83e7 afbd
00000180: 36d0 cebd 4e5e f6be 2e75 04bd 09f7 813d
00000190: a2ed fd3d 1160 853e 9672 873e 3239 abbe
000001a0: 7680 83bf e09d 81be 0042 893f c4ab 993f
000001b0: 47eb ab3f 1219 0ebd 578c 1ebf 3504 8dbe
000001c0: 4775 0b40 6951 0b40 25bb 3cbf 8c43 03bf
000001d0: b55a a3bd 6306 8fbf 0fa8 09bf 2adc d1be
000001e0: c49b 8c3d 62e6 803f 2b35 54bd 7159 353e
000001f0: 8480 753e 34e9 893e 026b 2ac0 fbb6 133e
00000200: f57f 8cbd 4e7a 42bc cdec f7bf 5fbc f7bf
00000210: a90a 9ebf d41a 593e 2c81 4abe 4175 c2bc
00000220: b5f6 35bf da82 38bf 6390 ab3f 697a 80bd
00000230: e7a9 f6bd 5aea 803f fd5e 87bf 2ad8 92bf
00000240: 4c94 3d3e 704e 58bf f6ef 1d3d 16f2 c53e
00000250: 0301 113f 2255 233f 8033 973f 0aac d73d
00000260: 53b8 523f 4f3c e53e 62b2 ac3f ffaf a93f
00000270: 5737 3740 c95b e43d e1c6 1c3f 6378 903f
00000280: 5825 653f 6819 703f 7a61 a4bf 67ed b5be
00000290: f897 db3c f6d5 763e bb69 783d 0b54 813e
000002a0: 932e 1b3f 0bb6 cb3c 1547 e9bc e896 30be
000002b0: 2f77 863d 0a72 acbc 8cf4 5dbe 0bae 96bf
000002c0: ffe7 4b3d aa7f ddbe 7129 11be 87d9 2bbe
000002d0: 1aa3 03bf d5e1 a4bf 0647 49be e7fb 27bf
000002e0: 5df6 8abd 1ed7 72bd 860a bd3b cfed 963f
000002f0: ce72 8e3d ce7d 7d3e a784 10be 7a8f 0bbe

rnn.weight_hh_l0 f4 [32, 32]
0.1976177 0.029238818 0.109995864 0.07020784 -0.22792642 0.29944915 0.05954868 -0.24292785
-0.024825832 0.56163466 -0.18422034 0.04242115 -0.12275234 -0.12003563 0.048042476 0.16489735
-0.061501842 -0.113755085 0.08471764 -0.15214321 -0.20366538 0.081025325 0.07895266 0.18387292
0.83715516 0.14199515 0.037313998 -0.014569131 -0.0018356297 0.29824334 0.44690412 -0.23763007
0.38132226 0.07868409 0.048829027 0.12706482 -0.3929328 0.41762525 0.32778305 -0.38054505
-0.06203857 0.12119705 0.1108789 0.0018845692 -0.2185328 -0.0063837375 0.12583725 0.18714637
0.068666756 0.047483917 0.15479657 -0.05255927 -0.30506888 -0.19428353 -0.23528028 -0.065989554
-0.10899479 0.20806667 0.12272778 -0.25015265 -0.07802338 0.39951852 0.32741442 -0.4176122
-0.07667139 0.11790784 -0.5147257 -0.10963126 0.1350369 -0.060975596 0.1411072 0.13451362
-0.16000201 0.29484782 -0.17556 -0.2927672 -0.019980485 -0.008761153 0.06485128 -0.015824683
0.08590485 -0.08745043 0.14392397 0.19522597 0.10953185 0.280842 -0.110127084 -0.0063373963
-0.087559104 0.26985863 0.17768511 0.17214967 0.13102184 -0.11491525 -0.14811468 0.08315969
-0.485059 0.86175287 -0.21603686 -0.09610008 0.5218144 -0.48608544 0.31711745 0.5034002
-1.1281061 -0.42363882 0.22810116 -0.25831103 -0.56843203 0.26446196 -0.16263397 0.33671564
0.5524379 0.39603496 -0.0020415632 0.23972552 0.4507134 0.5482764 0.8960694 -0.35923707
-0.0037786851 0.30870155 0.27027866 -0.54402435 0.08793962 -0.49255553 -0.5202194 0.5001592
-0.8791199 -0.00577733 0.039566606 0.0899881 0.093660265 -0.40836936 -0.029405965 0.24560368
0.07150111 -1.2921671 0.32328933 0.11174342 -0.05698984 0.20907846 0.047984727 -0.2301856
0.10620379 0.72855574 0.07747687 -0.10449391 0.052954655 -0.05776855 -0.09127692 -0.037839904
-0.58694303 0.061370153 -0.02316755 0.16324866 0.13896097 -0.34381628 -0.52613574 0.3319917
0.35473365 0.14557794 -0.04727052 -0.069501184 -0.17807892 0.30867177 0.1750894 -0.23384011
-0.117866956 0.6472966 -0.13208878 0.11003654 -0.14208218 -0.24069402 0.17923442 0.23343104
-0.086786434 -0.29478076 0.028319657 -0.10249934 -0.10197734 0.18613859 0.14955004 -0.10244304
0.35623986 0.08475933 -0.07595529 -0.09386452 0.099468626 0.30238378 0.25740322 -0.25078994
0.15679564 0.2905726 0.061886687 0.18203512 -0.14781652 0.1583432 -0.6245358 -0.21045825
0.097136274 -0.18994573 0.20647655 0.12389041 -0.24764596 0.039455853 -0.017460367 0.15836015
-0.22465996 0.020802652 0.38889956 0.07646631 -0.030623592 0.13164347 -0.09401665 -0.09170419
-0.25842315 0.22889498 0.010890669 -0.38714194 -0.21577819 0.21116236 0.11477902 -0.15690266
-0.6224163 -0.061250888 -0.004381232 0.099599645 0.22549377 -0.36186805 -0.15276043 0.19381435
0.040591486 -0.52321154 0.045762658 -0.05955434 0.081574894 0.24987121 -0.14199147 -0.15426764
0.13798623 0.27696908 -0.074459 0.10136638 0.1715684 -0.121941105 -0.09683507 0.09544479
-0.2557413 -0.076436445 0.13569562 0.08672584 -0.09760034 -0.32501787 -0.28239104 0.29140127
00000000: 4b5c 4a3e 3f86 ef3c 8345 e13d 21c9 8f3d
00000010: 8b65 69be 6651 993e 51e9 733d 14c2 78be
00000020: 8b5f cbbc 4ac7 0f3f 42a4 3cbe cdc1 2d3d
00000030: 9465 fbbd 3ed5 f5bd 30c8 443d dada 283e
00000040: 5be9 7bbd 6df8 e8bd 7180 ad3d 6ecb 1bbe
00000050: a88d 50be 9bf0 a53d efb1 a13d 2f49 3c3e
00000060: cd4f 563f 2d67 113e 90d6 183d 5db3 6ebc
00000070: 8399 f0ba 5ab3 983e 9ed0 e43e 4c55 73be
00000080: ac3c c33e 2025 a13d f200 483d 481d 023e
00000090: 7d2e c9be fad2 d53e 2ed3 a73e cdd6 c2be
000000a0: 281c 7ebd 2936 f83d 7a14 e33d a603 f73a
000000b0: 10c7 5fbe ac2e d1bb 7bdb 003e 4ca3 3f3e
000000c0: 28a1 8c3d 7f7e 423d fe82 1e3e 6448 57bd
000000d0: fd31 9cbe 43f2 46be 50ed 70be 8825 87bd
000000e0: a938 dfbd 6e0f 553e b458 fb3d 0214 80be
000000f0: b9ca 9fbd b18d cc3e dda2 a73e 44d1 d5be
00000100: e405 9dbd aa79 f13d 10c5 03bf 5b86 e0bd
00000110: 1d47 0a3e 8cc1 79bd 687e 103e f0bd 093e
00000120: 91d7 23be 4bf6 963e 00c6 33be 95e5 95be
00000130: 1dae a3bc f08a 0fbc bfd0 843d c4a2 81bc
00000140: e2ee af3d 3619 b3bd ce60 133e 51e9 473e
00000150: 3c52 e03d 86ca 8f3e 4f8a e1bd efa9 cfbb
00000160: 3052 b3bd e92a 8a3e 16f3 353e 0148 303e
00000170: 972a 063e b058 ebbd 60ab 17be a14f aa3d
00000180: a759 f8be d69b 5c3f c438 5dbe 1ed0 c4bd
00000190: a195 053f 31e0 f8be 385d a23e d6de 003f
000001a0: c865 90bf 30e7 d8be 5a93 693e 5841 84be
000001b0: c384 11bf 8f67 873e 8589 26be fe65 ac3e
000001c0: 926c 0d3f 18c5 ca3e bfcb 05bb 9b7a 753e
000001d0: e8c3 e63e d85b 0c3f ce64 653f eced b7be
000001e0: d1a3 77bb 210e 9e3e f761 8a3e 2e45 0bbf
000001f0: b019 b43d 3d30 fcbe 192d 05bf 6f0a 003f
00000200: 000e 61bf c24f bdbb 9810 223d ae4b b83d
00000210: f4d0 bf3d ca15 d1be c7e4 f0bc 887f 7b3e
00000220: 2d6f 923d bb65 a5bf 2e86 a53e bcd9 e43d
00000230: 2e6e 69bd aa18 563e a28b 443d c6b5 6bbe
00000240: 5f81 d93d a182 3a3f 31ac 9e3d e700 d6bd
00000250: fbe6 583d b79e 6cbd 65ef babd 04fe 1abd
00000260: e641 16bf 455f 7b3d e0c9 bdbc a82a 273e
00000270: c94b 0e3e b008 b0be d5b0 06bf d1fa a93e
00000280: a69f b53e 6212 153e bc9e 41bd a356 8ebd
00000290: 525a 36be 3a0a 9e3e a34a 333e c873 6fbe
000002a0: 3b64 f1bd 3bb5 253f 4842 07be d65a e13d
000002b0: fe7d 11be 7e78 76be 3a89 373e 8c08 6f3e
000002c0: 16bd b1bd 81ed 96be a0fe e73c 2deb d1bd
000002d0: 7fd9 d0bd 1d9b 3e3e a523 193e a8cd d1bd
000002e0: 1265 b63e 4d96 ad3d 728e 9bbd 0b3c c0bd
000002f0: 35b6 cb3d 0cd2 9a3e 5bca 833e 8a67 80be
00000300: 098f 203e efc5 943e e57c 7d3d 6a67 3a3e
00000310: 375d 17be b824 223e 94e1 1fbf 5e82 57be
00000320: 62ef c63d 2281 42be 976e 533e 41ba fd3d
00000330: e796 7dbe 769c 213d 0b09 8fbc 2a29 223e
00000340: 430d 66be 536a aa3c d81d c73e 5e9a 9c3d
00000350: 54de fabc 8ccd 063e cd8b c0bd 68cf bbbd
00000360: 0a50 84be 7263 6a3e c76e 323c 7837 c6be
00000370: f5f4 5cbe f23a 583e 4311 eb3d 17ab 20be
00000380: ad56 1fbf 36e2 7abd 7090 8fbb e6fa cb3d
00000390: d7e7 663e c546 b9be 3b6d 1cbe 4577 463e
000003a0: 4243 263d 31f1 05bf a071 3b3d 40ef 73bd
000003b0: bd10 a73d 3dde 7f3e 3666 11be 56f8 1dbe
000003c0: 434c 0d3e e4ce 8d3e f67d 98bd 2d99 cf3d
000003d0: a0af 2f3e 42bc f9bd 7751 c6bd 8f78 c33d
000003e0: 86f0 82be b68a 9cbd cbf3 0a3e 519d b13d
000003f0: b0e2 c7bd be68 a6be 8f95 90be 8c32 953e

rnn.bias_ih_l0 f4 [32]
-0.6714334 -0.35222244 0.0664355 0.53068453 0.66923505 -0.83672565 -0.1376932 0.98041534
0.4388767 -0.17452973 -0.10850975 -0.03963272 0.17873268 0.50622886 -0.28825125 -0.38338843
0.63683367 0.34541234 -0.5519205 -0.3816344 0.77363 -0.32317016 -0.28286517 0.14069505
-0.1957087 -0.6083931 0.18539293 0.51707983 -0.045662 -0.92635226 -0.5436957 0.85951585
00000000: 0fe3 2bbf 8056 b4be 560f 883d f1da 073f
00000010: fd52 2b3f a733 56bf 72ff 0cbe 80fc 7a3f
00000020: 72b4 e03e ecb7 32be 5c3a debd eb55 22bd
00000030: b305 373e 3798 013f ab95 93be 7d4b c4be
00000040: 8807 233f e3d9 b03e a94a 0dbf 9665 c3be
00000050: 9e0c 463f 8f76 a5be b4d3 90be 5d12 103e
00000060: dd67 48be a6bf 1bbf a5d7 3d3e 585f 043f
00000070: 1408 3bbd 6c25 6dbf a42f 0bbf 3b09 5c3f

rnn.bias_hh_l0 f4 [32]
-0.6714334 -0.35222244 0.0664355 0.53068453 0.66923505 -0.83672565 -0.1376932 0.98041534
0.4388767 -0.17452973 -0.10850975 -0.03963272 0.17873268 0.50622886 -0.28825125 -0.38338843
0.63683367 0.34541234 -0.5519205 -0.3816344 0.77363 -0.32317016 -0.28286517 0.14069505
-0.1957087 -0.6083931 0.18539293 0.51707983 -0.045662 -0.92635226 -0.5436957 0.85951585
00000000: 0fe3 2bbf 8056 b4be 560f 883d f1da 073f
00000010: fd52 2b3f a733 56bf 72ff 0cbe 80fc 7a3f
00000020: 72b4 e03e ecb7 32be 5c3a debd eb55 22bd
00000030: b305 373e 3798 013f ab95 93be 7d4b c4be
00000040: 8807 233f e3d9 b03e a94a 0dbf 9665 c3be
00000050: 9e0c 463f 8f76 a5be b4d3 90be 5d12 103e
00000060: dd67 48be a6bf 1bbf a5d7 3d3e 585f 043f
00000070: 1408 3bbd 6c25 6dbf a42f 0bbf 3b09 5c3f

linear_out.weight f4 [6, 32]
0.002872616 0.001275388 0.0066008065 0.0011800046 0.00016436935 -0.002207191 -0.005859223 -0.1112073
-0.00985651 -0.013118727 0.11782931 0.019332232 -0.026729539 -0.016573476 -0.015336935 -0.006874138
0.07815222 0.00033538588 0.0025637904 0.016552655 0.0015699242 0.007849297 0.008220895 0.06864771
-0.0004492636 0.12339345 0.00070767995 3.0813462e-05 -0.0032235223 0.00020826502 0.00013778506 0.0031702088
0.4047448 0.44183457 -0.40836784 0.4710355 0.44561094 -0.46946603 -0.42839473 0.027987074
-0.4503515 -0.43482855 -0.081633754 -0.43879062 0.0051900856 -0.452653 0.55387837 -0.38957685
-0.4485204 -0.47216806 0.4637832 -0.42969543 0.45876724 -0.44495544 -0.40314728 -0.18379325
-0.4111146 0.10097343 0.44347274 0.44374532 -0.4679022 -0.47500056 0.44133085 -0.46628255
-0.50355965 0.16854328 -0.12133538 -0.14286895 -0.016293583 0.009159788 0.019541733 -0.06332978
0.06997619 -0.24004151 -0.023566768 0.010995922 0.029194726 0.24350564 -0.0005626075 -0.37474397
0.11474311 0.07327996 0.36573675 0.028839083 -0.102089696 -0.038334873 0.01863337 -0.13131215
-0.022388857 -0.11076901 -0.040626485 0.006621323 0.049272984 0.033875097 0.07746604 0.07499576
0.05017035 0.042567275 0.036058113 0.021002017 0.0006974221 -0.023594834 -0.050834257 -0.061208628
-0.094479054 -0.16101728 0.07835127 0.23312408 0.4501787 -0.14995523 -0.4560546 -0.07842693
0.2379408 0.0042046397 0.08302017 0.22834715 0.037561275 0.106029145 0.059421405 -0.16109787
-0.025201665 0.14263187 0.015321205 -0.002197943 -0.026191182 -0.007906844 0.0050895526 0.029875968
0.005779487 0.0035322479 0.05279198 0.00552304 0.0015725303 -0.00908059 -0.031097542 -0.02695461
-0.048911687 -0.044032514 0.35741442 0.06339381 0.07222178 -0.09510138 -0.025289528 -0.023731844
0.70985323 -0.0011852052 0.0027241406 0.033125892 0.0064147306 0.017006073 0.05374846 0.22889628
0.0120764775 -0.083477326 0.003258182 0.001087239 -0.019435007 0.006690426 0.00086875743 0.01295962
0.0003684673 0.00024955315 0.0040197093 0.00039978436 0.00011770021 -0.0006574994 -0.002289203 0.119041026
-0.0035734107 -0.0030697226 -0.00028339276 0.004314658 -0.14347182 -0.007016763 -0.0016552464 -0.0017118438
0.053958118 -9.8875586e-05 0.00015656263 0.0020580469 0.00046546766 0.0010938424 0.0040046475 0.11222418
0.000980909 0.15549845 0.0002374074 8.01584e-05 -0.0014391973 0.00052739354 6.1997685e-05 0.00088072475
00000000: 8042 3c3b eb2a a73a 944b d83b 62aa 9a3a
00000010: 905a 2c39 85a6 10bb bafe bfbb a7c0 e3bd
00000020: 337d 21bc eeef 56bc 7e50 f13d a15e 9e3c
00000030: e8f7 dabc 19c5 87bc c547 7bbc 7340 e1bb
00000040: 450e a03d bbd6 af39 4405 283b 6f99 873c
00000050: eac5 cd3a 569a 003c efb0 063c 2c97 8c3d
00000060: 248b ebb9 b5b5 fc3d 9983 393a b43d 0138
00000070: bb41 53bb b761 5a39 657a 1039 47c3 4f3b
00000080: b63a cf3e 2438 e23e 9715 d1be 912b f13e
00000090: 1e27 e43e da5d f0be 8e56 dbbe 2645 e53c
000000a0: 7994 e6be d9a1 debe 992f a7bd 2aa9 e0be
000000b0: 9811 aa3b 22c2 e7be f9ca 0d3f 9e76 c7be
000000c0: 77a4 e5be 03c0 f1be fe74 ed3e 0a01 dcbe
000000d0: 8ae3 ea3e 33d1 e3be 5269 cebe 4c34 3cbe
000000e0: 9d7d d2be 28cb ce3d dc0e e33e 9632 e33e
000000f0: e190 efbe 4633 f3be 1ef6 e13e 96bc eebe
00000100: 49e9 00bf 9c96 2c3e af7e f8bd 3d4c 12be
00000110: 1f7a 85bc ef12 163c fc15 a03c 0bb3 81bd
00000120: ad4f 8f3d 71cd 75be 180f c1bc 3d28 343c
00000130: c729 ef3c 8b59 793e f37b 13ba 71de bfbe
00000140: 70fe ea3d ce13 963d d941 bb3e f13f ec3c
00000150: 6714 d1bd 0705 1dbd 02a5 983c b176 06be
00000160: d668 b7bc ddda e2bd f567 26bd aff7 d83b
00000170: 78d2 493d 9dc0 0a3d 84a6 9e3d 6197 993d
00000180: 6d7f 4d3d 065b 2e3d acb1 133d 6c0c ac3c
00000190: 34d3 363a f449 c1bc 9537 50bd e6b5 7abd
000001a0: 3c7e c1bd b7e1 24be a176 a03d 14b8 6e3e
000001b0: d37d e63e dd8d 19be fd7f e9be 4c9e a0bd
000001c0: c1a6 733e 13c7 893b 7b06 aa3d d6d3 693e
000001d0: dad9 193d cf25 d93d dc63 733d d7f6 24be
000001e0: b973 cebc 170e 123e cb05 7b3c 5d0b 10bb
000001f0: e48e d6bc b58b 01bc 43c6 a63b 72be f43c
00000200: da61 bd3b 497d 673b 673c 583d 9efa b43b
00000210: 5c1d ce3a c1c6 14bc 46c0 febc eacf dcbc
00000220: 9f57 48bd 705b 34bd 06ff b63e 9dd4 813d
00000230: 03e9 933d 83c4 c2bd fc2b cfbc 4969 c2bc
00000240: f1b8 353f e358 9bba 7f87 323b 04af 073d
00000250: a932 d23b 5250 8b3c 5827 5c3d c963 6a3e
00000260: 6bdc 453c 29f6 aabd 3987 553b b081 8e3a
00000270: 2a36 9fbc 5c3b db3b 53bd 633a 9654 543c
00000280: d82e c139 75d6 8239 c4b7 833b 269a d139
00000290: d2d5 f638 0a5c 2cba 7406 16bb c8cb f33d
000002a0: e22f 6abb 662d 49bb 5594 94b9 fa61 8d3b
000002b0: 47ea 12be e0ec e5bb daf4 d8ba f25f e0ba
000002c0: 3003 5d3d 6d5b cfb8 f62a 2439 4ce0 063b
000002d0: 030a f439 435f 8f3a 6b39 833b cad5 e53d
000002e0: d891 803a fc3a 1f3e 90f0 7839 b71a a838
000002f0: 73a3 bcba c840 0a3a c104 8238 70e0 663a

linear_out.bias f4 [6]
-0.0040341644 19.250944 0.049582668 0.103875875 -0.027077457 -0.0019585325
00000000: 0631 84bb ef01 9a41 3217 4b3d e0bc d43d
00000010: 8bd1 ddbc b95a 00bb

layer_norm.weight f4 [32]
-0.0023728407 0.53503144 0.004147908 -0.32636675 -0.0018392868 0.002879577 -0.4093948 0.0020990386
0.6413509 -0.0011446363 0.33740383 0.014803098 0.31816107 0.25900716 -0.5164382 -0.36338085
0.29437408 -0.21451086 -0.19470906 -0.1397478 0.0008833696 0.5825223 -0.5903437 0.31036326
0.3324715 -0.3555532 0.28717524 0.64141506 -0.0150498655 0.0019337842 -0.0016806695 -0.00031862248
00000000: a981 1bbb d2f7 083f 2deb 873b 8b19 a7be
00000010: 3914 f1ba 49b7 3c3b 329c d1be 0690 093b
00000020: 932f 243f 9f07 96ba 32c0 ac3e b188 723c
00000030: 02e6 a23e 969c 843e 4b35 04bf 0e0d babe
00000040: 33b8 963e bca8 5bbe d061 47be 0c1a 0fbe
00000050: ee91 673a 2e20 153f c420 17bf efe7 9e3e
00000060: b439 aa3e 120b b6be a208 933e c733 243f
00000070: b693 76bc 0877 fd3a e949 dcba c90c a7b9

layer_norm.bias f4 [32]
0.0024797446 -0.08171044 -0.00028378982 0.0206698 0.001960994 0.0011759369 0.318901 -0.003328186
-0.051247858 -0.0017837881 -0.31584343 0.00028603437 0.3012948 -0.3474731 0.09510952 -0.21923906
-0.0040751486 -0.25645876 -0.19827256 0.19208491 -0.0032542376 0.023273703 0.076210566 0.058712017
0.39964515 -0.38474184 -0.3013485 -0.058725283 -0.00095435686 0.0052978965 -0.0019887113 -0.00018914853
00000000: 3683 223b ce57 a7bd a0c9 94b9 b653 a93c
00000010: 0584 003b e521 9a3a fe46 a33e b21d 5abb
00000020: 46e9 51bd ffcd e9ba 3bb6 a1be e2f6 9539
00000030: 5043 9a3e ffe7 b1be c8c8 c23d 3480 60be
00000040: d388 85bb 904e 83be f607 4bbe e8b1 443e
00000050: 0c45 55bb 7ea8 be3c 4914 9c3d 037c 703d
00000060: 4a9e cc3e e2fc c4be 5a4a 9abe ec89 70bd
00000070: ce2d 7aba fa99 ad3b 0a55 02bb 2c56 46b9
