VehicalStateperML_RNN_epochs_50_BS:16.pth (torch, 19458 bytes, 12 tensors)

linear_in.weight f4 [32, 9]
00000000: e40c 053f 37f7 44bf ccb8 a3bd 4eba 233f
00000010: 2694 043f 047e e63e 3089 f33e 96da cfbd
00000020: f976 67bd 619c 7cbe a8d7 29c0 49c5 27bf
00000030: a68a 6e40 d6b0 32c0 196c 14c0 34d7 37c0
00000040: d850 d23c 32c2 2040 27db 83c0 a9e5 31bf
00000050: 0ed6 4cbf 12e9 e8bf 0b6d bbc0 712d 7ac0
00000060: 400c bcc0 bab0 4d3a d192 283f b0a5 613f
00000070: 5c6a 55bb de5a a2bd 50e2 c43f 11a1 9d3f
00000080: d106 a23f c5bb 9d3f edcf 0b3d b3d1 be3c
00000090: 1401 b23f eb73 3a3f 4420 953f 94cd 8f3f
000000a0: d626 8dbe a91b 5abf 35a3 9cbe 7684 243e
000000b0: a432 9a3d 61fc 0ebe 9550 61bf f90a 76bd
000000c0: 5793 63be b09f aebe 194c d2bd 5d58 b3be
000000d0: e3ac 1338 cdf2 4abe fd59 ea3e 570b d6be
000000e0: 60c1 e93e fece ef3f dd36 773f 72a8 203f
000000f0: 8ac7 703f e756 ee3d 1374 0f3e e7b7 06be
00000100: de96 a9bf 991d 2cbf 4364 8d3e 3bd7 b3be
00000110: 5802 7b3e d883 b1be c04a b8bc b1b4 f5be
00000120: fd92 54bf aa74 59bf 988e 22be 6228 3ebf
00000130: 412e 4dbf 00c7 babe 9b1f 4abf f2e5 b4bd
00000140: c805 c8be 8697 07c0 c3a8 64c0 1567 993f
00000150: 9338 8abf 9cf3 6cc0 68e7 17c0 5d37 6ec0
00000160: e61e a5bb 0fe6 8ebd 80d8 5ebf 010b 0440
00000170: bb0a eb3f 8821 a0be 36c3 a8bd 898b 32bf
00000180: 9a6c 863d 154b 783d 0b6a 05bf 2099 b83f
00000190: 7e89 4540 362d 833e 3a79 0f40 9cae e33f
000001a0: ffc8 b33f ff54 e33f 695a 4a3c 37de 1e3f
000001b0: 6da8 35c0 cbe0 a33d 4215 003f 1913 d9c0
000001c0: 454b 87bf d998 c1bd 0bca 80bf e677 bc3c
000001d0: 5928 a2be 604b d4be 3ff7 f33c fcd2 283f
000001e0: 6eee 0ac0 d689 91bf f5c2 17c0 822d 83bf
000001f0: 8b48 39bd cea2 13c0 d3e9 2fbe 3372 06c0
00000200: 3a10 58be 67f5 8940 db1c 5fc0 c748 04c0
00000210: e20b 65c0 5b27 103d db7c 0e40 7e69 1c40
00000220: 890d 0b3f 0905 3dc0 1b4c a73e 0661 a43f
00000230: cf74 dabe 5c19 a93f c07e 373c 5a82 85c0
00000240: f0f9 60c0 5721 67c0 b293 db3e c071 23c0
00000250: 16b6 80c0 fabc 84c0 37bc 7dc0 dca2 4b3c
00000260: 9369 b83f c53e 88be 6a52 0640 5211 993f
00000270: e907 95bf 7c48 4d3f d34b 023f 6b29 6a3f
00000280: b115 863d 1c3e e1bf 4530 2ebf c3c6 40be
00000290: d3a0 ebbe 87fa 503f 1fe7 6d3e a005 713e
000002a0: 8163 703e c371 abbe b046 d7be ddbc 793f
000002b0: 76af dc3f 109f 4b3e 15dd a5be 3cfc db3f
000002c0: 48bd 7c3f 34f4 d93f 8dd1 493c f7c3 d3be
000002d0: ee43 433d 8dec 3a3f 7e3a a43d 8fc1 393e
000002e0: 6db2 0a3e 81cd 65bd fed5 0b3e efeb 333b
000002f0: 850b bc3c 27ad 8ebe e2dd 71be 49c5 c53d
00000300: a6e9 d0be 313d adbe cf5f 9fbd 65b7 b7be
00000310: 3c25 b9bd 4a9f ae3c 5352 63bd d48d 873f
00000320: 2eb9 173f 4091 6fbd 85e9 fd3d c947 10be
00000330: 12e3 f23d 222d b0bb 1ca5 173f 25fb 6d3e
00000340: 2896 8fbf 338a 99be ff10 a23c 6565 b4ba
00000350: 18bf c33e df6d 24bd 31a5 233a 23eb 5cbf
00000360: 7ea9 7440 d27f 3740 7d8e 2dc0 487d e5bd
00000370: 7072 ab40 e0ab 7840 3154 a940 0b1f 7fbb
00000380: a120 90bf 122b 36c0 7f15 bc3f 99a3 0cbf
00000390: b676 30c0 bbcc f1bf 6267 03c0 231b e8bf
000003a0: 21fd dc3b fa22 1d3c 3ddb e43d eef9 e8be
000003b0: f563 86be 2f5b 6d3e 8973 563d 1af3 413e
000003c0: ede9 fb3c 4513 ab3c 8153 41be 7f89 13c0
000003d0: 9c80 06c0 8df5 f9bf 5df7 6bbf 4b35 5ec0
000003e0: 52f5 1dc0 11c5 58c0 8b8b c13a f717 9bc0
000003f0: 3c76 653c 747a 00bf 29ec 22be 55b7 123e
0.51972795 -0.7693972 -0.079942316 0.63956153 0.51788557 0.45018017 0.47565603 -0.10149114
-0.056509946 -0.24669029 -2.6537876 -0.6553541 3.7272124 -2.7920432 -2.3190978 -2.87251
0.025673315 2.5118527 -4.120502 -0.6949106 -0.8001412 -1.8196127 -5.857061 -3.9090235
-5.8764954 0.00078464637 0.65849024 0.88143444 -0.0032564616 -0.07927488 1.5381565 1.2314779
1.265833 1.2322928 0.03413384 0.023293352 1.3906579 0.72833127 1.1650472 1.1234612
-0.27568692 -0.85198456 -0.30593267 0.16066155 0.0752919 -0.13963462 -0.88013583 -0.060069058
-0.22224174 -0.34106207 -0.10268421 -0.35028353 3.5208544e-05 -0.19819184 0.4577178 -0.41805527
0.45655346 1.8735044 0.9656809 0.6275703 0.9405447 0.11637669 0.14009123 -0.1315609
-1.3249166 -0.6723266 0.27615556 -0.35125145 0.24512613 -0.346709 -0.022496581 -0.4798942
-0.83036786 -0.8494364 -0.15874708 -0.7428037 -0.801487 -0.3647995 -0.78954476 -0.08832921
-0.3906691 -2.1186233 -3.5728004 1.1984583 -1.0798515 -3.7023687 -2.373499 -3.722129
-0.005039084 -0.06977474 -0.870491 2.0631716 1.836265 -0.31275582 -0.082403585 -0.69744164
0.06563683 0.06061848 -0.52114934 1.442173 3.0865169 0.2562043 2.241774 1.7787662
1.4045714 1.7760314 0.012350657 0.6205782 -2.838405 0.0800186 0.50032437 -6.7835813
-1.0569845 -0.094529815 -1.0061659 0.02300639 -0.31671408 -0.41463757 0.029780982 0.65946937
-2.1708026 -1.1370189 -2.3712742 -1.0248263 -0.045235198 -2.3068118 -0.1717904 -2.1007202
-0.2109994 4.3112063 -3.4861362 -2.066942 -3.5788503 0.035193782 2.2263706 2.4439387
0.5431753 -2.9534323 0.3267525 1.2842109 -0.42667243 1.3210864 0.011199653 -4.172162
-3.515255 -3.61141 0.4288612 -2.5538177 -4.0222273 -4.1480684 -3.9646127 0.012428965
1.4407219 -0.2661039 2.0987802 1.1958411 -1.1643039 0.8018873 0.5089695 0.9146945
0.06547106 -1.7597079 -0.68042403 -0.18825822 -0.46021137 0.81632274 0.23232697 0.23537302
0.23475458 -0.3348523 -0.42046118 0.9755381 1.7241046 0.19884896 -0.32395235 1.7186351
0.9872632 1.702765 0.012318027 -0.41360447 0.047672205 0.730172 0.08018969 0.18140243
0.13544627 -0.056104187 0.1365585 0.002745386 0.022954712 -0.2786648 -0.23619798 0.0965677
-0.4080326 -0.33835748 -0.07781946 -0.35882106 -0.09040305 0.02131619 -0.055498432 1.0590158
0.59266937 -0.05848813 0.12398056 -0.14089884 0.118597165 -0.005376474 0.5923631 0.23240335
-1.1217699 -0.2998825 0.019783495 -0.0013763128 0.3823173 -0.040143844 0.0006242572 -0.8629629
3.822845 2.8671765 -2.7118218 -0.11205536 5.3577194 3.8854904 5.2915273 -0.0038928415
-1.1259958 -2.8463788 1.469406 -0.5493713 -2.7572455 -1.8890604 -2.053185 -1.8133281
0.0067440425 0.009590859 0.11174629 -0.4550318 -0.26248136 0.23179315 0.052356277 0.18940392
0.030751193 0.020883212 -0.1887951 -2.305267 -2.1015997 -1.9528061 -0.9217432 -3.4720027
-2.4680982 -3.387028 0.0014766318 -4.8466754 0.01400524 -0.5018685 -0.159104 0.14327748

linear_in.bias f4 [32]
00000000: dbe7 533f 4981 d740 a8f9 0e40 104e 723e
00000010: 4f15 17bf 1bc1 d73e a6cd 1ebe 2e8d aa3f
00000020: 0616 773e 2fe9 8a40 8ec1 85c0 2634 e8c0
00000030: 24de 723f 4dfb 68bf 7a3d 4840 4df5 07c1
00000040: 1a8d 0141 9f00 35c0 f801 2cbe 98f8 cfbf
00000050: 8d81 13bf 6462 5d3d 3f44 b0bf 7afc 523f
00000060: 2c8e dec0 eaff 01c0 9916 903e faba df40
00000070: 6add be3e ccfb d53d 4977 2d41 7868 abbe
0.8277566 6.734532 2.2339878 0.23662591 -0.5901689 0.42139515 -0.15508136 1.3324335
0.24129495 4.340965 -4.1798773 -7.256366 0.9487021 -0.91008455 3.1287522 -8.497388
8.096949 -2.828163 -0.16797626 -1.624774 -0.57619554 0.05404891 -1.3770827 0.824165
-6.954855 -2.0312448 0.2814224 6.9915743 0.372783 0.10448417 10.841622 -0.3347814

linear_32.weight f4 [32, 32]
00000000: b462 b1bd 4096 4fbe 4861 8f3e f065 87bd
00000010: d699 3cbe ea96 863c 96dd 983e 2ae8 2dbc
00000020: 910b 11bc 3205 78bd abb9 90be f86a 35c0
00000030: 80c6 c9be fd17 53be f6cb a7bd 25ec 80be
00000040: ff20 6abe aca1 bcbe c4df bcbe 5be7 2abc
00000050: 1265 b43a 77bc 70bc b76f 773c 0454 213d
00000060: f555 15be 938f 7ebe f91d 68bb 0cda e8bd
00000070: 00e2 8dbc 7cd1 95be 101c 8fbe b61c 93ba
00000080: 39f5 4bbd e3e3 36bc 61b3 4e3e ac26 debb
00000090: 735b 1ebe 7341 dc3b f55b e53d 19cb be3b
000000a0: 7de0 a63c 471d 53bd 04a3 c33c 76e1 d2bf
000000b0: 81f7 c8bd be7c a8bc 725b 323e dda2 a6bd
000000c0: 73dc 1abe 9208 07bd 07b0 2a3d 66b9 01ba
000000d0: 019a 7dba da18 bf3b 9079 1c3d 254a 1fbd
000000e0: 8a16 a43c c468 653e b6be d2bc 2e68 263e
000000f0: 910b d6bc 8d9f dabc 58c7 5abe 4800 183c
00000100: 83a3 823d 5d78 303e 3779 69bd 8e45 b23c
00000110: 7b31 a83d 9543 8c3c 93f8 8fbe b828 4c3d
00000120: 98ef 303d 8c2c 653e 6afa 993e 8692 cf3e
00000130: 6765 00be 494e 783d 9331 863d 4d31 c5be
00000140: 5536 c8bd 49ce c83e 5957 30bf 3f7e 573d
00000150: b6bc 083c c80c 153b 809f 8b3c e4b9 6a3d
00000160: b525 113d c683 123f f5af a13c 04b9 a2be
00000170: a392 023c 6053 4cbd b6be abbe fe3c 07bc
00000180: dfec d2bd 6576 cfbe 6b85 62be 0562 8fbd
00000190: 32bf 6abe 2f9e 70bd 85f0 01bc 2d8d b9bd
000001a0: 2944 06bc 1990 63be b6c2 41be 220f 28c0
000001b0: 0c1e 5dbe 023a 31be caaa 06bf 9c3c 87be
000001c0: 6ba3 cfbe c272 84be 9851 cebd c28a c3bd
000001d0: 92d6 95bd e59a 53bd d309 b7bd 27b8 5dbd
000001e0: eb50 1dbf cf42 6fbe 225d bbbc cb62 fcbe
000001f0: 9969 49bd b352 9cbe 5e31 a6be eabd f3bc
00000200: f71a a63b 89f2 c7be 13f9 143f 0a3c 3f3c
00000210: d229 a5be 1c7c e23a 6d54 b93e bb24 c13c
00000220: f2d9 5a3c 75d1 e0bd 24c7 19be eb96 43bd
00000230: 2f67 57bd 8b7d 023d fd48 9abd 4dcc 453e
00000240: 307a 78bd d330 37be f5dc c73e 94f2 ea3c
00000250: aab5 233c dba2 b6ba 53f2 a43c f508 84bc
00000260: 5430 82bd aa50 d93d 0153 09bd 5ecb 34bd
00000270: 22ab 9b3c 52d3 653c 41ec a4bd 0c9e 20bc
00000280: 6e88 4c3c e9c4 1cbe 5791 30be db1b 323d
00000290: e6b7 83bc f393 8bbb fa29 8f3c 40bb 9ebc
000002a0: 80a2 cc3c 6078 e0bd 817b 2b3d 2df2 ddbf
000002b0: 7a56 9b3d 56e3 103e d5d0 97be 207d a3bd
000002c0: 3211 98be a83c a73c 0dd1 8d3e 7507 00bd
000002d0: 65ca 5dbc 7381 80bc baee 8abc 4f05 45bc
000002e0: 9dc1 fdbe d25d 033e c95e 233d 784b cabe
000002f0: 04a1 fabb ae7d 283e b8ab 75be a84b 34bc
00000300: 2850 6c3b 6820 76be 216b e0be b6dd 0ebc
00000310: 9a9b 8abd 1e70 08bc d550 873e cfec f3bb
00000320: f34e e7bc a35e 983e 106e 3b3e 791d 4c3f
00000330: 3a53 1c3e b7f9 903d 6aea 1abf 81c2 c53d
00000340: 4e49 ee3d 64c0 3d3e 7d48 9ebe c91a 99bc
00000350: 3d1c 823a ec06 03bc 606f 0fbc 9498 ef3c
00000360: e471 f53d 238b 9d3c fb92 e63c a4ae 963d
00000370: 1bdb 223b 5dd0 9dbd 87c7 053e e50a 1dbc
00000380: 14a4 db3c b29f fabe eded f43e 9528 123c
00000390: 9d32 cdbe 8c5f 0c3b 7648 a43e 475e a73c
000003a0: 62e9 db3c f4ac d13c 72b0 ed3c 0eb7 b73e
000003b0: 6f82 2bbe 31a3 8bbc 1399 c8be bd68 993e
000003c0: 9d39 a5bd eae9 d43c a2c0 693e ccb6 a43c
000003d0: fc19 893c 2362 763c 2c7f 983c 446f 22ba
000003e0: 7b66 e0bd e0c3 5d3e ebc5 59bc e6bf 54be
000003f0: 98a1 4dbb 23a7 93bd d57e e5bc 6068 cabb
-0.08661404 -0.2027216 0.28003907 -0.0661124 -0.18418059 0.016429383 0.29856557 -0.010614434
-0.008852855 -0.06055183 -0.28266653 -2.8346539 -0.39409256 -0.2061462 -0.08193199 -0.25180164
-0.2286415 -0.36842096 -0.3688947 -0.010431136 0.0013763031 -0.014693371 0.0151023185 0.039386764
-0.14583571 -0.24859457 -0.0035418256 -0.11369714 -0.01731968 -0.29261386 -0.27951097 -0.0011223766
-0.04979441 -0.011162731 0.20185615 -0.0067795124 -0.15464573 0.0067216693 0.1119918 0.005822551
0.020370716 -0.051541593 0.023881443 -1.6475055 -0.098128326 -0.020567294 0.17417696 -0.081365325
-0.15123157 -0.032967158 0.04167178 -0.0004948586 -0.00096741325 0.00583182 0.03820187 -0.03888907
0.020030279 0.22403246 -0.025725704 0.16250679 -0.026128562 -0.026687408 -0.21365106 0.009277411
0.06378844 0.17233415 -0.057000365 0.021761682 0.08212563 0.01712207 -0.28119335 0.04984352
0.043197244 0.22380275 0.30073863 0.40541476 -0.12538682 0.060621534 0.06552424 -0.38514176
-0.09775988 0.39219883 -0.6888328 0.052610632 0.008345773 0.0022743214 0.017043829 0.057306185
0.03543635 0.5723232 0.019737223 -0.3178178 0.007969531 -0.0498842 -0.33543938 -0.008254288
-0.10299086 -0.40520015 -0.22121207 -0.070011176 -0.22924498 -0.058744606 -0.0079308795 -0.0906013
-0.008194962 -0.22222938 -0.18921933 -2.6259236 -0.21593493 -0.17307284 -0.52604353 -0.2641343
-0.40554366 -0.25868803 -0.100741565 -0.0954795 -0.07316317 -0.05166139 -0.08937421 -0.0541307
-0.61451596 -0.23365329 -0.022871558 -0.49294123 -0.04917297 -0.30531844 -0.3245954 -0.029753644
0.0050691324 -0.39052227 0.5819256 0.011672029 -0.3225847 0.0017279419 0.36197224 0.023577085
0.013357626 -0.10977451 -0.15017372 -0.04775135 -0.052588638 0.03185801 -0.07533453 0.19316216
-0.060663402 -0.17889719 0.39035764 0.028680123 0.009992043 -0.0013934033 0.02013508 -0.016117552
-0.06356874 0.106110886 -0.033526424 -0.04413926 0.0190025 0.0140274335 -0.08052874 -0.009803306
0.012483699 -0.1530949 -0.17242943 0.043483596 -0.0160789 -0.0042595803 0.01747607 -0.019376397
0.02497983 -0.1096046 0.04186583 -1.7339531 0.075848535 0.14149222 -0.29651514 -0.0798285
-0.2970062 0.020414665 0.27698556 -0.03125711 -0.013537024 -0.015686726 -0.016959537 -0.012025191
-0.49561778 0.12828758 0.039885316 -0.39510703 -0.007648589 0.16454193 -0.23991287 -0.011004366
0.003605852 -0.240358 -0.43831733 -0.008719852 -0.0676796 -0.008327512 0.26428857 -0.0074440013
-0.028235888 0.29759702 0.18303704 0.7973247 0.15266123 0.07078879 -0.6051394 0.09656239
0.116350755 0.18530422 -0.3091468 -0.01868953 0.0009926629 -0.007997256 -0.008754581 0.02924756
0.119846135 0.019231385 0.028146258 0.07357529 0.0024849835 -0.07705758 0.13064395 -0.009585117
0.026811637 -0.48949963 0.47837773 0.008920808 -0.40077677 0.0021419255 0.32086533 0.020430697
0.026844684 0.025595166 0.0290148 0.35881847 -0.16748975 -0.01704559 -0.39179286 0.2996272
-0.080676295 0.025990445 0.2282739 0.020106696 0.016736023 0.015038046 0.018615328 -0.00061963894
-0.109570466 0.21656752 -0.013291816 -0.20776328 -0.0031376835 -0.07209613 -0.02801458 -0.0061769933

linear_32.bias f4 [32]
00000000: 6b2a 503e 9c08 c23d 49a9 373e 33ff 653e
00000010: 1de6 7fbc 6df0 833e 2994 35bd 8d5c c4bc
00000020: 0019 fc3d 2433 30be dd9b a13d a19d 0a3e
00000030: 61f8 313e 8dc3 ad3d 98c9 d9bd d94b 0cbe
00000040: 1e0c 883e df99 0f3e dcff a2bd 833c 8d3e
00000050: 100a d73d dc64 67be 8054 433e 996b 69be
00000060: 018d 763e 8aab f83d b482 0dbe e7ac dfbd
00000070: 338a 63be d4f5 5c3e 70a7 06be aedc 0cbd
0.20328681 0.09474298 0.17935671 0.22460632 -0.015618828 0.25769368 -0.04433075 -0.023969913
0.12309456 -0.17207009 0.07891057 0.13536693 0.17379905 0.08484564 -0.10634154 -0.13700809
0.26571745 0.14023541 -0.079589576 0.2758523 0.10499966 -0.22597069 0.19075203 -0.22794951
0.24077226 0.121420935 -0.1381939 -0.109216504 -0.22220688 0.21578151 -0.1314981 -0.034390144

rnn.weight_ih_l0 f4 [32, 32]
00000000: 1a51 e7bc cda2 6bbd 0cf5 833d 13c2 af3d
00000010: 22b7 95bc 15c6 123e 8091 aebd a7db 633d
00000020: 20a7 1c3f e2f6 afbe 3418 b83d 2a29 3fbe
00000030: b1b1 5d3d 6a42 e43d 0e0b 773d 745d 663d
00000040: 4182 543e acfc d0bd 7cae 67bb 53e5 513e
00000050: d6c9 8a3e 0bb3 8e3c 6c90 e4bd 659a d1bd
00000060: b2b2 853d 2db3 2a3f cd7c 75be 998d 9e3d
00000070: 17cd c3be fd14 a23d 232d 7b3c 3558 54be
00000080: aa54 28bd 522c 62bd 8ff8 c7bc 6758 56be
00000090: f1ea 82bd 82e7 c3bd 7db5 0abd 6790 01be
000000a0: e5d8 86be a1ad 6bbe bae6 c93c cd70 16be
000000b0: 893c b4bc d83a 71be 10b6 47bd a687 333e
000000c0: 7c52 01be 61d4 6a3c fa2c a03d 6145 1fbe
000000d0: ef3b f63d 94f9 9f3d 93a4 043d 82f8 ec3c
000000e0: 7ddb 9cbd bf4b 2ebe 774a 15be 6e34 6abc
000000f0: e142 22bd e0b0 7c3a c5e4 cf3c 2c31 4abc
00000100: a5ee d0bf f759 90bd fbc3 083c d8cf c8bf
00000110: b52a 2abe ffd5 94bd a17e 0ebd f7ea 06be
00000120: aa11 69bf 8f4b 67bd 8d72 a13d a6da c6bf
00000130: 1157 643a a854 d9bd 70ed 88bd 44a1 a43f
00000140: cc56 973d d813 633d 78dd 3c3b a4e5 da3d
00000150: cfa2 0f3e 2f3d 863f 8398 c8bf cdb9 8c3c
00000160: 4000 a0bd b65d 58bf a082 d9bc 5a31 a0bd
00000170: 3421 1a3d 95e0 773c 1030 10bc 295e d1bd
00000180: cb81 26bd 6c21 8dbc 7828 3fbd 3ed7 6bbe
00000190: 4b24 2dbd 5738 fdbd df40 3cbc d9c3 c6bd
000001a0: 67df 9d3e 5525 38be bc92 fb3b dffb d1bd
000001b0: 9502 82bc 17d5 93be 1cfd b7bc c909 b03c
000001c0: 27e0 32be b0c2 4c3c 47af fc3d d30f 57be
000001d0: b444 c13d 6324 923d 1985 42bc e10f dc3c
000001e0: ba2b d9bd 2bf8 da3e b845 35be 4884 ddbc
000001f0: 8b3a 00be 6ec0 36bd c6e0 853c 6799 81bd
00000200: b38b 76bc 5241 eabd d815 0c3e 7746 3f3e
00000210: 6304 d43d 06b6 d83d 2293 ab3e b0f8 c13e
00000220: a04a 303e 599d 1b3f c340 95be 4f6d 323e
00000230: deaa ab3b 4e0e 0f3f 93ce b83d 9495 3cbe
00000240: db7a 1e3e ecc3 b6bc 472e 8abe 62a8 2b3e
00000250: b91d e9be 5301 27bd 882e 8dbd 78f9 46bc
00000260: bb45 af3d eaad d13c 76eb 063f 76e3 203e
00000270: 6e39 f23d 9393 c0bc 69dc 943d 22fb 553e
00000280: d74c 0cbe 23bb 6cbc 41b1 66be d22f 91be
00000290: b81b dbbd 6c3f a5be 8e06 08be 8b33 9ebc
000002a0: 7d06 0fbc fecf 9d3e 7305 773e e8a9 7f3e
000002b0: 3386 e3bd 5704 a13e 4c9b b23d beb8 4d3b
000002c0: 9d02 b5be 7986 b8bd b94a c4bc 0813 ebbe
000002d0: af40 91be 9828 fd3d 17f9 98bd c37a 4f3e
000002e0: 95ac 1dbe 2b44 28be 6f44 103e f29d 893e
000002f0: e341 a83e a683 61be 80c0 303e 9bd5 29be
00000300: 9841 173d ed09 38bd b8cc d23d 261e 743e
00000310: 0cb6 de3d 8b97 cb3d e0fa 113e e2ee 8f3e
00000320: da14 333e 2e86 af3e d165 ccbd 9cac 153e
00000330: 130d 2d3d 76eb dc3e f440 313d 4645 10be
00000340: 0083 f93d fd7e 0c3c f031 82be 9873 2d3e
00000350: c512 38be 0421 a4bd 43e8 20bd 0083 12bd
00000360: d444 aa3d cded a43d cb84 773e b5ba 983d
00000370: 587f 163d 7003 35bc 670b 763c c9a5 9f3c
00000380: 225b edbd 453e ca3c 6c33 833e 5916 86be
00000390: 7c52 c5bd c7d7 ffbd cdb0 203e 84dc dfbd
000003a0: 3e1b 663e 1ab2 683d 7ba1 19be 895f 9abc
000003b0: 6155 883d edb6 18be d450 97bd 3922 afbd
000003c0: 1b65 14be c4de d33d e18c 3a3e 7fae 51be
000003d0: 426c 33be 50fb f23d 8b28 93bd 7694 073d
000003e0: 7363 f4bd 4406 853e 2a60 733e 1556 c4bd
000003f0: 1859 f8bd 683b 9bbc 0ae4 40bd cba4 6d3e
-0.028236914 -0.057528306 0.06443223 0.085819386 -0.018275801 0.14333375 -0.08523846 0.0556294
0.6119251 -0.34368044 0.089889914 -0.18668047 0.054124538 0.1114548 0.060313277 0.056241468
0.20752813 -0.10204443 -0.0035351804 0.20497636 0.27107114 0.017419359 -0.11160359 -0.102345265
0.06528224 0.6667965 -0.23973389 0.07741851 -0.3824241 0.079141594 0.015330586 -0.20736773
-0.041096367 -0.05521805 -0.024410514 -0.2093216 -0.06392468 -0.09565641 -0.033864487 -0.12652741
-0.26337352 -0.23015453 0.024646152 -0.14691468 -0.022001522 -0.23557603 -0.048757613 0.17532215
-0.12629122 0.014332862 0.078210786 -0.1555381 0.1202315 0.07811275 0.032383513 0.028927092
-0.076590516 -0.17021082 -0.14579187 -0.014294727 -0.039614562 0.00096393935 0.02537764 -0.012340825
-1.6322829 -0.070484094 0.008347507 -1.5688429 -0.16617854 -0.07267379 -0.03478873 -0.1317557
-0.9104258 -0.056468543 0.07883177 -1.5535476 0.00087104837 -0.1061185 -0.066859126 1.2861714
0.07389602 0.055438846 0.002881853 0.10688332 0.1402695 1.0487422 -1.5671543 0.01717844
-0.07812548 -0.8451799 -0.026551545 -0.07821913 0.03762932 0.015129228 -0.0088005215 -0.10223038
-0.040651124 -0.01722785 -0.046669453 -0.23031327 -0.04227094 -0.123642616 -0.011490076 -0.09705324
0.30834505 -0.17982991 0.007677404 -0.10253119 -0.015870372 -0.28873512 -0.02245956 0.02148904
-0.1746832 0.012497589 0.12338119 -0.2100213 0.09436932 0.071358465 -0.011872553 0.02686304
-0.10604043 0.42767462 -0.17702377 -0.027040616 -0.12522332 -0.04461711 0.016342532 -0.06328087
-0.015047955 -0.1143824 0.13680208 0.18679224 0.10352399 0.10581593 0.3351069 0.37885046
0.17215967 0.6078697 -0.29150972 0.1742451 0.005238875 0.558812 0.09023776 -0.18416435
0.15476553 -0.02231022 -0.26988432 0.16763452 -0.4553049 -0.040772747 -0.06893641 -0.012144439
0.08558222 0.025595624 0.52703035 0.1571177 0.1182736 -0.023507869 0.072686024 0.20896581
-0.13701187 -0.014448914 -0.22528554 -0.28356797 -0.10698646 -0.3227495 -0.1328375 -0.019311687
-0.008729574 0.30822748 0.24123172 0.24967158 -0.11109581 0.31448624 0.08721027 0.0031390633
-0.35353556 -0.090100236 -0.023961412 -0.45912957 -0.28369662 0.12361258 -0.07469385 0.20261674
-0.15397866 -0.16432254 0.14088605 0.26878315 0.32862768 -0.22022876 0.17260933 -0.1658539
0.03692779 -0.04493134 0.10292953 0.23839626 0.108745664 0.09941014 0.14255857 0.2811194
0.17488423 0.34282058 -0.099803574 0.14616627 0.042248797 0.43148392 0.043274835 -0.14088926
0.121831894 0.008575198 -0.25428724 0.16938627 -0.1797591 -0.0801411 -0.039284002 -0.035769463
0.08313909 0.080531694 0.2417175 0.074574865 0.03674254 -0.011048183 0.015017367 0.019488232
-0.11589648 0.024687896 0.2562517 -0.26188925 -0.09634873 -0.12492328 0.15692444 -0.10930732
0.2247133 0.056810476 -0.15003006 -0.018844383 0.0665691 -0.1491353 -0.073884636 -0.08551449
-0.14491694 0.103452235 0.18217804 -0.20476721 -0.17521766 0.1186434 -0.07185467 0.033100568
-0.11933031 0.25981343 0.23767152 -0.09586731 -0.12126368 -0.018949226 -0.047092475 0.23207395

rnn.weight_hh_l0 f4 [32, 32]
00000000: 0c8b 05bf 9941 803d 2389 eabd 61b9 aabd
00000010: 7562 5a3d ddc8 e43d cf83 3d3c 5d71 c0bd
00000020: 2279 1d3e 4103 e9bc 85c4 c43b 1681 213f
00000030: 2d61 75bd 687e df3e 3bce a73d 3e94 b3bd
00000040: 480f 9a3d e3b9 763d a9ac 01be 5875 b63d
00000050: 82e2 73bc 8522 b1bd 931a a33e 757d bb3d
00000060: 8e08 07be f1cf bd3d 40be f83c 1db3 06be
00000070: 3c2e f4bd cc6b 823c 46c1 073e 7cd8 723d
00000080: 597f 9bbb 897d d9be 3b90 313e 7061 bfbc
00000090: 0aa0 d93d dc30 db3d 5f69 e33d 7ce3 6bbd
000000a0: 3d82 02be 479f cb3d b4d1 80bc 65e9 a3bc
000000b0: 8ad5 e33c 036b 82bd 982b ebbc 617a 473c
000000c0: 42ca 9c3d 32d2 a5bd 5bdf bebd bbc7 a2bd
000000d0: 0a6d 333c 0c12 c6bc 229b 5dbe 96e6 acbd
000000e0: b73e 3a3e 8cb2 de3b 699c 8b3d 120c 0a3d
000000f0: 1de4 f43d 6a21 383c 091a 47be 11c1 373e
00000100: 7794 13bf 5a9a 063d e01a c33d 5a8c 99be
00000110: 52eb c03d 3e18 ec3e d5e7 1f3e 3c91 48be
00000120: 4938 773e 1fb2 683d 49cf 3c3c 2714 2abf
00000130: 5974 c3be 1fb7 54be 83c1 8dbb b0e5 1ebe
00000140: 8be2 2e3e ea1d 363e 39fb b53d 5de6 993e
00000150: de03 833e 2b6a 6d3c 14c1 993e 53e1 bf3d
00000160: c4cf 2c3e 705d c5bd ee15 1ebc 735f 8c3d
00000170: 1b36 443e fdee a83d 06aa 92be 1eda a23e
00000180: 92df 323d ce76 11bd 9f96 d93d 948e ecbe
00000190: 5670 b13d e463 8d3c b883 edbc 1d7f 28bb
000001a0: bf55 23bd 49a9 033d 51dd 67bd e2bd 8c3d
000001b0: aad5 113c 4e8d 67bc 9034 34bd b4dd a9bd
000001c0: 4eb7 44be 9a73 82bd 5d2f 623d 91c4 a0bd
000001d0: 4f54 303d 2386 8b3c 276d 183c 61b6 7abd
000001e0: d6ee a73e 070c 32bd 7c44 e13d 383d ac3d
000001f0: 34b6 943d 55bb b1bc 557a 5bbd e09a e63d
00000200: b5d5 a1bd 98fc 5abd 1e01 25be 7bd8 4abd
00000210: deab 08bf 4723 c1bd 2088 083d e65a 0cbd
00000220: e586 753d e9bf 43bc e834 31bb e888 eb3d
00000230: 7ae3 d3bd e9cc af3c 370c 9d3d 4964 87bd
00000240: 3489 0d3e 6267 db3d ee07 d83d 395e 993d
00000250: e440 fcbc eb09 f1bc 4e67 f03d 3bff 3a3e
00000260: 2492 88be d33c 243c fe2a b2bd 6218 a73c
00000270: cf53 c23b 9d28 ad3c c5e1 603e 180e c83d
00000280: 2824 4d3e bc16 50bd 148e a73c 3033 aabd
00000290: e7e5 9c3d 32cd 12bf 0add 2c3d d66c 37bd
000002a0: a1b6 783c 5ed0 433b fc71 96bd df2d b3bd
000002b0: e7d9 e7bc a1e9 67be 1b7e 8fbd a380 793d
000002c0: 544d 02bc b4cf 603c 5c40 563d 0446 66bc
000002d0: cfc9 01be ebb4 463b 18e1 593e b815 173d
000002e0: 9423 d73d 0717 65bc 8082 493d 7302 d43b
000002f0: afe1 37bd 1067 47be fd43 343e fde3 2abe
00000300: d842 323d 519a e63c e41c 00be 145e 633d
00000310: b5e2 fdbd f64f 2dbe 5cbd f3be 8040 693d
00000320: 6339 e43d 372f afbc 0159 3b3b 393c 0fbe
00000330: 1aab 5bbd fa7e 4e3c b80c 113d 4010 0c3d
00000340: 03a1 08bb e447 8e3d b843 c43d d3d4 a93d
00000350: 120b 49bd baa6 673d 000d d33d 6e4a 443e
00000360: 52a8 75be 32f8 b3bc 02cd 8cbd bbdd 273d
00000370: 0836 003d 09ae a8bc a5ac 603e b56d 32be
00000380: 3981 80bd 0470 eebc 971f 703b 7752 2fbe
00000390: 487b 3dbb 3b7e cfbb 52f3 703c 0fcc e2be
000003a0: 571b 50bd 00cf c53d a6cc 76bd e313 843e
000003b0: 9a39 edbb 1e78 b7bd 3ff5 68bd 6c96 02be
000003c0: ad52 a8bd 7676 463c 7a93 653d 985c 48bd
000003d0: 0a54 263c 8f6a 6cbb ff1f fe3c e560 02bc
000003e0: e5f8 763e 8a18 15bd 7441 cbbc 4d1e 99ba
000003f0: df77 c1bd be7d 973c 9acb a8bd 0725 753e
-0.52165294 0.06262512 -0.11451938 -0.083361395 0.053316552 0.11171124 0.01156707 -0.09396622
0.1537824 -0.028443934 0.0060048723 0.63087595 -0.059907127 0.43651128 0.08193632 -0.08768509
0.07522446 0.06023587 -0.12663521 0.089091 -0.014885547 -0.08649162 0.31856212 0.091547884
-0.13186857 0.09268177 0.030364156 -0.13154264 -0.11922881 0.015920542 0.13257322 0.059288487
-0.0047454056 -0.42478588 0.17340176 -0.023361892 0.10626228 0.107026786 0.11104082 -0.057589993
-0.12744994 0.09942489 -0.015724994 -0.020008752 0.027811784 -0.06368067 -0.02870731 0.0121751735
0.07655765 -0.08096732 -0.093199454 -0.07948252 0.01095129 -0.024178527 -0.2164121 -0.08442418
0.18187986 0.006796187 0.06816942 0.033702917 0.11957572 0.011238435 -0.19443525 0.17944743
-0.57648414 0.032862045 0.095266104 -0.29989892 0.09419884 0.46112245 0.1561578 -0.19586653
0.24142565 0.056810495 0.01152403 -0.66437 -0.38174704 -0.2077298 -0.004326047 -0.15517306
0.17078607 0.17784849 0.088858075 0.30058566 0.25588888 0.014490644 0.3003012 0.09369149
0.16876131 -0.096369624 -0.009648783 0.06854143 0.19161265 0.082487084 -0.28645343 0.31807035
0.043670245 -0.03551369 0.10624432 -0.46202528 0.086640045 0.017259546 -0.028993472 -0.002571053
-0.039876696 0.032143865 -0.05660755 0.06872155 0.008901039 -0.014132811 -0.04399544 -0.0829424
-0.1921055 -0.063697055 0.05522095 -0.07849992 0.043049153 0.017031735 0.009303368 -0.061209086
0.32799405 -0.0434685 0.109993905 0.08410114 0.07261315 -0.021695772 -0.05358346 0.11260009
-0.079020895 -0.05346355 -0.16113707 -0.049522858 -0.5338725 -0.09430557 0.033332944 -0.034266375
0.0599431 -0.01194761 -0.0027039591 0.11500722 -0.10346122 0.021460013 0.076683454 -0.06610925
0.1382187 0.10713078 0.105483875 0.07488675 -0.030792661 -0.029423675 0.11738454 0.18261425
-0.26673996 0.010024267 -0.08699606 0.020397369 0.005930401 0.02113753 0.21961124 0.09768313
0.20033324 -0.05080293 0.02045349 -0.083105445 0.07661038 -0.57344353 0.042202987 -0.04478153
0.015180261 0.0029878835 -0.073459595 -0.087489836 -0.028302146 -0.22647716 -0.070064746 0.060913693
-0.007953007 0.013721395 0.05230747 -0.014054779 -0.1267464 0.0030320238 0.21277273 0.036885947
0.10504833 -0.013982541 0.04919672 0.0064700185 -0.044892963 -0.19472909 0.1760406 -0.16688533
0.04352078 0.028149756 -0.12511021 0.05550964 -0.123967566 -0.16925034 -0.47605407 0.056946278
0.11143758 -0.021384818 0.0028586986 -0.13987817 -0.053629972 0.012603516 0.03541252 0.034195185
-0.0020847924 0.06947306 0.09583229 0.08292546 -0.049082823 0.056555487 0.10305214 0.19169018
-0.2398999 -0.021968935 -0.0687504 0.040982943 0.03130153 -0.020590799 0.21940859 -0.17424662
-0.06274647 -0.029106148 0.0036639923 -0.17121302 -0.0028912593 -0.0063321865 0.01470645 -0.4429631
-0.050807323 0.09658623 -0.06025376 0.25796422 -0.0072395327 -0.089584574 -0.05687451 -0.12752694
-0.08218894 0.012113204 0.056048848 -0.04891643 0.010151872 -0.0036074256 0.031021116 -0.007957672
0.24118383 -0.036400355 -0.024811484 -0.0011682004 -0.09446692 0.018492576 -0.08241959 0.23939906

rnn.bias_ih_l0 f4 [32]
00000000: dfe7 72bc c346 78bd bac0 d53c 8b0c 1fbd
00000010: cd5f 913d a384 033e bd67 ab3d 6124 cdbd
00000020: 79b2 a3bc 200b 5b3d 1489 a4bb d2cc fcbc
00000030: 47cd 3fbc 64d4 36be 8625 c4bd aa7c aabc
00000040: 0240 1abd 4f68 6e3b ca84 b23b 3c75 93bc
00000050: 1b60 dc3c 21bc 5cbc ab2e 0f3f d6e3 4ebc
00000060: 7c04 1cbd 871f 1b3c 64fd 913d 2a77 8dbd
00000070: aa3e e2bb 13c2 613c 11be ddbe 3870 833d
-0.01482579 -0.06061436 0.026092876 -0.03883032 0.07098351 0.12843566 0.08369396 -0.10016704
-0.019982563 0.053477407 -0.005021224 -0.030859385 -0.011706657 -0.17854458 -0.095774695 -0.020811398
-0.0376587 0.003637809 0.0054479586 -0.018000238 0.026901295 -0.013472588 0.55930585 -0.0126275625
-0.038090214 0.009467966 0.071284086 -0.06907494 -0.006904443 0.013779181 -0.43309072 0.064178884

rnn.bias_hh_l0 f4 [32]
00000000: dfe7 72bc c346 78bd bac0 d53c 8b0c 1fbd
00000010: cd5f 913d a384 033e bd67 ab3d 6124 cdbd
00000020: 79b2 a3bc 200b 5b3d 1489 a4bb d2cc fcbc
00000030: 47cd 3fbc 64d4 36be 8625 c4bd aa7c aabc
00000040: 0240 1abd 4f68 6e3b ca84 b23b 3c75 93bc
00000050: 1b60 dc3c 21bc 5cbc ab2e 0f3f d6e3 4ebc
00000060: 7c04 1cbd 871f 1b3c 64fd 913d 2a77 8dbd
00000070: aa3e e2bb 13c2 613c 11be ddbe 3870 833d
-0.01482579 -0.06061436 0.026092876 -0.03883032 0.07098351 0.12843566 0.08369396 -0.10016704
-0.019982563 0.053477407 -0.005021224 -0.030859385 -0.011706657 -0.17854458 -0.095774695 -0.020811398
-0.0376587 0.003637809 0.0054479586 -0.018000238 0.026901295 -0.013472588 0.55930585 -0.0126275625
-0.038090214 0.009467966 0.071284086 -0.06907494 -0.006904443 0.013779181 -0.43309072 0.064178884

linear_out.weight f4 [7, 32]
00000000: 3d1a 223c 7c73 50bc a692 55bb 2bfe 1bbc
00000010: 6a53 203c 2739 093c dffb 243c 7a0e 29bc
00000020: eff4 6fbc ffc5 153c 60cd 403c 3a0d 46bc
00000030: 13b4 b9bc e21d 9f3b 09bc c2bb e01f d63c
00000040: 10e7 b13c 8179 2cbc 3976 1dbc 8626 53bc
00000050: dce6 823c e723 253c ed37 4bbb 690f 38bc
00000060: 120b 90bb 993e 7e3c 7d36 413c 4aec a1bb
00000070: d970 9d3c 9538 3a3b 3469 143b 2424 653c
00000080: 7c24 efbe 2166 183f 894c 973e f7e9 193f
00000090: 4798 19bf e4c9 df3e 2756 18bf d9c3 1e3f
000000a0: 19c0 133f 1379 1ebf 9d35 183f 79b6 27bf
000000b0: 6135 1bbf 66f3 7abe 6f9b 153f 88ff 233f
000000c0: bd5c 1a3f 9cc1 113f 0129 253f fe84 103f
000000d0: bff0 103f b0a6 273f 8e05 973e 6b7a 0f3f
000000e0: 8ddd 9d3e a16f 22bf e33c 1fbf b2d5 213f
000000f0: e3a3 253f 5d1b 063f c3c8 87be c188 19bf
00000100: 72f2 b33d 9317 9ebd dfb6 c6bc 11a1 0b3e
00000110: 1d64 0ebc 4530 e53b f619 8c3c f0dc cb3d
00000120: fdcd b1bd c593 c93c 919c 783d 6d04 7d3f
00000130: 32a0 1b3c 1ba4 a13b 9166 a33c 5533 123e
00000140: 0db9 0c3d 23e9 b3bc f45c 67bc fdb4 c8bd
00000150: 3736 aebc c7ec 933d ce35 b83b 1562 84bc
00000160: 1d44 c63c 6b2a b2ba 67b0 003d cb35 14bd
00000170: c1f0 743d 9e27 703d f58f 87bc 20b1 d6be
00000180: 0d7f d93c c187 a6bd b704 bebc dc79 abbd
00000190: 662b 1f3e 142f 663d a1ff f23d b095 c2bc
000001a0: 0a33 6cbd 7d2b 953d 4251 743d a498 38bd
000001b0: fbf8 1cbe f287 123c 2eb4 65bc 0e5c 163e
000001c0: e625 7c3e 9254 0cbd 3559 6fbd 53f4 873c
000001d0: 5699 893d 89b4 383c 2473 22bc de0f 22be
000001e0: d1e1 e1bc 4f60 643c 9a10 0d3e 87e6 3ebd
000001f0: 05c6 b33d 3a52 8e3d 7543 c63c b129 8fbc
00000200: 7abe 663d 2e50 9dbd 613d 2cbd 6066 05bd
00000210: 0f10 223c 56f2 553d ddee 223d 7965 9cbd
00000220: aa56 bfbd 5547 833d d748 a53d c650 99bd
00000230: 94d0 08be 3999 c23c afe3 90bd 1017 1c3e
00000240: b978 c03d 6592 4ebd ff05 58bd a5ed e2bd
00000250: 71ec 043e 6dd6 063e fbe8 41bd 95a9 2ebd
00000260: 33b9 22bd 0501 db3d ad81 013d e0df 5fbd
00000270: d8ef fc3d 8109 1bbc 9925 323d 6552 ef3d
00000280: 5275 3d3c e0b9 18bd 8376 d4bc d1d2 60bc
00000290: d6aa 5abc 5617 b43c 78f2 633c 595e afbc
000002a0: 6e1b 20bd 8ec5 bd3b 4858 ec3c bbe5 c6bb
000002b0: 0d7d 37bd 2789 45bb 5deb 39bd 056a 083d
000002c0: 6318 c53c 33c3 89bc 051b eebc 5b40 4ebd
000002d0: f84b 573d f03f 5a3d 5304 b7bc d69f 873a
000002e0: 3aed 9abc 6231 803d a341 c5b9 0d12 0fbd
000002f0: 85bf 4c3d cb71 7ebc 3a41 103d b028 143d
00000300: 7d54 d93b 34ac bebb a6d6 2ebb 85ba 3fbb
00000310: 6cf2 ca3a 122f 1e3b 80dc 723b 5809 bdbb
00000320: 7fa7 1abc f274 7e3b 2230 9d3b 796a 03bc
00000330: d4b8 31bc dc4b 8e3b 5fc8 a7bb 4e70 503c
00000340: 3ae0 de3b 6d2e 02bc 82aa 8abb 461f 28bc
00000350: 1d03 153c 89f6 073c 6f77 24bb 7163 ecba
00000360: 12e9 cdba 6a44 173c 551a 6b3b fae8 80bb
00000370: 7625 333c ba74 1ab8 c6bd ff3a c936 133c
0.009893951 -0.012722846 -0.003258863 -0.009521048 0.009785512 0.008375443 0.010069816 -0.010318393
-0.014645799 0.009141444 0.011767715 -0.012088114 -0.022668874 0.004855857 -0.0059428257 0.026138246
0.021716624 -0.010527016 -0.009610706 -0.012887603 0.015979223 0.010079361 -0.0031008676 -0.011234143
-0.004395851 0.015517854 0.011792776 -0.004941498 0.019218849 0.0028415073 0.0022645714 0.013985667
-0.46707523 0.59530836 0.2955058 0.6012263 -0.5999798 0.43708718 -0.5950646 0.6201759
0.5771499 -0.61903495 0.5945681 -0.65512806 -0.60628325 -0.24506912 0.584403 0.64061785
0.6029776 0.5693605 0.6451569 0.5645293 0.5661735 0.6548872 0.29496425 0.5604617
0.30833092 -0.6345158 -0.6220228 0.632167 0.64703196 0.52385503 -0.26520357 -0.59974295
0.08786477 -0.0771934 -0.024257122 0.1363566 -0.008690861 0.0069942796 0.017102223 0.0995425
-0.08681867 0.024606595 0.06069619 0.9883488 0.009498643 0.004932893 0.019946368 0.14277394
0.034356166 -0.021961754 -0.014121283 -0.09800146 -0.021266086 0.07222896 0.0056216484 -0.01616005
0.0242024 -0.0013592964 0.03141823 -0.036184113 0.059799913 0.058631532 -0.016548136 -0.4193201
0.02654984 -0.08131362 -0.023195608 -0.08372852 0.15543899 0.05619724 0.118651636 -0.023753017
-0.057665862 0.07283685 0.059647806 -0.045067444 -0.15329354 0.008943545 -0.014020009 0.14683554
0.24623832 -0.03426034 -0.058434684 0.016595995 0.067187 0.011273512 -0.009915147 -0.15826365
-0.027573498 0.013938977 0.13775864 -0.046606567 0.087780036 0.06949277 0.024202088 -0.017475935
0.056333996 -0.07681309 -0.042050723 -0.032568336 0.009891524 0.052233063 0.03977858 -0.07636542
-0.09342702 0.0641009 0.08070534 -0.074861094 -0.13360816 0.023754703 -0.07074677 0.15243173
0.09398026 -0.05043258 -0.052740093 -0.11080483 0.1298082 0.13167734 -0.047341328 -0.042642195
-0.0397274 0.10693554 0.03161781 -0.054656863 0.12350434 -0.009462715 0.043492887 0.116856374
0.011563616 -0.03728664 -0.025935417 -0.013722138 -0.0133463945 0.021983784 0.0139127895 -0.021407293
-0.03908866 0.0057913726 0.02885069 -0.0060698665 -0.044796992 -0.0030141564 -0.045390476 0.033304233
0.02405948 -0.016816711 -0.029065618 -0.050354343 0.052562684 0.05328363 -0.02234093 0.0010347317
-0.018911947 0.06259419 -0.0003762367 -0.034929324 0.049987335 -0.01553006 0.035218455 0.036171615
0.0066323862 -0.005818868 -0.0026678233 -0.0029255461 0.0015483624 0.0024136943 0.0037057698 -0.005768936
-0.009439348 0.003882703 0.0047969976 -0.0080209905 -0.010847289 0.0043425392 -0.0051203216 0.012722088
0.0068016322 -0.007945639 -0.004231752 -0.010261362 0.009094981 0.008298525 -0.0025095602 -0.0018035007
-0.0015709719 0.00923262 0.003587385 -0.003934023 0.010934224 -3.682517e-05 0.0019511513 0.00898523

linear_out.bias f4 [7]
00000000: d8d5 0b3d 9c64 2c41 39e3 66bd 5e56 9c3e
00000010: 52cc 8a3e a145 193e ccc2 a63c
0.034139484 10.774563 -0.05636904 0.30534643 0.2710901 0.14967968 0.020356558

batch_norm_layer.weight f4 [32]
00000000: b66d 00bc e222 65be cc11 a7be 61d0 b83a
00000010: 9201 7d3e 63f5 7c37 0f52 92be fa7f 6cbb
00000020: 3f81 873c 25d2 28be 7139 2e3e 024a 003f
00000030: 2517 6a3e 7417 273e e74a 07bf 31e9 323e
00000040: 8a6e 1cbe 2cec 553e 5431 afbe 8787 3b3a
00000050: b28f 823b f36d d2b6 fc75 eeba 2f73 c43b
00000060: 728c 0a3f 9c6d b93e 1a17 3b3b cd3f c9be
00000070: 0064 afbc 2d60 81be b680 32be 6d7d 903b
-0.007838657 -0.22376588 -0.32630765 0.0014100188 0.2470763 1.5077504e-05 -0.2857823 -0.0036087022
0.016541122 -0.16486414 0.170141 0.50112927 0.22860391 0.1631754 -0.52848667 0.17471768
-0.15276542 0.20890874 -0.34217322 0.0007153679 0.003984415 -6.2712875e-06 -0.0018193121 0.0059951763
0.5412055 0.36216438 0.0028547705 -0.3930649 -0.021409988 -0.2526869 -0.17431912 0.004409483

batch_norm_layer.bias f4 [32]
00000000: a03b 5bbd 4ee4 9a3e cc87 a83e e4b3 2dbc
00000010: c82c 6a3c e85c 8fbb 18d4 7fbe b6f7 82bc
00000020: 56b0 d1bd 92f2 033e eced 073e 1de7 15bf
00000030: 9223 90bc c0c6 d13d e8ae 8bbe 6fb7 c83e
00000040: 468e bd3e 177f 0c3e c76d 44be e197 10bc
00000050: 2167 cdbc 906c e9b8 e8ce 26bd 1a8b 1abd
00000060: 7ec6 563e 271c c2bc 3927 50bd 31db 813e
00000070: 55f0 a5bd 5d00 08bd 687b cc3e 6f37 e6bc
-0.05352366 0.30252308 0.32916105 -0.010601971 0.014292903 -0.004375089 -0.24983251 -0.015987258
-0.102387115 0.12885502 0.13274354 -0.58555776 -0.017595086 0.10242987 -0.2728188 0.3920245
0.3702261 0.13720356 -0.19182502 -0.008825273 -0.02507359 -0.00011130527 -0.040724665 -0.037730314
0.20974156 -0.023695065 -0.050818656 0.25362542 -0.0810248 -0.03320347 0.39937901 -0.028102605
