VehicalStateperML_RNN_epochs_3_BS:128.pth (torch, 18946 bytes, 12 tensors)

linear_in.weight f4 [32, 6]
0	0x3c9ff755	0.019527117
1	0xbcaee4fa	-0.021349419
2	0xbd1e50f2	-0.038651414
3	0xbcf2bc8b	-0.02963092
4	0xbc64b49a	-0.013959074
5	0xbc6216e7	-0.013799406
6	0xbc524bc0	-0.012835443
7	0xbcda5748	-0.026652947
8	0x3ac4e6d4	0.0015022405
9	0xbd229d96	-0.039701067
10	0xbcaab302	-0.02083731
11	0xbc8ae3fa	-0.01695441
12	0xbbfddeb3	-0.007747495
13	0xbced1c8d	-0.028944278
14	0xbc88f4f1	-0.01671836
15	0xbc33055a	-0.010926569
16	0xbccb1cc6	-0.024793994
17	0xbd0fc734	-0.035102084
18	0xbd286c8d	-0.041119147
19	0x3d106610	0.035253584
20	0x3cbb2023	0.022842472
21	0x3aff9b20	0.0019501187
22	0x3c555715	0.01302125
23	0x3bb62487	0.0055585536
24	0x3cf7abff	0.030233381
25	0xbccfd64a	-0.025370736
26	0xbc6aeed3	-0.014339167
27	0xbcbc206d	-0.02296468
28	0xbc6b1d31	-0.0143502215
29	0xbd12e64b	-0.035864156
30	0xbd5efdb2	-0.05444116
31	0x3d1eb127	0.038743164
32	0x3d1dd910	0.038537085
33	0x3c6b0a1f	0.014345675
34	0x3d2d118d	0.042253066
35	0x3d2a66a7	0.041601803
36	0x3c580ea3	0.013187083
37	0xbd0699e7	-0.032861616
38	0x3ab91698	0.0014121113
39	0xbd0c9fcb	-0.034332078
40	0xbc49350c	-0.012280714
41	0xbc86bab6	-0.016446453
42	0x3d0c30c2	0.034226187
43	0xbd0ab27d	-0.033861626
44	0xbc9df159	-0.019280123
45	0xbc34650a	-0.011010418
46	0xbc5cf190	-0.013485327
47	0xbba83136	-0.0051328195
48	0x3c13ab2b	0.009012978
49	0xbd111b6f	-0.035426553
50	0x3a6448bb	0.00087083475
51	0xbc8783f0	-0.016542405
52	0xbd2c19f0	-0.042016923
53	0xbd2544cc	-0.040348813
54	0xbceb1942	-0.028698567
55	0x3d20100e	0.03907781
56	0x3c9fd01c	0.019508414
57	0x3b62e66e	0.003462221
58	0xbc1a0968	-0.009401657
59	0x3c7faa85	0.01560462
60	0xbd575bd8	-0.052577823
61	0x3d0f522e	0.034990482
62	0x3ceba798	0.028766438
63	0x3bc1fdda	0.005920154
64	0x3c1c5f45	0.009544198
65	0x3cbdf3bc	0.02318751
66	0x3d56f80b	0.052482646
67	0xbcd1ec46	-0.02562536
68	0xbd3802e0	-0.044924617
69	0x3d150ae8	0.036387354
70	0xbc183dce	-0.009292079
71	0xbb97e408	-0.0046353377
72	0xbc430bc5	-0.011904662
73	0xbccd5300	-0.025063992
74	0xbc0a85e9	-0.008454778
75	0xbc79503d	-0.015216884
76	0xbca5e1c3	-0.020249253
77	0xbd7a64e1	-0.061131362
78	0x3d2e6f70	0.042586744
79	0xbcf9c8b1	-0.030491205
80	0xbc9d8523	-0.019228524
81	0xbc26cc2d	-0.010180515
82	0xbbf984f8	-0.007614728
83	0xbce330eb	-0.027733287
84	0x3d76f9a0	0.060296655
85	0xbd068d01	-0.032849316
86	0xbc73121b	-0.01483586
87	0xbcc70db9	-0.024298536
88	0xbc671154	-0.014103252
89	0x3ca4bf84	0.020110853
90	0x396923f6	0.00022234008
91	0x3cc66132	0.024216268
92	0x3c6302dc	0.013855662
93	0x3d1e17f6	0.03859707
94	0xbad8f2b2	-0.0016551821
95	0x3b31a51b	0.0027106467
96	0x3c51393f	0.012769996
97	0xbcdd1453	-0.02698723
98	0xbcdf03b9	-0.027223455
99	0xbc96bdb1	-0.018400999
100	0xbcfb05ad	-0.030642355
101	0xbcea54cf	-0.028604893
102	0x3db35b3a	0.087576345
103	0xbd030411	-0.0319863
104	0xbcfa8943	-0.03058303
105	0xba8465c1	-0.0010101126
106	0xbc940829	-0.018070297
107	0xb9afc09f	-0.00033522115
108	0x3c5ba80c	0.013406765
109	0xbcbfee3d	-0.02342903
110	0xbccfc09d	-0.0253604
111	0xbd0c8ebf	-0.03431582
112	0xbcd77c23	-0.02630431
113	0xbd0a198a	-0.033715762
114	0x3d082a74	0.03324361
115	0xbd06c576	-0.032903157
116	0xbcfd45f9	-0.030917155
117	0xbc8057ed	-0.015666926
118	0xbc58e2e5	-0.01323769
119	0xbc8a821d	-0.016907746
120	0x3bd1e5b9	0.006405559
121	0xbceb996a	-0.028759677
122	0xbcfe1620	-0.03101641
123	0xbcd34b6d	-0.025792802
124	0xbcb54c22	-0.02213103
125	0xbcde82c6	-0.027161967
126	0x3d0b5f62	0.03402651
127	0xbd0981f0	-0.033571184
128	0xbca0ee01	-0.01964474
129	0xbc3bb5f5	-0.011456956
130	0xbc4dd2b3	-0.012562442
131	0x39808932	0.0002451628
132	0xbc1210f2	-0.008915173
133	0xbca4df20	-0.020125926
134	0x3b1ecbff	0.0024230478
135	0xbcb62446	-0.022234093
136	0xbcb75f17	-0.02238421
137	0xbcd78d87	-0.026312603
138	0xbd7f2243	-0.062288534
139	0x3d163aeb	0.036677282
140	0x3c7a1fd6	0.015266379
141	0x3afb62b1	0.0019179193
142	0x3bf021ed	0.007328263
143	0x3ca9a240	0.02070725
144	0xbbbac34f	-0.005699552
145	0x3ce22902	0.027607445
146	0x3c09b0e6	0.008403992
147	0x3cb4389c	0.02199965
148	0x3c2cc46a	0.010544876
149	0x3d0a3938	0.033745974
150	0x3d823d4b	0.06359347
151	0xbd297b5f	-0.04137742
152	0xba95cc80	-0.0011428744
153	0x3cdf9728	0.027293757
154	0xbd12cd7a	-0.03584049
155	0xbd1039d6	-0.035211407
156	0xbd5e7c42	-0.05431772
157	0x3cfac964	0.030613609
158	0xbb69cbae	-0.003567438
159	0x3c250b23	0.010073456
160	0xb984181a	-0.0002519496
161	0x3cca30eb	0.024681529
162	0xbd8057ab	-0.06266721
163	0x3d0589ac	0.032601997
164	0x3bedbbd4	0.007255057
165	0x3c153275	0.009106268
166	0x3c33ef00	0.010982275
167	0x3c484324	0.012223039
168	0xbd51c077	-0.05120894
169	0x3d12b5b6	0.035817824
170	0xb9ec2b6c	-0.0004504578
171	0x3babb5fe	0.005240201
172	0x3baf00a7	0.005340654
173	0x3cc4b8dc	0.02401393
174	0xbd6db5d5	-0.058034737
175	0x3c743386	0.014904862
176	0x3d2cff89	0.042235885
177	0xbd36205e	-0.04446446
178	0x3aacf189	0.0013194542
179	0x3b18abda	0.002329579
180	0xbb2a2872	-0.0025964049
181	0x3cec5b4e	0.028852131
182	0xbbac391b	-0.005255831
183	0x3d0c74e2	0.034291156
184	0x3c310d9b	0.010806466
185	0x3c09a070	0.008400068
186	0x3c6eafb4	0.014568258
187	0xbd28ec3b	-0.041240912
188	0xbcae8715	-0.021304647
189	0xbcacdd71	-0.021101685
190	0xbc934476	-0.01797698
191	0xbd2a7f42	-0.04162527

linear_in.bias f4 [32]
0	0x3c5f54f8	0.013631098
1	0x3c521ce9	0.0128242755
2	0xbd52ff94	-0.05151327
3	0x3e2e246d	0.17006083
4	0xbb90d222	-0.004419581
5	0x3d8c33ee	0.06845842
6	0xbd8e4b2a	-0.0694793
7	0xbe28afc2	-0.16473296
8	0xbd70d909	-0.05880073
9	0x3e1514da	0.14558735
10	0x3e07af39	0.13250436
11	0xbd7fff6e	-0.062499456
12	0xbc81a7bf	-0.015827058
13	0xbe1e4b08	-0.1545831
14	0x3a8b42cb	0.0010624764
15	0x3dfeb568	0.12436944
16	0xbb1fd919	-0.0024390875
17	0xbe341ea3	-0.17589812
18	0xbe2723cc	-0.16322249
19	0xbe3ad07b	-0.18243591
20	0xbe242343	-0.16029076
21	0xbe22f0cf	-0.15912174
22	0xbd26115d	-0.040543903
23	0x3e1d4471	0.1535814
24	0xbc868982	-0.01642299
25	0xbda11a0f	-0.078662984
26	0x3e24d718	0.16097677
27	0x3e381c22	0.17979482
28	0x3e20c139	0.15698709
29	0x3d4e178d	0.05031543
30	0x3d6d551a	0.057942487
31	0xbdce572d	-0.10075221

linear_32.weight f4 [32, 32]
0	0xbe2ab1b5	-0.16669352
1	0xbe32c277	-0.17456995
2	0xbe157f17	-0.14599262
3	0xbe0ac1ef	-0.13550542
4	0xbe2e8e70	-0.17046523
5	0xbde9a98e	-0.11409293
6	0xbde867a2	-0.113478914
7	0xbdd492b4	-0.10379544
8	0xbdf322ca	-0.1187187
9	0xbe0711cf	-0.13190387
10	0xbe0aa291	-0.13538577
11	0xbe12ce8a	-0.14336601
12	0xbe02a329	-0.12757553
13	0xbde86985	-0.11348251
14	0xbe23c36e	-0.1599252
15	0xbddca9b6	-0.10774557
16	0xbe3b5e67	-0.1829773
17	0xbdec5b72	-0.11540879
18	0xbe09b88f	-0.1344931
19	0xbddf2ee0	-0.108976126
20	0xbe0496ad	-0.12948103
21	0xbde3b2cb	-0.111180864
22	0xbe0bc565	-0.13649519
23	0xbde83168	-0.113375485
24	0xbe27db17	-0.1639217
25	0xbdd6fe8c	-0.1049777
26	0xbe015b27	-0.12632428
27	0xbddfd6be	-0.10929631
28	0xbde4bb8a	-0.11168583
29	0xbdde485c	-0.10853645
30	0xbdd9072f	-0.10597073
31	0xbdeb6860	-0.11494517
32	0xbe284226	-0.16431484
33	0xbe2b4a04	-0.16727453
34	0xbdfbded2	-0.12298359
35	0xbe0b1b76	-0.13584694
36	0xbe1fe0d5	-0.1561311
37	0xbdf52efb	-0.119718514
38	0xbdcebd78	-0.10094732
39	0xbe015be8	-0.12632716
40	0xbe01f837	-0.12692343
41	0xbdafe6c3	-0.08588936
42	0xbddcecab	-0.10787328
43	0xbdf83954	-0.121203095
44	0xbe136be8	-0.14396632
45	0xbdd10966	-0.10206871
46	0xbe142131	-0.14465787
47	0xbdda78e5	-0.1066759
48	0xbe1dd2c9	-0.1541244
49	0xbdde24cd	-0.10846863
50	0xbe145a74	-0.1448763
51	0xbded3b13	-0.11583533
52	0xbdcc5b38	-0.09978336
53	0xbdeda253	-0.116032265
54	0xbdf15540	-0.11783838
55	0xbe064d00	-0.1311531
56	0xbe13b2ba	-0.14423648
57	0xbddf3bc3	-0.109000705
58	0xbdea6e88	-0.114468634
59	0xbdfb3919	-0.1226675
60	0xbdfcb443	-0.1233907
61	0xbdfc7dcc	-0.12328681
62	0xbdf4033f	-0.11914682
63	0xbdf4fb6b	-0.11962017
64	0xbe35bf7c	-0.17748827
65	0xbe31d3e9	-0.17365994
66	0xbe130437	-0.14357077
67	0xbdf4c503	-0.119516395
68	0xbe2e65f1	-0.17031075
69	0xbe136832	-0.14395216
70	0xbe021c1d	-0.12706037
71	0xbdff8ef1	-0.12478436
72	0xbe07cd32	-0.1326187
73	0xbde6b368	-0.11264688
74	0xbdfb0896	-0.12257497
75	0xbe02198c	-0.12705058
76	0xbe153fba	-0.14575091
77	0xbe0419d3	-0.12900476
78	0xbe127de6	-0.14305839
79	0xbddc1f61	-0.107481726
80	0xbe33dc02	-0.17564395
81	0xbdfff0c4	-0.12497094
82	0xbe10faf9	-0.14158238
83	0xbdfd9699	-0.1238224
84	0xbdfde076	-0.12396328
85	0xbe07b9f2	-0.13254526
86	0xbdcd8dcd	-0.10036812
87	0xbdeb6c58	-0.11495274
88	0xbe250869	-0.1611649
89	0xbdf87857	-0.12132328
90	0xbdcf185b	-0.10112067
91	0xbdee9c9b	-0.11650964
92	0xbde07a98	-0.10960883
93	0xbddebe40	-0.10876131
94	0xbdc17195	-0.09445492
95	0xbddff043	-0.10934498
96	0x3e28fcd5	0.16502698
97	0x3e3d8a74	0.18509847
98	0x3e0e88ce	0.13919374
99	0x3def5fce	0.11688195
100	0x3e1d1f2d	0.15343924
101	0x3dc37f31	0.09545744
102	0x3db780f2	0.08960141
103	0x3de1602b	0.11004671
104	0x3e023b97	0.12718044
105	0x3dd4c027	0.10388213
106	0x3dfdf8de	0.12400983
107	0x3de6980b	0.11259469
108	0x3de9a4c9	0.114083834
109	0x3de30a04	0.11085895
110	0x3e23b74b	0.1598789
111	0x3de9c145	0.11413816
112	0x3e2435ab	0.16036098
113	0x3ddd0d43	0.10793545
114	0x3e090bc0	0.13383389
115	0x3de23226	0.11044721
116	0x3de4393c	0.11143729
117	0x3ddf6aa0	0.10909009
118	0x3e019b28	0.12656844
119	0x3df3087d	0.118668534
120	0x3e22d4b2	0.1590145
121	0x3e028f27	0.12749921
122	0x3e094073	0.13403492
123	0x3ded144a	0.115761355
124	0x3ded928c	0.11600217
125	0x3dfd417b	0.12366005
126	0x3e007aa5	0.12546785
127	0x3de5e2e8	0.112249196
128	0xbe2f8b7e	-0.17143056
129	0xbe309481	-0.1724415
130	0xbe0d6043	-0.13806252
131	0xbdf52245	-0.11969427
132	0xbe26966e	-0.16268322
133	0xbdebe2a5	-0.115178384
134	0xbdd2ff53	-0.103026055
135	0xbe03afe1	-0.12860061
136	0xbdfc2dcf	-0.12313425
137	0xbdf23105	-0.11825756
138	0xbdecf313	-0.115698
139	0xbe031996	-0.12802729
140	0xbe102f7b	-0.14080612
141	0xbe006c8d	-0.12541409
142	0xbe16c9ac	-0.14725369
143	0xbdf390ce	-0.11892854
144	0xbe1b25cd	-0.15151139
145	0xbdde01b4	-0.108401686
146	0xbde7a9d2	-0.113116875
147	0xbdee5581	-0.11637402
148	0xbdf5f5c5	-0.120097674
149	0xbdfff33f	-0.124975674
150	0xbdf6869e	-0.12037395
151	0xbdcea738	-0.10090488
152	0xbe34dc93	-0.17662267
153	0xbde3caa5	-0.11122636
154	0xbdc0d216	-0.09415071
155	0xbde8743d	-0.11350296
156	0xbdccdb0f	-0.100027196
157	0xbdff8c2a	-0.12477906
158	0xbddf5da7	-0.10906535
159	0xbdfe1c4a	-0.124077395
160	0xbe328108	-0.17432034
161	0xbe3dde42	-0.18541816
162	0xbe0d9a51	-0.13828398
163	0xbe0089a2	-0.12552503
164	0xbe0fd780	-0.1404705
165	0xbddefc51	-0.10887969
166	0xbddd06ff	-0.1079235
167	0xbde781fc	-0.113040894
168	0xbe04d6cb	-0.12972562
169	0xbde10a63	-0.10988309
170	0xbdf575d5	-0.11985365
171	0xbdd5794f	-0.104235284
172	0xbe19e6c1	-0.15029432
173	0xbde533c2	-0.11191513
174	0xbe1dfc0b	-0.15428178
175	0xbdeb3d7e	-0.11486338
176	0xbe33bbf6	-0.1755217
177	0xbdeaa5a4	-0.11457375
178	0xbe147c39	-0.14500512
179	0xbde63b2d	-0.11241756
180	0xbe0826d6	-0.13296065
181	0xbde4b34b	-0.1116701
182	0xbdf95f65	-0.12176398
183	0xbdcd2879	-0.10017485
184	0xbe3e7e7a	-0.18602934
185	0xbdf84f76	-0.12124531
186	0xbe06b3c1	-0.13154508
187	0xbdcc0513	-0.09961905
188	0xbddcdae7	-0.1078394
189	0xbddee2f4	-0.108831316
190	0xbddfacd2	-0.10921635
191	0xbdf378dc	-0.118882865
192	0x3e337b04	0.17527395
193	0x3e3a7f75	0.18212683
194	0x3e046371	0.12928559
195	0x3df0c807	0.11756902
196	0x3e233778	0.15939128
197	0x3e07a6c2	0.13247207
198	0x3dda7d6b	0.10668453
199	0x3df1930c	0.11795625
200	0x3df85bbb	0.12126871
201	0x3dfabcc5	0.12243036
202	0x3e035367	0.12824784
203	0x3df5975e	0.119917616
204	0x3e1e9c94	0.15489417
205	0x3ddaa6fa	0.106763795
206	0x3e1ed38c	0.15510386
207	0x3decdc53	0.11565461
208	0x3e15c807	0.14627086
209	0x3df35aa7	0.11882525
210	0x3dec5b3a	0.115408376
211	0x3dfc902f	0.12332188
212	0x3de4bda3	0.11168983
213	0x3de4df14	0.11175361
214	0x3df26671	0.118359454
215	0x3e01e379	0.1268443
216	0x3e314fd5	0.1731561
217	0x3e0088c6	0.12552175
218	0x3deb030d	0.11475191
219	0x3e00255b	0.1251425
220	0x3de9e381	0.11420346
221	0x3de46124	0.111513406
222	0x3dc1f19f	0.09469914
223	0x3dfd8692	0.12379183
224	0x3e1275c2	0.14302734
225	0x3e3735c0	0.17891598
226	0x3e11a38c	0.14222544
227	0x3ddf8ac9	0.10915143
228	0x3e0933d7	0.13398682
229	0x3e0136f0	0.12618613
230	0x3ddeb4f7	0.1087436
231	0x3deb3cad	0.11486182
232	0x3e02e05e	0.12780902
233	0x3dfac23e	0.1224408
234	0x3dc9a69e	0.09846233
235	0x3e009ec6	0.12560567
236	0x3e193043	0.14959817
237	0x3ddecd6e	0.10879026
238	0x3e137dc2	0.14403442
239	0x3e065100	0.13116837
240	0x3e2ab702	0.16671374
241	0x3ddcaf3d	0.107756115
242	0x3e0544f9	0.13014592
243	0x3de55964	0.111986905
244	0x3df1a1d1	0.11798442
245	0x3dd21550	0.10257971
246	0x3ded1f0c	0.11578187
247	0x3dcd8c7a	0.100365594
248	0x3e177c88	0.14793599
249	0x3dfc9c6c	0.123345226
250	0x3de7a4fd	0.11310766
251	0x3dfd6165	0.12372092
252	0x3dd319c5	0.103076495
253	0x3df68624	0.12037304
254	0x3ddb4e11	0.10708249
255	0x3dc2d00b	0.09512337

linear_32.bias f4 [32]
0	0xbcef271e	-0.029193457
1	0xbcfc2be0	-0.03078264
2	0xbceb1aca	-0.028699297
3	0x3ce2c069	0.027679639
4	0xbce59799	-0.028026389
5	0xbcc32e58	-0.02382581
6	0x3ce5c4e3	0.028047984
7	0x3d027b35	0.03185578
8	0xbcf44e50	-0.029822499
9	0xbcf4a940	-0.029865861
10	0xbcf5180d	-0.029918695
11	0x3d010bcd	0.031505395
12	0xbcbaa2b7	-0.022782667
13	0xbce3ed6b	-0.02782317
14	0x3d003b72	0.03130669
15	0xbce64972	-0.028111193
16	0x3cdafbf3	0.026731467
17	0xbcc81b83	-0.024427181
18	0xbcf37872	-0.029720519
19	0xbcf968a4	-0.030445404
20	0x3cfa050d	0.030519987
21	0x3d08f30e	0.03343492
22	0x3d00c91a	0.031441785
23	0x3ce254bc	0.027628295
24	0x3c9f04c0	0.019411445
25	0xbcf5287a	-0.029926527
26	0x3cd34a13	0.025792157
27	0xbce944be	-0.028475162
28	0xbcdd7892	-0.027035031
29	0x3ce70d55	0.0282046
30	0x3cc19931	0.023632618
31	0xbca807d8	-0.020511553

rnn.weight_ih_l0 f4 [32, 32]
0	0x3dbe77bb	0.093001805
1	0x3d8ce84d	0.06880245
2	0x3dc738bb	0.09727617
3	0xbdc1dba5	-0.09465722
4	0x3dc675b2	0.09690417
5	0x3dbea857	0.09309452
6	0xbdaa337a	-0.083105996
7	0xbdbd4930	-0.09242475
8	0x3dcebdd8	0.100948036
9	0x3dc6191e	0.096727595
10	0x3da80295	0.082036175
11	0xbdb781c3	-0.08960297
12	0x3db4f314	0.08835426
13	0x3da33a58	0.079701126
14	0xbd9754eb	-0.07389244
15	0x3d903ac8	0.07042462
16	0xbdd1a2f6	-0.102361605
17	0x3db67809	0.08909614
18	0x3dbd2478	0.092354715
19	0x3dba286d	0.09089742
20	0xbda6a53d	-0.081369855
21	0xbdc56d25	-0.09639958
22	0xbdb6b75a	-0.0892169
23	0xbdb2d104	-0.08731273
24	0xbdb105c9	-0.086436816
25	0x3dc64ab0	0.09682214
26	0xbdbfeae6	-0.09370975
27	0x3da2bd01	0.07946206
28	0x3d9cdc32	0.076591864
29	0xbdc1c231	-0.09460867
30	0xbda1255d	-0.078684546
31	0x3ddd9a13	0.10820403
32	0xbdba7fbf	-0.09106397
33	0xbd9f4a85	-0.07777885
34	0xbd9dbdf1	-0.07702244
35	0x3dcc4d98	0.09975737
36	0xbdc9d880	-0.09855747
37	0xbda13252	-0.07870926
38	0x3da859ee	0.08220278
39	0x3dcb4975	0.0992612
40	0xbd8310d2	-0.063996926
41	0xbdae8f85	-0.08523468
42	0xbdd4abca	-0.10384329
43	0x3da2e7dc	0.0795438
44	0xbdabef02	-0.083951965
45	0xbdc5eee8	-0.096647084
46	0x3dba1aac	0.090871185
47	0xbdc398a9	-0.09550602
48	0x3dc25243	0.094883464
49	0xbdafd88f	-0.08586227
50	0xbdc2229f	-0.0947926
51	0xbdc156ef	-0.094404094
52	0x3d8ce8a4	0.0688031
53	0x3debbe43	0.11510899
54	0x3dc3412a	0.095339134
55	0x3dc053e2	0.093909994
56	0x3da53853	0.080673836
57	0xbdb8bbbd	-0.09020183
58	0x3d9ace6b	0.07558902
59	0xbda98666	-0.082775876
60	0xbdaa255f	-0.08307909
61	0x3dbf137c	0.09329888
62	0x3da1f388	0.07907778
63	0xbdc02084	-0.09381202
64	0x3dd45de1	0.103694685
65	0x3dff8df8	0.1247825
66	0x3db6ec2f	0.08931767
67	0xbdb50961	-0.088396795
68	0x3dbfbe18	0.093624294
69	0x3da9a9e1	0.08284355
70	0xbdcf7188	-0.10129076
71	0xbdbb4eb3	-0.0914587
72	0x3dde7e92	0.10863985
73	0x3dddbd75	0.10827152
74	0x3dcd94b6	0.1003813
75	0xbdc56be4	-0.09639719
76	0x3dc348c9	0.09535367
77	0x3dbaedce	0.09127389
78	0xbdd9efc2	-0.10641433
79	0x3dd4987e	0.10380648
80	0xbda20f07	-0.079130225
81	0x3dc3f2af	0.095677726
82	0x3d9ac043	0.07556202
83	0x3dc9e238	0.09857601
84	0xbdab9ca9	-0.0837949
85	0xbdc4b931	-0.09605635
86	0xbd88a50d	-0.06672106
87	0xbdaa8f43	-0.08328106
88	0xbda2c461	-0.079476126
89	0x3dbdf830	0.09275854
90	0xbdc7fa53	-0.097645424
91	0x3db76824	0.0895541
92	0x3db74d78	0.08950323
93	0xbdcee685	-0.10102562
94	0xbde0a6c0	-0.10969305
95	0x3ddcd092	0.10781969
96	0x3dcc518c	0.09976491
97	0x3dc749b9	0.09730858
98	0x3dcb2a16	0.09920137
99	0xbdcc9517	-0.09989374
100	0x3dffa5f4	0.12482825
101	0x3dce3a4f	0.10069715
102	0xbdc083ef	-0.09400164
103	0xbdbed8c2	-0.09318687
104	0x3de870bd	0.11349628
105	0x3dcff4df	0.10154127
106	0x3dc7b5ad	0.09751449
107	0xbdd794c1	-0.105264194
108	0x3e01c164	0.12671429
109	0x3dd89063	0.105744146
110	0xbddcac46	-0.10775046
111	0x3dce7e39	0.10082669
112	0xbdb04434	-0.08606759
113	0x3e02d937	0.12778173
114	0x3dc36afe	0.095418915
115	0x3dac2b3b	0.08406683
116	0xbdb50ace	-0.088399515
117	0xbd976c56	-0.0739371
118	0xbdd9ab81	-0.10628415
119	0xbdb18bf9	-0.08669276
120	0xbdd3db52	-0.103445664
121	0x3dca5f41	0.098814495
122	0xbddd28d2	-0.107988015
123	0x3db15c50	0.08660185
124	0x3ded10c7	0.11575466
125	0xbde08385	-0.10962585
126	0xbdce397f	-0.1006956
127	0x3dd7c6c2	0.10535957
128	0x3da236e7	0.07920628
129	0x3db1827a	0.086674646
130	0x3dcd5c65	0.100273885
131	0xbda9c6aa	-0.08289845
132	0x3daff44b	0.08591517
133	0x3dbaeec4	0.09127572
134	0xbdc09863	-0.094040655
135	0xbda9adf2	-0.082851306
136	0x3dce05c0	0.100596905
137	0x3d908d4b	0.070581995
138	0x3dd4ef87	0.10397249
139	0xbdb987a6	-0.09059076
140	0x3db1a402	0.0867386
141	0x3d74d3da	0.05977235
142	0xbdce63cd	-0.10077629
143	0x3da93189	0.08261401
144	0xbd880e8b	-0.06643399
145	0x3db5aa8a	0.08870418
146	0x3dcf32a5	0.101170816
147	0x3da06cbf	0.07833242
148	0xbdb86f89	-0.09005649
149	0xbdbc7559	-0.0920207
150	0xbdba4a72	-0.090962306
151	0xbda65a33	-0.08122673
152	0xbdc88aec	-0.09792122
153	0x3dbaf98f	0.09129631
154	0xbdcc7051	-0.0998236
155	0x3dd10223	0.10205486
156	0x3dae4d07	0.085107855
157	0xbdc396a5	-0.095502175
158	0xbdb5012d	-0.08838115
159	0x3db5459d	0.08851168
160	0xbdd84116	-0.10559289
161	0xbdad01ff	-0.08447646
162	0xbdbd22e7	-0.09235173
163	0x3db31997	0.08745115
164	0xbdafae72	-0.08578195
165	0xbdc31dd8	-0.095271766
166	0x3dad6460	0.08466411
167	0x3dbeaf09	0.09310729
168	0xbdb027d2	-0.08601345
169	0xbda4e126	-0.08050756
170	0xbdd0ef60	-0.10201907
171	0x3d915af9	0.0709743
172	0xbdbbfe9d	-0.09179423
173	0xbdaa90b4	-0.08328381
174	0x3db97382	0.090552345
175	0xbddd2aad	-0.107991554
176	0x3dc6d5ce	0.09708749
177	0xbda5e5de	-0.08100484
178	0xbdc36c39	-0.09542126
179	0xbd9af741	-0.07566691
180	0x3dc579ff	0.096424095
181	0x3d9313e6	0.0718153
182	0x3db3ed28	0.08785468
183	0x3dc9fe15	0.098629154
184	0x3dd2dd76	0.102961466
185	0xbdae0399	-0.0849678
186	0x3db23309	0.087011404
187	0xbda931b4	-0.08261433
188	0xbdce4abe	-0.1007285
189	0x3da28ade	0.07936643
190	0x3dbdb0a2	0.09262206
191	0xbdd407df	-0.10353064
192	0x3da7b69d	0.081891276
193	0x3d9d3a88	0.076771796
194	0x3dbac6f2	0.09119977
195	0xbdb84437	-0.08997386
196	0x3dbfa183	0.09356978
197	0x3dc32f32	0.09530486
198	0xbdb93ecd	-0.090451814
199	0xbdaeb17e	-0.08529948
200	0x3d8e9ed1	0.069638856
201	0x3dad1db0	0.08452928
202	0x3dc27ef0	0.09496868
203	0xbdbf3d91	-0.09337915
204	0x3d8c601f	0.06854271
205	0x3da239a9	0.07921154
206	0xbdb4d9ef	-0.0883063
207	0x3db1f9af	0.086902015
208	0xbd858b0a	-0.0652066
209	0x3dcf09c2	0.10109283
210	0x3db0b65b	0.086285315
211	0x3dc3443d	0.095345
212	0xbdb516a9	-0.08842213
213	0xbdab5f0d	-0.08367739
214	0xbdbbd9b1	-0.09172381
215	0xbdb7d7fa	-0.08976741
216	0xbda2c820	-0.07948327
217	0x3db5c2ac	0.08875021
218	0xbdb94e15	-0.09048096
219	0x3d9ec556	0.077524826
220	0x3dce81c9	0.10083348
221	0xbdb04e32	-0.086086646
222	0xbdc24813	-0.09486403
223	0x3dbdbc12	0.09264387
224	0xbda4226a	-0.080143765
225	0xbdd52b2d	-0.10408626
226	0xbdcdbfa8	-0.10046321
227	0x3dad4aca	0.084615305
228	0xbdc3c407	-0.095588736
229	0xbdcb0413	-0.099128865
230	0x3d807bdf	0.062736265
231	0x3dcbe2ea	0.0995539
232	0xbd9384d1	-0.07203067
233	0xbdc325e3	-0.09528711
234	0xbdbbe6bd	-0.09174869
235	0x3da830ae	0.0821241
236	0xbd9dd668	-0.0770691
237	0xbddc9cd7	-0.10772102
238	0x3d837da9	0.06420452
239	0xbd9fe50d	-0.0780736
240	0x3d9f2732	0.07771148
241	0xbdbc9bb1	-0.09209383
242	0xbda34b6e	-0.079733714
243	0xbdd1cd9a	-0.102442935
244	0x3dbd999b	0.092578135
245	0x3d97c7db	0.07411166
246	0x3dbb4881	0.091446884
247	0x3db655bb	0.089030705
248	0x3dd4eb31	0.10396422
249	0xbdbf7388	-0.09348208
250	0x3dad7f6c	0.084715694
251	0xbdba66d2	-0.09101643
252	0xbdb8b276	-0.09018414
253	0x3db4dc2c	0.08831057
254	0x3dc54d07	0.096338324
255	0xbd9cf1b2	-0.07663287

rnn.weight_hh_l0 f4 [32, 32]
0	0x3d15612f	0.036469635
1	0xbd87a638	-0.066235006
2	0x3d4298f4	0.04750915
3	0x3d298427	0.041385796
4	0x3d125a38	0.03573057
5	0xbd36eaba	-0.044657446
6	0x3d0706d0	0.03296548
7	0xbd20805c	-0.039184913
8	0xbd181430	-0.037128627
9	0x3d2f95dd	0.04286753
10	0xbd1cb30a	-0.038256682
11	0xbd2ea253	-0.042635273
12	0x3d84c8b6	0.06483595
13	0xbcd5ad32	-0.026083563
14	0xbd46b9d3	-0.04851706
15	0xbd35df3a	-0.04440234
16	0xbcc51967	-0.024059964
17	0x3d448de0	0.047986865
18	0xbd48cec4	-0.049025312
19	0x3d58c9e5	0.052926917
20	0xbd08bcfb	-0.03338335
21	0x3cfee93f	0.03111708
22	0xbd15b4f1	-0.036549512
23	0xbcee028e	-0.029053953
24	0x3d36309d	0.044479955
25	0xbcaf5607	-0.021403326
26	0xbd490380	-0.049075603
27	0xbd5cbe02	-0.053892143
28	0xbd04990b	-0.032372516
29	0x3d63d5b1	0.055623714
30	0xbd1810f9	-0.03712556
31	0x3d2f0469	0.042728815
32	0xbd0326fe	-0.032019608
33	0x3d381721	0.044943932
34	0xbd17fabd	-0.037104357
35	0xbd35cf67	-0.044387247
36	0xbd0a3825	-0.03374495
37	0x3d2b942f	0.041889366
38	0xbd123625	-0.035696167
39	0x3d21fe5e	0.039549224
40	0x3d26732a	0.040637173
41	0xbd5c9a7f	-0.053858276
42	0x3d5c9839	0.05385611
43	0x3d5b710b	0.053574603
44	0xbd73d9e6	-0.059533976
45	0x3d0a1a96	0.03371676
46	0x3d3d1fa1	0.04617274
47	0x3cc92ca0	0.024557412
48	0x3d4cef15	0.050032694
49	0xbd6efe19	-0.058347795
50	0x3d831e78	0.06402296
51	0xbd53437f	-0.05157804
52	0x3d6abf02	0.057311065
53	0xbd0c970c	-0.034323737
54	0x3d4df19c	0.050279245
55	0x3d569711	0.052390162
56	0xbd41d737	-0.047324385
57	0x3d350315	0.044192392
58	0x3d23222f	0.039827522
59	0x3d4d531a	0.05012808
60	0x3d3e2671	0.04642338
61	0xbcac3e60	-0.021025836
62	0x3d5960fd	0.05307101
63	0xbca4649d	-0.020067507
64	0x3c82547b	0.015909424
65	0xbcb05438	-0.021524534
66	0x3ab70f20	0.00139663
67	0x3c8f8e56	0.017523926
68	0x3cb6258a	0.022234697
69	0xbcc82481	-0.024431469
70	0x3caff202	0.021477703
71	0xbc30e148	-0.010795899
72	0xbcc70fee	-0.024299588
73	0x3c0c9a02	0.00858164
74	0xbbe20c8b	-0.006898468
75	0xbcc72382	-0.024308924
76	0x3cb9d69a	0.022685338
77	0xbccd6397	-0.025071902
78	0xbbc74b10	-0.006081946
79	0xbc9fb9f1	-0.019497843
80	0xbca821ab	-0.020523867
81	0x3cabf369	0.02099009
82	0xbcb586e1	-0.022159042
83	0x3c960816	0.018314403
84	0xbbaa4cb9	-0.0051971343
85	0x3afcd2c1	0.0019288884
86	0xbc2d046f	-0.010560139
87	0xbc765c5f	-0.015036671
88	0x3b9c2273	0.004764849
89	0xbc9d63a4	-0.019212551
90	0xbcdd5005	-0.027015695
91	0xbb440d5c	-0.002991519
92	0xbc981469	-0.01856442
93	0x3cce3e50	0.025176197
94	0xbc830584	-0.015993841
95	0x3c87187c	0.016491167
96	0x3c5a7571	0.013333664
97	0x3b84ff84	0.00405878
98	0xbc0e6fdd	-0.0086936625
99	0x3c370df4	0.01117276
100	0x3cd9ee99	0.02660303
101	0xbc605a35	-0.013693382
102	0xbb633fe9	-0.0034675545
103	0xbc55fdbe	-0.013060985
104	0xbc296a5d	-0.0103403
105	0x3cb3a343	0.021928435
106	0x3b6cecb4	0.0036151828
107	0xbc33aea7	-0.010966933
108	0x3c1e64ed	0.009667617
109	0xbb8d5d21	-0.0043140803
110	0xbba368c5	-0.0049868547
111	0x3c0df7d5	0.008665045
112	0x39909c11	0.000275821
113	0x3c92182f	0.017833797
114	0xbb8486dd	-0.0040443973
115	0x3bafb405	0.005362036
116	0x3c48acfe	0.012248276
117	0x3c39e4ad	0.011346024
118	0x3c523cf8	0.012831919
119	0xbb2d3c24	-0.0026433552
120	0x3bc56116	0.0060235364
121	0xbc874a0e	-0.016514804
122	0x3a8b1671	0.0010611546
123	0xbc7600db	-0.015014852
124	0xbb993f70	-0.004676752
125	0xbc3af73d	-0.011411485
126	0xbad9d123	-0.0016618114
127	0x3934d70b	0.00017246247
128	0x3d37c0fc	0.04486178
129	0xbd2d0cf2	-0.042248674
130	0x3d1324af	0.035923656
131	0x3cb1eb29	0.021718578
132	0x3d4491b3	0.047990512
133	0xbd30963b	-0.04311202
134	0x3cab6bc4	0.02092541
135	0xbd7a6cb9	-0.061138842
136	0xbd373829	-0.044731293
137	0x3d30d441	0.04317117
138	0xbcda4386	-0.026643526
139	0xbd2595fb	-0.040426236
140	0x3d086a0c	0.03330426
141	0xbd2cb14c	-0.04216127
142	0xbd3a975b	-0.0455545
143	0xbd38ce52	-0.045118637
144	0xbd417ed2	-0.047240086
145	0x3d2f411c	0.042786703
146	0xbd0ee506	-0.034886383
147	0x3d465611	0.048421923
148	0xbd29fe85	-0.041502494
149	0x3d4b1867	0.04958382
150	0xbd8603a7	-0.065436654
151	0xbcd5749f	-0.026056586
152	0x3cd6557e	0.026163813
153	0xbd12589b	-0.035729032
154	0xbd27df47	-0.04098442
155	0xbd05452b	-0.032536667
156	0xbd0e81f3	-0.034791898
157	0x3ce20dbb	0.027594438
158	0xbd46c854	-0.04853089
159	0x3d347e21	0.0440656
160	0xbd374e11	-0.044752184
161	0x3d0d4e24	0.03449835
162	0xbd3a61ce	-0.04550343
163	0xbd2480c5	-0.040161867
164	0xbcceb05d	-0.025230581
165	0x3d0847ae	0.033271484
166	0xbcb62cd1	-0.022238167
167	0x3d205212	0.03914077
168	0x3d37c9b9	0.044870112
169	0xbd156adf	-0.036478873
170	0x3cec645c	0.028856449
171	0x3d2243d7	0.03961548
172	0xbcd03147	-0.025414122
173	0x3cc33ef1	0.023833724
174	0x3d27cf81	0.040969376
175	0x3d194826	0.03742232
176	0x3d55bdb9	0.052182887
177	0xbce5266c	-0.027972423
178	0x3cf6d2f6	0.03012989
179	0xbcf2692a	-0.029591162
180	0x3d2bca0d	0.041940738
181	0xbcd03a94	-0.025418557
182	0x3ca8eb7d	0.020620102
183	0x3d1dc6ed	0.03851979
184	0xbcc50384	-0.024049528
185	0x3cca1e65	0.024672696
186	0x3d23351b	0.039845567
187	0x3d219ae1	0.039454345
188	0x3c81042b	0.015749058
189	0xbd1054e0	-0.035237193
190	0x3d0208b5	0.031746585
191	0xbd256c89	-0.04038671
192	0x3d6c6eee	0.05772298
193	0xbd310295	-0.043215353
194	0x3d267de9	0.04064742
195	0x3d2f8ced	0.042859007
196	0x3d58d5ca	0.05293826
197	0xbd74ffbb	-0.059814196
198	0x3d5ca6ee	0.053870134
199	0xbd25ab73	-0.04044671
200	0xbd7a3c83	-0.061092865
201	0x3d8aaf92	0.06771769
202	0xbd4d0d9b	-0.050061803
203	0xbd26e602	-0.040746696
204	0x3d686273	0.056734513
205	0xbd0b3d26	-0.033993863
206	0xbd2512ea	-0.04030124
207	0xbd484b5d	-0.048899997
208	0xbd7dc141	-0.06195188
209	0x3d172dd5	0.036908943
210	0xbd657904	-0.056023613
211	0x3d328d36	0.0435917
212	0xbd8138eb	-0.06309684
213	0x3d4ef389	0.050525222
214	0xbd743850	-0.059624016
215	0xbd7f0d34	-0.06226845
216	0x3d395a53	0.045252156
217	0xbd4563c1	-0.048190836
218	0xbd5d1769	-0.053977404
219	0xbd0fe9ae	-0.035134964
220	0xbd13dc2d	-0.036098648
221	0x3d269035	0.04066487
222	0xbd100827	-0.035164025
223	0x3d262757	0.04056486
224	0xbd515e55	-0.051115353
225	0x3d14ec95	0.036358435
226	0xbcc40927	-0.023930145
227	0xbd633a40	-0.055475473
228	0xbd6bc5a9	-0.05756155
229	0x3d7bb179	0.061448548
230	0xbd6e93a1	-0.05824626
231	0x3d51c9e6	0.051217936
232	0x3d51d44f	0.051227864
233	0xbd700693	-0.05860002
234	0x3d3ae222	0.045625813
235	0x3d7abccd	0.06121521
236	0xbd4dc75c	-0.050238952
237	0x3d51ccea	0.051220812
238	0x3d3aae4e	0.045576386
239	0x3d52dfc0	0.051482916
240	0x3d119076	0.03553816
241	0xbd4cf77f	-0.05004072
242	0x3d4dd735	0.050254066
243	0xbd5c51db	-0.053789
244	0x3d25ec90	0.040508807
245	0xbd664540	-0.056218386
246	0x3d0ba652	0.034094162
247	0x3cc7b90d	0.024380231
248	0xbcf28b3d	-0.02960741
249	0x3d467a7f	0.048456665
250	0x3d715512	0.05891902
251	0x3d488a95	0.048960287
252	0x3d348db7	0.044080462
253	0xbd5fac8b	-0.05460791
254	0x3d00da18	0.03145799
255	0xbd23e766	-0.0400156

rnn.bias_ih_l0 f4 [32]
0	0xbd53f0cf	-0.051743325
1	0x3d57f93b	0.05272792
2	0xbd2b6224	-0.04184164
3	0xbd2859c5	-0.041101236
4	0xbd53a8da	-0.0516747
5	0x3d4c3dfd	0.049863804
6	0xbd5c0014	-0.053711012
7	0x3d574a33	0.052560996
8	0x3d4f1613	0.05055816
9	0xbd589696	-0.052877985
10	0x3d507fff	0.050903317
11	0x3d52ff59	0.05151305
12	0xbd4e321e	-0.050340764
13	0x3d3df86f	0.046379503
14	0x3d43b260	0.047777534
15	0x3d47c8e8	0.048775584
16	0x3d547481	0.05186892
17	0xbd535edc	-0.051604137
18	0x3d513430	0.05107516
19	0xbd4cc54e	-0.049992852
20	0x3d55ca31	0.052194778
21	0xbd5002b1	-0.050783817
22	0x3d479348	0.048724443
23	0x3d38c3bf	0.045108553
24	0xbd468483	-0.048466217
25	0x3d48db4f	0.049037274
26	0x3d598195	0.053102095
27	0x3d4c948a	0.049946345
28	0x3d36654b	0.044530194
29	0xbd548858	-0.05188784
30	0x3d46d6db	0.048544746
31	0xbd4b81bb	-0.049684267

rnn.bias_hh_l0 f4 [32]
0	0xbd53f0cf	-0.051743325
1	0x3d57f93b	0.05272792
2	0xbd2b6224	-0.04184164
3	0xbd2859c5	-0.041101236
4	0xbd53a8da	-0.0516747
5	0x3d4c3dfd	0.049863804
6	0xbd5c0014	-0.053711012
7	0x3d574a33	0.052560996
8	0x3d4f1613	0.05055816
9	0xbd589696	-0.052877985
10	0x3d507fff	0.050903317
11	0x3d52ff59	0.05151305
12	0xbd4e321e	-0.050340764
13	0x3d3df86f	0.046379503
14	0x3d43b260	0.047777534
15	0x3d47c8e8	0.048775584
16	0x3d547481	0.05186892
17	0xbd535edc	-0.051604137
18	0x3d513430	0.05107516
19	0xbd4cc54e	-0.049992852
20	0x3d55ca31	0.052194778
21	0xbd5002b1	-0.050783817
22	0x3d479348	0.048724443
23	0x3d38c3bf	0.045108553
24	0xbd468483	-0.048466217
25	0x3d48db4f	0.049037274
26	0x3d598195	0.053102095
27	0x3d4c948a	0.049946345
28	0x3d36654b	0.044530194
29	0xbd548858	-0.05188784
30	0x3d46d6db	0.048544746
31	0xbd4b81bb	-0.049684267

linear_out.weight f4 [6, 32]
0	0xbaead598	-0.0017916439
1	0xba395e96	-0.00070712843
2	0xb7f0d5a2	-2.870971e-05
3	0x3b179b28	0.0023133252
4	0xba2c4a3d	-0.00065723417
5	0x3b1760f4	0.002309856
6	0xba21593c	-0.00061549596
7	0xb9684a14	-0.0002215284
8	0xbac2c324	-0.0014859182
9	0xb9edf1a1	-0.0004538419
10	0xbb24dfe0	-0.0025157854
11	0x3a3846d8	0.00070295995
12	0xba1b1fb7	-0.00059175066
13	0xba5a1409	-0.00083190255
14	0xbb37b45e	-0.0028031091
15	0x38f21f80	0.000115453266
16	0xb91a18f6	-0.00014695883
17	0xb88d06a4	-6.724641e-05
18	0xbaaed251	-0.0013337826
19	0xb9186baa	-0.00014535958
20	0xba6339ef	-0.00086679956
21	0x3a98c5a8	0.0011655586
22	0x3ab30bbc	0.0013660113
23	0xbab8e3a7	-0.0014105932
24	0x3ab11ff6	0.0013513553
25	0x39cc02a6	0.00038911885
26	0xb9f74217	-0.00047160752
27	0xb990b9b1	-0.0002760417
28	0x3930d670	0.00016864552
29	0x388d828a	6.747719e-05
30	0x3a3627d6	0.0006948685
31	0x3a3a46ce	0.00071058876
32	0xbf080b4c	-0.5314224
33	0x3f066b37	0.52507347
34	0xbf04e6fd	-0.5191496
35	0xbf079b29	-0.5297113
36	0xbf065d21	-0.52485853
37	0x3f07f662	0.53110325
38	0xbf052c0a	-0.52020323
39	0x3f07fd96	0.53121316
40	0x3f063972	0.52431405
41	0xbf047ef3	-0.5175621
42	0x3f0677b5	0.5252641
43	0x3f05968c	0.5218284
44	0xbf07a0cd	-0.5297974
45	0x3f04f4e0	0.5193615
46	0x3f057197	0.5212645
47	0x3f0697a3	0.5257513
48	0x3f07857b	0.5293805
49	0xbf0520e5	-0.5200332
50	0x3f083590	0.5320673
51	0xbf0628eb	-0.52406186
52	0x3f049ee7	0.51804966
53	0xbf0498e6	-0.51795805
54	0x3f071dd5	0.52779895
55	0x3f04b658	0.51840734
56	0xbf055cad	-0.52094537
57	0x3f05fd2e	0.52339447
58	0x3f08a847	0.5338177
59	0x3f074a8d	0.5284813
60	0x3f0506ca	0.51963484
61	0xbf04a576	-0.51814973
62	0x3f06c7dd	0.5264872
63	0xbf05336c	-0.5203159
64	0x3b80cccc	0.0039306637
65	0x3b9d116f	0.004793338
66	0xbbfaef79	-0.007657942
67	0xbb55d9b2	-0.0032630977
68	0xba7d1b72	-0.0009655274
69	0xba56e2af	-0.00081972306
70	0x3b1e1025	0.002411851
71	0xbaedf8f4	-0.0018155859
72	0x3b59ac31	0.0033214206
73	0x3bcde63b	0.006283549
74	0xbba8ed75	-0.00515526
75	0x39b9d040	0.00035441108
76	0xba9c1db9	-0.0011910714
77	0xbad31135	-0.001610315
78	0xbb76d99a	-0.0037666322
79	0xbb343eba	-0.0027503208
80	0xbaf46a11	-0.0018647333
81	0x3a933e14	0.0011233711
82	0xbbef23dc	-0.007297976
83	0x3c2a99cd	0.0104126455
84	0x3b109e0f	0.0022066867
85	0x3b523f02	0.0032081013
86	0xb96b88d9	-0.00022462326
87	0xba2c7c32	-0.0006579786
88	0xba8a0649	-0.0010530438
89	0xbc211c8b	-0.009833465
90	0x3bbcf901	0.0057669883
91	0xbbb0bebb	-0.0053938306
92	0xb9fdbda9	-0.00048397228
93	0xbb34829f	-0.0027543677
94	0x3aedd043	0.0018143732
95	0x3c02df7e	0.007987855
96	0xbc19c859	-0.0093861455
97	0x3b205454	0.0024464326
98	0xbbb52041	-0.0055275266
99	0x3a42576b	0.0007413539
100	0xbc101a98	-0.008795403
101	0x3c2d2487	0.010567791
102	0xbbbda271	-0.005787187
103	0x3a8d1438	0.0010763472
104	0x3b1be9d1	0.0023790488
105	0xbb435511	-0.0029805342
106	0xbb21e899	-0.002470529
107	0x3b5481c5	0.0032425981
108	0xbb632915	-0.0034661938
109	0x3a369c86	0.0006966073
110	0xba6d6796	-0.0009056268
111	0x3bdbc946	0.0067073433
112	0x3a98821e	0.0011635458
113	0xbbf41023	-0.0074482127
114	0xba4990aa	-0.0007689098
115	0xbb323854	-0.0027194219
116	0x3b5fad11	0.0034130255
117	0x3a9aba0f	0.0011804717
118	0x3c29a378	0.010353915
119	0x3a8a7bbf	0.0010565444
120	0x3b03736f	0.0020057817
121	0x3b8cdefc	0.0042990427
122	0xbb59be1e	-0.003322489
123	0x3b85deae	0.0040853834
124	0x3b317449	0.0027077368
125	0xbbf48728	-0.007462401
126	0x3b2d4f8f	0.0026445126
127	0xbbbff2b8	-0.0058577918
128	0xbba1b71a	-0.0049351575
129	0xbaf05f84	-0.0018339013
130	0xbb298c3b	-0.0025870937
131	0x3ae4e028	0.0017461823
132	0xbb813968	-0.003943611
133	0x3c04b994	0.008100886
134	0xb9b3effa	-0.00034320337
135	0x3b837629	0.0040118885
136	0xbba17410	-0.004927166
137	0x39e4582f	0.0004355325
138	0xbbf03727	-0.0073307934
139	0xba3fcb39	-0.00073163543
140	0xba9bf01e	-0.0011897122
141	0xbb5eb1da	-0.003398052
142	0xbb0b53aa	-0.0021259584
143	0x3a8d8bbb	0.0010799089
144	0x3a709051	0.0009176778
145	0xbbc7553b	-0.0060831583
146	0xbb8bc2e2	-0.004265175
147	0x3a710c14	0.000919522
148	0xb9ddac38	-0.00042280718
149	0x3b1ba471	0.0023749138
150	0x3b51948d	0.0031979412
151	0xbb717a65	-0.0036846634
152	0x3bb5a8f7	0.005543824
153	0xbad4e5ac	-0.0016242764
154	0xbbdea266	-0.0067942617
155	0x3b6e2cdf	0.0036342663
156	0x3a46eb74	0.0007588186
157	0x3abe3085	0.001451031
158	0xba00f4fe	-0.0004919319
159	0x3acd1ed4	0.0015649446
160	0xba6ead12	-0.0009104769
161	0xb9fbcb9f	-0.0004802616
162	0xb9a7f989	-0.0003203864
163	0x3ac55466	0.001505506
164	0xb9a9ab42	-0.0003236179
165	0x3a95471f	0.0011388994
166	0xb88f12ed	-6.8222966e-05
167	0xb890ff77	-6.914039e-05
168	0xba2bb22e	-0.0006549683
169	0xb98dba41	-0.00027032386
170	0xbae3b106	-0.0017371483
171	0x3a26267b	0.00063381315
172	0xba6538e2	-0.0008744133
173	0xba076955	-0.0005165537
174	0xba914e36	-0.0011085931
175	0x381c92a8	3.7329883e-05
176	0x3958a2a2	0.0002065995
177	0x3910e438	0.00013817928
178	0xba0d894f	-0.0005399184
179	0x38ebc2e1	0.00011241972
180	0xb99525d2	-0.00028447673
181	0x3957520b	0.00020534561
182	0x3a3653dc	0.0006955245
183	0xba54ca2c	-0.0008117284
184	0x3a6d6966	0.0009056538
185	0x39b87e5e	0.00035189366
186	0x38a180fb	7.701103e-05
187	0xb94b60a7	-0.00019395594
188	0x3a008dcb	0.00049039413
189	0xb965e40a	-0.00021924093
190	0x39a5a387	0.0003159309
191	0x3a80017d	0.0009766069

linear_out.bias f4 [6]
0	0x3c1b81e3	0.009491417
1	0x3ee28378	0.44240928
2	0x3bc8893e	0.006119876
3	0x3cdd27b9	0.02699648
4	0x3ca4e65d	0.020129377
5	0x3bd5f5ec	0.0065295603

batch_norm_layer.weight f4 [32]
0	0xbe379c31	-0.17930676
1	0xbe332f58	-0.17498529
2	0xbe15e3fb	-0.14637749
3	0x3e020211	0.12696101
4	0xbe3a9cc6	-0.18223867
5	0x3e01bb32	0.12669066
6	0xbe082014	-0.13293487
7	0xbe03860e	-0.12844107
8	0xbe1a20b2	-0.15051535
9	0x3df41bfa	0.119193986
10	0x3dfe2c71	0.1241082
11	0xbde3a82b	-0.1111606
12	0xbe2e3059	-0.1701063
13	0xbe03dd75	-0.12877448
14	0xbe42456e	-0.18971798
15	0x3e05cd5c	0.1306662
16	0xbe3d7b7f	-0.18504141
17	0xbe0187da	-0.1264948
18	0xbe0b11da	-0.13581029
19	0xbdfe53ad	-0.12418304
20	0xbe007f0e	-0.12548468
21	0xbe024b9c	-0.12724155
22	0xbe1cbe1f	-0.153069
23	0x3e02229a	0.12708512
24	0x3e315124	0.17316109
25	0xbe0160a0	-0.12634516
26	0x3e0396e1	0.12850524
27	0x3e030634	0.12795335
28	0x3e0732d6	0.13202986
29	0x3de0fe36	0.10985987
30	0x3e0cc763	0.13747935
31	0xbe01fe6b	-0.12694709

batch_norm_layer.bias f4 [32]
0	0x3e0ada01	0.13559724
1	0x3e0fde14	0.1404956
2	0x3deb734c	0.114966005
3	0x3de35654	0.1110045
4	0x3e08624f	0.13318752
5	0x3dea82f7	0.11450761
6	0x3de815b2	0.11332263
7	0x3de2fc4d	0.11083279
8	0x3deb9027	0.11502104
9	0x3deeb1fd	0.11655042
10	0x3de2c74c	0.11073169
11	0x3e001426	0.12507686
12	0x3e0150bc	0.12628454
13	0x3de3e79e	0.11128162
14	0x3e024868	0.12722933
15	0x3de26f64	0.11056402
16	0x3e0e7dd2	0.13915184
17	0x3de732fd	0.11289022
18	0x3ded37ec	0.11582932
19	0x3de325b8	0.11091179
20	0x3de23ed8	0.11047143
21	0x3de07ab3	0.10960903
22	0x3df1eb41	0.11812449
23	0x3de5d253	0.11221757
24	0x3e05d444	0.13069254
25	0x3df157e2	0.117843404
26	0x3de128af	0.10994088
27	0x3de1dca7	0.11028414
28	0x3de9ce49	0.11416299
29	0x3e045a67	0.12925111
30	0x3de944a4	0.11390045
31	0x3de2872b	0.110609375
