VehicalStateperML_RNN_epochs_3_BS:64.pth (torch, 18933 bytes, 12 tensors)

linear_in.weight f4 [32, 6]
000000 60 e3 a7 bc fa 37 eb bc 93 1a eb bb 52 c1 58 3d
       -0.020494163 -0.028713215 -0.0071747988 0.05291874
000010 a3 9f 9e bd 56 ca a2 bd 3a c7 6c 3c fc 7e 11 bd
       -0.07745292 -0.07948749 0.014451796 -0.035521492
000020 08 b7 88 bd 2c 8c 97 bd c5 72 2d 3d 01 0f 96 3c
       -0.066755354 -0.073997825 0.04234578 0.018317701
000030 ee f0 b3 3b 06 20 29 3d af 50 d7 bd 46 71 9f bc
       0.0054913675 0.041290306 -0.10513436 -0.019463193
000040 22 15 dc 3b b9 62 c6 3c 0f df 5b bc 4e f5 36 bd
       0.0067163864 0.024216997 -0.0134198805 -0.044667535
000050 51 d8 3a 3c fd da fe 3a d7 d3 94 bd 32 7b 8f bd
       0.011404113 0.0019443926 -0.07266968 -0.070059195
000060 86 c3 cf bc 07 41 a5 3d 64 a0 26 bd b1 40 96 bb
       -0.025361788 0.080690436 -0.040680304 -0.0045853485
000070 c5 e6 d4 3c 9e 6a 1f 3d 75 a3 5f bb 14 8c 42 bd
       0.025988946 0.038920037 -0.0034124528 -0.04749687
000080 e6 25 70 3d da 8a 82 bd 1d 94 2a bd 6f 9f 38 bd
       0.058629893 -0.0637414 -0.041645158 -0.045073923
000090 cd e5 d8 3c 1e 7c ef bc b7 9d 8b 3c c5 8f a5 3d
       0.026476765 -0.029233988 0.017042978 0.080840625
0000a0 bc 89 f4 bc 7d 94 4e bd d3 fa bf bc ce e4 46 3d
       -0.029850833 -0.05043458 -0.023435032 0.04855805
0000b0 c1 90 cc bc 38 06 5c 3d f7 55 34 3d 5f 9b aa 3c
       -0.024971368 0.05371687 0.044027295 0.02082604
0000c0 9d fe d9 bc 7f 9e ef 3c 94 e0 62 bc 4f 72 ed bd
       -0.026610667 0.029250382 -0.013847489 -0.11594068
0000d0 89 6b 95 3d 01 c8 89 3d 6f 6a 28 3c c1 33 10 bd
       0.07295901 0.06727601 0.010279282 -0.035205606
0000e0 f2 1a ac 3d 4c a9 70 bd 35 f1 33 3d ce c6 0f 3d
       0.08403577 -0.058755204 0.043931205 0.035101704
0000f0 9f 97 d2 bc 11 ef 0f 3d 80 3e ba 3d e3 20 c4 3c
       -0.025707064 0.0351401 0.09093952 0.023941463
000100 96 09 c4 bc e0 af 0f bd 0b 7e 7e 3c f7 46 f9 bc
       -0.023930352 -0.035079837 0.015532981 -0.030429346
000110 99 2d 8c bd 48 a8 8e 3d b7 9c 83 bc d0 7b 08 bd
       -0.068446346 0.06965691 -0.016065938 -0.0333212
000120 1a 02 70 bc 0e 6d e4 3c 5e 35 13 3b ed 40 b4 bd
       -0.014648939 0.027884033 0.002246223 -0.08801446
000130 f2 db a2 3d 8c e8 c5 3d a4 bd 94 3b 94 8b 48 3d
       0.079521075 0.096634954 0.0045392085 0.048961237
000140 96 fc 3d ba dd e5 dc 3b 13 24 19 3d 66 b3 83 3d
       -0.0007247416 0.006741269 0.03738792 0.06430702
000150 03 d2 85 bc 00 95 70 3d a8 d7 51 bd 3b 3a 1f 3d
       -0.016335493 0.058735847 -0.051231056 0.038873892
000160 ea ef a6 bb 0e c5 0c bc 8d 1d 22 bc b6 72 c1 3c
       -0.005094518 -0.008591903 -0.009894741 0.023614269
000170 5b f1 b0 3d 26 f6 ec 3d 70 cf 89 bd c9 e4 6c bd
       0.08639785 0.115703866 -0.06729019 -0.057835374
000180 a8 c3 e6 bc 69 89 48 3d cd ef 91 bd 19 cb 69 3d
       -0.028169468 0.04895917 -0.071258165 0.057078455
000190 92 3b 9c bc 9e 09 a2 bc 4a 83 ae bb 5a 88 2a bd
       -0.019071374 -0.019779976 -0.0053257095 -0.04163394
0001a0 a0 23 04 bc e8 a2 92 3d 61 76 66 bd 2d 90 27 bd
       -0.008065134 0.07159978 -0.05626524 -0.04090898
0001b0 a2 5d 88 3b e1 b5 3f bd 06 f8 08 3d 3a 4e 8c bd
       0.0041615525 -0.046804313 0.03343966 -0.06850858
0001c0 0c 2e cb bc 52 54 6a bd 35 25 12 3d c5 b4 bc bc
       -0.02480223 -0.05720932 0.035680015 -0.023035416
0001d0 e4 57 55 bd c3 f9 b1 3d 2f b1 1c bd 88 3a 42 bd
       -0.052085772 0.086902164 -0.038254913 -0.0474191
0001e0 fc b4 12 3d 28 01 cb 3c 0c ff 05 be 74 fc d2 3b
       0.03581713 0.024780825 -0.13085574 0.006438786
0001f0 58 66 ac bc d9 a9 b7 bb c7 67 97 3b 96 85 57 bd
       -0.021044895 -0.005604964 0.0046205255 -0.05261763
000200 d4 cb a3 3c 16 ba 4d bd cd 23 fc bc 95 b3 f5 bc
       0.019994654 -0.050226294 -0.03077879 -0.029992858
000210 ab b7 08 bd d3 be 69 3d 74 7e 85 3d 2d 94 fe 3b
       -0.033378284 0.05706675 0.0651826 0.007769129
000220 1a 2d 99 3d 12 72 9a 3d 8e 90 8b 3c d4 e9 57 bd
       0.074793056 0.075412884 0.017036702 -0.05271323
000230 55 d8 6f 3c 69 f7 16 bd f3 64 be bc 55 2a 75 bc
       0.01463898 -0.036857042 -0.023241496 -0.014963706
000240 c4 da 73 3c 3f 87 1f bd 4b 31 c1 3d 08 7c 1a 3d
       0.014883701 -0.03894734 0.0943323 0.03771594
000250 50 0b e1 bc 40 d3 2e bc dc f3 1a 3c 51 2d c9 bc
       -0.027471215 -0.010670483 0.009457555 -0.024557741
000260 db 7c 6d bd 03 c1 9e bd 2c 49 43 3d e2 0d 45 3c
       -0.0579804 -0.07751658 0.047677204 0.012027236
000270 d1 87 7c 3d 05 1e 81 bd 13 d6 26 3d ae 14 f8 3c
       0.061652962 -0.06304554 0.0407315 0.030283298
000280 6c 5c bc bd ae 2e e9 bd f2 23 20 3c b7 4c 46 3d
       -0.091973156 -0.113858566 0.009774195 0.048413005
000290 c8 d3 e5 3a dd 1a 82 bd e7 eb 92 3d 51 4d 9c 3d
       0.0017534429 -0.0635278 0.07173901 0.076319344
0002a0 e8 9a 9e 3c c7 71 1b 3d e9 d6 ae bb f7 d0 99 bc
       0.019360974 0.037950303 -0.005335678 -0.0187764
0002b0 43 65 b2 3d 7c e3 ae 3d 5a 9a 7f 3d 3a b6 de bc
       0.087107204 0.08539483 0.06240306 -0.027186502
0002c0 6e e3 1c bd 98 f1 b3 3d a8 b1 30 bd d8 aa 19 bd
       -0.03830283 0.08786315 -0.043138176 -0.037516445
0002d0 90 2b 8b 3d 16 91 e0 bd 08 e3 7f bd b8 86 96 bb
       0.06795418 -0.10965173 -0.062472373 -0.0045936964
0002e0 0f b1 7e 3c df 41 7d 3c 5d 0a 44 bb e7 2b 60 3d
       0.015545144 0.015457599 -0.0029913404 0.05472937
0002f0 1c 1d b0 bc 93 51 82 3d 80 18 9b bb e9 83 35 3b
       -0.021498255 0.06363215 -0.0047331452 0.0027697033

linear_in.bias f4 [32]
000000 02 1a 98 3c 23 bd 1a 3d c5 47 3f be 30 fc f6 bd
       0.018567089 0.03777803 -0.18679722 -0.1205982
000010 3a 7d 0a be 78 85 f5 bc 7c 01 88 3d 64 f8 82 3d
       -0.13524333 -0.02997087 0.06640908 0.06395033
000020 21 fe 35 be a8 20 a5 3c 7c e9 41 be dc 3d 07 3e
       -0.17772724 0.020157173 -0.18936723 0.13207191
000030 82 9d c1 bd f5 3b 14 3e b4 cc 9b bc 2d 17 76 bd
       -0.0945387 0.14475997 -0.019018508 -0.060080696
000040 29 1e 6b bd 78 d8 4f bd 59 9e 6f bd 45 4f 38 3e
       -0.05740181 -0.05074355 -0.05850062 0.17998989
000050 49 43 c7 bd 1d 19 5f bd e8 98 16 3e e4 5a 87 bd
       -0.097296305 -0.05446731 0.14706767 -0.06609133
000060 e2 3f 4b 3e 97 28 54 3d c1 76 67 be 29 01 e9 3c
       0.19848588 0.051796522 -0.22603895 0.028442936
000070 62 7a d8 3d 4f 29 0c 3e c4 26 e7 3d f0 23 17 bd
       0.10570218 0.13687633 0.11286691 -0.036899507

linear_32.weight f4 [32, 32]
000000 90 27 12 be e2 41 bf bd ae 08 f7 bd b4 66 ad bd
       -0.14272904 -0.09338738 -0.120622024 -0.08466855
000010 f4 9e d3 bd 2a 5a 89 bd ad 9a 8c bd 8f 7c 7a bd
       -0.10333052 -0.067066506 -0.068654396 -0.061153945
000020 92 fb ca bd a5 b3 dd bd ad 75 d2 bd 79 68 ba bd
       -0.099112645 -0.1082528 -0.10276351 -0.09101958
000030 39 b6 7e bd 55 bc c7 bd c9 06 dc bd 01 4e 9f bd
       -0.0621855 -0.09752718 -0.10743482 -0.0777855
000040 6e 49 d2 bd 09 32 24 be 66 65 3e bd c0 da e9 bd
       -0.10267912 -0.16034712 -0.04648342 -0.114186764
000050 55 5b d1 bd dc 78 85 bd 6c b5 cb be d0 77 94 bd
       -0.10222498 -0.06517193 -0.3978685 -0.07249415
000060 06 2d e6 bd a9 14 15 be 53 56 d0 be d6 c5 f1 bd
       -0.11239056 -0.14558662 -0.4069086 -0.11805312
000070 db 1b db bd e8 f1 fd bd 7a 26 d1 bd ad d8 a3 bd
       -0.106986724 -0.123996556 -0.10212417 -0.08000312
000080 32 4c 07 be 08 93 d0 bd 89 22 02 be 57 ff b8 bd
       -0.1321266 -0.10184294 -0.12708487 -0.09033077
000090 21 70 d7 bd 5a 3d 2e bd 6b 10 5a bd cb 69 57 bd
       -0.10519434 -0.04253898 -0.053238314 -0.052591126
0000a0 54 48 a2 bd 7b e2 e7 bd 60 c9 fe bd 97 90 bd bd
       -0.07923952 -0.113224946 -0.12440753 -0.09256094
0000b0 23 e0 58 bd da 29 9c bd 10 07 a1 bd cf e3 b5 bd
       -0.05294813 -0.0762517 -0.07862675 -0.08881342
0000c0 68 44 df bd 93 d7 24 be 59 b4 88 bd f2 37 ee bd
       -0.10901719 -0.1609786 -0.066750236 -0.116317645
0000d0 ab 5f d0 bd d0 c5 84 bd 5c 0e c2 be 97 e2 92 bd
       -0.10174497 -0.06483042 -0.3790158 -0.07172125
0000e0 e9 df c1 bd ec 99 0e be ca 95 c7 be e1 2b 0d be
       -0.094665356 -0.13925904 -0.38981467 -0.1378627
0000f0 1c 31 db bd 38 e4 e0 bd c0 ce fd bd cb 66 cb bd
       -0.10702726 -0.10981029 -0.1239295 -0.099317156
000100 14 6a 11 be f8 15 c5 bd 21 73 ee bd 39 a9 8d bd
       -0.14200622 -0.09623331 -0.11643053 -0.06917042
000110 08 df c0 bd 2f 41 a5 bd ac 57 7c bd 2c 11 80 bd
       -0.0941754 -0.080690734 -0.061607048 -0.06253275
000120 68 b9 bb bd 09 d3 ee bd 16 54 d4 bd d6 b2 e2 bd
       -0.09166223 -0.116613455 -0.103676006 -0.110692665
000130 3a 74 83 bd aa d1 b4 bd e5 25 cb bd df de 7f bd
       -0.06418653 -0.08829053 -0.09919337 -0.062468406
000140 57 52 db bd 65 f3 16 be df e4 3e bd e1 af 09 be
       -0.107090645 -0.14741285 -0.046604987 -0.13445999
000150 6f 85 c1 bd 9c f2 87 bd ab d3 c7 be e0 7c 8a bd
       -0.094492786 -0.06638071 -0.39028677 -0.06762099
000160 1d 0f da bd ad 29 07 be 4f 41 d0 be 93 68 08 be
       -0.10647414 -0.13199492 -0.40674827 -0.13321142
000170 65 25 de bd 32 c8 d1 bd 60 a4 d7 bd 46 b0 bd bd
       -0.10846976 -0.10243262 -0.10529399 -0.09262137
000180 e0 c0 f0 bd 50 11 d6 bd a6 25 04 be 39 1e dc bd
       -0.11755538 -0.10452521 -0.12904987 -0.10747952
000190 29 86 d4 bd 70 6a 4c bd 6f 21 93 bd f5 fe 48 bd
       -0.103771515 -0.049906194 -0.07184111 -0.04907127
0001a0 7b b1 88 bd 47 fe d4 bd 5e 6a ef bd f6 db c0 bd
       -0.06674477 -0.10400062 -0.1169021 -0.09416954
0001b0 16 65 86 bd 04 5a bd bd 1c 64 bb bd 05 f6 ad bd
       -0.06562249 -0.09245685 -0.09149954 -0.0849419
0001c0 be a7 d5 bd 95 a4 23 be 5d 23 6a bd a2 c6 ff bd
       -0.10432385 -0.15980752 -0.05716263 -0.12489058
0001d0 cb 34 d3 bd b9 4e 81 bd dc 05 c6 be cf 32 7f bd
       -0.10312804 -0.06313843 -0.38676345 -0.062304314
0001e0 01 31 d8 bd e8 2f 08 be b6 47 cc be 3a 8e 08 be
       -0.10556222 -0.13299525 -0.3989846 -0.13335505
0001f0 59 34 c9 bd d5 af f7 bd c7 0e e7 bd 19 f9 ad bd
       -0.09824438 -0.12094084 -0.112821154 -0.08494777
000200 cc 7f 07 be cc a7 f2 bd 60 9d e1 bd b1 cc 9c bd
       -0.13232344 -0.11848411 -0.11016345 -0.07656229
000210 66 08 f5 bd b7 d6 4a bd 1f 32 62 bd 9d 10 32 bd
       -0.119644925 -0.049521174 -0.05522358 -0.043472875
000220 9f d7 64 bd a1 78 c9 bd aa 10 f1 bd 87 cf c8 bd
       -0.055869695 -0.09837461 -0.117707565 -0.09805208
000230 a4 24 2b bd 78 f7 c2 bd 0b 4d c2 bd ef 72 97 bd
       -0.04178299 -0.09519857 -0.09487351 -0.07394969
000240 bc 86 dc bd 75 6c 48 be e4 47 17 bd 55 4e 1d be
       -0.10767886 -0.19572623 -0.036933795 -0.15361913
000250 01 9e dc bd 6d 7e 67 bd e6 84 d8 be af 07 77 bd
       -0.10772324 -0.056517053 -0.42288893 -0.060310062
000260 29 db e1 bd e7 b6 16 be e8 f6 db be e0 0e 0d be
       -0.110281296 -0.14718209 -0.42961812 -0.13775206
000270 5f 5a c6 bd 74 af f2 bd 8e 93 fc bd 2b 83 b9 bd
       -0.09685206 -0.11849871 -0.12332831 -0.090582214
000280 aa bf 0e 3e 0b 42 d3 3d 1e 48 d2 3d 43 c9 ab 3d
       0.13940302 0.10315331 0.102676615 0.08387997
000290 bb 20 dd 3d a7 22 99 3d d8 18 97 3d 21 d4 82 3d
       0.107972585 0.074773125 0.073777854 0.06388117
0002a0 67 14 9c 3d ac 26 d2 3d 28 58 db 3d 7b 1f e9 3d
       0.07621079 0.10261282 0.10710174 0.113829575
0002b0 85 cc 5d 3d 0b a8 c9 3d 7b 0b b7 3d 03 7f a7 3d
       0.054150123 0.09846505 0.089377366 0.081785224
0002c0 5e e0 d0 3d f0 a8 2a 3e 73 40 77 3d 94 e7 e1 3d
       0.10199045 0.16666007 0.060364198 0.11030498
0002d0 41 a0 e2 3d 8e 25 62 3d 42 99 c7 3e 20 fd 9b 3d
       0.11065722 0.055211596 0.38984114 0.07616639
0002e0 5c 2d d7 3d 04 d4 10 3e c7 e7 c1 3e 98 d8 e8 3d
       0.105066985 0.14143378 0.37872145 0.11369437
0002f0 81 0c d8 3d 10 64 f3 3d 79 14 00 3e 19 3d bc 3d
       0.1054926 0.1188432 0.1250781 0.09191341
000300 85 c4 08 be b9 a2 b0 bd 31 1e 09 be 50 43 b7 bd
       -0.13356216 -0.08624787 -0.13390423 -0.08948386
000310 20 9f e5 bd 09 42 3d bd c9 d0 91 bd 75 e0 8a bd
       -0.11211991 -0.046205554 -0.07119901 -0.06781093
000320 71 39 cf bd c1 01 cd bd 7c e5 e4 bd c0 ea e9 bd
       -0.10118378 -0.100101 -0.11176583 -0.11421728
000330 75 6a 8b bd be 9a d0 bd 7b ef d4 bd fa 6e 99 bd
       -0.068074144 -0.10185765 -0.1039724 -0.0749187
000340 a8 a1 f3 bd 39 5d 25 be 60 f1 4b bd 5d 38 01 be
       -0.11896068 -0.16148843 -0.04979074 -0.12619157
000350 78 8d f3 bd db 4e 8c bd 4d a3 d4 be 54 73 59 bd
       -0.118922174 -0.06850978 -0.4153084 -0.0530885
000360 31 90 c4 bd 10 15 0b be f5 ed c5 be fa a9 09 be
       -0.09597815 -0.13582253 -0.3865811 -0.13443747
000370 50 4e c4 bd b0 b8 fd bd 87 91 e6 bd ed 59 80 bd
       -0.095852494 -0.12388742 -0.11258226 -0.06267152
000380 3d 1c fc 3d 24 07 d0 3d 50 a1 e8 3d d2 b4 b5 3d
       0.123100735 0.10157612 0.11358893 0.08872379
000390 a6 c7 e4 3d 35 62 78 3d 9f 0b 5e 3d f9 d7 90 3d
       0.111708924 0.060640533 0.0542103 0.070724435
0003a0 da f6 95 3d 28 b0 b4 3d e8 31 03 3e df 24 c8 3d
       0.07322474 0.08822662 0.12812006 0.097726576
0003b0 21 1f 6e 3d b9 17 c4 3d 7d e4 c8 3d 5f df 9a 3d
       0.058135156 0.09574837 0.09809206 0.07562136
0003c0 e8 ec d6 3d 27 34 1c 3e c8 43 80 3d 5d f6 0b 3e
       0.10494405 0.1525427 0.06262928 0.13668199
0003d0 00 24 ed 3d d7 6b 89 3d f6 38 d9 3e 45 e6 86 3d
       0.11579132 0.06710022 0.4242627 0.06586889
0003e0 06 83 f0 3d 6b 6a 15 3e 8c e1 c7 3e 31 87 f3 3d
       0.11743741 0.14591376 0.39039266 0.1189102
0003f0 35 c3 cc 3d f1 0a ea 3d c5 11 f8 3d 1b 03 80 3d
       0.0999817 0.11427868 0.12112764 0.06250592

linear_32.bias f4 [32]
000000 77 9b b3 bb 63 c7 c6 b9 7c 96 46 b8 07 d9 d7 bb
       -0.0054811793 -0.00037914058 -4.7347028e-05 -0.006587151
000010 62 08 6a 3c 32 0e 9c 3b b2 0c bc ba c3 4b 83 3b
       0.014284225 0.0047624344 -0.0014347045 0.0040068342
000020 06 b8 b9 3c be ea 02 3b dd c8 cf bb 5d 2e 8e 3b
       0.022670757 0.0019976343 -0.0063410834 0.004339023
000030 79 c3 9d 3a a9 7e 81 3a 2b 7a 63 3b 47 aa 78 bb
       0.0012036405 0.0009879667 0.003471027 -0.003794329
000040 a7 40 2b ba 60 91 ad bc f5 78 4d bc 76 f5 8f bb
       -0.0006532766 -0.021187484 -0.012541045 -0.004393275
000050 e9 38 d3 bb fe b6 ee 3b a0 05 06 3b 67 66 cf 3b
       -0.006445993 0.007284998 0.002045013 0.006329346
000060 8e 3e db ba f2 71 4c 3b c5 0b 90 3b 10 e9 69 bb
       -0.0016727017 0.0031195846 0.0043959343 -0.0035691895
000070 fb d5 9c 3b 1c 7c ba 3b 92 e7 45 bb 2a 5a 89 3b
       0.0047862506 0.0056910645 -0.003019784 0.0041916566

rnn.weight_ih_l0 f4 [32, 32]
000000 09 25 a4 bd e5 43 92 bd 15 da a6 bd b6 9b a8 bd
       -0.080148764 -0.07141856 -0.081470646 -0.082328245
000010 37 4c 8b bd 0e e7 bb 3d 88 44 a1 bd e2 fe ab 3d
       -0.06801646 0.091749296 -0.078743994 0.083982244
000020 34 73 ae bd 62 a8 92 3d 00 ff 98 bd 4d 27 96 3d
       -0.08518067 0.07161023 -0.074705124 0.07331715
000030 3c 12 99 3d a2 05 a6 3d 74 5f ac 3d 80 63 cb bd
       0.07474181 0.08106543 0.08416644 -0.099310875
000040 78 95 9b bd 85 9f 99 3d e4 bd 8f 3d e8 4c 93 bd
       -0.07596868 0.07501129 0.07018641 -0.07192403
000050 08 2f 84 3d 04 d5 a6 3d 49 03 99 3d 98 e5 9d 3d
       0.06454283 0.08146098 0.0747133 0.07709807
000060 9d f1 cb bd 62 c5 95 3d e9 7c a2 3d bb 41 ad bd
       -0.099581935 0.073130384 0.07933981 -0.08459803
000070 24 0c 8d 3d dd c8 99 bd 8e e4 a5 bd 96 43 98 3d
       0.06887081 -0.07509015 -0.08100234 0.07434766
000080 0b 4e 8d bd 06 8e 95 bd 9f 3a 96 bd a8 15 7a bd
       -0.06899651 -0.073024794 -0.073354 -0.06105581
000090 3d 43 5c bd 6c 2b 90 3d 01 bd 5b bd c5 a4 4c 3d
       -0.05377506 0.07039532 -0.053647045 0.049961824
0000a0 45 5b 69 bd 49 34 69 3d a9 56 71 bd 87 48 89 3d
       -0.056971807 0.05693463 -0.058920536 0.067032866
0000b0 ac 5d 1b 3d 79 83 79 3d dd 4a 20 3d eb ef 7e bd
       0.03793113 0.060916398 0.039133895 -0.062240522
0000c0 67 96 57 bd 10 c0 43 3d fc 61 40 3d c6 3f 80 bd
       -0.05263367 0.047790587 0.046968445 -0.06262164
0000d0 a6 15 91 3d f9 7f 8c 3d 5d 31 42 3d 6d e1 5f 3d
       0.07084207 0.06860346 0.047410358 0.054658342
0000e0 db b8 6c bd 74 d2 82 3d f7 eb 9e 3d a7 47 6d bd
       -0.05779348 0.06387797 0.077598505 -0.05792966
0000f0 8f be 7d 3d bf 56 52 bd 71 a4 7c bd f5 39 70 3d
       0.06194931 -0.05135226 -0.06168026 0.058649022
000100 ca d0 d9 bd 4d bf ba bd 4d c7 cf bd 2b 53 d4 bd
       -0.106355265 -0.09118519 -0.101454355 -0.103674255
000110 bb 85 0a be 4b dc b2 3d eb 3e b7 bd 69 bf cb 3d
       -0.13527577 0.08733424 -0.089475475 0.09948618
000120 f4 f1 e9 bd 0f b5 d5 3d ad 21 d3 bd d4 d6 f5 3d
       -0.11423102 0.10434925 -0.103091575 0.12003866
000130 75 dc c9 3d d1 3b b7 3d b1 6e b0 3d e9 ff ca bd
       0.09856502 0.08946956 0.08614863 -0.09912092
000140 ba c8 b7 bd 7f 22 ea 3d bf db c4 3d 67 9c d1 bd
       -0.089738324 0.11432361 0.09612226 -0.102349095
000150 6d 90 c0 3d 85 7f da 3d 92 9d 8f 3d 3d 0d de 3d
       0.09402547 0.10668854 0.07012476 0.10842369
000160 0e 26 d7 bd bf f5 de 3d 10 f7 cf 3d 0e ad ae bd
       -0.10505305 0.10886716 0.10154545 -0.08529101
000170 0b f5 ce 3d c7 24 c1 bd 3b 04 d7 bd 68 10 c3 3d
       0.10105332 -0.09430843 -0.10498854 0.095246136
000180 83 fb 58 3d 40 44 44 3d 09 b2 7e 3d 64 4c 83 3d
       0.052974235 0.04791665 0.062181506 0.06411055
000190 68 38 7f 3d e6 51 78 bd b0 43 29 3d 3a f5 50 bd
       0.062309653 -0.06062498 0.041324317 -0.051015116
0001a0 64 e0 a9 3d 99 68 37 bd 1e 1c 83 3d 86 7e 95 bd
       0.08294752 -0.044777486 0.06401847 -0.07299523
0001b0 ca e8 2b bd 73 0e 43 bd 35 d6 57 bd f5 c9 30 3d
       -0.04197005 -0.0476212 -0.052694518 0.04316135
0001c0 9c 40 49 3d 6d c9 50 bd f8 f8 81 bd 20 db 02 3d
       0.049133882 -0.050973345 -0.06346315 0.031947255
0001d0 90 8d 4f bd cc 74 88 bd fe 7b 83 bd 79 db 1b bd
       -0.050672114 -0.06662902 -0.06420134 -0.038051102
0001e0 d6 88 79 3d 29 70 68 bd d7 8f 87 bd bc a3 65 3d
       0.060921513 -0.05674759 -0.06619232 0.056064352
0001f0 a3 16 42 bd 23 c2 16 3d 05 c7 6b 3d c7 7a 66 bd
       -0.04738487 0.036806237 0.057562847 -0.056269433
000200 27 9c 50 bd 06 88 41 bd 97 3c 52 bd a6 bb 55 bd
       -0.05093017 -0.047248863 -0.051327314 -0.05218091
000210 99 6c 36 bd 46 cd 87 3d 83 e0 68 bd 20 a4 69 3d
       -0.04453716 0.0663095 -0.056854736 0.057041287
000220 36 95 59 bd 5c 07 55 3d 55 20 22 bd 75 f0 67 3d
       -0.053120814 0.05200897 -0.039581615 0.056625802
000230 b2 0e 82 3d 66 36 79 3d 1e 9c 6f 3d 4e 83 7c bd
       0.06350459 0.060842894 0.058498494 -0.06164866
000240 c3 41 2a bd 4c 3c 64 3d df 8e 35 3d 6d 86 7b bd
       -0.04156662 0.055721566 0.044325706 -0.061407495
000250 f3 17 80 3d f0 31 7e 3d 14 95 6e 3d c0 77 47 3d
       0.06254568 0.062059343 0.05824764 0.048698187
000260 f4 ef 82 bd 22 19 2a 3d 3a 46 62 3d cf 99 44 bd
       -0.06393424 0.041527875 0.055242755 -0.047998246
000270 e3 30 70 3d d5 cf 03 bd dc 0c 80 bd 3d a9 6b 3d
       0.058640372 -0.032180626 -0.06252453 0.057534445
000280 9e 79 ae bd 60 4f a9 bd 5b 06 b3 bd 55 02 9c bd
       -0.085192904 -0.08267093 -0.087414466 -0.07617632
000290 18 1c ca bd d0 39 8d 3d dd 73 cb bd d0 7d b1 3d
       -0.0986864 0.068957925 -0.099342085 0.08666575
0002a0 21 9e e9 bd bb 31 bf 3d 0a 31 9f bd b9 be e7 3d
       -0.11407114 0.09335657 -0.07773025 0.11315674
0002b0 41 de 96 3d c2 4b b0 3d bc b1 a6 3d af e2 e2 bd
       0.0736661 0.086082 0.08139369 -0.11078393
0002c0 16 17 a7 bd e4 f9 b7 3d 07 a9 af 3d 4c 14 c2 bd
       -0.081587 0.0898321 0.08577161 -0.094765276
0002d0 50 38 8e 3d 10 c1 c7 3d 92 5e b6 3d 3d 66 af 3d
       0.069443345 0.097536206 0.089047566 0.08564422
0002e0 a3 36 93 bd 33 4b b1 3d 82 1b ca 3d b2 9d a9 bd
       -0.071881555 0.08656921 0.09868528 -0.08282031
0002f0 5d 15 cc 3d be ef bd bd 05 c6 9f bd ca 17 ac 3d
       0.09965012 -0.09274243 -0.07801441 0.08402975
000300 38 1d c5 bd 4c ea ab bd ae a1 95 bd 93 b1 7f bd
       -0.09624714 -0.08394298 -0.073062286 -0.062425207
000310 49 16 c6 bd 8c e6 98 3d 50 a4 8f bd 55 36 90 3d
       -0.09672219 0.07465848 -0.07013762 0.07041613
000320 83 85 94 bd 09 71 a1 3d 74 ae b5 bd 09 2e a3 3d
       -0.07252028 0.07882888 -0.08871165 0.07967765
000330 ef 9e b9 3d 49 01 ae 3d b3 ff a4 3d 6b c1 86 bd
       0.09063517 0.08496339 0.08056583 -0.0657986
000340 56 35 b0 bd a5 77 93 3d a0 b2 ae 3d 7b da 9a bd
       -0.08603923 0.07200555 0.08530164 -0.07561203
000350 09 02 88 3d 0d c3 73 3d 46 f9 96 3d 10 ef a3 3d
       0.06641013 0.059512187 0.07371764 0.08004582
000360 eb bf 91 bd 57 f2 99 3d 6c dd 8c 3d 94 5f 8f bd
       -0.071166836 0.07516926 0.0687817 -0.07000652
000370 0f ab 95 3d d4 d1 a1 bd b2 f7 9e bd 29 ed 9c 3d
       0.073080175 -0.0790135 -0.07762088 0.07662422
000380 9d ff 8a bd 77 55 a1 bd de ca 8d bd 8a 5c 97 bd
       -0.067870356 -0.07877629 -0.069234595 -0.07390697
000390 0c 23 93 bd 53 65 9a 3d 7f 0f 4d bd 7a e8 8e 3d
       -0.07184419 0.07538857 -0.050063606 0.06977935
0003a0 d0 dc 72 bd de 13 6f 3d 3b 80 7c bd 61 d2 8c 3d
       -0.059292614 0.058368556 -0.061645728 0.06876064
0003b0 dc 8f a2 3d bd c4 1f 3d c6 6a 9c 3d c4 38 35 bd
       0.07937595 0.039005984 0.07637553 -0.04424359
0003c0 f1 0c 52 bd 79 d2 7a 3d 57 ea 7e 3d ff f3 8d bd
       -0.051281873 0.06123588 0.062235203 -0.06931304
0003d0 da 26 25 3d ad c2 94 3d ab ad 84 3d c8 be a4 3d
       0.040320255 0.07263694 0.06478437 0.08044201
0003e0 2c dd 82 bd 6d 9c 87 3d 6f 24 85 3d 61 33 86 bd
       -0.063898414 0.06621633 0.0650109 -0.065527685
0003f0 7f a0 8f 3d 23 de 7f bd 78 82 4e bd c7 6e 50 3d
       0.07013034 -0.062467705 -0.050417393 0.050886896

rnn.weight_hh_l0 f4 [32, 32]
000000 b3 05 9a 3c b6 12 7b 3c dd 2b 66 3c 2d cd f4 bc
       0.018801546 0.015324285 0.014048544 -0.029882992
000010 1c bc ac 3c bf 14 09 3d e0 3d 03 3d 31 cc a8 3c
       0.021085791 0.03346705 0.03204143 0.020605179
000020 25 21 bd 3c ce 5b 3e bd d8 64 52 3c 55 24 c2 bc
       0.023087094 -0.04647427 0.012841426 -0.023698965
000030 ad 87 07 bd a0 7e 09 bd e3 8e 13 3d d3 b6 3a 3c
       -0.033088375 -0.033568025 0.03602494 0.011396128
000040 1f 21 9e 3c 21 83 10 bc 94 29 28 bd af 5c 4b bc
       0.019302903 -0.008820326 -0.041055277 -0.012412234
000050 e2 33 a4 bc ca 41 d7 bc 3b eb 7a b9 c5 be 3e bd
       -0.02004427 -0.026276488 -0.00023929488 -0.04656865
000060 ce a5 c0 bc 80 54 28 3d a8 5b b3 bc 4a e7 ab bc
       -0.023516562 0.04109621 -0.021894291 -0.02098431
000070 33 eb da 3c 91 0f 3a bd aa 8c 2f 3d 02 7d 51 bd
       0.02672348 -0.045425 0.042858757 -0.051144607
000080 f7 c2 d0 3c 6d 66 8c 3a 01 d8 2d 3b e9 b6 0a 3c
       0.025483591 0.0010711678 0.0026526453 0.008466461
000090 c3 b9 c4 3a 10 98 d1 3c 78 dc d8 3c 7b 2f ec 3c
       0.0015008975 0.025585204 0.026472315 0.028831234
0000a0 a6 c5 81 3c c5 3d 5d 3b e8 00 cd 3c c0 e8 99 bc
       0.015841316 0.0033758741 0.025024846 -0.018787742
0000b0 70 85 4a bc d3 d6 9d bc 3c 4c b8 3c 5a 4f a6 3c
       -0.012360916 -0.019267475 0.022497289 0.02030151
0000c0 74 ab bd ba ee 82 2b 3c 3f 1b 1c bc 10 d3 54 3c
       -0.0014470653 0.010468228 -0.00952798 0.012989774
0000d0 d8 e6 9f bc 09 12 34 3b 9f ea 10 bd 83 7d 30 bc
       -0.019519255 0.002747657 -0.035380002 -0.010772112
0000e0 1f 8f 8d 3b cf 30 68 3c 87 96 4d bc 8d 3a 3f bc
       0.00432004 0.014171793 -0.012548096 -0.011671674
0000f0 86 b9 ac 3a 99 39 d4 bc e4 cb 14 3c 24 ba d4 bc
       0.0013177849 -0.025906371 0.009081814 -0.025967665
000100 13 18 40 bd 26 83 8a bd b9 15 2b be 87 cf b9 3d
       -0.04689796 -0.06763296 -0.16707505 0.09072786
000110 00 1d 86 bd d2 a8 35 bd 3a 16 09 bd de 16 50 bd
       -0.065485 -0.044350453 -0.033468463 -0.050803058
000120 3f e9 6b bd 69 e2 f4 3c 14 62 cc bc 2b a7 67 3d
       -0.057595488 0.029893117 -0.024949111 0.05655591
000130 80 b9 0d 3d 33 52 39 3d f9 9f 7f bd 7a 55 86 bd
       0.034600735 0.045244407 -0.06240842 -0.06559272
000140 03 b5 9d bd e4 e9 89 3d 25 d6 72 3d 6f 37 c3 3d
       -0.07700541 0.06734064 0.059286255 0.095320575
000150 f1 91 5f 3d 20 ef 1d 3d a2 d1 fb bd 7f 14 63 3d
       0.05458254 0.038558125 -0.12295844 0.05543947
000160 d7 a7 55 3d a1 d3 98 bd e5 10 4b 3d 7e cf 4d 3d
       0.052162018 -0.0746224 0.04957666 0.050246708
000170 f7 be b5 bd bc 13 0a 3d c0 4d 79 bd b6 f1 95 3c
       -0.08874314 0.033710226 -0.060865164 0.018303733
000180 70 c7 f3 3b 63 57 a9 3c 46 02 f6 bb 76 fc 26 bc
       0.0074395463 0.020671552 -0.0075075952 -0.010192027
000190 98 6c 4b bb 84 a8 89 3a 29 17 7a ba 07 46 1b 3b
       -0.0031040069 0.0010502492 -0.00095401943 0.0023692863
0001a0 03 ae 8c bb 14 31 b8 bb 90 7a 42 bc 91 35 69 3c
       -0.0042932048 -0.005621085 -0.0118700415 0.014233963
0001b0 d4 d0 a8 bb 22 9b 09 bc 79 81 71 bc 51 f5 f0 3b
       -0.0051518474 -0.008398803 -0.014740341 0.0073534627
0001c0 fa 90 7b 3c 0e d1 b6 bc 80 9f c0 3c a6 28 a5 bc
       0.015354389 -0.022316482 0.023513556 -0.020160984
0001d0 d4 1b 8e 3c 95 9f 84 3c b9 62 4a 3d ff 73 e1 bb
       0.017347254 0.016189376 0.049410556 -0.006880283
0001e0 53 9a 41 bb 34 1f 29 bb 93 c3 11 3b 24 c0 38 3c
       -0.0029541447 -0.0025805952 0.0022241815 0.011276279
0001f0 52 75 e1 3b d2 57 58 ba a5 f9 51 3b c3 b7 8d 3a
       0.0068804407 -0.00082528323 0.003203967 0.0010812212
000200 a5 08 b4 3c 43 67 84 3c 04 55 99 3c 2b 33 bc 3a
       0.021976778 0.01616252 0.018717296 0.0014358511
000210 33 e4 6b 3c 18 df 40 bb 97 8d bf 3b fa ba 63 3c
       0.014397669 -0.002942985 0.0058457362 0.013899559
000220 74 e4 8f bb f9 03 01 bd 95 e5 0e 3d 51 73 2b 3a
       -0.0043912474 -0.03149793 0.034886915 0.0006540316
000230 55 e3 00 bd 1f 4e 0f bc ba 7b 99 3c 63 c3 78 3c
       -0.0314668 -0.008746653 0.018735755 0.015183303
000240 c9 82 e8 3a 18 ad f4 3b e7 28 73 bc 26 09 b2 3b
       0.0017739172 0.0074669234 -0.014841295 0.0054332195
000250 aa 27 5d bb 39 2c 98 bc 33 04 ca bc e0 36 a4 bc
       -0.0033745565 -0.018575775 -0.024660205 -0.020045698
000260 e1 0e 08 ba ae c0 cd 3b b7 0d 84 bc b4 26 b4 bb
       -0.00051902054 0.0062790727 -0.016119821 -0.005497778
000270 3b 8c 18 3b cb ab 03 bc ec 80 31 3c b5 2d 61 bc
       0.0023276943 -0.008036564 0.01083396 -0.013743808
000280 f2 f2 4f 3d a2 cf b1 3c 7a ab 05 3c 3f 68 68 bc
       0.0507688 0.021705452 0.008158559 -0.01418501
000290 59 c9 36 3d 99 f3 0e 3d db a2 77 3c 48 92 de 3c
       0.044625614 0.03490028 0.015114511 0.027169362
0002a0 cb d9 15 3d 3c 54 4b bd b7 f1 29 3d e2 37 e1 bc
       0.036584657 -0.04964088 0.041490283 -0.027492467
0002b0 c3 0c 56 bd 1d 61 2a bd 93 b1 06 3d d2 ea f4 3b
       -0.052258264 -0.04159652 0.03288419 0.007474282
0002c0 b5 81 11 3d 9a da b8 bc dc 96 4e bd aa 8d 56 bc
       0.03552409 -0.022565175 -0.05043684 -0.013095299
0002d0 9f c7 0f bd e0 a0 c1 bc 6c c3 f4 3a b6 54 13 bd
       -0.035102483 -0.023636281 0.0018673963 -0.03596946
0002e0 2b 55 06 bd 10 3e 35 3d 0e 0c 2f bd 55 f8 b6 bc
       -0.032796066 0.04424864 -0.042736106 -0.02233521
0002f0 e9 18 36 3d b3 c1 cc bc 44 8e 2e 3d 58 db f9 bc
       0.04445735 -0.024994707 0.042616144 -0.030500099
000300 77 ab cb 3c 38 b5 d8 3b 9b ce 08 3b df e5 50 bc
       0.024862034 0.0066134 0.00208751 -0.012750118
000310 e2 1e bd 3c ea e6 4a 3c de 95 e4 3c 75 6c 1e 3c
       0.023086015 0.012384156 0.027903493 0.009669413
000320 58 08 fd 3b cf 6a 95 bc 18 6c 0b 3d 5f bc 14 bc
       0.007721942 -0.018239407 0.034038633 -0.009078114
000330 5c 98 d8 bc 07 b0 05 bd f0 be 93 3c 4f b2 78 3c
       -0.026439838 -0.032638576 0.018035382 0.015179231
000340 99 fd c9 3c 9e 48 a5 3a b0 ce c8 bc fd 64 75 3c
       0.024657058 0.0012610143 -0.024512619 0.014977691
000350 96 69 d2 bc 9d 76 0d bd 6f 84 75 bc a0 65 2e bd
       -0.025685113 -0.034536947 -0.014985188 -0.042577386
000360 29 10 80 bc 87 50 e2 3c f6 96 bf bc 75 2e ba bc
       -0.015632706 0.027626289 -0.023387413 -0.02272723
000370 05 10 e3 3b 6b b7 16 bd 05 8a 18 39 98 63 07 bd
       0.0069294 -0.036796015 0.00014547266 -0.033053964
000380 b0 44 cd 3c ea cb a0 bb 06 66 9b 3c ad 3d 90 3b
       0.025057167 -0.004907121 0.018969547 0.0044018836
000390 44 a4 d1 3c 34 b9 da 3c 1a b9 ee 3c 33 eb e2 3c
       0.025591023 0.02669964 0.029140998 0.027700042
0003a0 27 c6 46 3c dc 7d f0 bc 52 7b e9 3c 47 aa 96 bc
       0.012132204 -0.02935689 0.028501187 -0.018391741
0003b0 b5 2c c1 bc 0f 95 e7 bc 64 e8 e9 3b 84 91 07 bb
       -0.023580888 -0.028269319 0.007138299 -0.00206861
0003c0 ed 4c 83 39 21 ca 11 bc 6c 7f 75 bc a4 18 a9 ba
       0.0002504358 -0.008898289 -0.014983993 -0.001290102
0003d0 6f 89 e6 bc b9 3e 99 bc 2a b0 01 bd cb fe a4 39
       -0.028141705 -0.018706666 -0.031662144 0.00031470353
0003e0 85 86 75 bb 9e 71 9f 3c a3 9a c7 3a 10 4a 8b bc
       -0.0037464213 0.019463357 0.001522858 -0.01700309
0003f0 89 6b ab 3c d1 01 dc bb 9f 5a 9e 3c 92 d6 65 bc
       0.0209253 -0.0067140837 0.01933032 -0.014028208

rnn.bias_ih_l0 f4 [32]
000000 28 d1 35 3d 63 3c 23 3d 85 21 96 3c 66 af 0b bd
       0.04438892 0.03985251 0.01832653 -0.03410282
000010 67 23 25 3d 86 f1 41 3d cf 90 2d 3d c3 1a 2a 3d
       0.040316965 0.047349475 0.04237443 0.04152943
000020 f8 ab 32 3d f1 56 31 bd 2a fb 32 3d c1 25 30 bd
       0.043621033 -0.043295804 0.04369656 -0.043004755
000030 1e 90 2f bd cc ce 3b bd bc 3e 32 3d d7 98 23 3d
       -0.04286205 -0.045851514 0.04351686 0.03994068
000040 75 46 25 3d 9b 12 1e bd b8 1b 31 bd 2f 38 25 bd
       0.040350396 -0.038591962 -0.043239325 -0.040336784
000050 00 7b 2e bd 69 bb 2a bd 0e fe 06 3d 5c 30 2a bd
       -0.04259777 -0.041682635 0.03295713 -0.041550025
000060 88 33 23 bd 69 18 1f 3d fe 13 2a bd 4c 2a 2a bd
       -0.039844066 0.03884164 -0.041522972 -0.041544244
000070 6b cc 10 3d 6f f6 2f bd a5 37 30 3d e2 e1 3f bd
       0.0353512 -0.042959627 0.043021817 -0.046846278

rnn.bias_hh_l0 f4 [32]
000000 28 d1 35 3d 63 3c 23 3d 85 21 96 3c 66 af 0b bd
       0.04438892 0.03985251 0.01832653 -0.03410282
000010 67 23 25 3d 86 f1 41 3d cf 90 2d 3d c3 1a 2a 3d
       0.040316965 0.047349475 0.04237443 0.04152943
000020 f8 ab 32 3d f1 56 31 bd 2a fb 32 3d c1 25 30 bd
       0.043621033 -0.043295804 0.04369656 -0.043004755
000030 1e 90 2f bd cc ce 3b bd bc 3e 32 3d d7 98 23 3d
       -0.04286205 -0.045851514 0.04351686 0.03994068
000040 75 46 25 3d 9b 12 1e bd b8 1b 31 bd 2f 38 25 bd
       0.040350396 -0.038591962 -0.043239325 -0.040336784
000050 00 7b 2e bd 69 bb 2a bd 0e fe 06 3d 5c 30 2a bd
       -0.04259777 -0.041682635 0.03295713 -0.041550025
000060 88 33 23 bd 69 18 1f 3d fe 13 2a bd 4c 2a 2a bd
       -0.039844066 0.03884164 -0.041522972 -0.041544244
000070 6b cc 10 3d 6f f6 2f bd a5 37 30 3d e2 e1 3f bd
       0.0353512 -0.042959627 0.043021817 -0.046846278

linear_out.weight f4 [6, 32]
000000 11 57 87 bb f6 b5 30 bb 24 48 ae 3b 0b d7 15 3b
       -0.004130252 -0.0026963926 0.0053186584 0.0022863771
000010 4b 33 33 bb ea 00 2c bb 69 b8 8b bb 2b 63 96 bb
       -0.0027343805 -0.0026245662 -0.0042639268 -0.0045894585
000020 5b e4 1b bb bc f7 2e 3b 61 db 5d bb 93 4a 6e 3b
       -0.0023787234 0.0026697954 -0.0033852684 0.0036360368
000030 6a 89 9c 3b b6 99 8e 3b f3 fd 43 bb 6e cb 72 bb
       0.004777123 0.00435182 -0.0029906004 -0.0037047523
000040 ad 7a 67 bb d2 c0 a7 3a ad 35 65 3b 15 36 bc 3a
       -0.0035320923 0.0012798554 0.003497462 0.001435938
000050 13 a6 74 3b 01 39 64 3b d0 e1 ca ba a5 52 8f 3b
       0.0037330433 0.0034824016 -0.0015478674 0.0043738657
000060 96 0d 88 3b ef 2b 75 bb 3f 18 70 3b fd 57 57 3b
       0.00415201 -0.003741022 0.0036635546 0.0032858842
000070 58 42 1f bb 3a 66 35 3b c6 a5 2f bb 4d 07 29 3b
       -0.0024301019 0.002767934 -0.002680169 0.0025791705
000080 16 7f 24 3f e9 4e 26 3f 28 63 24 3f 82 bb 24 bf
       0.6425642 0.6496416 0.642138 -0.64348614
000090 16 8c 29 3f 81 3d 26 3f af 8f 29 3f 35 71 24 3f
       0.6622938 0.649376 0.6623487 0.6423524
0000a0 4c 5f 26 3f bd 43 25 bf 6e f6 24 3f c8 d9 26 bf
       0.6498916 -0.64556485 0.6443852 -0.6517606
0000b0 47 d6 24 bf 92 a3 25 bf 12 95 24 3f d0 2d 26 3f
       -0.6438946 -0.64702713 0.64289963 0.64913654
0000c0 5d 78 24 3f 15 de 25 bf 92 8f 24 bf e2 5b 26 bf
       0.6424616 -0.64791995 -0.6428157 -0.6498395
0000d0 ef 44 25 bf 9d f8 25 bf 79 14 25 3f fe ff 25 bf
       -0.6455831 -0.6483248 0.64484364 -0.6484374
0000e0 f9 9f 26 bf 0c 5f 25 3f da c4 27 bf 21 dd 27 bf
       -0.6508785 0.64598155 -0.65534747 -0.6557179
0000f0 49 43 24 3f 76 34 26 bf 55 38 25 3f 48 3b 28 bf
       0.6416517 -0.649238 0.6453908 -0.65715456
000100 46 24 07 bc ec 5f 89 b9 5a 2a 23 bc 0c 67 08 bb
       -0.008248394 -0.00026202144 -0.009958828 -0.0020813374
000110 e4 db 75 bb 65 b0 ba 3b d0 34 85 bb 08 2e 79 3b
       -0.0037515098 0.0056972974 -0.0040651336 0.0038021822
000120 0a d0 ef bb 06 93 1c 3c 7e eb f7 3a ad 57 c5 3b
       -0.0073185014 0.0095565375 0.0018914787 0.0060224147
000130 40 ee 2f bc 01 9b 5e 3a 9f fd 93 3a 66 1c 5c bb
       -0.010737956 0.00084917253 0.0011290795 -0.0033586263
000140 9c 30 84 3b 41 29 4e 3a 03 df 45 bc f4 3c 55 3a
       0.004034115 0.00078644237 -0.012077096 0.0008134388
000150 e2 c6 c7 bb 14 a1 98 3b cb 1c 16 bc c6 b1 b8 3b
       -0.0060967067 0.004657874 -0.009162138 0.0056364266
000160 c4 f0 2b bb d2 58 24 bb 22 53 f9 3a d0 f4 59 3a
       -0.0026236037 -0.0025077355 0.0019021968 0.0008314373
000170 66 32 eb 3a 1e 28 fc ba 54 d4 a1 39 bb a6 07 bc
       0.0017944097 -0.001923803 0.0003086651 -0.008279498
000180 57 5c 4b bb d7 bc 37 bc eb c1 47 bd 59 b3 5d 3c
       -0.003103038 -0.0112144565 -0.04876892 0.013531529
000190 8d 9d ca bb 79 c7 8f ba 53 0a 48 bc a5 8c 0e bc
       -0.0061833323 -0.0010969482 -0.012209493 -0.008700524
0001a0 69 ab 86 bb 54 ee cb 39 7a 9e 0d bb 19 85 24 3b
       -0.004109789 0.00038896746 -0.0021609352 0.0025103746
0001b0 fd 5a 08 3b 44 4f 85 b9 d9 91 76 b9 48 73 0a bc
       0.0020806186 -0.00025426794 -0.0002351472 -0.008450337
0001c0 e7 31 ba bb e8 23 09 b9 cd 9c 96 b9 a9 02 3e 3c
       -0.0056822184 -0.00013078714 -0.00028727055 0.011597314
0001d0 ec 5a 69 3b e0 9a 1a bb 88 c8 77 bc 00 f8 3d 3b
       0.0035607172 -0.0023590848 -0.015123494 0.002898693
0001e0 28 3c 2d 3c 4d 6e 23 bc 42 b4 df 3b 1b 13 2e 3b
       0.010573424 -0.009975028 0.0068269083 0.002656168
0001f0 87 f6 38 bb ff bb 11 3b c6 e9 37 bb 02 a8 06 bc
       -0.0028223114 0.0022237299 -0.0028062924 -0.008218767
000200 d9 ec 23 bc be 9e 29 bc 6c 15 ab 3b 04 cd 1d 3c
       -0.010005199 -0.0103527885 0.0052210595 0.009631399
000210 09 cc 36 bc 2c 5b d9 bb a9 20 67 bc 3f 7d 43 bc
       -0.011157044 -0.006633183 -0.014106908 -0.011931716
000220 61 f2 29 bc f9 b4 09 3c 7d de bb bb bc 7d 2b 3c
       -0.010372729 0.008404964 -0.00573331 0.010466989
000230 63 fc 26 3c 03 71 ce 3b a8 d9 e5 bb 47 d2 1a bc
       0.01019201 0.006300093 -0.007014472 -0.009449548
000240 d9 88 4d bc e1 9d ef 3b 00 54 36 3c 04 89 05 3c
       -0.012544834 0.007312522 0.011128426 0.008150343
000250 97 bd 1a 3c 9e b4 0b 3c e9 43 16 bc e7 e5 34 3c
       0.009444616 0.008526949 -0.0091714645 0.011041141
000260 75 59 52 3c 2c 0b 43 bc 4a 91 4d 3c a1 b8 53 3c
       0.012838711 -0.011904519 0.012546847 0.012922437
000270 87 42 1c bc 4c 99 44 3c 45 7e 06 bc b8 a8 85 3b
       -0.009537346 0.011999439 -0.008208816 0.0040789507
000280 14 81 38 bb ef 0c c5 ba 79 3a 9a 3b 79 18 00 3a
       -0.0028153108 -0.0015033762 0.0047066775 0.0004886459
000290 89 df aa ba e8 c0 cd ba ba df 14 bb b7 98 26 bb
       -0.0013036589 -0.0015697749 -0.002271636 -0.0025420615
0002a0 d6 7f ae ba b0 20 e8 3a 99 fb 16 bb 9e 74 00 3b
       -0.0013313245 0.0017709937 -0.0023038147 0.001960076
0002b0 f3 27 1b 3b 93 94 21 3b ad c4 02 bb 0c be fe ba
       0.0023674935 0.0024655208 -0.0019953654 -0.00194353
0002c0 29 42 12 bb d7 60 3e 3a 40 ea 26 3b 94 7b ba 39
       -0.0022317267 0.0007262355 0.0025469214 0.00035568757
0002d0 c0 04 08 3b 1a 21 fd 3a 0e 4f 40 ba 7c 87 40 3b
       0.0020754784 0.0019312233 -0.0007335999 0.002937763
0002e0 b6 bc 15 3b 64 d3 08 bb 72 78 0b 3b 6d 1a 01 3b
       0.0022848076 -0.0020877952 0.0021281508 0.001969959
0002f0 7c 44 9d ba b1 c9 ec 3a 9c f3 f4 ba 92 d5 ff 3a
       -0.0011998559 0.001806548 -0.0018688324 0.0019518605

linear_out.bias f4 [6]
000000 9b a0 b0 3d 44 95 13 3f 63 9c 7d 3c 50 88 7e 3e
       0.08624383 0.57649636 0.01547918 0.24856687
000010 3f 97 8b 3e c8 e5 49 3d
       0.2726383 0.049291402

batch_norm_layer.weight f4 [32]
000000 1f 46 75 be 62 6e 4d bd 8c ec 75 3d 44 27 2e be
       -0.2395253 -0.050154097 0.06004004 -0.17007166
000010 d2 ab 80 3d 97 ad c4 bd 55 d8 a7 bd e8 f4 c9 3d
       0.06282772 -0.09603422 -0.08195559 0.09861165
000020 16 53 b0 3d 45 b8 68 bd 4e ae 60 3d 33 91 58 bd
       0.086095974 -0.056816358 0.05485373 -0.052872848
000030 d1 58 a2 3d 7e 81 34 3e cb 7f 82 3d 72 a5 2c 3d
       0.07927097 0.17627522 0.06372031 0.04214997
000040 14 b5 82 3d de 47 ba be e2 7b c4 bd 76 bb 70 bd
       0.06382194 -0.36382955 -0.09593941 -0.058772527
000050 41 b6 55 3d d9 1d cb bd 92 88 0b 3f 64 99 d7 bd
       0.052175764 -0.09917802 0.54505265 -0.10527304
000060 35 f2 67 bd 20 b4 6d bd 5e 97 1a bf ef 3c 90 3e
       -0.05662747 -0.05803311 -0.6038722 0.2817149
000070 67 35 39 3e aa 19 6a bd 8a 87 75 bd 93 71 83 3d
       0.18086778 -0.05715338 -0.059943713 0.06418147

batch_norm_layer.bias f4 [32]
000000 1a 58 d8 bc cf 57 12 3e 21 1f 1b 3e c5 1f 18 bc
       -0.026409198 0.14291309 0.15148593 -0.009284918
000010 63 8d 13 3e 08 fd b4 3d e1 5c cb 3d 57 94 a7 3d
       0.14409404 0.088373244 0.099298246 0.081825905
000020 ae 23 ee 3d e4 2d 0e 3e 99 f8 21 3e 49 11 13 3e
       0.11627899 0.13884693 0.15817489 0.14362063
000030 14 63 d0 3d 69 6e b0 bc c5 d3 0d 3e 7a 99 fb 3d
       0.10175148 -0.021537023 0.13850315 0.12285133
000040 38 54 0d 3e 0e ef 32 bd 86 7b b3 3d f7 57 24 3e
       0.13801658 -0.04368501 0.087637946 0.16049181
000050 4b 69 16 3e 5a af a6 3d 79 80 83 3e bb f8 97 3d
       0.14688604 0.081389144 0.25683954 0.074204884
000060 43 7c 13 3e db 3b 2a 3e 91 f4 43 3e eb 8f 00 bd
       0.14402871 0.16624396 0.19136263 -0.03138725
000070 62 a9 d9 bc 6c 8e 22 3e 0d ec 29 3e 79 fb fd 3d
       -0.026570026 0.15874642 0.16593952 0.1240148
