VehicalStateperML_RNN_epochs_25_BS:16.pth (torch, 19458 bytes, 12 tensors)

linear_in.weight f4 [32, 9]
00000000: 0115 df3e 4069 e4be d389 643d 66e6 883e
00000010: bd34 de3e 4251 0d3f dbcd cf3e d79d 4abd
00000020: 92ea bb3d 40aa cbbf 2fdd 103e fb38 103e
00000030: 10cb 55c0 2854 5bbf 36f6 b4be 9659 37bf
00000040: bc37 243d 1d4f 503f a71e ee3f c73f 2940
00000050: 6429 95bf 68cd dc3f 7934 1a40 1e0a ec3f
00000060: 82eb 1840 1f7b 223b 6503 c23e e555 b8be
00000070: 0cd9 c53f 71cf ac3f 564c 283e f741 2b3e
00000080: a251 23bf 0047 713e 14dc e63c 3860 b83f
00000090: 63d2 f03e 7aa0 e7be a1e4 57be 9ee2 283e
000000a0: d0d8 d13e e21c 053f 9abb b83e e122 943d
000000b0: 26b6 95be e73a 56c0 b8d6 963f 6f73 903e
000000c0: f8e1 c1bf 366a 7ec0 c21b 17c0 766a 7dc0
000000d0: b5b2 ce3c d849 e53e 9563 1bc0 3050 17c0
000000e0: 2952 433f a72f d2bf 6696 3dc0 71ad 15c0
000000f0: a96a 3cc0 137d 6dbc 0f71 0cbf 364a 33bf
00000100: 29e0 1ac0 9406 e63c 7e11 4dbf 610d 85bf
00000110: 0535 78bf fb60 83bf e447 9e3a 1404 a5be
00000120: 8b22 60bf 4f8f 723f 3d8c abbf 0860 11c0
00000130: 01af 6ebe d101 12bf b7b6 69be a654 a7bc
00000140: 4528 fdbf ab30 0b3f 0879 3e40 adf6 823d
00000150: 79ec 67bf a4ca c93f fc03 783f 4e02 cb3f
00000160: 9a77 5ebc d8ff 07bf 2641 00bf c7f2 06be
00000170: 864c 6cbf f4ed 1b39 0612 243f bb3a a13e
00000180: 20f1 3e3f a565 1cbe a289 7abf 6628 91bf
00000190: 99ee 9fbd 75c0 5dbe da68 9bbf 30ac e8bf
000001a0: 52ee aebf ab1d ebbf 21e5 7bbc de3c f1bd
000001b0: dde9 cbbe 74be 5e3d 09fd 96be 8f7d 40bf
000001c0: 9eb4 15bf 992a adbf 9493 13bf a71c 13bd
000001d0: ddf7 99bf d1f6 d43c c684 ed3e e726 703e
000001e0: 391f b93e 0ae4 f9bc f294 6bbe 1a27 acbc
000001f0: a861 38bc 4ad1 593e f9f8 23be e046 31bf
00000200: 6cfd 4a3e ac7f 8bbe 0497 9dbe 3c6d 4abe
00000210: 513e a7be c599 463a 01da 01bd b509 71be
00000220: 87cd 7ebd 7c11 143e d51d 8dbe 38b0 bfbe
00000230: 841b 0abe 7011 c1be 04e9 6cbd 74c1 223c
00000240: 413a 46bf 7c24 b4be b2f0 fd3f db93 8c3f
00000250: c1c8 cfbd ce5a ce3e f76d cbbd 3523 9339
00000260: c0a4 6440 47de f33e 49ec b4ba fd56 32bf
00000270: ab86 c93f 8c95 3c3f 3a1d 9e3f 5d90 413f
00000280: 0ab8 4e3d c652 6cbe 96e2 56bf 4d55 0f3f
00000290: 66ed 6d3f 01d0 8bbf 9ad1 adbf 50b2 b0bf
000002a0: 4d13 acbf 58d7 de3d 31f1 a23f 39e0 0a3e
000002b0: 7d93 3e3f 3de8 173f 64b8 03bf ca40 e83e
000002c0: 299f 903e a02c da3e 925a 90bc ee29 953e
000002d0: 381e 1dc0 0b60 23c0 cbc2 4d3f 83cc c7bf
000002e0: dfdd 42c0 6ff9 1cc0 60ed 3dc0 1139 b53a
000002f0: 84fe f2be 7401 efbe 1b1d d53f c035 96be
00000300: 409d 2cc0 3584 463f d1b2 893e ab95 433f
00000310: 72dc 763c f84a 2cbf 1bbc 533c a0e8 0340
00000320: d754 3e3d 3d65 b7bd 74cd 213f 2ebb 24be
00000330: 1125 303f 5cc4 1b3d 49e9 44be 52aa f8be
00000340: 0b66 0abf f815 43c0 2851 53bf 3c0a 213f
00000350: c931 33be 3989 383f 082e fb39 f0be 2ec0
00000360: 29cb 533e 9f33 1e3f 3176 c73d 0d6e 373e
00000370: be6e ba3e 805c 6b3e b915 c33e 7535 a23a
00000380: fd67 253e 64a9 07bf 1664 753d d0be f03e
00000390: 53d7 88bf 8168 1ebf 5306 5bbf e446 1dbf
000003a0: af7f eabc b559 cb3b 0177 fbbd ca4f 9e3f
000003b0: d1fb 6f3e 6edf 17be 1e62 273e 6abd b9bd
000003c0: 5998 303e 6789 5c39 bb6e cf3e 5458 9d3e
000003d0: 862b 64bd afd9 6dbf 0208 ea3f b9c4 813f
000003e0: cd20 d43f 4cc5 823f cc50 223d c555 e13e
000003f0: 6123 cfbf d61c cfbf 9a8a e6bf 6f46 e5be
0.43570712 -0.4461155 0.055795502 0.2673828 0.4339961 0.55202115 0.40586743 -0.049466934
0.091756 -1.5911331 0.14146875 0.14084236 -3.340519 -0.8567529 -0.35344094 -0.7162107
0.040092215 0.8137072 1.8603104 2.6445177 -1.1653256 1.7250185 2.4094527 1.8440588
2.3893743 0.0024792624 0.37893215 -0.36003032 1.5456862 1.3500806 0.1643537 0.16724382
-0.63796437 0.2356224 0.028181113 1.4404364 0.47035512 -0.4523962 -0.21083309 0.16492698
0.40985727 0.51997197 0.3608063 0.07233215 -0.2924053 -3.347345 1.1784277 0.2821307
-1.5147085 -3.9752326 -2.3610692 -3.9596229 0.025231699 0.447829 -2.427953 -2.3642693
0.7629724 -1.6420792 -2.9623046 -2.338711 -2.94401 -0.014495152 -0.54860014 -0.7003511
-2.4199317 0.028079309 -0.80104816 -1.0394708 -0.969559 -1.0263971 0.0012075868 -0.32229674
-0.8755271 0.9474992 -1.3402172 -2.2714863 -0.23308946 -0.5703402 -0.22823606 -0.020426106
-1.9777914 0.54371136 2.9761372 0.06394706 -0.90595204 1.5764966 0.9688108 1.5860078
-0.01357832 -0.5312476 -0.5009941 -0.1317855 -0.92304265 0.00014870596 0.6409 0.3149012
0.7458668 -0.1527315 -0.9786626 -1.1340454 -0.07809181 -0.21655448 -1.2141373 -1.8177547
-1.366648 -1.8368429 -0.015374453 -0.117791876 -0.3982686 0.05438085 -0.29489926 -0.7519159
-0.58478725 -1.3528625 -0.5764706 -0.035915997 -1.2028767 0.025996597 0.4639036 0.2345234
0.36156633 -0.030504245 -0.23006037 -0.021014739 -0.011253752 0.21271244 -0.16012944 -0.6924877
0.19823235 -0.27245843 -0.30779278 -0.19768232 -0.3266473 0.0007576014 -0.031702045 -0.23538859
-0.062207725 0.14459795 -0.27561823 -0.37439132 -0.13487059 -0.37708616 -0.05783941 0.009933818
-0.7743264 -0.35184085 1.9839079 1.0982622 -0.10145713 0.40303653 -0.099330835 0.00028064256
3.5725555 0.47630522 -0.0013803329 -0.69663984 1.5744222 0.7366569 1.2352669 0.75610906
0.050468482 -0.2307845 -0.8393949 0.55989534 0.92940366 -1.0922853 -1.357959 -1.3804417
-1.344339 0.10880917 1.2729856 0.13562097 0.744438 0.5933874 -0.5145323 0.4536193
0.2824643 0.4261217 -0.017621312 0.29133552 -2.4549694 -2.552737 0.80375355 -1.5609287
-3.044792 -2.4527242 -2.9676132 0.0013826211 -0.47459805 -0.46680796 1.6649507 -0.29337883
-2.6970978 0.7754548 0.2689424 0.7640025 0.015067207 -0.67301893 0.012923266 2.0610733
0.04646763 -0.089548565 0.6320412 -0.16087028 0.6880656 0.03802906 -0.19229616 -0.48567444
-0.54061955 -3.0482159 -0.8254571 0.6290624 -0.1749946 0.72084385 0.00047908747 -2.730404
0.20682968 0.6179752 0.0973934 0.17913075 0.36412615 0.22984505 0.3810251 0.001237555
0.1615295 -0.52992845 0.059909903 0.47020578 -1.0690712 -0.6187821 -0.85556525 -0.61436296
-0.028625337 0.0062057623 -0.122785576 1.23681 0.23435904 -0.14831325 0.16346022 -0.09069331
0.17245616 0.00021032021 0.40514168 0.30731452 -0.05570557 -0.92910284 1.8283694 1.013816
1.657251 1.021646 0.039627835 0.4401075 -1.6182672 -1.6180675 -1.8011048 -0.447803

linear_in.bias f4 [32]
00000000: 0756 6a3e d161 183e 14b8 8dc0 bd93 84c0
00000010: 1c37 5c3e ace4 42bf fecc 2c40 b7cc 6240
00000020: f332 0cbf 74b3 cec0 6ac6 46be 71dd 8b3d
00000030: 2711 013e a0a8 2ebe 3e11 b93e 1724 b13c
00000040: 122b b140 7929 113e 1715 5cbe d4b3 1abe
00000050: 2624 6240 c45e 89bf 1eb3 78c0 838a e140
00000060: 0cd0 90be cad6 84bd bd76 7abf ef8b b53e
00000070: d435 f83f 7e0a 213f f2f0 4b3e 2aa4 2abf
0.2288438 0.14881064 -4.4287205 -4.1430345 0.21505398 -0.76130176 2.7000117 3.5437448
-0.5476524 -6.459406 -0.19411626 0.06829346 0.126042 -0.17056513 0.36145967 0.021623654
5.5365076 0.14175977 -0.2149242 -0.15107661 3.5334563 -1.0732045 -3.8859324 7.048158
-0.28283727 -0.0648628 -0.9783743 0.35458323 1.9391427 0.62906635 0.19916132 -0.66656744

linear_32.weight f4 [32, 32]
00000000: e8fe b9b9 fa66 403d acba 75bc ffa4 9d3c
00000010: 0f2f fd3b bd81 c23e d176 323e b928 76bf
00000020: b4d9 d93d 3100 96bd 70a6 a0bc 3b3d b93b
00000030: 3502 99be d056 6a3d b6e3 e4bb 6f62 e83b
00000040: 3438 18be e49c 3e3b f20f 20bc 7a2d 2abe
00000050: ce43 b6bd f625 3bbe 97e4 973d 832c 15be
00000060: 565e 083c 3466 e9bc c24a ca3c 652e 32be
00000070: 8f53 07bd 742e 1f3e 3509 f8bb cde6 113e
00000080: 9af4 73ba 3ef8 8abd 5ba3 6fbe 0561 29bd
00000090: 0e76 94bc 9732 453e ce13 e4bd 7f68 5bbf
000000a0: 3626 b5bc ee8c 84bd e44b 5f3d 040f 33be
000000b0: 7bcd 683e f4a8 b63d 89bc 163b fb29 173c
000000c0: c671 e5be 35be fd3b e229 c2bd eb98 933e
000000d0: 69e9 6ebe ce20 1ebd 6820 65bd 875e 3f3e
000000e0: 4918 563c 5c33 2dbc b6e4 fe3c 14e2 9d3e
000000f0: 7278 9ebd e193 63be f5cd 683b 8185 603e
00000100: 3222 973d 2d7b c33d 4d28 c0be fabe f6bd
00000110: 3e98 26bc c5a2 833e 83fa 5cbe 545c a4bf
00000120: 956b 8bbe b9a7 8dbe f118 4f3e bb0f 143e
00000130: aff1 2e3e c9b5 003e 5bd1 8e3c 9936 16b8
00000140: 57b5 c2bd a942 503d 405c 133d ca65 533b
00000150: b443 babe de39 c4be bb02 8abd cb54 b6bd
00000160: b589 6e3c beb2 e83c 8adb 533c bd72 573e
00000170: 8665 92be f17d 21be 0839 1dbd eea5 683e
00000180: c89a 003d 5d19 b6bd 95d8 f9bd 6f61 06be
00000190: f59f dfbb ad87 a3be d479 a1be ca63 633f
000001a0: b6a0 ad3e 66c4 d83d 80fd 70bd e8f1 923d
000001b0: a968 0a3f 9c77 ebbc 1cba a4bb ded3 26bc
000001c0: d5fa c23e ef5a d8b9 2b98 5d3c e570 bc3e
000001d0: 2476 34bd 9071 e13e 23e1 f8bd 3366 153e
000001e0: 8cd5 9bbc 1151 6e3d f20f 9dbc 87da 7d3e
000001f0: 98d2 8bbe 9e44 17bf f027 0d3b cc30 2abe
00000200: c9e0 c5bc 69b5 0ebe e21b 49be ff53 e7bd
00000210: 582f 31bc 4c7c 013e 08b6 d7b8 0f05 a8bf
00000220: f251 e5bd cd37 93be 4524 85bc c90b 90bd
00000230: 8e76 36be e502 3e3d c44e 8c3b 7704 d6bc
00000240: 6e23 49be fb09 c8bc 3a1f dfbd e78f 1fbd
00000250: 04f6 1ebe 54ef 4ebe fc2a b1bd bd9d 77be
00000260: 841b 443b ba87 32bd 42a1 f6bc f806 93bd
00000270: dc5a bebd 32f8 0b3e 2b56 94bc 9553 9dbd
00000280: 2967 f4bc 2b4a 2bbe 0b69 8dbd 6966 85bd
00000290: 4c28 3fbc d7a8 1b3e 726f 213e e5d5 a9bf
000002a0: f25b aa3c 0fc6 89be ad77 aebd ade1 a8bd
000002b0: 52f3 77be 330e 183d e9cb f839 d302 7cbb
000002c0: 7ff4 30be 1633 82bc 29ae e3bd e354 95bd
000002d0: d0ea 9d3b 626b 95bd 277b 73bd 3389 5cbe
000002e0: ffb9 9cba 9cd2 47bd c088 4cbb bbfc d1bd
000002f0: de6b d83c d520 9d3e 4d3b b13b 58a4 dcbd
00000300: d8ab 5c3c 60ef c83c 7a7d 003e fc92 fe3d
00000310: 0ae0 b4bc 34e5 a1be dbf0 1cbc efd2 5c3f
00000320: 25a3 08bf 0b9d 6dbd 942c a13d 7c8c 67bb
00000330: feaa 9b3d df7a 8dbd bc3e a4ba f37f 5a3c
00000340: d484 823e 8357 71bc 0e68 c63d 0a5b a1be
00000350: 1027 0f3e e1ef b9be 9124 c93d dd9b 193d
00000360: 9997 773a 39a1 073d e1ce 74bc 164e afbd
00000370: f77d d1bd fe43 8cbd 4ef6 84bc 5a8a d9bd
00000380: 9dff 43bb c3bc a23d 0147 893e 2392 063e
00000390: c596 5d3c 3346 0ebe 65d9 933d 08c1 ad3f
000003a0: ddfa 3b3e beb2 a03e 176a cbbc 8f1f 6a3c
000003b0: 9847 dc3d df45 2cbd 3624 813c 4940 b73b
000003c0: 0181 293e 3214 03bc 494d 933d be55 f93c
000003d0: 6802 6a3e 86e2 8d3e 0b4e f53d 58b6 633e
000003e0: 3bce 89bb da1f a23c 263b 3f3c af9e e13c
000003f0: 9d4b 363e 0434 29bd 67b5 133c 16f5 773b
-0.0003547587 0.046973206 -0.014998119 0.019243715 0.007726557 0.37989607 0.17428137 -0.9615589
0.10637227 -0.07324255 -0.019610614 0.005653051 -0.29884496 0.057211697 -0.006985153 0.0070918123
-0.1486519 0.0029085213 -0.009769427 -0.1661891 -0.088996515 -0.182762 0.07416647 -0.14567761
0.008323273 -0.028491117 0.02469385 -0.1740051 -0.033038672 0.15545064 -0.007569457 0.142482
-0.0009306163 -0.0678563 -0.23402159 -0.04135229 -0.0181227 0.1925758 -0.1113659 -0.85706323
-0.022112947 -0.06472193 0.054515734 -0.17486197 0.22734635 0.08918944 0.002300056 0.0092263175
-0.44813365 0.0077436217 -0.09480645 0.28827605 -0.23331226 -0.038605504 -0.055939108 0.18688403
0.0130673135 -0.010571327 0.031114917 0.30836546 -0.07737817 -0.2222438 0.003552315 0.21925928
0.07379569 0.09544978 -0.37530747 -0.12048145 -0.010168133 0.2571012 -0.21579938 -1.2840676
-0.27230516 -0.27667025 0.20224358 0.14459126 0.17084382 0.12569346 0.017433813 -3.5813635e-05
-0.09507244 0.050844822 0.03597665 0.0032256716 -0.36379778 -0.383254 -0.06738802 -0.08902892
0.014559199 0.028405543 0.01293076 0.21039863 -0.2859308 -0.15770699 -0.038384467 0.22719547
0.03139761 -0.088915564 -0.12199513 -0.13123105 -0.0068244883 -0.3193945 -0.3153826 0.8882414
0.33911675 0.10584335 -0.058835506 0.07175046 0.5406595 -0.028743558 -0.005027069 -0.010182349
0.38081995 -0.0004126648 0.013525049 0.36804882 -0.04405798 0.44031954 -0.121523164 0.14589767
-0.019022726 0.05818278 -0.019172642 0.24790393 -0.27309108 -0.59089077 0.0021538697 -0.16620177
-0.024155037 -0.1393639 -0.19639543 -0.11295318 -0.01081451 0.12645072 -0.00010285905 -1.3126544
-0.111972705 -0.2875351 -0.016252646 -0.07033498 -0.17818663 0.04638948 0.0042818505 -0.026125176
-0.19642422 -0.024418822 -0.10894628 -0.038955595 -0.15523535 -0.20208484 -0.08650777 -0.24181266
0.0029923627 -0.04358647 -0.03010619 -0.071790636 -0.09294674 0.13668898 -0.018107494 -0.07681958
-0.029834347 -0.16727512 -0.06904801 -0.06513674 -0.011667322 0.15201126 0.1576517 -1.32684
0.020795796 -0.2690892 -0.0851892 -0.08246169 -0.24213913 0.037122916 0.0004745417 -0.0038453832
-0.17280768 -0.0158935 -0.11117203 -0.072915815 0.0048192516 -0.07295872 -0.05944362 -0.21536712
-0.0011957287 -0.048784837 -0.003120944 -0.10253283 0.026418623 0.3068911 0.0054086805 -0.107735336
0.013468705 0.024528205 0.12547866 0.12430379 -0.022079486 -0.3162018 -0.009578909 0.8625936
-0.5337394 -0.058011096 0.07869831 -0.0035331538 0.076009735 -0.069082014 -0.0012530903 0.0133361695
0.25491965 -0.014730337 0.096878156 -0.3151477 0.13979745 -0.36315826 0.098214276 0.03750216
0.0009444892 0.03311274 -0.014941902 -0.085598156 -0.10229104 -0.06848906 -0.016230728 -0.106220916
-0.0029906996 0.0794616 0.26811984 0.13141684 0.013524716 -0.13893966 0.07219199 1.3574533
0.18357415 0.3138637 -0.024830861 0.014289751 0.10755843 -0.04205882 0.015764337 0.00559238
0.16553117 -0.00800042 0.07192475 0.030436393 0.2285248 0.27711886 0.11977776 0.22237527
-0.004205493 0.019790579 0.011671817 0.027541487 0.17802282 -0.04130937 0.009015418 0.0037835292

linear_32.bias f4 [32]
00000000: 159d cd3d 7928 d13d 9273 9c3d 569d 02be
00000010: 11fd fd3d 7c3c 013e 7478 65bd 297a e0bd
00000020: 7503 d7bd bbf4 99bd 2e91 d9bd f8de c0bd
00000030: 2494 eb3d 5649 e8bd 9d87 eabd 4de6 b3bd
00000040: cd1b e73d ffba b93d cc6b ca3d 8baf f6bd
00000050: 99e5 01bd dd62 a53d 41c0 bc3d 6aa2 efbd
00000060: 748a f4bd 1ee0 38bd f492 003e ee80 243e
00000070: 87ad bd3d 815d 5fbd 5130 88bd 49b2 bd3d
0.10039727 0.10212798 0.07639231 -0.12755331 0.12401784 0.12620729 -0.056023076 -0.109608
-0.10498706 -0.07517382 -0.10623394 -0.09417528 0.11502865 -0.11342113 -0.114516474 -0.08784161
0.112845995 0.0906887 0.09883842 -0.12045201 -0.031713102 0.08075497 0.09216357 -0.117009
-0.1194047 -0.04513561 0.12556058 0.16064808 0.09261613 -0.05453253 -0.066498406 0.09262521

rnn.weight_ih_l0 f4 [32, 32]
00000000: 2d91 c93d 3ea6 f5bd 4e32 c53d 9b9d 60be
00000010: 6ac9 b03d 7e6d 9e3d 489f 5c3d 438f 8dbd
00000020: c853 ccbd fc36 48bd 933d bebd 7c24 b2bd
00000030: 38fc 9f3d 3b37 88bd 67a0 a7bd 3f64 adbd
00000040: 46ec 873d fac7 b43d bc5a 093e 452f 96bd
00000050: 912e 713d 0fdd 75bd 7a91 c83d 794d 67bd
00000060: 86bb 9ebd ee69 07be a4a6 843d dc63 aebe
00000070: 0018 293e be36 88bd ea10 8bbd 2291 173e
00000080: fcd9 c03b 7b8b 003c af60 32bd 33a9 d13d
00000090: a131 debd e591 b5bd 087a 91bd a062 f63d
000000a0: c4fb 6a3d 3fd6 433d 592c 1a3e 693b c1bb
000000b0: cbf0 08be bd52 2cbb 4176 d43d 7c11 d2bb
000000c0: 8716 18be cd19 1bbd 2633 6abe b2a8 f53d
000000d0: 97a4 4dbd cd0d 9bbd aea1 c0bc cabc 313c
000000e0: 9400 463d cf1b 0b3d eae8 a9bd 2357 93bd
000000f0: 80ae a2bc aa47 253c c2e5 40bc 0e27 d4bd
00000100: 51b1 e43d ac4e 85be 2eb2 483d 9fbd 70be
00000110: c4e3 373d f494 6d3d e3ff 0b3e ab32 7abd
00000120: 5c30 a2bd b7d5 803c 3fcd 96bd 552a a9bd
00000130: 0c12 ab3d 7897 67bd bdca a9bd 7bc3 d4bd
00000140: a3ed 363d e6c9 e23d 5502 c03d 0bb6 79bd
00000150: 63eb 293e 3820 1fbe 9658 a43d 1678 7bbd
00000160: f224 82bd ce40 d0bd 43ca 423d c21c 12bf
00000170: 8dcc 743e 1885 bdbc e93c 72bd ead0 f63d
00000180: 1ace a63c 5f1c 86bd 6126 13be 46d3 a63b
00000190: fadb 71bd 405b d9bc 42a8 5e3d 62cc a33d
000001a0: 20b4 ad3d fe4b fd3d a62f 673d 09f6 5a3d
000001b0: 68f1 5fbd 2d3f 873d 3522 693d 8791 a73d
000001c0: 3368 2bbd 14fc bbbd 14fe f5bd 8aab 083d
000001d0: 5156 393d d443 ecbd 28c6 f2bd 3adb 333d
000001e0: 03ac 6a3d 8c21 3f3e 71d7 c13b cb22 32bd
000001f0: 310b a5bc 683a cb3d e190 b43d 7225 f1bd
00000200: 11fa 103e dc86 8ebe 2671 2cbe e6f7 b4be
00000210: dd0c 4ebd fc5b 0c3d 188d 783e 77b8 903d
00000220: a7dc a33d 0e65 0d3e 9692 483d 7597 9f3d
00000230: 0aa8 98bc 8a7e b63c 4745 423d 6341 023e
00000240: 635e febc 35cb efbd 0303 f9bd 507d 313c
00000250: eacf 6e3e 0bd1 1dbe 155c eebd 9b6d 93bb
00000260: 628b ee3c 6793 603e b1e6 d63d 59f1 9fbc
00000270: 9efb 473e 5db3 123e e7fb d03d 22f4 17be
00000280: 2aa7 b73d 0c08 c3bd d76a 40bd cc26 8dbd
00000290: 29e3 d2bd 0bc4 61bd 5589 b0bc 4359 d53d
000002a0: a199 663d 8641 153d 1f28 153e 20d6 dabc
000002b0: 2603 f9bd 8449 98bc d19b c13d 417e 6e3c
000002c0: ed78 1bbe 9373 0dbd 3dff 4cbe 3c13 a83d
000002d0: 8d4e 9a3b d66b eebd bcff febc 421b c7bb
000002e0: 1123 933c 3bfe aa3b f297 2ebd 7a1b 57be
000002f0: a5da 243e 488f 5b3a 6a18 9ebc 0158 e2bd
00000300: 031e 7e3d 405b 42be 1e92 3abe cd20 41be
00000310: 27d2 d5bc 3d14 8d3d 3484 a33c 6074 583d
00000320: 0397 6b3d f145 5e3e 80da 6f3c 573b 343d
00000330: 6365 e73b 3dd4 a73b 149f 023c 7ce1 ac3c
00000340: 4dc3 893c d97b a1bc afbb aabd f540 703b
00000350: ed65 f63c abef bcbe 9aa8 abbd 1cd8 a3bc
00000360: e556 073d 27b9 813e 5a9c 9e3d 87e9 00bf
00000370: d872 143e e886 ed3d 77a7 b53d 28a7 ccbd
00000380: b66d 283c 8c52 633d 96e6 ce3d 72c7 edbc
00000390: 53e0 733d f8e5 0c3d 9127 8d3c acb6 a2bd
000003a0: f626 9dbd d040 c6bd 1eeb bcbd 268c 2bbc
000003b0: ae60 863d 3653 0c3c a08c 8dbd ffef 1bbd
000003c0: a883 783d 8bbb 693d 9b45 193e a160 52bd
000003d0: 0a68 883c e266 173e 1501 913d 3ccc dfbc
000003e0: 220e 88bd e4e1 04be 5be9 1a3d c2ce 4b3e
000003f0: 0d49 70bc 89cc 2fbd 7110 b8bc b297 fb3d
0.09842143 -0.11994599 0.096287355 -0.21935122 0.08632167 0.07735728 0.05386284 -0.06912091
-0.099769175 -0.048880562 -0.09289088 -0.08698365 0.07811779 -0.066511594 -0.08184891 -0.08466386
0.066368625 0.08827205 0.13413519 -0.07333235 0.0588823 -0.06002527 0.097933725 -0.056470368
-0.07750611 -0.13224003 0.06477097 -0.34060562 0.16513062 -0.06651066 -0.067903355 0.14801458
0.0058853608 0.007845755 -0.043549236 0.1023735 -0.1084931 -0.08865718 -0.07103354 0.1203053
0.05736901 0.047811743 0.1505598 -0.005896975 -0.13373105 -0.0026294433 0.10374118 -0.0064107757
-0.14852343 -0.037866402 -0.22871074 0.11995067 -0.050205793 -0.07570992 -0.023514595 0.0108482335
0.048340395 0.033962067 -0.08296378 -0.071943544 -0.019858599 0.010087887 -0.0117735285 -0.103590116
0.11166633 -0.26036584 0.04899805 -0.23509835 0.04489495 0.05800338 0.13671832 -0.061083477
-0.0791938 0.015726907 -0.07363366 -0.08260027 0.083530515 -0.056540936 -0.082906224 -0.103888474
0.04466022 0.11073665 0.09375445 -0.060964625 0.16593699 -0.15539634 0.08024709 -0.06139382
-0.06354703 -0.101686105 0.047556173 -0.5707513 0.23906155 -0.023134753 -0.05914012 0.12051566
0.020361949 -0.0654838 -0.14370109 0.0050911037 -0.059047677 -0.02653277 0.054359682 0.07997967
0.08481622 0.1236801 0.056441925 0.053457294 -0.054673582 0.06603847 0.056917388 0.08182054
-0.04184742 -0.091789395 -0.12011352 0.033366717 0.045248333 -0.11536375 -0.118542016 0.043910243
0.05729295 0.18665141 0.005915575 -0.043490212 -0.020146938 0.099232495 0.08816696 -0.1177472
0.14157893 -0.27837265 -0.16840038 -0.35345381 -0.050305236 0.03426741 0.24272573 0.07066434
0.080010705 0.1380808 0.04896792 0.0779256 -0.018634815 0.022277135 0.04742935 0.12720256
-0.031050866 -0.117086805 -0.121587776 0.0108330995 0.233215 -0.15411775 -0.11638657 -0.00449915
0.029119197 0.2193123 0.1049322 -0.019524263 0.19529578 0.14326234 0.102042966 -0.14839223
0.08967431 -0.09523019 -0.04697689 -0.068921655 -0.102972336 -0.0551186 -0.02154986 0.10417416
0.056298856 0.03643944 0.14566086 -0.02671343 -0.12158804 -0.018589742 0.09453548 0.014556468
-0.15182848 -0.03453405 -0.2001924 0.08206794 0.004709071 -0.11641662 -0.031127803 -0.0060762474
0.017961057 0.005218295 -0.042625375 -0.21006575 0.16099031 0.00083755376 -0.01929875 -0.11051942
0.06204034 -0.18980122 -0.18219802 -0.18860169 -0.026101185 0.06888626 0.0199605 0.05284536
0.057517063 0.21706368 0.014639497 0.044001903 0.007061647 0.0051217363 0.0079724975 0.021103613
0.01681676 -0.019712375 -0.08336579 0.003665981 0.030077899 -0.36901602 -0.083817676 -0.02000051
0.033041853 0.25336573 0.077446654 -0.50356334 0.14496934 0.11597997 0.08869832 -0.0999282
0.010280063 0.055498645 0.101025745 -0.029025767 0.059540104 0.034399003 0.01723078 -0.07944998
-0.07673447 -0.09680331 -0.092245325 -0.010470426 0.06561409 0.008564761 -0.06911588 -0.038070675
0.060672432 0.05706362 0.14967959 -0.051361684 0.016651172 0.1478534 0.070802845 -0.027319066
-0.066433206 -0.12976795 0.0378202 0.1990309 -0.014665854 -0.04291967 -0.022468777 0.12284793

rnn.weight_hh_l0 f4 [32, 32]
00000000: 5055 7ebe 46e8 2d3d 59e0 2ebd ad47 b13c
00000010: f534 913d 890f 4e3d cd3e 233d 6f3a 5b3a
00000020: d37b 2abd 4ab8 9a3d 719f 06bd 03ee a53c
00000030: b3ae 1f3d a3d5 083d 8f59 7b3d 53eb 60bd
00000040: 2437 8ebc 50b2 69bd 629a 12bc 8a6c 363d
00000050: 04cb 24be 73ae f73d 5ca6 1a3e d757 4ebd
00000060: 3ab6 ee3c 7e49 2c3d 7661 583d 72d9 0e3d
00000070: 21d9 5e3d e633 843c 59d4 3fbd ac25 8ebc
00000080: de36 653b bb4b 5ebe 817e 063c 783a 10bd
00000090: e555 bf3b 39b8 95bd 68bf 3dbd 1c2a 683d
000000a0: 20b2 4d3d 3a42 0aba 78ac 793b 186a 52bc
000000b0: 47a5 41bd 4861 2fbc 2118 e1bc 3f80 183c
000000c0: 1b89 53bc a5c7 bebb eb6a e03c 9b84 69bd
000000d0: 3d38 733d bcef afbc cc38 c6bd 05be a23d
000000e0: d059 10bd a090 ebbd e9d5 a5bd 9ba5 0fbe
000000f0: 1ba3 93ba ce32 063b 16f8 073d 4944 72bc
00000100: e1e0 833c f0d2 133d 9ba1 48be 3e0f a93d
00000110: d608 f83d 132c 8e3d 6891 ae3d 7a84 8ebd
00000120: 9488 96bc 7fc2 4d3d 5199 2dbd 7e91 8f3d
00000130: 8093 a2bb 0667 f73c a66c a83d f41f 19bd
00000140: 8977 13bd 661c b2bd 7227 3b3b 9481 623d
00000150: 4510 0bbe 122d c43d 8f44 183e 27bf 73bd
00000160: 025a cc3d 399a 57bc 4972 313d edb4 d9bc
00000170: d414 b03d 79ed 05bd d81e d3bc a21e fcbc
00000180: c7a8 193d cbc3 97bb 2186 243b b00b 87be
00000190: f2bd c0bc b315 72bd 5d26 11bd 860f 0d3d
000001a0: 811c 8d3b 4309 2cbd d20e c83c f853 68bd
000001b0: 3c6a 20bd 6697 56bd 2cdf 3fbd 07b4 253d
000001c0: e962 b63c bfa9 0c3d dd2b d73c 749f 5cbd
000001d0: 82ba 2d3e 71da a3bd 27cc 1cbe daf7 113d
000001e0: a5d0 8ebc 4f03 32bd 4e66 94bd b976 1cbd
000001f0: a0ff b8bc 3d18 863d 2507 8a3d 3685 5a3d
00000200: 218a b03d a1e2 7fbd c36d 883d 1242 bfbd
00000210: 95fd 87be 1df6 0bbd 9af9 8b3b 3e73 9b3d
00000220: e9b1 c0bb cad1 75bd f605 2d3d 0ede a8bd
00000230: 341a 9bbd 1af7 93bd d4e7 c3bc 80ac d73d
00000240: 4469 d53d 9691 8f3d a402 e13d aba1 84bc
00000250: 6aaa 383e 9e66 9ebd 316c 2cbe 52e1 cdbc
00000260: bca6 213c 9597 583c 8fd2 10bd ede4 92bc
00000270: 3b3d 02bd ce47 823d b640 323b 4790 0f3e
00000280: 04ca c33c 08c4 85bd 756d 133d 5e65 afbb
00000290: 4e4d 183d d9a5 72be fd34 5d3c 3208 813c
000002a0: 213b 7e3d 2ef4 c1bb 5715 74bc b49b 8439
000002b0: 39b3 8ebd 7adf a1bb cafe f83c 7cf4 42bc
000002c0: 0bb3 dd3b 15fb 23bd 6731 3b3d a57d b9bc
000002d0: 9929 4e3d 73bd 78bc fc3a 33bd 5c67 df3d
000002e0: 91e3 8bbc e987 e5bd afeb 8bbd 37e9 1abe
000002f0: 7c3d ea3b 45db 0fbc 9d5f 053d 0bb7 293d
00000300: 6e21 8a3d 7694 8ebc 074e 7d3d 567a 23bd
00000310: 5ee0 e3bc 33d7 b4bc cc27 7bbe 7ca7 d6bb
00000320: feff 8bbd 2a33 39bd d57a 3c3d 437b 20bd
00000330: 8fbd f6ba c2fe e8bc b88f 573c 2bc2 da3b
00000340: ed4c 163d 5191 ce3c b2f9 6f3d 4b9f a9bd
00000350: 7739 9e3d de83 07bd 8aec cbbd 30ce 4b3c
00000360: cc2d 14bd bd39 303a dbbf febd ec87 5cbc
00000370: d114 5dbd 2b40 933d 52d4 303d ef69 323d
00000380: 3f6d 8fbd 30ba b53c 70ec e7bc d89c 623d
00000390: 72cd 383d 570b 3b3d 30a2 133d 2544 87be
000003a0: 516b 513c c603 1d3c 3ce1 42bd 3020 ae3c
000003b0: bbb2 773d ca6c 7c3d 8387 86b9 916b bcbc
000003c0: ff22 3fbc 12ac f7bc 9f97 81bd 5d9d 773d
000003d0: 2795 02be e255 aa3d a0bf f13d 13bf 55bd
000003e0: d559 9f3c e910 a03d 8155 ad3d 0021 c03d
000003f0: b2f1 0a3d e874 99bc 6b21 84bd 2c4d e7bb
-0.24837232 0.04245784 -0.042694423 0.021640623 0.07090179 0.050307784 0.039854813 0.00083628943
-0.041621994 0.075546816 -0.0328669 0.020255094 0.038984966 0.033406865 0.061364707 -0.054911923
-0.017360277 -0.057054818 -0.008947941 0.044537105 -0.1609307 0.120938204 0.15102524 -0.05037674
0.029139627 0.042062275 0.05282732 0.03487534 0.05440629 0.016138028 -0.04683337 -0.017351948
0.003497533 -0.21708576 0.008208872 -0.03521201 0.005839097 -0.07310528 -0.046325117 0.056680784
0.0502187 -0.0005274151 0.0038097184 -0.0128426775 -0.04727676 -0.010704346 -0.027477326 0.00930792
-0.012911106 -0.0058221393 0.027394732 -0.057011228 0.059379805 -0.021476619 -0.09678802 0.079463996
-0.035241902 -0.115021944 -0.08097441 -0.14028017 -0.0011263819 0.002047706 0.033195578 -0.014786788
0.016098442 0.036089838 -0.19592898 0.0825486 0.1211106 0.06942 0.08523828 -0.06958862
-0.018375672 0.050234314 -0.042382542 0.07010172 -0.004961431 0.030200493 0.08223848 -0.03738399
-0.03600267 -0.08696823 0.0028557447 0.055299357 -0.13580425 0.09578909 0.14869903 -0.05950847
0.09978105 -0.013159328 0.04332188 -0.02657553 0.08597723 -0.032697175 -0.025771543 -0.030776326
0.037514474 -0.0046314946 0.002510436 -0.26376104 -0.023528073 -0.059102725 -0.035436977 0.034438632
0.0043063764 -0.04200102 0.02442113 -0.056720704 -0.039163813 -0.05239048 -0.046843693 0.04045489
0.02226396 0.03434157 0.026266033 -0.053863004 0.16965678 -0.08000649 -0.15312253 0.03563676
-0.017433474 -0.043460187 -0.072460756 -0.03819916 -0.022582829 0.06547592 0.06739644 0.053349696
0.08620096 -0.06247199 0.066615604 -0.09338774 -0.26560655 -0.03417026 0.004271698 0.0759034
-0.0058805835 -0.060014524 0.042242013 -0.082454786 -0.07573357 -0.07224865 -0.023914255 0.10530949
0.104204684 0.0701019 0.10986832 -0.01619037 0.18033758 -0.077344164 -0.16838147 -0.025131855
0.009866413 0.013219734 -0.035357054 -0.017931426 -0.031796675 0.06361352 0.0027199215 0.14019881
0.02390004 -0.065315306 0.03599306 -0.00535266 0.0371831 -0.23696078 0.013501403 0.015750978
0.06206811 -0.005919001 -0.014897666 0.0002529301 -0.06967778 -0.0049399706 0.03039493 -0.01189911
0.0067657284 -0.040034372 0.04570141 -0.02264292 0.05033264 -0.015181887 -0.043757424 0.10908386
-0.017076286 -0.112075634 -0.068320625 -0.15128027 0.007148443 -0.008780305 0.032561887 0.04143433
0.067446575 -0.017404776 0.06184199 -0.03991159 -0.027816948 -0.022075271 -0.245269 -0.0065507274
-0.06835936 -0.04521481 0.04601558 -0.03918005 -0.0018824803 -0.02844179 0.013156824 0.0066759787
0.036694456 0.025215777 0.058587737 -0.08282336 0.07725804 -0.033084743 -0.099572256 0.012439296
-0.036176488 0.0006722471 -0.12438937 -0.013460141 -0.05397493 0.071899734 0.043171234 0.043558057
-0.07003259 0.022183508 -0.028310984 0.05532536 0.045117803 0.04566511 0.036043346 -0.26419178
0.012781934 0.009583419 -0.04757808 0.021255583 0.060473185 0.061627187 -0.00025659436 -0.02300051
-0.011666059 -0.030233417 -0.063277476 0.060452808 -0.1275221 0.08317162 0.11804128 -0.052184176
0.019452015 0.07815725 0.08463574 0.09381294 0.033921905 -0.018732503 -0.064516865 -0.00705876

rnn.bias_ih_l0 f4 [32]
00000000: 44d5 97bd 3517 be3d dca7 44bd 52bd cb3d
00000010: 262a 0a3e 9e5e a63d 3372 c13d 63af b7bd
00000020: dc47 e0bd 2664 cd3d 381a ccbd e50c a83d
00000030: b691 c13d c429 ac3d 3efc ff3d 713a aabd
00000040: 07be c1bd 76eb f0bd 0683 86bd 0c9d 0abe
00000050: f81c 0c3f 8e9a bebe 0e45 acbe c33c f7bd
00000060: 4622 783d ab64 c23d 51ef 853c 10eb e43d
00000070: d6ef c03d c0db b1bd afd9 99bd c3d6 8fbd
-0.07413724 0.0928177 -0.048011646 0.09948219 0.13492641 0.081235155 0.0944561 -0.08968999
-0.10951206 0.100288674 -0.09965938 0.082055844 0.0945162 0.08406404 0.12499283 -0.08311928
-0.09460073 -0.117636606 -0.065679595 -0.13536471 0.547317 -0.3722729 -0.33646435 -0.12072136
0.06057956 0.09491857 0.016349467 0.11177647 0.09420745 -0.08684492 -0.07512223 -0.070233844

rnn.bias_hh_l0 f4 [32]
00000000: 44d5 97bd 3517 be3d dca7 44bd 52bd cb3d
00000010: 262a 0a3e 9e5e a63d 3372 c13d 63af b7bd
00000020: dc47 e0bd 2664 cd3d 381a ccbd e50c a83d
00000030: b691 c13d c429 ac3d 3efc ff3d 713a aabd
00000040: 07be c1bd 76eb f0bd 0683 86bd 0c9d 0abe
00000050: f81c 0c3f 8e9a bebe 0e45 acbe c33c f7bd
00000060: 4622 783d ab64 c23d 51ef 853c 10eb e43d
00000070: d6ef c03d c0db b1bd afd9 99bd c3d6 8fbd
-0.07413724 0.0928177 -0.048011646 0.09948219 0.13492641 0.081235155 0.0944561 -0.08968999
-0.10951206 0.100288674 -0.09965938 0.082055844 0.0945162 0.08406404 0.12499283 -0.08311928
-0.09460073 -0.117636606 -0.065679595 -0.13536471 0.547317 -0.3722729 -0.33646435 -0.12072136
0.06057956 0.09491857 0.016349467 0.11177647 0.09420745 -0.08684492 -0.07512223 -0.070233844

linear_out.weight f4 [7, 32]
00000000: 3541 b33b 5fc1 bbbb 3eec bd3b 8a98 2aba
00000010: a9a8 7c3c 3c1f 943b b997 f6ba 7d95 7d3b
00000020: f1ce ac3b f298 cfbb 4590 ccbb f97e aebb
00000030: 8921 91ba ce34 f33a 1c04 b53a 3354 573a
00000040: 637d 4d3b 1c36 98b9 f489 613c a843 0e3c
00000050: 832f 10bb dc15 bb3b 06d3 1ebb b455 b5bb
00000060: 4b49 6cbb 09d9 7b3c ebea b43b 3d78 183c
00000070: e938 c1ba 303c d43b b44e 6f3a 4119 873c
00000080: 4999 34bf d53a 3b3f fe8c 39bf 151c 3d3f
00000090: 65cd 323f 83f8 413f 8b28 393f fcec 37bf
000000a0: 6098 d6be 4ab2 323f 66f7 34bf 3ce2 393f
000000b0: 042f 403f d55d 3a3f 8952 383f e5fe 30bf
000000c0: dbb6 33bf 6d6e 32bf 2eb7 3ebf 6154 d3be
000000d0: 96ec f23e 4dcc e4be e7c8 d7be b750 47bf
000000e0: 49d7 3b3f 361b 453f dedd d4be 84d2 463f
000000f0: 8a61 363f 3763 33bf 28d0 3bbf 1d06 39bf
00000100: 254b d1bd bd7c 07bd 3ff4 99be 2d34 413b
00000110: b32f 95bc 26f8 fcbd 0c8c 16be 128d 2f3d
00000120: e0d3 9a3c fb70 4fbd 5c51 b1bc 4ee7 4cbd
00000130: 80c7 593d 5be6 113d f79f 07bd 8276 11bc
00000140: ce6a e53b e1a8 323a 560b 39bd e5eb 89bb
00000150: e078 083d 1cf8 f3bc 272c 89bd 2029 823c
00000160: a499 51bf 9373 413e c61b 2abc d5c7 923e
00000170: e3e8 3dbd 3b08 aebc 5262 6d3b c3f8 09bd
00000180: eb45 ab3d 44df a1bd d79f bd3d ca09 f0bb
00000190: 69f6 4b3e c1ea 663c 9a52 ad3c 3a3c 373d
000001a0: b495 2c3d 793d b8bd 06c1 05bd 75f7 94bd
000001b0: 5c39 c93c bf10 e93c 63e2 943d 8963 063c
000001c0: 988d 273d 264b 0bbd 5cc7 483e 2ae7 433d
000001d0: feed 773c 1802 f63c d5a6 ea3a 278e adbd
000001e0: e80d e6bd 3664 373e ef99 223d edc4 723d
000001f0: 62e5 313c 6c44 833d d7b8 283c b3f8 3f3e
00000200: ac62 ce3c b90d d4bc fcb6 033d e7f6 70bb
00000210: a691 4b3d 66ae 233c b571 49bb cb5f d23c
00000220: d00e 733d 0c91 1bbd 899c cfbb 2f11 65bc
00000230: 1a4f e9ba 9d18 b13b 6a6b 7a3b 2273 1f3c
00000240: 3cba 893c dd69 f03b aa93 543d 1d48 a03d
00000250: bb9f 00bc b472 2b3d 6e9d ab3a 66d1 e0bc
00000260: ba4f 2aba 94a7 863d def8 8c3d d408 ed3c
00000270: 4681 a0ba 11f7 a93c 837f 18bb 41e4 563d
00000280: c247 e4ba 0b00 7ebb 97b3 ac3a db24 0a3b
00000290: 4dd1 25bb 3510 b5bb 89ba 5fbc 54e0 5f3c
000002a0: c208 fc3c 6450 75bc ebf9 823b ec7f 5dba
000002b0: 5ac9 a2bb 1d74 0dbb 14bb d6bb 69e8 0a3b
000002c0: 58c6 3c3c a73f 733c 2553 13ba 00d4 1d3d
000002d0: b357 6abb d497 a73c 2853 dbbb 39e1 f4bb
000002e0: 2a2b b03b 1edd e33b 15ea 123d 96b3 db3b
000002f0: 77a7 87bb 0b0f eb3a d72c 41bb d636 ca3a
00000300: e9ba e63a 6743 95b9 a75c bc3a 437f c439
00000310: 43ec 983b b89f ec3a 93c3 4dba b23b bc3a
00000320: a3eb 373b d0c2 43ba 6193 ebba 678c c3ba
00000330: 3ca2 45ba 176e 9cb9 8cd8 66ba ae04 883a
00000340: f45c a43a 7245 e53a 7fe7 0b3b ac1a ca3b
00000350: 65a7 98ba 7596 683b af64 46bb 0add 0dbb
00000360: 0d98 073b cff3 043b 8dd0 5e3b 7a8e 0f3b
00000370: 38e2 16b8 2ddd e93a a847 3cb9 8984 873b
0.00547042 -0.0057298387 0.0057959845 -0.00065077154 0.015421071 0.004520325 -0.0018813527 0.0038693838
0.005273693 -0.006335371 -0.006242784 -0.005325195 -0.0011072616 0.0018555166 0.0013810429 0.0008214146
0.0031355254 -0.00029032014 0.013765801 0.008683123 -0.0022000975 0.005709393 -0.0024234666 -0.0055338982
-0.0036054428 0.015371569 0.0055211685 0.009306011 -0.0014741692 0.0064769015 0.0009128854 0.016491534
-0.70546395 0.73136646 -0.7248076 0.73870975 0.6984466 0.75769824 0.7232749 -0.71845984
-0.41913128 0.698033 -0.7069 0.7261083 0.7507174 0.72799426 0.7200094 -0.6913894
-0.7020089 -0.69699746 -0.7449826 -0.41275313 0.47446126 -0.4468712 -0.42145464 -0.77857536
0.73375374 0.76994646 -0.4157552 0.7766497 0.7124258 -0.70073265 -0.73364496 -0.72274953
-0.10219411 -0.033077944 -0.30069157 0.0029480562 -0.018211221 -0.12352018 -0.14701861 0.042859145
0.018899858 -0.050644856 -0.02164524 -0.050025277 0.053168774 0.035620075 -0.03311154 -0.008878352
0.0070012575 0.0006815326 -0.045176826 -0.004209029 0.0333184 -0.029781394 -0.066978745 0.01588875
-0.8187506 0.18891744 -0.010382598 0.28668085 -0.046364676 -0.021244159 0.0036221934 -0.033684503
0.08362945 -0.07903913 0.09259003 -0.0073253857 0.19918217 0.014094056 0.021157552 0.04473517
0.042134956 -0.089961 -0.032654785 -0.07273761 0.024563484 0.028450368 0.07269742 0.008202442
0.04090652 -0.034007214 0.196073 0.047827877 0.015132425 0.030030295 0.0017902503 -0.08474379
-0.11233121 0.17909321 0.039697584 0.059269834 0.010857912 0.06409535 0.0102979755 0.18747215
0.025193535 -0.02588545 0.03215693 -0.003676826 0.049699448 0.00999031 -0.003073794 0.025680443
0.0593403 -0.037980124 -0.006335799 -0.013981148 -0.0017800063 0.0054045455 0.0038210996 0.00973204
0.016812436 0.0073368386 0.051898636 0.078262545 -0.007850583 0.041857436 0.0013093182 -0.027443599
-0.00064968655 0.06574932 0.06883405 0.028934874 -0.0012245558 0.020747693 -0.0023269362 0.052463774
-0.0017416405 -0.003875735 0.001317608 0.0021079096 -0.0025301755 -0.0055256137 -0.013655313 0.013664324
0.030765895 -0.01497278 0.0039970777 -0.0008449543 -0.0049678506 -0.0021584101 -0.006553063 0.0021195656
0.011521898 0.014846719 -0.00056199945 0.038532257 -0.003575784 0.02045814 -0.0066932626 -0.0074731377
0.0053762393 0.0069538495 0.03586777 0.006704758 -0.0041398364 0.001793356 -0.002947619 0.0015427719
0.0017603311 -0.00028469713 0.0014370874 0.0003747885 0.0046668365 0.0018052971 -0.0007849272 0.0014361052
0.0028064034 -0.0007467689 -0.0017973 -0.0014919162 -0.00075391284 -0.00029836662 -0.0008806072 0.0010377371
0.0012539909 0.001749201 0.00213477 0.0061677303 -0.0011646567 0.003549007 -0.0030272414 -0.0021646642
0.0020689995 0.0020286923 0.0033998818 0.002190499 -3.597347e-05 0.0017842405 -0.00017955771 0.0041356725

linear_out.bias f4 [7]
00000000: 3fd0 283d 548c c840 385e ddbd c75f cd3e
00000010: cd46 a93e 1932 3e3e f8c3 a13c
0.041214224 6.26713 -0.108089864 0.40112135 0.3306183 0.18573798 0.019746765

batch_norm_layer.weight f4 [32]
00000000: 8adf 8aba 319d 823e 6cac 7e3e 6f29 0c3e
00000010: 7ff0 613c ba39 8a3e 1740 e6bd f9f8 fdbe
00000020: 2503 8d3e 4023 283e 1bb3 44be c21a 1c3d
00000030: b40e 873e 588d f43c 058e 11bb 27eb b139
00000040: 160c 27be 1716 2c3a f478 503e bee8 ec3d
00000050: c8c8 89be 3524 8f3e 3a9c 243e 8295 19be
00000060: f644 143c 8e55 2bbc 3f35 543c b5c5 1fbe
00000070: 348d 90be 0101 3cbe 1747 423b 672d 7d3e
-0.0010595184 0.25510553 0.24870461 0.1368768 0.013790249 0.26997167 -0.11242693 -0.49604014
0.27541462 0.16419697 -0.19208948 0.038111456 0.26378405 0.029852554 -0.0022209894 0.00033935273
-0.16313204 0.0006564571 0.2035864 0.115678295 -0.26910996 0.2795731 0.1607522 -0.14998439
0.009049645 -0.01045741 0.012952148 -0.15602763 -0.2823273 -0.18359758 0.0029644424 0.24724351

batch_norm_layer.bias f4 [32]
00000000: 66ea 4bbd 625b 4dbd b923 633e 209f 463e
00000010: b2b4 aabd 4222 253e 8339 1d3e 5397 0abf
00000020: 0c51 d5bd b767 9f3e 3c50 c9bd 5f6a 813d
00000030: 2c44 49bd 4a40 8dbe 7008 59bc 0a15 49bb
00000040: dc99 a33e aee9 20bc 8255 3d3d 0cad 21bd
00000050: f3f5 413e e2ba 31be 797c 303e 7505 9f3e
00000060: 5ed6 62bd b6d2 81bd 2a78 50bd 70f8 f93d
00000070: 22d2 233e 2786 95be 8f0b 93bd d19e f5bd
-0.049784087 -0.050135978 0.22181596 0.19396639 -0.08335246 0.1612635 0.1535397 -0.5413715
-0.10415849 0.31133816 -0.098297566 0.06319117 -0.04913728 -0.2758811 -0.013246641 -0.0030682706
0.31953323 -0.009821339 0.046224125 -0.03947167 0.18941478 -0.17356446 0.17234983 0.3105885
-0.055380218 -0.06339018 -0.050895847 0.12205589 0.15998128 -0.29203913 -0.07179939 -0.119931825
