VehicalStateperML_RNN_epochs_100_BS:8.pth (torch, 19458 bytes, 12 tensors)

linear_in.weight f4 [32, 9]
000000 16 83 0e c1 ae 35 b5 c0 d8 cb fb 3e 02 71 9c c0
       -8.907003 -5.6628027 0.49178958 -4.888795
000010 c4 2c 1d c1 46 fa 90 c0 2a 86 1d c1 cb b8 49 bc
       -9.823429 -4.530551 -9.845255 -0.0123121245
000020 40 9b d0 bf 65 ae 8a 3e 57 10 5e 3f 05 58 5c bd
       -1.6297379 0.27086177 0.8674368 -0.05379488
000030 58 7c 93 3e c8 8c b6 3e 8c 62 4b 3e 4d 8a b1 3e
       0.28805804 0.35654283 0.19861811 0.34675828
000040 34 27 a3 ba e9 f2 3c 3e ce f3 3a 40 e0 76 7f 3f
       -0.0012447597 0.18452038 2.9211307 0.99790764
000050 97 5d 77 bf 9b db 7a 40 bb f9 7e 40 69 2d 78 3e
       -0.9662718 3.9196537 3.9839923 0.24236073
000060 a8 0b 84 40 a6 b8 4d 39 67 5f 23 c1 c7 10 7f bd
       4.126423 0.0001961911 -10.210792 -0.06227186
000070 8d 96 32 3f 63 65 3f bd 47 3d b6 bd e5 5f 98 bd
       0.6976097 -0.04672755 -0.088984065 -0.074401654
000080 5d a9 d8 bd fe 1a 8d bd 73 d6 8a 3d 4f dd 5a be
       -0.105791785 -0.06889914 0.06779184 -0.21373485
000090 76 5c f2 40 18 97 e9 3e b1 6e c7 3e 9c d9 92 3f
       7.5737867 0.45623088 0.38951638 1.1472659
0000a0 ce 6a 64 41 14 13 c6 40 70 c3 64 41 d8 3f 99 bc
       14.276075 6.189829 14.297714 -0.0187072
0000b0 52 41 48 bf 1b 27 98 c0 7f 8a bf be e6 36 8b c0
       -0.7822467 -4.7547736 -0.37410352 -4.3504515
0000c0 3d 0e 07 c1 cf 1e 6f 40 3d 76 0e 40 15 4a 84 40
       -8.440976 3.7362554 2.2259667 4.134043
0000d0 36 ba 73 3c 5c a3 e1 bf 57 ee cd bf 90 c7 05 40
       0.014875939 -1.7627978 -1.608836 2.0903053
0000e0 a4 60 e6 bf 12 48 dc c0 d5 bc 2e 40 05 c2 07 3e
       -1.7998242 -6.8837976 2.7302754 0.13257606
0000f0 4e 8f 38 40 b3 72 79 3d 4c 5e b9 c0 98 e8 d5 c0
       2.8837466 0.0609004 -5.792761 -6.684643
000100 a6 f4 99 c0 74 6a b8 40 97 e3 01 40 b4 27 08 c1
       -4.8111143 5.762995 2.029516 -8.509693
000110 a3 77 17 c1 54 67 01 c1 9e e0 8d bb aa df 39 40
       -9.466708 -8.087727 -0.004329755 2.9042764
000120 5e 46 25 c0 05 ec 0d 40 db 70 09 bf 02 cf 41 c1
       -2.5824199 2.2175305 -0.5368783 -12.113039
000130 61 9a 88 40 2e d4 37 3f e9 cb 8a 40 b4 2c 3f bd
       4.268845 0.71808136 4.3373914 -0.04667349
000140 23 3d 39 3f 16 1a b7 3e 64 89 5b be 7a ef 11 bf
       0.7235891 0.3576209 -0.21439129 -0.5700604
000150 5f fb 04 3f bc 22 82 3f 27 b7 90 3f b6 14 83 3f
       0.5194606 1.016685 1.1305894 1.0240695
000160 1c 45 10 bd 11 4b fb be 81 e7 11 3d 02 67 ab 3e
       -0.035222158 -0.4908071 0.03562117 0.33477026
000170 01 65 9e 3d a1 1d c2 3d 02 5f a1 3c 8f be ba bc
       0.07734109 0.094783075 0.019698624 -0.022795944
000180 6b 44 2d 3c ad 35 27 3c 9e 04 81 3e 1f 05 6d 3f
       0.010575394 0.010205668 0.25198835 0.9258594
000190 1a b7 06 c0 59 f8 91 3f 82 ee 8f bf e4 d6 60 40
       -2.1049256 1.1403915 -1.1244662 3.513116
0001a0 9d 3c 0b c0 87 30 61 40 11 99 cf 3d 85 c7 2e be
       -2.1755745 3.5185869 0.10136617 -0.17068298
0001b0 c9 8f bd c0 dc 73 17 40 08 79 82 bf df d6 ea 40
       -5.923802 2.3664465 -1.0193186 7.3387294
0001c0 b4 f8 03 c1 93 20 9d c0 8b 2e f6 c0 d3 6d 3c bd
       -8.248219 -4.9102263 -7.6931815 -0.046003174
0001d0 3d aa 1b c0 46 eb 0a bf a5 8c 39 3e b0 c0 3c 3e
       -2.4322655 -0.5426525 0.18120058 0.1843288
0001e0 b8 ba a4 be 1f ec 34 bf 91 16 18 bf d1 5f 39 bf
       -0.32173705 -0.7067279 -0.59409434 -0.7241183
0001f0 00 ad 82 3d 93 99 b2 3c e2 99 1c bf 44 ac ab 3e
       0.063806534 0.021801746 -0.61172307 0.33529866
000200 9e 6c bf bd 3a 72 ad be 22 84 24 bf 47 35 39 bf
       -0.09346889 -0.3387621 -0.6426412 -0.7234692
000210 ad 53 1f bf 3d 08 1e 3d 5b cf e2 bd 3b 62 c5 3f
       -0.62237054 0.038582075 -0.11074706 1.5420603
000220 dd ef 2e be eb 48 f5 40 79 58 22 3f a0 91 4f 40
       -0.17083688 7.665151 0.6341625 3.2432632
000230 1c 55 9d be 92 c4 48 40 c7 63 e0 3b ba 18 46 41
       -0.30728996 3.1369977 0.006847832 12.381037
000240 ef ff 94 3f cd b9 88 be ba 28 1b bd 41 61 f2 3c
       1.1640605 -0.26704255 -0.037880637 0.02958739
000250 3a e9 ab 3f 0a a2 d1 3e e3 82 aa 3f b8 34 c3 3d
       1.343055 0.40943938 1.3321193 0.0953154
000260 f4 b9 06 bf dc 90 02 bf c8 28 7c 3d 0a 7f 1e 3d
       -0.5262749 -0.5100229 0.06156233 0.038695373
000270 ac b3 4d bf 60 4b 3b bf f1 f8 a7 bf 88 fd 3e bf
       -0.8035228 -0.7316189 -1.3122846 -0.7460561
000280 c3 c8 22 bc c0 6a 7e bf 67 1c 65 c0 8e 90 04 bf
       -0.009935561 -0.9938164 -3.5798585 -0.5178307
000290 d8 4b 3c c0 02 42 b1 3f 45 1b 48 c0 53 42 9a 3f
       -2.9421291 1.3848269 -3.1266644 1.205149
0002a0 4f ba 4b c0 ae 26 8f 3d c4 b1 df bf f8 3d da 3f
       -3.1832464 0.069897994 -1.7476125 1.7050161
0002b0 02 f0 16 c0 37 b6 18 c0 80 9a 04 41 c5 38 38 bf
       -2.358399 -2.3861215 8.28772 -0.71961623
0002c0 12 83 99 3f 3f ac 66 bf 34 57 14 bd 51 50 6b c0
       1.1993124 -0.90106577 -0.036215976 -3.6767771
0002d0 d8 81 00 3e 52 7d 5f 3f 65 94 15 3f 24 02 44 3e
       0.12549531 0.873006 0.5842956 0.19141442
0002e0 da 8f 2e 3e 4c 5f d1 be 9d b7 3a 3e 7e f8 55 ba
       0.17047063 -0.40893018 0.18234105 -0.00081623334
0002f0 01 80 01 3f 71 7c bf 3f a8 c8 c7 3f 7a 6d f6 be
       0.50585943 1.4959852 1.560811 -0.481304
000300 f6 c4 11 41 05 ea 22 3e ed 20 f1 3f a3 f1 8c 3d
       9.110586 0.15909584 1.8838173 0.06882026
000310 1b 97 e6 bb 0f f2 ee 40 a8 84 01 bc 9a bb 11 bc
       -0.007037056 7.467048 -0.007905163 -0.008894825
000320 91 a3 b5 3a 35 ac 67 bc 89 1d cd bb c1 4a 51 3b
       0.0013857951 -0.014140178 -0.0062596244 0.0031935426
000330 de ce b4 3c 41 b7 a4 ba e8 79 64 bc fe 42 4f c0
       0.022071298 -0.0012566821 -0.01394508 -3.2384639
000340 68 20 22 bf 30 fe 34 41 7b 1e be bf 24 38 95 c0
       -0.633307 11.3120575 -1.4853052 -4.663103
000350 2a 81 d3 3f 54 f1 97 c0 31 b0 a3 bc 15 aa c3 40
       1.6523793 -4.748209 -0.019981476 6.114512
000360 0a ba 25 3f 2e d3 c2 be 00 49 3b bc 2c fe 0f 3f
       0.64737 -0.38051742 -0.011430979 0.5624721
000370 28 fe 1e 3f ff 8e 39 3f 63 80 1d 3f 93 0a 60 3a
       0.6210656 0.7248382 0.6152403 0.00085464976
000380 73 ff f5 3c 5b 19 4a 3f 95 1c e8 bd df ca 52 be
       0.030029034 0.7894494 -0.113335766 -0.20585202
000390 15 a4 91 c0 97 fa 17 40 e9 2f 28 bf 81 07 17 40
       -4.5512795 2.3746698 -0.65698105 2.359833
0003a0 3b f8 98 3d 73 7a 23 40 c0 45 a7 3f fb 06 8d 3e
       0.07469221 2.5543487 1.3068161 0.27544388
0003b0 39 84 b5 3f 64 2b 47 c1 ac 9e d1 40 a1 e6 a1 3f
       1.4180976 -12.448093 6.550619 1.2648507
0003c0 c0 4d ce 40 80 bf 40 3c 40 a3 8d bf 30 39 a0 ba
       6.446991 0.011764407 -1.1065445 -0.0012224074
0003d0 9b b1 4e bc 9e ae 91 bb f1 90 42 3b d5 43 b3 bb
       -0.012615587 -0.004445865 0.0029688443 -0.0054707327
0003e0 79 44 39 bc 40 1e 6e bc 75 c1 ec 3a 35 95 a3 bc
       -0.011307829 -0.014533579 0.0018063026 -0.019968608
0003f0 95 da 14 40 ba cc 0f 3f b2 7b c3 3f ae 77 a0 3e
       2.3258412 0.5617176 1.5272124 0.31341308

linear_in.bias f4 [32]
000000 0c c2 03 42 80 88 bc be f8 9e 92 c1 d8 a1 47 bf
       32.9395 -0.3682289 -18.327621 -0.7798133
000010 de d6 e0 40 b5 96 0c 41 f8 73 86 bf ec 8b 09 42
       7.026229 8.786794 -1.0504141 34.386642
000020 fe 4e d6 c0 1d 48 26 bf 86 31 b2 bd ae c5 8b bf
       -6.6971426 -0.64953786 -0.08700852 -1.0919702
000030 a0 9a c2 bf 28 7c 3f be f8 9f a7 be 5c 17 cf 3e
       -1.5203438 -0.18699706 -0.32739234 0.4044751
000040 d1 0f 03 3f 96 59 80 be 46 e2 b7 40 2d 99 46 c1
       0.5119601 -0.2506835 5.7463713 -12.412396
000050 a8 cc 03 c0 bf d0 08 c2 d9 95 e4 32 54 5d 15 41
       -2.0593662 -34.203854 2.6610836e-08 9.335285
000060 70 25 05 3e b9 54 0d c0 f6 d6 5b c0 1c fc 5a 34
       0.13002563 -2.208296 -3.4349952 2.0394549e-07
000070 f9 f9 46 bf 3e 50 1a bb 9d b2 25 3f 78 5e 9f c1
       -0.7772518 -0.0023546363 0.6472567 -19.921127

linear_32.weight f4 [32, 32]
000000 9c e2 0b 40 48 35 07 bd b6 65 08 bf 50 52 36 bd
       2.1857061 -0.033009797 -0.532802 -0.044512093
000010 58 45 a9 3e c1 e1 8d bc 77 c4 b4 3e 62 97 86 be
       0.33060718 -0.017319562 0.3530614 -0.2628737
000020 f9 46 87 bf ed 0e fb 3b 4a 43 b8 bc f3 c5 39 3e
       -1.0568534 0.0076616914 -0.022493023 0.18141918
000030 de e2 02 3f ef 16 47 bc 0c c5 64 b8 aa ee 47 3e
       0.5112742 -0.012151464 -5.454295e-05 0.19524637
000040 fc 27 52 3c e7 49 46 bc 47 4b 3d be b8 26 31 3f
       0.012826916 -0.012102581 -0.18485747 0.69199705
000050 63 6c 83 be 62 e0 3d bf 9f 3e 09 bb 9c ae 7f 3e
       -0.2566863 -0.74170506 -0.0020941866 0.24968952
000060 19 bf 31 bb f6 0c 17 3d ad 02 a6 be 3e f8 13 bc
       -0.002712196 0.036877595 -0.32423916 -0.0090313535
000070 54 38 86 be fb 9f 1b 3b 76 f9 0c 3c 95 f7 66 b9
       -0.2621485 0.002374648 0.008604398 -0.00022026741
000080 6c cb 8b 3d 26 05 54 bc 42 5e ed bd f4 49 1d 3d
       0.06825909 -0.012940681 -0.11590244 0.038400605
000090 c4 91 c1 bd 05 d7 cf 3e 5f ca 53 3e 40 ea 10 be
       -0.09451631 0.40593734 0.20682667 -0.1415186
0000a0 13 2b dd bd 9f 3b 27 bc f0 14 e0 bc ec f0 8f 3d
       -0.107992314 -0.010207086 -0.027353734 0.07028374
0000b0 f7 78 b2 3e 1f 70 7b bc 0d 28 db 3c 89 6c 0f be
       0.34857914 -0.015346556 0.026752496 -0.14006247
0000c0 ad 9f 95 3c f8 c6 07 3d 26 3b 2e be eb 55 f3 3c
       0.018264616 0.033148736 -0.17014751 0.029704055
0000d0 47 61 09 3e c4 42 66 be fa cc 54 bc 0d ea 2e be
       0.13416015 -0.22486407 -0.012988323 -0.17081471
0000e0 9f 49 0a 3c ba 69 a2 3d 02 2d 10 3d a1 73 dc bb
       0.008440404 0.07930322 0.035199173 -0.006727651
0000f0 de 4b 3a be aa 35 39 3b 20 ee 43 3d b8 b7 7f bd
       -0.18193004 0.0028260746 0.047834516 -0.062431067
000100 b9 8e 1d bd 19 58 86 3b 46 d8 5b be 17 62 04 3d
       -0.03846619 0.0040998575 -0.2146922 0.03232011
000110 67 49 d4 bc 0b 01 d6 3e 24 84 7d 3e 0d 08 0a be
       -0.025913907 0.4179767 0.24757439 -0.13479634
000120 08 c3 c9 bd 36 81 18 bc 04 b5 45 bc 14 fd bd be
       -0.098516524 -0.00930815 -0.012067083 -0.37107146
000130 bb 52 b5 3e 46 c4 d0 ba d1 50 e3 3c f5 20 f4 3c
       0.3541468 -0.0015927635 0.027748497 0.029800871
000140 de 3f 49 3d 79 fa 3f 3d ef 5d cd bd 3d f6 2b 3e
       0.049133174 0.04686973 -0.10027682 0.16793151
000150 56 da 23 3e a2 75 5b be f6 33 aa bb 2f 28 7c be
       0.16001257 -0.21431592 -0.0051941825 -0.24624704
000160 5c 88 13 3d 30 a8 4f 3d 51 7b ad 3d ef 18 f2 bb
       0.036018714 0.050697505 0.08470786 -0.007388226
000170 cf 86 35 be 2c d4 43 3b 8f 05 27 3d 0d 9e 40 be
       -0.17727207 0.0029881103 0.040776785 -0.18810292
000180 03 b2 58 bf 1c 2d 11 bd e9 2d 4e 3e ed b8 e6 bb
       -0.84646624 -0.03544341 0.20134701 -0.007041088
000190 06 8f 3b 3f ca 86 0b be 89 ce 02 3c 71 45 57 3e
       0.7326511 -0.13625637 0.007983812 0.21022584
0001a0 36 c7 93 3f 48 c5 b1 3b c4 d4 4c bc e9 6c 85 bd
       1.1545169 0.005425129 -0.012501899 -0.065149136
0001b0 c2 90 9d be 94 0b a3 bc ca 5c 09 bd 3d 1d 27 bf
       -0.30774504 -0.019902982 -0.033535756 -0.6527899
0001c0 0c 5f 7b 3d 24 2b 59 bc f1 35 17 bf fb 01 f0 be
       0.06136994 -0.013254914 -0.59066683 -0.4687651
0001d0 85 9f 81 3d 7a 24 5e be 2b 6e 22 bb a4 a6 cb be
       0.06329254 -0.21693602 -0.0024784904 -0.39775574
0001e0 af 93 cc 3c 2b 1d c7 be 1a e6 9c bd 63 74 72 bc
       0.024972765 -0.3888944 -0.07661076 -0.014798257
0001f0 a0 79 15 3d 74 75 94 bc 60 4a 52 bd 22 3e 76 3e
       0.036492944 -0.018122412 -0.05134046 0.2404714
000200 2c af e4 3f b5 03 23 3d a8 1c 4a 3e f2 b4 07 bd
       1.7865958 0.039798457 0.19737494 -0.033131547
000210 d2 67 04 bf 95 00 eb 3c f9 9e 68 3c f8 49 b6 3d
       -0.5172092 0.028686801 0.014198058 0.08900827
000220 b1 18 02 3f 9d 3a 9b 3c 13 86 1b 3b e4 89 e0 be
       0.50818926 0.018948847 0.0023731038 -0.43855202
000230 56 5a c2 be 8f da a8 3c ac f7 19 3d 7d d9 be be
       -0.37959546 0.02061203 0.037589714 -0.37275305
000240 5a 15 15 3d 13 05 b0 3d 0d 00 2f bd 80 05 a4 be
       0.036397316 0.08594718 -0.042724658 -0.32035446
000250 3c 7d 4a be fa 71 f7 3e 57 01 78 bc 32 e2 80 be
       -0.19774336 0.48329145 -0.015137038 -0.25172573
000260 41 31 e7 bc 33 25 aa 3e fb 85 17 3f 0c 29 04 bc
       -0.028221728 0.33231506 0.5918881 -0.008066427
000270 5d f6 cd 3e dd 81 83 3c 31 5f 89 3d f8 ce 19 3f
       0.40227023 0.016053135 0.067076094 0.60081434
000280 8d fe 5d 3f 37 66 11 3d 84 d9 b1 3d 3d 48 12 3d
       0.8671654 0.03549787 0.08684066 0.035713423
000290 dd 30 90 be 16 a6 d9 be dc 43 da be 82 4b e2 3c
       -0.2816228 -0.42509526 -0.42629898 0.027623896
0002a0 6e 3b 5b be c4 5e 5b bc 28 be e3 3c fb 14 17 be
       -0.2140939 -0.013389293 0.027800635 -0.14754097
0002b0 d2 ee 66 bb d3 e4 82 bc 9b 0f 4d 3d fb 9d 3c 3e
       -0.0035237563 -0.015978253 0.05006371 0.1841964
0002c0 51 65 bb 3c 8c 5e b9 3d a2 ce 4a 3f f0 4b 00 3f
       0.02287546 0.090512365 0.79221547 0.5011587
0002d0 4a 36 24 be 33 0d f9 3d 46 41 05 bb 9b c1 00 be
       -0.16036335 0.12160721 -0.0020333095 -0.12573855
0002e0 38 93 9f bc 0c 13 bc 3d c1 4b 8c be 2b fb 8e ba
       -0.019479379 0.091833204 -0.27401546 -0.0010908594
0002f0 09 09 0a 3e 35 88 d5 bb d0 5e 80 3d 99 ba 92 be
       0.13480009 -0.0065164813 0.06268084 -0.28657988
000300 a5 9f 3d 3f d2 04 9f bc 6d 34 27 3f 89 6d eb bc
       0.74071723 -0.019411478 0.6531437 -0.028738754
000310 48 01 4e 3e d1 93 04 bd c8 5d e7 3e bd 45 89 be
       0.20117676 -0.03236753 0.45188737 -0.2681102
000320 52 bf 83 bd 00 8e 43 3c 06 bb 9c 3c 6b 06 12 bf
       -0.06432976 0.011935711 0.019132148 -0.57041043
000330 84 2b 07 bf 98 35 44 3a e1 07 cf bc 5f 34 aa bd
       -0.52800775 0.0007484793 -0.025272312 -0.0831077
000340 88 86 2e 3d 6e 62 17 3d 2e 4f 62 3f 2a 00 4b 3e
       0.042608768 0.036959104 0.8840207 0.19824281
000350 8f 0b a8 3e 90 89 4e 3e d3 ff 88 bb 0f 30 56 3f
       0.32821319 0.20169663 -0.0041808872 0.8366708
000360 c4 d8 92 3c 90 6f f8 be 9e 1a 99 3e 6c 1b 2a 3c
       0.017925628 -0.48522615 0.2990312 0.010382514
000370 45 f5 f7 bd ee 95 8f 3c ff f8 f0 bc 2d 68 3d bf
       -0.12107328 0.017527547 -0.029415606 -0.73987085
000380 67 3a 2b 3f ef 77 13 3d 2e a1 dd be aa f9 4e 3d
       0.6688599 0.03600305 -0.43287033 0.050531067
000390 7a 2e 0a be f4 0f 8d 3d 50 c1 f3 3e 9d f4 44 bf
       -0.13494292 0.068878084 0.47608423 -0.7693575
0003a0 32 a2 62 be f8 5b 55 3c a3 7c 66 bc f7 a7 3c 3d
       -0.22132185 0.013022415 -0.014067802 0.04605862
0003b0 30 dd 3f 3f 78 52 93 bb c3 56 36 3d 77 08 0f 3f
       0.7494688 -0.004495915 0.044516336 0.5587229
0003c0 3e 5f 6e 3d 72 92 0f 3d a2 28 99 3e 8a 90 25 3e
       0.0581963 0.03505177 0.29913813 0.16168419
0003d0 48 a4 13 3e 2c 10 5c bf 7c ca 94 3b 97 e2 8a 3e
       0.14418137 -0.85962176 0.0045407396 0.27126
0003e0 37 b9 9a 3c 55 47 af 3e c5 99 21 bc b6 6e 26 bc
       0.018887145 0.3423411 -0.009863322 -0.0101582315
0003f0 ac 70 fe 3e 64 cf 2d 3c 89 cd ad 3d 1e 5c 72 be
       0.49695337 0.010608528 0.08486468 -0.23667952

linear_32.bias f4 [32]
000000 21 6b 4c 3e 11 c9 dd 3d 12 8e 7d 3d 50 a6 9e 3e
       0.19962741 0.10829366 0.061903067 0.3098626
000010 f7 4a d3 be 8f 78 ef bd fe 35 09 bf a5 89 c8 3e
       -0.4126813 -0.116929166 -0.5359801 0.39167514
000020 83 d4 04 be a8 4a 58 be 18 fd 77 bd 3d 30 30 3e
       -0.12971692 -0.21122229 -0.060544103 0.17205901
000030 51 33 6a 3e a4 e4 c4 3d 49 07 58 be 77 49 86 bc
       0.22871138 0.09613922 -0.21096529 -0.016392453
000040 e8 62 34 be 1e 8d 04 bf f1 09 81 be d5 16 2e 3e
       -0.17615855 -0.5177783 -0.25202897 0.17000897
000050 fe e9 8a 3e 1e 8e 40 be 2f b2 cc 3c 4e 23 20 3e
       0.27131647 -0.18804213 0.024987308 0.15638468
000060 11 fb 6f 3e 7a f9 0e be d1 f4 79 3e d5 50 a9 be
       0.23435618 -0.13962355 0.24409796 -0.33069482
000070 b7 1d f4 be 4b cb a5 3e e7 fa 07 3e 7c 13 97 3b
       -0.4767892 0.32381663 0.13279305 0.004610477

rnn.weight_ih_l0 f4 [32, 32]
000000 47 17 01 bf 1d 47 4c bd f4 36 3e 3b ed bf 92 be
       -0.50426143 -0.049872506 0.0029024454 -0.28662053
000010 24 40 ae 3e df 07 aa 3e 53 fd 44 3e 58 09 94 bf
       0.3403331 0.3320913 0.1923726 -1.1565351
000020 2f 7a 65 3e e0 16 9d be ad 10 22 3f 64 e7 27 bf
       0.2240989 -0.30681515 0.63306695 -0.6558745
000030 2b eb a5 be 90 5d c1 3e bd 95 9c be 0a a8 04 bf
       -0.3240598 0.37766695 -0.3058299 -0.5181891
000040 10 1d 2a 3f c1 c7 b0 3f 7a 5a 8c 3e bf 48 92 be
       0.66450596 1.381096 0.27412778 -0.28571126
000050 9b 20 30 bf 8b 74 59 3f 9a e1 15 bf f1 22 a2 bd
       -0.6879975 0.84943455 -0.58547366 -0.07916821
000060 12 19 e4 3c 50 fc 5b bf 79 c4 1b 3d e6 7e 29 3e
       0.027843986 -0.85931873 0.038029168 0.16552314
000070 5c 7f 78 bd c2 a0 0b bf 45 3a 8b bd cf e3 0a be
       -0.060668334 -0.5454217 -0.067982234 -0.13563465
000080 cf 7e 9f 3d 46 74 ae 3c 92 8e a1 3d 69 fd 91 3d
       0.07787859 0.021295678 0.07888521 0.07128412
000090 44 15 c7 bd ef ba 27 3c 49 b2 a7 3d 7d 53 89 3c
       -0.09720853 0.01023744 0.08188302 0.016763443
0000a0 5d 80 ca 3d 40 f4 7e 3d ae 73 57 3e 01 a0 74 bd
       0.098877646 0.062244654 0.21040222 -0.059722904
0000b0 fa 69 60 bb dc fc 39 bd ae 6f 9f bd 92 86 25 be
       -0.0034242854 -0.04540716 -0.07784973 -0.16164616
0000c0 c9 61 93 bc 04 54 0b 3e a9 47 db bd 76 ee a9 3d
       -0.017990964 0.13606268 -0.107070275 0.08297436
0000d0 80 7e ca 3d 46 50 43 be 67 b0 1a bd 47 1a 16 3d
       0.09887409 -0.1907359 -0.037765887 0.036646154
0000e0 8d 90 28 bd 3e bd 73 bd 44 b9 8b bc 4a f9 42 bc
       -0.04115348 -0.059506647 -0.017056115 -0.011900255
0000f0 93 94 71 3e 1b 44 19 be e3 06 40 bc bf 23 83 3d
       0.23591833 -0.14967386 -0.011720392 0.064033024
000100 7a d1 1d be 90 89 d9 bd 60 c4 e5 bd 0e ce f2 bd
       -0.1541194 -0.10621941 -0.11219096 -0.11855708
000110 20 99 11 be 9c 17 84 3d 5e fe 49 3e 56 b3 06 be
       -0.14218569 0.06449816 0.1972594 -0.13154349
000120 8d aa 57 bc 39 52 a7 3d 5a 17 56 be 07 c8 c1 3d
       -0.013163221 0.081699796 -0.20907345 0.0946198
000130 26 1e dd bd eb 2e 3d be af e5 08 3e b9 3f 28 3e
       -0.10796766 -0.18474929 0.13368867 0.16430558
000140 2f 52 25 3d e9 fc 82 3e 5a 86 14 3e ee 70 04 be
       0.04036158 0.2558358 0.14504376 -0.12933704
000150 50 69 2c be ce 05 0c 3e f4 00 97 3e c0 55 87 bd
       -0.16837049 0.1367409 0.29492915 -0.066081524
000160 8a 67 6a bc 66 ea 3e 3e 7a 8e c0 bd 7e 43 4b 3e
       -0.014306912 0.18644103 -0.09402175 0.19849965
000170 d0 6c 56 3e 00 5a 9b 3d 7b 1d 27 3e 18 a9 a7 bb
       0.20939946 0.075855255 0.1631984 -0.005116593
000180 f0 96 90 be 57 69 f7 3d e3 e6 03 3d 16 71 fa 3e
       -0.28240156 0.12080639 0.032202613 0.48914403
000190 ee 93 11 bf ca 8b 2a bf 71 a7 61 bf e5 46 a2 be
       -0.5686635 -0.6661955 -0.8814612 -0.31694713
0001a0 29 cd 48 bf 33 d4 0b bf bc ea 7a 3e 2f 31 5c 3f
       -0.7843805 -0.54620665 0.24503607 0.8601255
0001b0 b8 3e c7 3e 87 3d 54 be bf 9e 4a be 59 75 c1 be
       0.38915038 -0.20726596 -0.1978712 -0.37784842
0001c0 0c 5e da bf 91 97 0b 3f e5 80 01 3f 1c 2a 2a be
       -1.7059951 0.54528147 0.505873 -0.16617626
0001d0 bf 5d b3 be d0 95 fa be 1a cd f4 3d b5 b4 35 3e
       -0.3503246 -0.48942423 0.119531825 0.17744716
0001e0 24 19 3b bd 99 00 8f bd 57 44 72 bf 8d b1 8a 3f
       -0.045678273 -0.06982536 -0.9463553 1.0835434
0001f0 0d 5f bf bf f8 f6 58 3e 8b 85 95 bd 6e ed 23 bf
       -1.4950882 0.21187961 -0.07300862 -0.64034164
000200 56 aa 15 bd 83 a9 48 3d 14 d7 88 3d ba dc 57 3e
       -0.036539398 0.048989784 0.06681648 0.21080294
000210 bd b7 f9 be f2 b6 28 bd 95 4c 0b 3e 1b 2e 5f 3d
       -0.48772994 -0.041190095 0.13603432 0.05448733
000220 38 c8 83 3e 4e 47 1f 3e 24 1a 8c 3d e7 0d 7c 3d
       0.25738692 0.15554544 0.068409234 0.061536696
000230 38 c3 5c 3d 01 9d 06 bf 7f 51 78 bf b2 87 6d 3c
       0.053897113 -0.5258332 -0.96999353 0.014497684
000240 e7 c5 44 3e d2 69 10 bf 5c 1c b8 3b 7f 22 28 be
       0.19216119 -0.5641147 0.005618615 -0.16419409
000250 1e a7 14 3e 3a 5f 45 be 9c 45 6a bf 98 b8 83 3d
       0.14516875 -0.19274607 -0.91512465 0.06431693
000260 bf 74 74 be ab a5 24 be de b7 b9 be 1a 96 00 3f
       -0.2387266 -0.16078822 -0.36273092 0.50229037
000270 2c 81 20 bf be d8 26 bf 74 6a 0a 3e ad d2 21 3e
       -0.626971 -0.6517447 0.13517171 0.15803023
000280 0f 46 2d 3c 0b 34 68 3d c7 46 ca 3c 1b 8b a7 be
       0.010575785 0.056690257 0.024691952 -0.32723317
000290 7a d0 53 3d ed 0c 51 bd 0e 82 a7 3e 6c ff 24 bd
       0.05171249 -0.051037718 0.3271641 -0.04028265
0002a0 aa 71 ea bd fc e6 e8 bc 9c ae 8e bd a9 35 e0 3c
       -0.11447461 -0.028430454 -0.06966898 0.027369337
0002b0 59 51 a8 bd b8 f7 1d be ce 0e 70 bd 6b 2f 14 3e
       -0.08218641 -0.15426528 -0.05860787 0.14471214
0002c0 b6 09 dd 3d 5d 8a 1a 3e 15 ce bb 3e 0c 94 7a 3d
       0.10792868 0.15091844 0.36680666 0.061176345
0002d0 e7 a9 af 3c ce 51 45 3e 0c ff 7c 3d 1a c2 1b be
       0.02144332 0.19269487 0.06176667 -0.15210763
0002e0 75 7d 6b bc 60 19 16 3d 99 27 c1 3d ee 45 10 3e
       -0.014373173 0.036645293 0.09431381 0.14089176
0002f0 83 9a 82 3e d8 71 5e bb 7e 2f f2 bd 8d 49 06 3d
       0.25508508 -0.0033942368 -0.11825465 0.032784987
000300 59 d9 90 bc f3 8a 23 bd 2c 16 8b bd 4d 78 06 be
       -0.017681764 -0.039927434 -0.06791338 -0.13131829
000310 cf b0 42 bd 8c 0d 2d be dd 19 c5 3e 26 92 f2 3c
       -0.0475319 -0.16899699 0.38496295 0.029610705
000320 c1 4b 2f 3e 5d 40 d3 3e 2d 59 7d bc f1 a9 51 bd
       0.17118742 0.41260043 -0.015463156 -0.05118746
000330 f1 3e 15 be 28 23 51 3e ef 00 f3 3c 46 3e 23 bd
       -0.14574791 0.20423567 0.029663531 -0.03985431
000340 a9 63 dd bd 95 18 b8 3d b4 d5 03 3e 21 96 25 be
       -0.10810024 0.08989064 0.1287449 -0.16170551
000350 2f a4 33 3c 8d 07 58 3e cb 77 8a 3d d9 61 3c bd
       0.010964437 0.2109663 0.0676113 -0.045991752
000360 d6 b5 12 bd 9c 5c c8 3c b8 c0 8c be bc d7 1b 3f
       -0.035817944 0.024458222 -0.27490783 0.6087606
000370 06 d3 5a 3e ff f9 2d be da b2 32 3d 71 86 31 bc
       0.21369562 -0.16989897 0.043627597 -0.010835276
000380 af 10 4f 3e 00 2f b2 3d 12 25 ef 3d d0 e3 99 be
       0.20221208 0.08700371 0.116769925 -0.3005662
000390 7b fc 95 3d 6d c0 9c 3c db 05 30 3d 23 da 3c be
       0.073235475 0.019134725 0.042974334 -0.18442588
0003a0 01 d8 7d 3e 7d 89 d3 3e 03 c4 15 bf 5e 2a 8b 3d
       0.2478943 0.41315833 -0.58502215 0.0679519
0003b0 9b 51 bb 3c 41 ec b5 3e ee d1 b0 bd 2e 83 b7 3e
       0.022866061 0.3553181 -0.08633791 0.3584227
0003c0 fd 7c b2 3c 6a c0 d0 3e 47 06 8f 3e 2c b6 1f be
       0.021788115 0.407718 0.27934477 -0.15596837
0003d0 d6 ac 2d be 33 6d d7 3d 30 16 03 3f a0 c9 c1 3d
       -0.16960463 0.10518875 0.5120573 0.09462285
0003e0 71 18 45 be 8f fe a2 bd b0 61 bf be 03 08 2a 3f
       -0.19247605 -0.079587094 -0.37379217 0.66418475
0003f0 34 b5 a7 3e 59 83 41 3d 27 25 09 be 35 33 f3 3d
       0.32755435 0.047244404 -0.13393079 0.11875001

rnn.weight_hh_l0 f4 [32, 32]
000000 ae da 8f 3f ae b3 1d 3f c6 e1 9c be 94 2b 8d 3d
       1.1238611 0.61602294 -0.30641 0.068930775
000010 ad 0d 85 3f 44 51 86 bf 54 6d df bf a4 d4 d3 bf
       1.0394799 -1.049355 -1.7455239 -1.6549268
000020 2d f8 dc be 49 92 ed bd 71 b8 53 40 11 7b 83 be
       -0.43158093 -0.11600167 3.3081324 -0.2567983
000030 d8 8b 34 3f 53 ed c0 3f cc 7b 47 3f 3c 3d a3 3e
       0.70525885 1.5072426 0.77923274 0.31882656
000040 c8 3f d0 3e d4 c0 c1 3f 31 6e 7b 3d cc a5 a7 3d
       0.4067366 1.5136971 0.061384384 0.0818592
000050 57 0d 0a c0 3c d3 d3 3e 42 16 ea 3e 54 04 86 3f
       -2.1570642 0.41372097 0.45720106 1.0470071
000060 27 60 c1 bd b8 76 03 3e fc 09 3c be 7b 3f 96 be
       -0.09442168 0.12838256 -0.18363184 -0.29345307
000070 4f d6 d3 3e e1 2d fd 3e 62 24 cf bc d8 8e 7c be
       0.41374442 0.49449065 -0.025285903 -0.24663866
000080 0d 68 c8 3d 38 c1 0a bf 56 0c fd 3d ae 6c 7b bd
       0.09785471 -0.5420108 0.123558685 -0.061382942
000090 43 8c 3e be 3f 43 3f 3c 31 48 07 be 74 1b 05 bd
       -0.18608193 0.011673748 -0.13211133 -0.032496884
0000a0 5f c1 aa 3d 32 59 3d 3e 0f 66 e6 be 72 e6 2d 3d
       0.08337664 0.18491057 -0.4499974 0.042456098
0000b0 7e 95 63 3d c3 20 d4 bc 78 8a d9 bd de bc c8 bd
       0.05556249 -0.025894528 -0.10622114 -0.098016486
0000c0 29 a9 f3 bd d7 4a 17 3f d5 57 f6 bc 18 5a 7f be
       -0.11897499 0.5909857 -0.030071178 -0.24936712
0000d0 a9 33 8b bd 8a 5e ae bb 32 1f ad 3d e6 cf c9 bc
       -0.06796963 -0.0053213285 0.08453216 -0.024635267
0000e0 09 03 4c be de 11 eb bd 6e 16 3e be 6f 69 ed 3c
       -0.19923033 -0.11478017 -0.18563244 0.028980939
0000f0 61 64 a8 bd 53 98 2a 3d 62 4f bd bd 51 50 0e 3c
       -0.08222271 0.041649174 -0.09243657 0.008686141
000100 3e ea 74 3e f6 f8 35 be 47 be 32 bf 43 0f 08 3e
       0.23917481 -0.17770752 -0.6982159 0.13287072
000110 68 7e 24 bd e5 93 3f be b7 f4 20 3e 0f 3f d3 bd
       -0.040159613 -0.18708761 0.15718351 -0.10314762
000120 c4 55 f6 3c ec 04 76 bd a5 8a a8 3e 3b 47 dd 3d
       0.030070193 -0.060063288 0.32918277 0.10804602
000130 15 a9 05 3e 1b 3a 3a 3e 4c 0c 88 3e 74 62 49 3e
       0.13052781 0.18186228 0.26571882 0.19666463
000140 39 7e d8 3d b0 fa 98 be 48 cf a3 3d f4 1d ba bd
       0.1057095 -0.2987876 0.0799852 -0.09087744
000150 00 66 48 3d a4 c6 01 3e d0 76 ea 3c 3b e9 7a 3e
       0.0489254 0.12673432 0.028621107 0.24503033
000160 4a ab fb bd 73 37 ed bd 85 1c 2d be 4a 4c 96 3e
       -0.1228853 -0.11582842 -0.1690541 0.2935508
000170 0f e6 90 bd cb 65 1b be 10 c4 12 be 4c f7 d5 bd
       -0.0707513 -0.1517555 -0.14332604 -0.10447559
000180 ab dd 91 3e 47 7b 68 3e 2a a1 03 3d f8 2c 14 3e
       0.28489432 0.22703277 0.03213612 0.14470279
000190 00 5e 97 3e cd 91 9a be 9c 5b 91 3e f3 a3 a6 3e
       0.29563904 -0.30189362 0.28390205 0.32546958
0001a0 e4 43 5a be f4 7e 17 3f 2f 4b 3c 3c 1f 1e 21 3e
       -0.2131496 0.5917809 0.011492535 0.15734147
0001b0 6b 2f 00 3e b8 52 25 3f 9f ed 32 3e ef 9e 10 bf
       0.12518089 0.64579344 0.17473458 -0.56492513
0001c0 c4 e6 8a 3e 10 d7 c3 3e 28 0b b7 be 42 22 1e 3f
       0.27129185 0.38250017 -0.357507 0.61771023
0001d0 bc ad 0d be d5 b3 fd 3e 91 8a 4c 3f cb 23 6e 3e
       -0.13835806 0.49551263 0.79898936 0.23255841
0001e0 41 b4 cd be 89 ec 90 bc 38 fa 04 be f2 5a ff be
       -0.40176585 -0.017690914 -0.12986076 -0.49874073
0001f0 e4 c1 a0 be d3 f5 c8 3e 83 6a 11 be cf e5 76 be
       -0.31397927 0.3925005 -0.14200787 -0.24111103
000200 d4 4a 9e 3e f7 7b 1b 3f f2 30 e2 3e 2a 25 df 3e
       0.30916464 0.6073603 0.44177967 0.4358304
000210 43 7c be 3d c0 5f 56 bd cc 40 d6 3e b0 9c d8 3e
       0.09301045 -0.052337408 0.4184631 0.42307043
000220 41 2d 2c 3e 23 49 1c 3e 8c 67 19 bf 19 a0 13 3f
       0.16814138 0.15262274 -0.59923625 0.57666165
000230 6b 95 0e 3d ea 50 3b be 86 46 9e 3d 8e af 81 be
       0.034810465 -0.18292585 0.07728295 -0.2532925
000240 78 0a 37 3f 36 53 1b bf 95 eb 8a be 00 99 b3 bd
       0.7150035 -0.60673845 -0.2713286 -0.08769417
000250 6e be 1d bf 55 ed 39 be 3f e2 a4 be 3f 08 d2 3e
       -0.616187 -0.18156941 -0.32203862 0.41021916
000260 cd 88 5a be 28 22 e2 bd e6 41 2f be 26 fa 11 bf
       -0.21341248 -0.11041671 -0.17114982 -0.5702232
000270 e6 16 be 3e 09 53 65 3e 62 c2 d7 3e cb 19 45 3f
       0.37126845 0.22394957 0.4214049 0.7699248
000280 40 80 3d 3c 70 fc 63 be 06 3f a3 3d 3b 54 69 be
       0.011566222 -0.22264266 0.07971005 -0.22786038
000290 85 0f 21 3e 62 c3 24 bf c0 a6 70 3e d7 2d ac 3d
       0.15728576 -0.6436063 0.2350111 0.08407181
0002a0 54 a2 05 bd e4 54 58 3d c5 84 9b be 8d 1f 83 be
       -0.03262551 0.052815333 -0.30374733 -0.2561001
0002b0 16 25 a2 bd 92 c4 33 3d 43 55 83 3c e1 6f e6 be
       -0.0791723 0.043888636 0.016031867 -0.45007232
0002c0 ff 1f bf 3d 66 c1 6b 3f 6d 8e 2d 3e 57 9a ff bd
       0.09332275 0.9209198 0.16948862 -0.1248061
0002d0 48 d1 ac be d2 ff 22 be b6 81 a1 bd 4b 03 83 3d
       -0.3375342 -0.159179 -0.078860685 0.063971125
0002e0 34 2c 03 3f 2a 3b 09 bd 47 13 67 bd 83 65 52 be
       0.51239324 -0.03350369 -0.05641487 -0.20546536
0002f0 19 73 28 3e a1 22 a0 3d 94 36 49 bd b2 76 b2 3e
       0.16450156 0.07819105 -0.049124315 0.34856182
000300 7d c9 26 be 2d 4b 0a be 96 62 b9 bd b3 51 ba 3d
       -0.16287799 -0.1350524 -0.09052007 0.09097614
000310 69 67 2b bd 82 cc 00 be 6c e7 cc be 69 8d a8 be
       -0.041846666 -0.12578014 -0.4002031 -0.32920387
000320 a2 21 0e be 0f 82 0d bc d6 28 b8 be 71 01 16 3e
       -0.13880017 -0.008636965 -0.35968655 0.14648987
000330 18 83 a1 3d a7 58 b1 3d e8 ad d4 3d d2 c8 5a 3e
       0.07886332 0.08659487 0.103847325 0.2136567
000340 10 d4 37 3e c1 8d 47 3f 2d a4 29 be 49 6d 56 be
       0.17951989 0.77950674 -0.16566534 -0.20940126
000350 64 03 b6 3e 79 e3 cf 3d 7a 4e 7a bd ca 37 5f 3d
       0.35549462 0.10150809 -0.061109997 0.054496564
000360 84 1c ad bc d3 97 5e be 61 94 29 3e f3 3b 98 3e
       -0.021131761 -0.21737604 0.16560508 0.29733238
000370 fd 01 32 be ac ca 0d be db a8 0d 3d 14 bf f8 bd
       -0.17383571 -0.13846844 0.03458486 -0.1214582
000380 ca 3a a7 3e 1f 7e 5f bc 69 7d 0d 3e 55 ff 8e be
       0.3266204 -0.013640909 0.13817371 -0.27929178
000390 7d ab d7 bd 17 42 3f be f8 5f cd 3e f1 05 21 bf
       -0.10530756 -0.18677555 0.4011228 -0.6289969
0003a0 a4 68 e1 bd 74 c6 f3 3d d5 66 a2 3d dd f1 57 be
       -0.11006287 0.11903086 0.0792977 -0.21088357
0003b0 b2 1a 82 3e ce 05 f2 3d d6 a6 f3 bd 1f a5 77 3d
       0.25410992 0.118175134 -0.11897056 0.060460206
0003c0 a2 e6 af be f8 03 ba 3e 2e 8a c0 3c 81 40 ed bd
       -0.34355646 0.36331153 0.02350339 -0.11584569
0003d0 13 6a 9f bd 45 51 38 3d a9 17 27 be 22 bc 19 be
       -0.07783904 0.04499938 -0.1631762 -0.15013173
0003e0 d6 05 94 3d 9b b0 8f be 55 e2 5a 3b fe d6 15 3e
       0.072276756 -0.28064427 0.0033399065 0.14632794
0003f0 53 56 b6 3c cc fc fd bd 56 25 b2 3c 2f 08 1f 3c
       0.02225796 -0.12401733 0.021746319 0.009706541

rnn.bias_ih_l0 f4 [32]
000000 8e 05 15 bf fb 48 1d be 65 39 f8 bd db 73 f5 3e
       -0.582116 -0.15359871 -0.12120322 0.47939953
000010 b5 ee 15 3e 08 48 ab be c9 48 84 be 60 4c 85 be
       0.14641841 -0.33453393 -0.2583678 -0.26034832
000020 c9 6a 28 3e aa fe 6a 3e 9e ed 16 bf 5f d6 45 be
       0.16446985 0.22948709 -0.58956325 -0.19320057
000030 07 35 a0 be b6 2a 6d 3c 32 13 17 be ac b9 03 bd
       -0.31290457 0.014475515 -0.14753416 -0.032159492
000040 fe 49 49 be c9 37 ca bf cb 27 4f 3e 4a 47 c6 be
       -0.19657132 -1.5798274 0.20230024 -0.38726264
000050 b6 b0 a4 3d 4b 4c 84 be 4e f4 a3 3d c8 9c e7 bd
       0.080415174 -0.25839457 0.08005582 -0.113092005
000060 13 aa 4f 3e 8f 54 72 3e 73 21 08 be e7 2a 78 3e
       0.20279722 0.23665069 -0.1329401 0.24235116
000070 b5 c2 af be 61 4a 5d 3e e9 57 45 bd c0 6a 97 bc
       -0.34328237 0.21610405 -0.04817954 -0.01848352

rnn.bias_hh_l0 f4 [32]
000000 8e 05 15 bf fb 48 1d be 65 39 f8 bd db 73 f5 3e
       -0.582116 -0.15359871 -0.12120322 0.47939953
000010 b5 ee 15 3e 08 48 ab be c9 48 84 be 60 4c 85 be
       0.14641841 -0.33453393 -0.2583678 -0.26034832
000020 c9 6a 28 3e aa fe 6a 3e 9e ed 16 bf 5f d6 45 be
       0.16446985 0.22948709 -0.58956325 -0.19320057
000030 07 35 a0 be b6 2a 6d 3c 32 13 17 be ac b9 03 bd
       -0.31290457 0.014475515 -0.14753416 -0.032159492
000040 fe 49 49 be c9 37 ca bf cb 27 4f 3e 4a 47 c6 be
       -0.19657132 -1.5798274 0.20230024 -0.38726264
000050 b6 b0 a4 3d 4b 4c 84 be 4e f4 a3 3d c8 9c e7 bd
       0.080415174 -0.25839457 0.08005582 -0.113092005
000060 13 aa 4f 3e 8f 54 72 3e 73 21 08 be e7 2a 78 3e
       0.20279722 0.23665069 -0.1329401 0.24235116
000070 b5 c2 af be 61 4a 5d 3e e9 57 45 bd c0 6a 97 bc
       -0.34328237 0.21610405 -0.04817954 -0.01848352

linear_out.weight f4 [7, 32]
000000 1f c5 b2 3b 52 79 12 bc c2 54 90 3d eb 85 9e 3b
       0.0054556276 -0.008940058 0.07047416 0.0048377416
000010 ab f8 eb 39 b0 aa 30 bb f4 6a d1 bc 29 60 95 3b
       0.00045007965 -0.0026957206 -0.025563695 0.0045585823
000020 76 75 c3 3a 2a c2 99 ba d4 3f 86 3b ed a1 7a bc
       0.0014912325 -0.0011730839 0.0040969644 -0.015297395
000030 b5 65 a0 3a 00 33 da 3b 61 3a 13 bc 48 19 09 3c
       0.0012237342 0.0066589117 -0.008986087 0.008367844
000040 f5 76 1d bb 8f 43 1f 3c f2 38 1b 3c 6d 43 32 ba
       -0.0024027203 0.009720697 0.009474026 -0.00068002084
000050 eb a9 d3 3c bd 32 23 bc 7c ee 7b 3a 6e 2f 20 bb
       0.02583786 -0.009960827 0.0009610427 -0.0024442333
000060 35 e9 9b bb 72 89 56 3b ed 1d aa 3b 8f db 73 3c
       -0.004758025 0.0032735732 0.0051915557 0.01488389
000070 dd 66 cb bb 5b cc bc 3b b2 40 d9 bb a8 5f 2a 3d
       -0.0062073306 0.0057616658 -0.0066300267 0.04159513
000080 43 ac 98 bd 6f 12 22 3f 07 17 a0 3e 79 35 05 be
       -0.07454731 0.6330938 0.31267568 -0.1300868
000090 7f 19 74 be b8 7b 0c 3f a6 8a 28 3f 10 b4 e2 3e
       -0.23837851 0.5487628 0.6583656 0.44278002
0000a0 dc f2 77 3e d0 89 de be 8c f3 0b be 0b 1e 46 3f
       0.24213737 -0.43464518 -0.13667125 0.7738959
0000b0 8c 7f fb bc da c6 8a be 2c 7a 17 3f c4 e1 12 bf
       -0.030700468 -0.27104837 0.59170794 -0.5737574
0000c0 bc b3 21 3f 0f 6b 78 bd 4e b5 28 bf 75 67 12 be
       0.6316488 -0.060648974 -0.6590165 -0.14297278
0000d0 eb da 21 bf 93 80 1f be b9 0b 76 be 1f da 05 3f
       -0.6322467 -0.15576391 -0.2402791 0.5228595
0000e0 06 d2 09 3e c1 ab fc be f9 60 1e 3f 5e cf 58 bf
       0.13459024 -0.49349788 0.6186672 -0.8469142
0000f0 0b 4c 26 3f 38 2a 73 be f8 42 03 3f fe de aa 3e
       0.6495978 -0.23746574 0.5127406 0.33373255
000100 71 af 77 bb 2d 69 1a 3d 33 d8 2f 3e 62 ec 39 3b
       -0.003779378 0.03769796 0.17172317 0.0028369655
000110 16 41 7f 3a 01 4d 6a bd c5 c1 15 3f 88 4a 0e 3e
       0.00097371766 -0.057202343 0.58498794 0.13895619
000120 77 3d c7 3c ec e5 18 bd 6f 07 0c 3b 9e cd f9 3d
       0.0243213 -0.037328646 0.0021366735 0.121974215
000130 d5 a2 22 be be d7 98 3c ce 8a 1d 3d ce 74 fa bd
       -0.15882428 0.018657561 0.038462453 -0.1222931
000140 1e 14 a5 3d eb 22 e8 bb 5d 76 08 3e 84 7d 2d 3c
       0.08060478 -0.0070842407 0.13326402 0.010589007
000150 10 cb 25 3f 8f 71 95 b9 50 e0 b1 3c d6 46 81 3c
       0.64762974 -0.00028504102 0.021713406 0.015780848
000160 c6 4c f5 3b 69 6d 86 3d 85 64 91 3b d3 63 73 3e
       0.0074859587 0.06563837 0.0044370317 0.23768549
000170 54 77 e8 bd 69 86 82 bc e6 d7 b0 bb fb 22 26 be
       -0.11350885 -0.015933232 -0.005396831 -0.16224281
000180 ee 83 b7 3c be 86 09 be 86 89 05 3f 7d d2 b3 3c
       0.022401776 -0.13430306 0.5216297 0.021950955
000190 dd 35 b8 bc 02 fb 81 bb 39 d6 28 be 82 ac 63 3e
       -0.022486622 -0.00396669 -0.1648797 0.22233775
0001a0 32 34 24 3d ae cb eb 3d 15 27 a0 3c c0 b7 84 bd
       0.04008884 0.11513458 0.019549886 -0.0648036
0001b0 23 56 df bc 31 f2 6a 3d 0d 5e e2 bc 67 b7 c7 bc
       -0.027262753 0.057359878 -0.027632738 -0.024379445
0001c0 57 94 2e bd f2 45 06 3d 10 c0 fc bb a0 ee 2f 3b
       -0.042621937 0.03278155 -0.0077133253 0.0026845112
0001d0 79 43 b9 3c 79 4a a8 bd 9b 8c 88 ba 43 b8 62 bc
       0.022615181 -0.082173295 -0.001041788 -0.013837877
0001e0 cb 92 b2 bc db 58 07 3e e8 16 ea b7 84 d9 b0 3d
       -0.021798512 0.1321749 -2.790564e-05 0.08635238
0001f0 48 2f 83 bd 1e 7e 34 3d ac 36 4f bc a5 5d 1e 3e
       -0.064055026 0.044065587 -0.012647312 0.1546541
000200 2d 33 9c 3d 11 dc 13 bd d9 46 fd 3e 93 5e cd 3c
       0.076269485 -0.036098544 0.49468115 0.02506951
000210 b4 a7 8d 3b 89 9e 4d bc 94 d0 0d be 3e 7f ac bd
       0.0043229703 -0.012550005 -0.13849097 -0.08422707
000220 48 3c 8e bc 36 c4 66 bc cd 80 1e 3d 35 39 b6 bd
       -0.017362729 -0.014084866 0.038697053 -0.0889763
000230 9d 95 1b 3c 09 76 db 3c 5d c6 dc bc 15 cd 70 3d
       0.00949612 0.026789682 -0.026950056 0.05878933
000240 57 c5 2e bb 1d 9c a5 3d c7 64 69 3d ac 65 7d 3c
       -0.0026667917 0.08086417 0.056980874 0.015466135
000250 e5 68 7c 3e 82 cc 78 bd 4b 91 24 bc 1d fd 15 bd
       0.24649389 -0.06074191 -0.010044406 -0.03661834
000260 f4 d3 00 bd fa 99 26 bc 98 8f b5 3b d9 77 d6 3d
       -0.031452134 -0.010168547 0.0055407993 0.10472078
000270 89 f6 21 bd ae 9f 9d 3b b4 d1 86 bc 36 b8 95 3e
       -0.039541755 0.004810295 -0.016457416 0.29242104
000280 62 6e 26 3d 97 6b 11 bc 29 bf 02 3e 22 6a 9c 3b
       0.040632613 -0.008875749 0.12768234 0.004773394
000290 62 1b 3f 3c 79 83 ad 3a b4 db 29 bd d9 f9 ef bc
       0.011664243 0.0013238034 -0.04146929 -0.029293941
0002a0 39 20 70 bc 46 b1 1c bc 92 4a 94 3c 49 9d ec bc
       -0.01465612 -0.00956375 0.018101964 -0.028883593
0002b0 b8 89 b7 bb 05 dc c6 3b 04 db 87 bb 57 d6 cf 3b
       -0.005601134 0.006068709 -0.0041459817 0.00634269
0002c0 6a 16 73 ba 86 e0 5f 3c e7 fd 83 3b ec e4 cb 3b
       -0.00092730543 0.01366437 0.0040280703 0.006222358
0002d0 4b c4 ac 3d 4c 1b dd bc f2 50 45 ba 16 ed 37 bc
       0.084358774 -0.026990555 -0.00075270154 -0.011225959
0002e0 18 42 9f bc 53 f1 a4 bb 96 3f 58 bc f4 fd 57 3d
       -0.019440696 -0.005033651 -0.013198754 0.052732423
0002f0 df 16 30 bb 96 6f 40 3b e5 1f a0 3c 76 3b 6c 3d
       -0.00268691 0.0029363385 0.019546458 0.057673894
000300 3a c9 86 3b 96 70 ec ba 23 4b 17 3d cc f7 29 3b
       0.0041133435 -0.0018038924 0.03693689 0.0025935052
000310 38 8d 2c 39 8f f2 12 bb 45 87 7b bc 32 87 a5 bb
       0.00016455806 -0.0022422408 -0.015352075 -0.005051517
000320 34 29 20 3a 61 28 8b bb 6a 4b 47 3b 6c 0b 3e bc
       0.00061096554 -0.004246757 0.003040994 -0.011599403
000330 83 d1 92 3a 77 3e a8 b9 3e 0f e6 bb 38 77 8b 3b
       0.0011201355 -0.00032089997 -0.00702086 0.0042561553
000340 6a e2 68 bb 8d 80 dc 3b 28 94 a5 3b 2f a1 e6 3a
       -0.0035535344 0.0067291916 0.005053062 0.0017595644
000350 31 6f b3 3c a4 41 76 bb 00 e1 7d ba c8 e0 c9 38
       0.021903606 -0.0037575746 -0.00096847117 9.626296e-05
000360 b3 0d 4b bb c7 bc 92 bb a5 89 19 3b 9d c4 1f 3c
       -0.0030983507 -0.0044780704 0.002342799 0.009751466
000370 f1 33 c8 bb 0b 15 39 b9 0d f7 b5 bb fb 1c fc 3c
       -0.0061097075 -0.00017650814 -0.0055531324 0.030775538

linear_out.bias f4 [7]
000000 06 d0 16 3d 88 54 83 41 f2 47 6c bd bd 6a 8b 3e
       0.03681948 16.416275 -0.0576858 0.27229872
000010 a2 ac 97 3e 2b 6a 10 3e 43 ff c0 3c
       0.29623896 0.14103 0.023559218

batch_norm_layer.weight f4 [32]
000000 52 5b 2f bf c8 b2 ab 3b 01 40 86 3e 64 0c ab bb
       -0.6849872 0.0052398182 0.26220706 -0.005219983
000010 81 25 c1 3e 24 f2 29 be 86 c2 92 3e 47 1f 04 bf
       0.37723926 -0.16596276 0.28664035 -0.51610225
000020 96 e1 10 3f a4 49 10 b7 9f b1 66 3c fe 8f de be
       0.56594217 -8.600215e-06 0.014080434 -0.43469232
000030 3b f5 e6 3e b6 d7 d3 38 9e e5 9f 3b 80 4a d7 be
       0.4510897 0.00010101443 0.0048796674 -0.42049026
000040 5d 49 57 bb 46 dd b8 bb d9 dc 89 be 05 25 80 be
       -0.0032850124 -0.005641612 -0.26926306 -0.25028244
000050 dd 52 05 3e 29 19 a3 3e 2e f2 28 39 e9 02 ab 3e
       0.13019891 0.31855133 0.00016111947 0.33400658
000060 0f 34 f5 bb 62 6b b3 be af 91 64 3e 4c c8 3b 3a
       -0.0074830125 -0.35042864 0.22321199 0.00071633304
000070 bd f9 0c 3f 62 df 02 3a 14 74 52 bc 6f 98 b6 3e
       0.5506857 0.0004992393 -0.012845058 0.35663173

batch_norm_layer.bias f4 [32]
000000 6c 0a 23 bf 28 89 56 bd e0 1f 08 3f 1d dd ba bd
       -0.6368778 -0.052376896 0.5317364 -0.09124205
000010 43 5b b9 3e 69 24 9a 3e 63 f9 97 3e ee 85 c9 3e
       0.3620244 0.30105904 0.29682454 0.39359993
000020 54 3d 91 be 4e a2 1e bd 27 f2 96 bd 4a ac 09 bf
       -0.28367102 -0.038729005 -0.07370406 -0.5377852
000030 3a 68 c8 3e a2 ed 56 ba 38 cc 0d bd 66 82 ad bd
       0.3914202 -0.0008198862 -0.034618586 -0.08472137
000040 d7 e9 ce bc 0f 16 24 be 35 03 77 3e 3b d6 07 3f
       -0.025257988 -0.1602404 0.24122317 0.53061265
000050 86 20 d8 be 5a ed 32 3f 6b d8 18 bc 2c 44 4a bd
       -0.42212313 0.6989342 -0.009328942 -0.04938142
000060 8d a1 87 bd 40 d4 04 be c1 f1 c9 3e c6 ff e6 bb
       -0.0662261 -0.12971592 0.39442256 -0.0070495335
000070 11 8e 2c be e7 d6 72 bb 20 bb f1 bd 5e d1 eb 3e
       -0.16851069 -0.0037054361 -0.118032694 0.46058172
