VehicalStateperML_RNN_epochs_200_BS:128.pth (torch, 18972 bytes, 12 tensors)

linear_in.weight f4 [32, 6]
00000000: c773 8040 c8cd b3be 5eb8 cdbc 8150 b8bb
00000010: d2d2 c7bf 875a d7bf aef5 6f3f 81c8 923e
00000020: 49cb f2bf 4451 6abf 4b51 653f f18c 9b3f
00000030: 3eaa a9bf 30b7 e0be 6154 5cbf 4cd9 e3bf
00000040: b89e 1dbf c312 09bf 444e 10c0 5d78 29bf
00000050: 161f 823d a15f a8be 8411 08c0 1a5a 02c0
00000060: d954 eebf feee b33e a1b6 a7bf 674e 96bd
00000070: 7ccf acbf 0ae7 acbf 622d 233e 0b22 0ebf
00000080: 153a 6f3f ab98 d3be 67b6 f5be a64e 05bf
00000090: 6243 8abd 5b4d 83be 3483 bb3b 608f 483e
000000a0: d752 55be ac62 73be 3ef6 c3be 33f5 503e
000000b0: 85e0 5bbe f7b6 3dbf 9700 2c40 4160 3740
000000c0: 6333 d3bf 403d b3be bd17 733e 12fa 0740
000000d0: 9596 d8bf 9ac4 cebf faa2 46bf 739a 803f
000000e0: c34a 96be 2491 30bf c1c5 123f 5a12 1e3f
000000f0: 025d c1bf 1436 0a3f 2937 d5be d226 91bf
00000100: ad87 51bf 0abb 5cbf 860f cdbf fcca 63be
00000110: d947 a03e 578b 11c0 d24e 713f 5462 5c3f
00000120: 0c94 f13b 05d6 903e 7dc9 ff3d f50c b53e
00000130: 85a2 f53d ec66 0a3e fdab 293f 3677 103f
00000140: b208 d1be 2373 a1bd cbb3 1140 f285 1340
00000150: 9cd1 e33d 73a3 573e 5d33 13bd 8737 bebd
00000160: c73b 873e 3985 923e b8e0 e8bd 76d4 3e3e
00000170: dfa4 753e ec37 4f3e babc 19be e76e 12be
00000180: 7229 edbf c15c b03e 11c2 143d 22e8 63bf
00000190: 1762 0540 6466 0840 f738 8c3e 78b3 c93e
000001a0: be8f 8dbe e68b 853f 0270 683f f08c 743f
000001b0: 0355 9ebf ab23 cc3e 95c7 20be 2050 cebe
000001c0: df13 3d3f 3198 523f a71d ee3f d419 d3be
000001d0: 1717 f3be db5b 40be b2f1 01c0 3673 06c0
000001e0: ce2e 3fc0 c498 2abf ae85 04c0 399c d4bd
000001f0: 2610 cabe 7a41 a8be ac22 84c0 e037 8d3e
00000200: d745 38bc a33c 07bf 5399 e5bf 9473 d8bf
00000210: d124 92bf 5279 f23e c7d0 a6bf 023c fb3e
00000220: 1070 b73f f30a be3f 9200 d9bd eec6 7f3e
00000230: d9ae 8b3e 18ff eebe c541 7e3e dd5f 873e
00000240: 1f60 a13f fee0 113e 2bf4 04be d4be 13bf
00000250: 1cf7 6840 58ac 4340 cb2a 9cc0 2bc6 983e
00000260: d392 483f 1dea 403f 6b28 9a3d 5b98 a03e
00000270: 358f f1bf 9686 ea3d 36a4 4b3e e33f 0fc0
00000280: b3fb ec3f 41a5 fb3f 97b1 0140 1e33 d0be
00000290: 5c8b b9bf e0a5 b73e a666 a4bf 1b77 b2bf
000002a0: 32cf 44c0 e6fe 9ebe a04a 86be b31d 84bf
000002b0: 3dec 1dc0 8473 05c0 b3ea 903f 4236 81bf
000002c0: 295f 1bbf a471 483f 2d5d 16be 7794 3fbe
000002d0: bd41 16bf ce2b 253f da66 19bd 8335 28bf
000002e0: 5087 123e bdca 243e 2dd8 92bd e7e1 03bf
000002f0: ff6c ca3e 4497 8cbe d65e 06be ffd6 07be
4.014133 -0.35117936 -0.025112327 -0.005624831 -1.5611212 -1.6824502 0.9373425 0.28668597
-1.8968288 -0.9153025 0.8957717 1.2152387 -1.3255079 -0.4388976 -0.8606625 -1.7800689
-0.6157031 -0.53544253 -2.254777 -0.66199285 0.063535854 -0.3288546 -2.126069 -2.0367494
-1.8619643 0.35143274 -1.3102609 -0.07339173 -1.3500819 -1.3508008 0.15935281 -0.55520695
0.93448 -0.41327414 -0.47990724 -0.52073133 -0.067511335 -0.25644955 0.0057224277 0.19585943
-0.20832382 -0.23768109 -0.38273805 0.20406036 -0.21472366 -0.7410731 2.687536 2.8652499
-1.6500057 -0.35007668 0.23739524 2.124638 -1.6920954 -1.6153748 -0.7759243 1.0047134
-0.29353914 -0.68971467 0.57333 0.6174675 -1.5106509 0.53988767 -0.41643646 -1.1339972
-0.8184765 -0.862229 -1.6020362 -0.22245401 0.31304815 -2.2741296 0.94260895 0.86087537
0.007372385 0.28288284 0.12489603 0.35361448 0.11993889 0.13515824 0.6627806 0.564319
-0.40826946 -0.07883289 2.2765987 2.3050504 0.11123964 0.21058445 -0.035937656 -0.09287935
0.26412794 0.28617266 -0.11370987 0.18635735 0.23988675 0.20236176 -0.150134 -0.14300118
-1.8528273 0.34445766 0.03631789 -0.8902608 2.084112 2.1312494 0.2738721 0.39394736
-0.2764873 1.0433319 0.9079591 0.95527554 -1.2369694 0.39870963 -0.15701135 -0.40295506
0.73858446 0.82263476 1.8602799 -0.41230643 -0.47478554 -0.1878504 -2.030377 -2.100782
-2.9872317 -0.6663935 -2.0706592 -0.103813596 -0.39465445 -0.32862455 -4.1292324 0.27581692
-0.01124712 -0.528269 -1.7937416 -1.6910272 -1.1417485 0.47358185 -1.3032464 0.4906922
1.4331074 1.4847091 -0.10595812 0.2497823 0.27281836 -0.46678996 0.24829777 0.26440325
1.2607459 0.14245984 -0.12983768 -0.57713056 3.6400824 3.057394 -4.8802238 0.2983869
0.78349036 0.7535723 0.0752724 0.31366238 -1.8871828 0.114514515 0.1988686 -2.2382743
1.8514313 1.9659806 2.0264642 -0.40664 -1.4495654 0.3586874 -1.2843826 -1.3942598
-3.0751462 -0.31053847 -0.2622881 -1.0321563 -2.4675438 -2.0851755 1.1321625 -1.0094683
-0.6069208 0.782984 -0.14683981 -0.18708979 -0.5869406 0.64519966 -0.037451603 -0.6570665
0.1430943 0.16092964 -0.071701385 -0.51516575 0.39536282 -0.27459157 -0.13122115 -0.13265608

linear_in.bias f4 [32]
00000000: 2b24 5d40 b3c9 aec0 1f3f 1040 4781 0440
00000010: 5eb4 8abf 9063 ad3f f21c 3f3d c4c9 f3bf
00000020: bada 1040 cbd5 c0bf 1c29 a7be cf63 9c40
00000030: 64cf f4bd e7bf 56bf c6e6 d0bd 54ae 4b3d
00000040: c7d0 cebf b146 5dc0 ed4e 07bf 01e7 0340
00000050: 37ca fa40 ca77 90bf b315 48c0 242c b2be
00000060: 5aad d7bf d1de ccc0 bde3 22c0 8dce 9b40
00000070: 3e3e 0440 86f5 5e3f 9c94 21bf ece1 143f
3.4553325 -5.4621215 2.2538526 2.0703905 -1.0836294 1.3546009 0.046658464 -1.9045949
2.26335 -1.5065244 -0.3264855 4.8871837 -0.11953619 -0.8388657 -0.102002665 0.0497268
-1.6157464 -3.4574397 -0.52854806 2.0609744 7.8371844 -1.1286557 -3.1263244 -0.34799302
-1.6849778 -6.4021993 -2.54515 4.8689637 2.066299 0.8709339 -0.63117385 0.5815723

linear_32.weight f4 [32, 32]
00000000: f75c d2bd 5833 24be 318b d9bc 29ff 63bd
00000010: c258 0abf 831c a33d b108 a6be c770 f33d
00000020: e4d8 a83d d6d4 e43e dda7 7d3e 4f47 8ebe
00000030: 954f cc3c 6c8a 873e 41f9 6ebe 7961 09bd
00000040: 29bf 3ebc 9448 333e 146b 073e 5201 313d
00000050: f31a 21be 2153 14bf 1c5c 8f3e 6546 a8bd
00000060: b7f2 c83e 755a e73d 2da9 b4bd ef71 84be
00000070: c4aa 27bf dd98 8b3e f532 353f f9fd ea3e
00000080: 33d5 c23d 6917 f73d 9c7f 53bd 9c1f b43c
00000090: 2f22 853e 1faa 853d a59a bb3e 8e82 9ebd
000000a0: 94e4 27be 8752 4cbe b575 82be 812f 693e
000000b0: 30ee d3bc 63a6 3bbe 64fa 563e b310 debb
000000c0: 70f5 1f3d 2cb7 72be 5af7 0ebe a19c f9bb
000000d0: 0f0a bb3d 161c d93e ba3e 74be 6f05 d838
000000e0: 7af9 83be 1446 49be 600b 803d dd82 783e
000000f0: f1e0 cd3e 8cee 54be 1305 48bf d759 a5be
00000100: c20f a3bd 4304 7b3e 7e24 1f3e 13a5 393e
00000110: 4eb0 0f3e f25a f83e ec3c 04be 3ee3 fc3e
00000120: 7225 023f ff7c 50be 61af 45bf 3a1a 77be
00000130: 706e b73d b0e4 7c3c 8dc0 d8bd 0991 153d
00000140: ed12 183d fec0 ef3d 8f8d 70bd 6762 6a3e
00000150: e633 31be 2dc0 97be 05aa c0be 69e9 a6be
00000160: e089 8f3e a287 9f3d 98c1 8bbe 8240 c93d
00000170: 9f05 24bf b0d3 c2be b46c ddbe c260 a1bd
00000180: bee4 b83d dbec 093e 4da3 54be 2779 febd
00000190: f5dc 33be e4d5 d63d 5644 af3e e3da 0dbe
000001a0: 69b7 02be 1f70 b43d 7680 8b3e 49c9 5b3e
000001b0: d510 e3bc 3353 d3bc 879e 523e fd30 a43c
000001c0: 0ef6 b93d 8ba1 67be ee07 07be be0b e93c
000001d0: 4623 5b3d e9cb a63e 8a8b a2be 5aec 8e3c
000001e0: 5e7c 4cbe 5df7 1abe 6d23 0a3d 8c51 d03d
000001f0: d046 9f3e 44f4 d93d b706 31bf 0ad6 2fbe
00000200: 9972 473e 9c13 85bd d9b7 b2bc fdc8 a5be
00000210: b421 c13d a6e2 87be c8e9 233e 2007 bcbd
00000220: dc3e f7be 52ce 423e 9ab9 e13e b48f 813e
00000230: d12a 68bd bb65 c93d 3481 d43d bc59 33bd
00000240: e7b6 2b3e f189 55be 3977 f43d d954 873d
00000250: 6070 9f3d 045b d13d f371 4dbe d9bc 0d3d
00000260: 205b 39be 0d57 c9be 40ec 2f3e 3d22 96ba
00000270: 9023 253e 4bb0 bd3e 8ff2 8ebd 4fdf d0be
00000280: 2012 8f3e 35b5 723e 2717 81bf 84d7 c8be
00000290: d99b aebe 2c17 a7bf 6571 b93e 06a5 643e
000002a0: d3e8 8fbe 53ad 98bf be0c 8a3d 6fe1 4e3e
000002b0: 221b 8dbc fc71 af3d ac1d 573e 6dbf 8a3c
000002c0: c88a 33be 398a 4abe 2d56 0bbe 98c2 d13c
000002d0: aa2f 2fbf 3505 7a3d ba0a d6bc 71fa 543e
000002e0: cee5 67be 7607 883e f9a3 733e 72f8 8f3e
000002f0: b961 a5bf 63a0 45bf a229 c8bd 58fa 24bf
00000300: e02f 1abb 2e7c df3c caee 2dbd 63b6 a33d
00000310: 83ec 17be 6d8b f3bc b70f b0be ef44 94bd
00000320: 06c0 253b 9cea c73d 6f14 81be d7d2 12be
00000330: 06dc e53c 8497 abbd 76b3 5abe 6053 823b
00000340: 7c35 0a3d dad7 10bc b3d6 d93d 5e56 c2ba
00000350: 6f8b 87bd 274b 98b9 69b5 053e 2932 60bd
00000360: 7a7d 363d 0fbd 333e 625a 05be 1d77 86bd
00000370: ad90 0cbc fc59 d7bc 18af 0d3f 0b3f 093e
00000380: 8b41 983e 7d66 3fbf 656b 49bf 840c 063e
00000390: e526 1abf cf56 0abf 85c7 d6be 5bcf b1bf
000003a0: 5456 5e3e 3922 2cbf 8a0a 5dbe ad51 2ebf
000003b0: c6c9 ba3d a5a8 173f f4fb 72be 2db4 603d
000003c0: ea78 1d3d 1fd3 873e 4adb 293e 99a6 403e
000003d0: 2d74 d63e a030 3fbe 2d62 273f cd24 ab3d
000003e0: 8750 ab3f 509d aabd b57b 14bf ad0e 643e
000003f0: 4a9f 82bf a21c 82bf aa93 ce3b 90a1 993e
-0.10271638 -0.16035211 -0.02655563 -0.05566326 -0.54041684 0.079644226 -0.32428506 0.11886745
0.082444936 0.4469363 0.24771066 -0.2778878 0.024940291 0.26472795 -0.2333727 -0.033540223
-0.011642256 0.17508155 0.13224441 0.04321415 -0.15732937 -0.57939345 0.2799996 -0.08216552
0.39247677 0.1129655 -0.0882133 -0.25868174 -0.6549494 0.27265063 0.7078088 0.4589689
0.09513321 0.12065012 -0.05163537 0.021987729 0.26002643 0.06526589 0.36641422 -0.07739745
-0.1639579 -0.19953357 -0.25480428 0.22772028 -0.025870413 -0.1832519 0.20993954 -0.006776893
0.039052427 -0.23702687 -0.13961545 -0.0076175486 0.09132778 0.4240424 -0.23852053 0.00010300695
-0.25776273 -0.19655639 0.062521696 0.2426867 0.4021068 -0.20794123 -0.7813274 -0.32295105
-0.0796199 0.24513344 0.15541264 0.18129377 0.14032099 0.48506886 -0.12913865 0.49392122
0.50838387 -0.20360182 -0.7722073 -0.24131098 0.08956611 0.015435383 -0.10583601 0.03651527
0.037127424 0.11706732 -0.05872875 0.228891 -0.17304954 -0.29638806 -0.37629715 -0.32599953
0.28034878 0.07789542 -0.27296138 0.09826757 -0.6407108 -0.3805213 -0.43246996 -0.07879783
0.09028004 0.1346926 -0.2076542 -0.12425452 -0.17564757 0.10490015 0.34231824 -0.1385303
-0.12765278 0.08810448 0.27246445 0.21463503 -0.027717987 -0.025796508 0.20568286 0.02004289
0.09080134 -0.22620218 -0.13186619 0.028447982 0.053500436 0.32577446 -0.31747085 0.017446686
-0.19969317 -0.15133424 0.03372519 0.10171804 0.31108713 0.10642293 -0.6915087 -0.17171493
0.1947731 -0.06497881 -0.021816181 -0.32379904 0.094302565 -0.26540107 0.16007149 -0.091810465
-0.48290145 0.19024017 0.44086915 0.2530495 -0.056681458 0.09833857 0.10376206 -0.04378675
0.1676899 -0.20853402 0.119368024 0.0660798 0.07785106 0.10222438 -0.20063 0.034603927
-0.18101168 -0.39324227 0.17179966 -0.0011454296 0.16126847 0.37048563 -0.06979858 -0.4079537
0.27943516 0.23701937 -1.008519 -0.39226925 -0.34103277 -1.3053946 0.36219326 0.22328576
-0.28107318 -1.1927894 0.06740712 0.20203184 -0.017224852 0.08566663 0.21007413 0.016936982
-0.1753341 -0.1977929 -0.13607092 0.025605485 -0.68432105 0.061040122 -0.026128162 0.20798661
-0.22646257 0.26568192 0.2379302 0.28119236 -1.2920448 -0.77197856 -0.09773566 -0.64444494
-0.002352707 0.027280893 -0.042464055 0.07993772 -0.14836316 -0.02972957 -0.3438699 -0.072397105
0.0025291457 0.09761545 -0.25210902 -0.14338242 0.028059017 -0.08378509 -0.21357521 0.003977224
0.033742413 -0.0088405255 0.10636654 -0.0014826765 -0.06618392 -0.00029047692 0.13057484 -0.054735336
0.044553258 0.17552589 -0.1302276 -0.06565688 -0.008579415 -0.026288025 0.55345297 0.13402955
0.29737505 -0.7476576 -0.78679496 0.13090712 -0.602156 -0.5403871 -0.41949096 -1.3891405
0.21712619 -0.6723972 -0.21586052 -0.6809338 0.091205165 0.59241706 -0.23728925 0.05485933
0.03844539 0.2652826 0.16587558 0.18813552 0.4188551 -0.18670893 0.6538418 0.083566286
1.338395 -0.08330786 -0.5800126 0.22271223 -1.0204861 -1.0164988 0.006304224 0.30006075

linear_32.bias f4 [32]
00000000: fde1 693e 4b32 23be 8dcc a73d 7a02 ffbd
00000010: 1057 c7bd 75db 26bf 28c1 a23d e943 773e
00000020: 7cc0 b73e 3208 bd3d dd65 9c3d d7ef bc3a
00000030: db21 d73e dffb 55bd 27e9 43bd 8c4a dbbe
00000040: 218d 23bd 036f 9f3e 2e69 c03e 3444 dbbe
00000050: 628f d43d b4d5 63be dbe7 753f ddbf 84be
00000060: e5f7 07be 1060 f03b cca1 abbd b624 0bbe
00000070: 8aba 46be 0f79 673d 53b7 993e 3eb6 e83d
0.22840114 -0.15937154 0.08193312 -0.12451644 -0.09733403 -0.65178615 0.07946998 0.24147
0.3588904 0.09230079 0.076366164 0.001441474 0.42018017 -0.052242156 -0.047829773 -0.42830312
-0.039929513 0.31139383 0.37580246 -0.42825472 0.103789106 -0.2224949 0.9605691 -0.2592763
-0.13278158 0.0073356703 -0.0838047 -0.13588223 -0.19407097 0.056511935 0.30022678 0.11362885

rnn.weight_ih_l0 f4 [32, 32]
00000000: eda2 1cbd 0295 3c3d a993 d1bc 7d33 213d
00000010: e68e 2dbd 2569 b93e a6f4 1dbd 68af 6a3d
00000020: 3fd1 813d 5638 233d 053f 013d 844a 87bc
00000030: 74f6 353e 92c3 80bd ad75 0abe 31b7 9e3c
00000040: 1941 10bd 1277 9cbd cb39 ab3e 4bfa ab3b
00000050: c6f8 19bc 3f2e bcbc ea1f a8bd f8c6 0bbc
00000060: f44e 1a3d add2 7dbd 2542 00bd 33c7 a0bd
00000070: b4df ff3c 6454 57bc 45b7 f23c ceb8 7d3b
00000080: 04d4 74bc 617f f13b 81c4 e73d 12fe fbbc
00000090: 5df6 303c 407a 793e 5be3 14bd 04df d53e
000000a0: 25a8 803d c705 253d 04b4 b4bc 44be bfbc
000000b0: c1de 47bf 97d0 e0bd 2093 21be 98df 0d3f
000000c0: aa0c 443e 1006 9abd 396d 3b3f dd82 09be
000000d0: 82d9 0cbe c937 e2bc 9d72 c83e ccd2 b0bd
000000e0: 64ac 76bc 54ef 803c ece1 41bc 0428 9dbe
000000f0: a051 47bd 750f 8abc 6f74 a73c 8bc1 ca3d
00000100: 9752 d8bc c6a4 0a3c 67cb d5bd 51cc 273c
00000110: b04e 883d 3b16 1d3d 8984 a03c fbff 373d
00000120: 2a54 d13c d12c d0bc 74ac cebc b631 9d3c
00000130: 7552 2fbd 2db6 513e 26a0 a4bd f0c5 f43c
00000140: d6f2 e23d 313a 653c b841 7b3e 5fd0 66bd
00000150: 0b5f 1dbc db4c 6a3d 897d 073c 3895 c4bc
00000160: cca9 293c f554 aa3d c612 783c 0503 353d
00000170: f04e b13b 4857 cfbc 47de e43c 9c8b 15bd
00000180: 573b 1e3d 9512 ffbc a5fd 4bbd a23d a536
00000190: 5702 433c 1576 a6be 6847 163d 26ee 713e
000001a0: 3a92 9fbc 0d46 92bc bc87 feba 9620 3d3d
000001b0: 64e6 f2be 662a 01bd 659d c5bc bfb6 6b3e
000001c0: fe88 2f3e 0623 ce3d 2fec b3bd 4c89 0f3d
000001d0: 80b3 eebc c84e 1a3c c30e 9cbd 34f1 6b3d
000001e0: b251 30bc 2338 413d cbe4 c5bb 515f 16be
000001f0: 9a2b 39bc f83e 5e3c 41c8 dc3d f2e0 a2bc
00000200: b456 23bb 8542 943c 01f8 57bd 577f 533d
00000210: da15 343d 2491 063d 1511 11bd 96fd 1a3d
00000220: 7a99 50be 5f65 9ab7 8d25 443d 49f8 55bd
00000230: 5d2e 43be 7975 4f3e 6dec adbd 5a8d 793d
00000240: fc67 03bd c0ea 613d d157 d7bd b08c eb3d
00000250: 632b c43d 0621 7e3d 1e05 5fbd b84e a73d
00000260: a268 493d 41ed 743d 0956 59bc e51e 253d
00000270: e044 f43b b6be b5bc 7582 4dbe 920f 52bc
00000280: 1c70 c9bd 3de2 013d c234 84bd b072 3cbc
00000290: 6b59 1dbc 2109 543e 22e1 81bd 6986 e83e
000002a0: 34fe cabe 0c43 78bd 3f19 32bd aba4 593c
000002b0: bf22 acbd 5391 ddbc 1568 58be bedd 433c
000002c0: 8d5c dbbd 9012 24be a280 4dbd 2f07 ec3d
000002d0: aec4 2b3e 5380 583c 17cf d83e 2010 8f3d
000002e0: d667 b039 53ca 163e 654c 053d a59b 193e
000002f0: e6b0 74be dfa9 85bd b2d0 a93d 44bd 9abd
00000300: 68e8 4f3a 7d96 5fbc 4dee e2b9 c2c9 89bc
00000310: 2c38 be3c e190 b0be d1a4 e73b 0123 ef3d
00000320: fd59 af3d 9ecd ecbb 25e9 45bd 4b6e 9ebc
00000330: e531 fbbe 8fd4 1f3f 8e6f 13be cfea 1a3d
00000340: 9f99 b13b ac8a 56bc 9b4b bf3d 3470 d83c
00000350: f135 2c3c a0ea e1bc 794f 443e 530e 833d
00000360: 8ec0 efbb 8d2d 05bd 83bf 073d 66d0 53bd
00000370: 9873 633e a972 06bb 5d8e acbd 4be1 05bd
00000380: 191d ea3c c4a4 e53b 3d05 9dbd 23bd 873d
00000390: d535 933d 7adf a4be 2991 ebbb f83c 193f
000003a0: c857 a4bd 4499 6e3d b5cb d43c 3bf9 1e3d
000003b0: b0a4 943e e4a9 813d e377 4ebe 3976 dbbe
000003c0: 3272 ae3d fdfe 693e 8297 523d d095 9239
000003d0: 5806 673d a5ae c53d 9e1f c03e ce31 be3d
000003e0: 022d 463d 19ee e0bc 4424 1ebd 5be9 3cbd
000003f0: 1900 1bbd d413 b2bc 5c5b 41be a1ed c63c
-0.038241316 0.046040542 -0.025583105 0.039355744 -0.042372607 0.3621303 -0.038563393 0.057296187
0.06338739 0.039848648 0.03155424 -0.016515024 0.17769796 -0.06287302 -0.13521452 0.019374462
-0.035218332 -0.07639898 0.3344253 0.005248343 -0.009397691 -0.02297127 -0.08209212 -0.008531325
0.03767295 -0.061968494 -0.03131308 -0.07850494 0.0312346 -0.013142679 0.029628405 0.0038714889
-0.014943127 0.007369921 0.11316777 -0.030760799 0.010800925 0.24363041 -0.036349636 0.4177171
0.06282071 0.040288713 -0.022058494 -0.023406155 -0.7807427 -0.10977285 -0.1577878 0.554193
0.19145456 -0.075206876 0.73213536 -0.13428827 -0.13754848 -0.027614491 0.39149943 -0.08633956
-0.01505575 0.01573912 -0.011833649 -0.30694592 -0.048661828 -0.016853074 0.020441262 0.09900197
-0.02640657 0.008462137 -0.104391865 0.010241584 0.066556334 0.03835128 0.019594448 0.044921856
0.025552828 -0.025411995 -0.025228716 0.019188743 -0.042803247 0.20479651 -0.080383584 0.02987954
0.110814735 0.013990925 0.24536788 -0.056351062 -0.00960518 0.0572022 0.008269676 -0.023996934
0.010355424 0.083169855 0.015141195 0.044192333 0.0054110214 -0.025310174 0.027938021 -0.036510095
0.03863081 -0.03113679 -0.04980244 4.924558e-06 0.011902413 -0.32511964 0.036689192 0.23626003
-0.019478906 -0.017855668 -0.0019419114 0.046173654 -0.474414 -0.031534575 -0.024122903 0.23018931
0.17142102 0.10065274 -0.08785283 0.035043046 -0.029138327 0.009418197 -0.07620003 0.057603076
-0.010761665 0.047172677 -0.006039237 -0.14684798 -0.011301899 0.013564818 0.10780383 -0.019882653
-0.0024923505 0.018098125 -0.05272675 0.051635113 0.04396615 0.03285326 -0.03541668 0.037839495
-0.20371047 -1.8405435e-05 0.047887374 -0.052238736 -0.19060655 0.20259656 -0.0849236 0.06092582
-0.03208159 0.055155516 -0.105147965 0.115014434 0.09578588 0.062043212 -0.05444824 0.08169311
0.04917205 0.059796575 -0.013265141 0.040312666 0.0074544996 -0.022185665 -0.20069297 -0.012821095
-0.09835836 0.0317099 -0.06455375 -0.011501953 -0.009603838 0.20706607 -0.06341769 0.45415047
-0.39647067 -0.060610816 -0.043481108 0.013283889 -0.08405065 -0.027046835 -0.21133454 0.011954723
-0.10711012 -0.16022706 -0.050171502 0.11524808 0.16774246 0.013214189 0.42345497 0.069854975
0.000336467 0.14725618 0.03254356 0.1500078 -0.23895606 -0.06526541 0.082917586 -0.07555631
0.00079310546 -0.013646719 -0.00043283627 -0.016819838 0.023220144 -0.34485534 0.007069208 0.11676598
0.08562086 -0.00722666 -0.048318047 -0.019339701 -0.49061504 0.62433714 -0.14398023 0.037821587
0.0054199244 -0.013094585 0.093405925 0.02642069 0.0105109075 -0.027577698 0.19170941 0.063992165
-0.0073166555 -0.032514144 0.033141624 -0.051712416 0.22212064 -0.002051512 -0.08425591 -0.03268556
0.028578328 0.007008167 -0.07667015 0.06627872 0.07188002 -0.3220175 -0.0071889353 0.59858656
-0.080245554 0.058251634 0.025976041 0.038811903 0.29031897 0.06331232 -0.2016292 -0.42863634
0.08517875 0.22851177 0.05141402 0.0002795891 0.056402534 0.096524514 0.37524122 0.09286843
0.048382767 -0.027457284 -0.038608804 -0.046120983 -0.03784189 -0.02173797 -0.18882507 0.024283232

rnn.weight_hh_l0 f4 [32, 32]
00000000: 89ce 0ebf 8dd2 fd3d c94b 8e3a 4ede 0c3e
00000010: 8e4f e6bd 624b 893d 44c0 323e 2ade 293a
00000020: d89b 473d c0c6 9abd 3bef ffbd 019d a43e
00000030: 7bcb c7bd ff6a fcbd 9a12 9f3d 5167 d0bd
00000040: bd42 273d 62b7 593e 6cd0 b93b bb20 1cbd
00000050: b015 793d ee58 86bd 2de0 0c3e 6220 a5bd
00000060: 4657 c9bd 0393 c0bd cc1a 533d eb93 bdbd
00000070: 3af3 1dbd bac7 c3bd 3bf7 a2bd 97ee b73d
00000080: ae63 853a bd10 b0be 6abe 79be c759 f33d
00000090: 2c27 80be 5a49 d03b 1043 83bd 4073 93bd
000000a0: 4f13 aabc ff0a bdbd 7cf7 04bd 2072 ab3d
000000b0: 08e0 4cbe f525 053c 6e18 28be 2c64 19bc
000000c0: 6e16 c23d c5ff d03d f25a 0ebe df4d 883d
000000d0: 76f2 61bd 1fad 093c e2dd 613e 31a9 4c3d
000000e0: 8c90 78bd ea06 f5bd cf70 2a3d b257 5fbe
000000f0: 3b29 dbbc 6d38 8bbe 5ac1 933e 7077 75be
00000100: 2284 f23c f0c9 07be 0e31 5cbf 01da 443c
00000110: e71a 753d 2c4c d0bd eec2 18bd eb74 013d
00000120: 1b6f 0bbd 4db7 bb3c d1ce eb3c 2642 1f3c
00000130: 1f25 a7bb cb5f 1ebd 5b8d 523e f3b9 16bd
00000140: f7d4 a2bb 1a8c 73bd bbe9 24bc 5682 58be
00000150: 17eb 333d 0072 4dbc 4cb9 183d 7237 283d
00000160: f2fa 11bd 2e11 4d3d 1688 06bd 8dbe 7abd
00000170: cb3e 8dbd 0600 9a3d b34b 97bc 33ef 553a
00000180: 84bc 83bc 54e7 17be 7a85 36be 4131 8dbe
00000190: 3d9f d0bd a5f8 d83c dac0 83bd 1937 903c
000001a0: cbd8 2ebc 4115 22be 755c 93bd 79f3 cf3e
000001b0: c007 093f a32d f93d b033 2a3e b745 f7bb
000001c0: 3c28 4fbd dcfd 4c3e 50a5 1d3d e1b0 c83d
000001d0: 878e b33d 98ca bcbd 036e 813e a3a3 6bbd
000001e0: dbeb 13be 8e52 3fbd f92f 8ebc efd4 133e
000001f0: 4879 78bd 0bdf f7bd a6d3 9ebc cb9c 9dbd
00000200: 4ff6 39bc 3c83 6b3b 8570 2abe 1184 133e
00000210: f895 31bf 0fa2 edbc 2293 293d 7674 12be
00000220: fc23 32bd 6f12 4d3d 42f1 9bbd f12e 023f
00000230: 0645 8bbe 8c6b a2bd e342 7bbd 754f b8bd
00000240: 7243 a33d f4dd b33d 4a9d 24bc 8efc c03b
00000250: e19f bd3d 3846 97bd e24e 0e3e 478f 9abd
00000260: 93af b9bd 253f 773c 322d dd3c f49b acbd
00000270: 861e 443d 1ab5 47be 81c8 c5bd c137 8d3d
00000280: 15cb 11bc b498 4dbd a9dd 923e 3793 ce3d
00000290: 6fca 13be 9e5c d1be 01ed bf3e 0eea 8abd
000002a0: 5f34 083e c734 b13d f88d 86bd 127f 81be
000002b0: 640a 4cbe 01df d6bc 4f01 1a3e 69b1 633d
000002c0: 9e71 03be 4759 bb3e bbf4 913d 3cb9 ae3c
000002d0: 356f c63d 1fa0 7a3b 532a b2bd b25c 2cbe
000002e0: 0888 5bbe 5267 86be 933d 213e ed7b 3c3d
000002f0: c5fc 6bbc 3cea fdbd 077f ed3c 1b65 2e3e
00000300: c3a9 38be c1d1 19bd fc5c 263e e5b7 e43c
00000310: 32a3 93bd c270 3bbe 89ed b2be 6e5a 2fbe
00000320: 923d 823e 9a09 593e 2668 79be 28e9 a9be
00000330: 3d4e c63d 1f72 c83d dea6 9dbd 99e7 163e
00000340: 8358 b63d e3d8 003e 0ebb 0dbd c906 2cbe
00000350: 7ed5 0e3c 3493 123e 141c 92bb 6b00 043d
00000360: e4a0 2ebe dd47 1cbe 56ae 1b3e 69c9 9f3d
00000370: 75fe e83b 081a 00be 4809 983d 769b b03d
00000380: 23aa db3c 93fb aabc 0e98 603e 1616 2c3d
00000390: a5b1 f83c 3efe e73d b3f5 e53d 06a4 eabe
000003a0: fe8b d13d 4710 19be 4fa1 e6bd 3c56 863e
000003b0: 6e98 2dbe bc98 70be 6830 8b3d a774 c03d
000003c0: 347a 8e3d 6860 9d3c 8c0a ae3d ec54 563d
000003d0: 6a6a 603d b49f a7bd 2422 0abb b5b9 51bd
000003e0: 2981 073e 28e0 25bd 7b7e e23d 3278 413d
000003f0: 9024 b93d 3abd cebc 6e4f 3cbe a917 ccbc
-0.557839 0.12393675 0.0010856326 0.13756678 -0.112456426 0.06703831 0.17456156 0.00064799434
0.04873261 -0.0755744 -0.124968015 0.32151034 -0.09755608 -0.123250954 0.0776722 -0.10175956
0.04083513 0.21261361 0.005670598 -0.03811715 0.0608117 -0.06559931 0.13757391 -0.08062817
-0.09831099 -0.0940304 0.051539227 -0.09256729 -0.038562037 -0.09559579 -0.07957312 0.08981054
0.0010176802 -0.3438777 -0.24389043 0.11882358 -0.25029886 0.0063564004 -0.064092755 -0.071997166
-0.02076116 -0.09230613 -0.032462582 0.08371377 -0.20007336 0.008126725 -0.16415569 -0.009362262
0.094769344 0.10205034 -0.1390188 0.06655478 -0.05516287 0.008403092 0.22057298 0.04996604
-0.060684726 -0.119642094 0.04161149 -0.21810797 -0.026753059 -0.27191487 0.28858453 -0.23971343
0.029604021 -0.13260627 -0.8601235 0.012014867 0.05984011 -0.10170779 -0.037295274 0.031605642
-0.034041505 0.022914553 0.028785141 0.009720361 -0.0051008607 -0.038665574 0.20561735 -0.03679843
-0.004969235 -0.059459783 -0.010065491 -0.21143469 0.04392537 -0.012539387 0.037286088 0.0410685
-0.03563971 0.050065212 -0.032844625 -0.06121688 -0.068967424 0.07519536 -0.018468713 0.00081609486
-0.016081102 -0.14834338 -0.17824355 -0.2757664 -0.10186622 0.02648575 -0.06433268 0.017604398
-0.010671805 -0.1582842 -0.07195369 0.40615442 0.5352745 0.12166908 0.1662128 -0.0075461525
-0.05057548 0.20018715 0.038487732 0.09799362 0.08767419 -0.09218329 0.25279245 -0.057529103
-0.1444544 -0.04670959 -0.01735686 0.14436696 -0.060662538 -0.12103089 -0.019388031 -0.076959215
-0.011350228 0.0035936376 -0.16644485 0.14405848 -0.6936946 -0.02900794 0.041400082 -0.14302239
-0.04349135 0.050066408 -0.07614376 0.50852877 -0.27201098 -0.07930669 -0.061343085 -0.0899953
0.079718485 0.087825686 -0.010047266 0.005889482 0.0925901 -0.0738644 0.13897279 -0.07546859
-0.09066691 0.015090738 0.02699909 -0.08428183 0.047880672 -0.19502679 -0.09657384 0.068954
-0.008898516 -0.050194457 0.28684738 0.10086673 -0.14432691 -0.40890974 0.37485507 -0.06782924
0.13301228 0.086526446 -0.06570047 -0.2529226 -0.19925839 -0.026229383 0.15039562 0.055589113
-0.1283631 0.3659155 0.07126757 0.021328561 0.0968918 0.0038242412 -0.08699479 -0.16832235
-0.2143861 -0.26250702 0.15746145 0.046016622 -0.014403527 -0.12398192 0.028991235 0.17030756
-0.18033509 -0.037553553 0.16246408 0.027919719 -0.072088614 -0.18304732 -0.3494685 -0.1712434
0.254376 0.21195069 -0.24356136 -0.33185697 0.096828915 0.09787392 -0.07697843 0.14736785
0.08903601 0.12582736 -0.034602217 -0.16799463 0.008717893 0.14313966 -0.0044589136 0.03222696
-0.17053562 -0.15261789 0.15203223 0.07802088 0.0071104118 -0.1250993 0.07423645 0.08623402
0.026814526 -0.020871913 0.21933004 0.04201325 0.030358145 0.1132779 0.11228504 -0.45828265
0.102317795 -0.14947616 -0.11261236 0.26237667 -0.16952679 -0.23495764 0.06796342 0.0939725
0.06956902 0.01921101 0.084981054 0.05232708 0.054788984 -0.08184758 -0.0021077478 -0.051202495
0.13232864 -0.040496975 0.110592805 0.047233768 0.09040177 -0.025236715 -0.18389675 -0.024913626

rnn.bias_ih_l0 f4 [32]
00000000: 7ea2 0cbe 0bfe d43e 679b 8ebc bd1a 00bf
00000010: 6133 53be 91c1 1a3f b94c af3e 6143 823e
00000020: 4d00 4f3d 99dc 38bf a8d6 8bbc ce35 8a3f
00000030: c04c 693f 1395 4fbe 92e0 4b3e e067 583f
00000040: d58f 4bbf 0eef 24bf 30f6 6abe 7498 00bf
00000050: 920c f73b d52c 0f3e 103a eebe 0606 12be
00000060: ea89 b6be 999a 103f 457c 27be a31e 14bf
00000070: 2d8d 3a3f a0e7 ea3d 3923 463d 91c8 c53e
-0.13733861 0.4160007 -0.017408086 -0.500408 -0.20625068 0.6045161 0.34238222 0.2544203
0.050537396 -0.72211605 -0.01707013 1.079767 0.91132736 -0.20271711 0.19909886 0.845335
-0.79516345 -0.6442727 -0.22945476 -0.50232625 0.0075393403 0.13981946 -0.46528673 -0.1426011
-0.35652095 0.564859 -0.16355999 -0.5785925 0.7287167 0.1146996 0.048373435 0.38629583

rnn.bias_hh_l0 f4 [32]
00000000: 7ea2 0cbe 0bfe d43e 679b 8ebc bd1a 00bf
00000010: 6133 53be 91c1 1a3f b94c af3e 6143 823e
00000020: 4d00 4f3d 99dc 38bf a8d6 8bbc ce35 8a3f
00000030: c04c 693f 1395 4fbe 92e0 4b3e e067 583f
00000040: d58f 4bbf 0eef 24bf 30f6 6abe 7498 00bf
00000050: 920c f73b d52c 0f3e 103a eebe 0606 12be
00000060: ea89 b6be 999a 103f 457c 27be a31e 14bf
00000070: 2d8d 3a3f a0e7 ea3d 3923 463d 91c8 c53e
-0.13733861 0.4160007 -0.017408086 -0.500408 -0.20625068 0.6045161 0.34238222 0.2544203
0.050537396 -0.72211605 -0.01707013 1.079767 0.91132736 -0.20271711 0.19909886 0.845335
-0.79516345 -0.6442727 -0.22945476 -0.50232625 0.0075393403 0.13981946 -0.46528673 -0.1426011
-0.35652095 0.564859 -0.16355999 -0.5785925 0.7287167 0.1146996 0.048373435 0.38629583

linear_out.weight f4 [6, 32]
00000000: 5030 5bbc 234a 03bc 4a56 80be 22a8 02bb
00000010: 5a27 07bc d9ef 513a e1b9 02bd 9c1e 6c3b
00000020: a70f cb3b aa5b acb9 c4dc 3ebc e3d0 eeba
00000030: 23a4 56bb 00e7 583b 6227 49bd 4aad a23b
00000040: 1d8d bcbb c1bb 41bb 52ce 81bb dbe0 01bc
00000050: 78c7 62bb da57 b4ba cee8 273b 1488 9cbc
00000060: 0bee 53bc 34ab 48bb ec09 ebbb a632 4eb9
00000070: 0df2 d53b 3b78 733a d737 033c 140c 1dbb
00000080: 134c 263f 5062 d1be 793c ff3e eea8 0b3f
00000090: de6c 393f 79fe 05bf 0258 02bf 7220 02bf
000000a0: ef2c 43bf 540c 8f3e 0ea0 1b3f cd18 8c3d
000000b0: 1d19 a33d c1aa fc3e 879d c9be 8aca ffbe
000000c0: 7f12 f93e 78cc 033f 4b53 273f 2eaf f83e
000000d0: 470b 053e 55c1 12be ae49 023f 44f8 133f
000000e0: f0fe 163f bc78 c73d d2e2 0c3f c58d d63e
000000f0: 0c75 f2be 3713 04bf cbc7 03bf d7ce 16bf
00000100: 7649 7b3e b448 47be f63f b03e d1dc b9bd
00000110: e8b1 debd ea6d b23c 16cd a6be 273c 173e
00000120: a35e 5f3e 0fbd f43a 0088 873e e145 5b3c
00000130: 9f49 65b8 e3f7 8c3e 2c35 693e abf5 99bd
00000140: 3ff9 6bbe 938b 723c 421f c03d 0a55 823d
00000150: 905f 04bb 2b89 d63b e362 8d3d 8866 fcbe
00000160: edfc a9be 1c80 2bbc 95c8 c43d f01c 3ebd
00000170: d470 3d3e 7809 10bd 2d2c 37be 7fd7 cb3d
00000180: a17e 32be 29ea 80be d807 8fbf 9d31 edbc
00000190: 9f30 b73c daaf a33c 8b01 b73d b07e f53d
000001a0: c572 ff3c bbfc 9dbc 8d6d 6ebe 72e8 debb
000001b0: c164 40bc 0518 273e d59c c4be 2e43 0b3c
000001c0: d1a2 c9bc c097 b23c 95e3 bbbd 217f f4bd
000001d0: b665 16bd 2335 2fbd b9fc 79bd 9304 c3bd
000001e0: 3dc1 93bd b826 c6bc aea8 7f3d 9d24 00bd
000001f0: 2ef9 d33d 088f 1fbd e4b3 0ebe 12cd 933c
00000200: 4ee2 aabd cd72 403c a0ca f4bf b6ae adbb
00000210: 9a86 a0bd 214f 8f3c c0bc 98be f9e8 08bc
00000220: 7d4c d43d f10e 523c 6cfb 7dbd 9276 7dbc
00000230: 2b6f 9ebc 4b91 08bd d230 7cbe ba9d 03bb
00000240: 2340 dfbc 5d80 94bc 0199 07bd 89f6 d03b
00000250: 6926 aebb ddc8 c4b9 9397 283c 574b f6bd
00000260: 592d 9bbd a6b3 87bc 56ba 15bd 66eb 063d
00000270: 4aed 863b 730c 2dbc 40a7 f73c 0efa 3fbb
00000280: 0120 10bb 2976 423b 6ef6 1fbe c9b3 b8b9
00000290: c504 d7ba ed75 93ba f9e6 cdbc f219 8aba
000002a0: 7057 a73b f333 093b 3ad2 00bb b54c 12bb
000002b0: 05c3 e2ba 3b7f 8abb 9f47 c2bc 4f4f 263b
000002c0: 6250 71bb 4644 daba d897 293a 4a3a d03a
000002d0: ec90 83b9 c5a6 023b 55a4 0b3b 2462 43bc
000002e0: 6790 e4bb e54d 38ba 58f7 bcbb 012b 5f3b
000002f0: e163 f63a 4634 c7b8 b57a ca3b f5be 2cbb
-0.013378218 -0.008013281 -0.25065833 -0.001993664 -0.008249128 0.00080084574 -0.03191555 0.0036028987
0.0061969343 -0.00032874692 -0.011649314 -0.0018220212 -0.0032751642 0.003309667 -0.049109824 0.0049645053
-0.0057541267 -0.0029561373 -0.003961363 -0.007927145 -0.0034603756 -0.0013759092 0.002562094 -0.019107856
-0.012935172 -0.0030619623 -0.0071728136 -0.00019664559 0.006529099 0.000928763 0.008008919 -0.0023963498
0.6495983 -0.4089532 0.49850824 0.5455464 0.72431743 -0.5234142 -0.5091554 -0.5083076
-0.7624044 0.27939093 0.607911 0.06840668 0.07963774 0.49349025 -0.39377996 -0.49959213
0.48646924 0.5148387 0.6536147 0.48571151 0.12992583 -0.14331563 0.50893676 0.578007
0.58982754 0.09739825 0.550336 0.41905037 -0.47354925 -0.5159182 -0.51476735 -0.5890936
0.24539742 -0.19461328 0.34423798 -0.090753205 -0.10873777 0.021780927 -0.32578343 0.1476904
0.21813445 0.0018672067 0.26470947 0.01338336 -5.466642e-05 0.27532873 0.2277419 -0.075175606
-0.23044299 0.014803785 0.09380962 0.06363876 -0.0020198561 0.0065471134 0.06903627 -0.49296975
-0.3320078 -0.010467555 0.096085705 -0.046414316 0.18500072 -0.03516528 -0.17887945 0.09953212
-0.17431118 -0.2517865 -1.1174269 -0.028954322 0.022362052 0.019981313 0.08935841 0.11987054
0.031182656 -0.01928555 -0.23283978 -0.006802612 -0.011742772 0.16317756 -0.38400903 0.008499904
-0.02461377 0.021800876 -0.09174267 -0.119383104 -0.036718093 -0.042775284 -0.06103203 -0.09522357
-0.07214592 -0.024188384 0.062416725 -0.031284917 0.10350262 -0.038954765 -0.1393581 0.018042121
-0.083439454 0.011746121 -1.9124336 -0.005300368 -0.07838173 0.017493786 -0.29831505 -0.008356326
0.103661515 0.012820945 -0.062007353 -0.015470164 -0.019340118 -0.033341687 -0.24627998 -0.0020083026
-0.027252262 -0.018127615 -0.0331049 0.0063770455 -0.0053146374 -0.00037533688 0.010290044 -0.12026089
-0.07577009 -0.016565155 -0.036554657 0.032939337 0.0041176425 -0.01056205 0.030231118 -0.0029293331
-0.0021991732 0.002967248 -0.15621349 -0.00035229165 -0.001640462 -0.0011250355 -0.02513455 -0.0010536297
0.005106859 0.0020935505 -0.0019656555 -0.0022323553 -0.0017300552 -0.004226593 -0.023715792 0.0025376861
-0.0036821594 -0.0016652427 0.0006469465 0.0015886512 -0.00025094242 0.0019935828 0.0021307666 -0.011925254
-0.006975222 -0.000703065 -0.0057667904 0.0034052732 0.0018798077 -9.498796e-05 0.0061791786 -0.0026358936

linear_out.bias f4 [6]
00000000: 225b 563c b8d7 8b41 11bb 20bc d97c 2b3e
00000010: 699c b83d 44ea f63b
0.013083251 17.480331 -0.009810225 0.16746844 0.09014208 0.007535251

batch_norm_layer.weight f4 [32]
00000000: 6f14 e2be 266d 7b3e c262 f0be 1ac3 0bbf
00000010: 3dd4 9d3e 540a 0cbf 4575 31be 50dd 2e3f
00000020: 989b 1bbe d59c 163f fccf ac3e f0a0 84be
00000030: e485 4d3c 7c11 463f 3ca5 3a3e 8204 1a3c
00000040: 135a 4a3e 7314 a93b 652e 963c d2e2 aebe
00000050: 9837 0a3f e87d 183f dc0f a43e 6963 6f3e
00000060: 576d 7d3e 81cc b63e d8bc 8f3e 4f6a e1be
00000070: c513 0dbf c09f 12bf 5ff8 813e 353d 85be
-0.44156215 0.24553356 -0.46950346 -0.54594576 0.30825987 -0.5470326 -0.17329891 0.68306446
-0.15196073 0.58833057 0.3375243 -0.25904036 0.012544129 0.7737043 0.18227094 0.009400489
0.19760923 0.0051599084 0.01833267 -0.34157425 0.5399108 0.5956712 0.3204335 0.23377766
0.24748741 0.357029 0.28073764 -0.4402642 -0.5510829 -0.5727501 0.25384805 -0.2602326

batch_norm_layer.bias f4 [32]
00000000: 6d8d b03e cf94 333f e423 1cbf 30a8 b9be
00000010: 2b84 b2be 3fb2 55bf 5a98 14bf 749f e3bf
00000020: 21c2 13be ff0f 64bf dff2 82bf a631 253f
00000030: 019d 2abd c116 083e 8ad9 10bf 8dcc 06bd
00000040: 81d4 2c3d 042b 41be aa95 76bd 8717 d73d
00000050: 7147 1fbf 9fd5 aebe a708 653e 8807 63bf
00000060: 39c8 453e e3c6 dd3e 931b 0a3f dc92 c03e
00000070: 4003 9fbf 5774 62bf db7d 81bf 4103 70bf
0.344829 0.7014894 -0.60992265 -0.3626113 -0.3486646 -0.83475107 -0.5804497 -1.7783036
-0.14429523 -0.8908691 -1.0230368 0.6452888 -0.041653637 0.1328993 -0.5658194 -0.03290992
0.042194847 -0.18864065 -0.060201325 0.10502534 -0.62218386 -0.34147355 0.22366582 -0.88683367
0.1931466 0.433158 0.53948325 0.37612045 -1.2422867 -0.8845877 -1.0116533 -0.93754965
