VehicalStateperML_RNN_epochs_100_BS:16.pth (torch, 19471 bytes, 12 tensors)

linear_in.weight f4 [32, 9]
0	0x3fa055f4	1.2526231
1	0x4045a9b4	3.0884829
2	0xc05ec5e0	-3.4808273
3	0xbffddeda	-1.9833634
4	0x40648722	3.5707479
5	0x4006b056	2.1045127
6	0x4065cbf7	3.590574
7	0xbc495f7a	-0.01229083
8	0xc0a2eba6	-5.0912657
9	0xbfa39bf2	-1.2781966
10	0x402e65b0	2.7249565
11	0xbf6a5a3e	-0.9154395
12	0xc08e56bb	-4.448087
13	0x4030fe60	2.7655258
14	0x400cbd42	2.1990514
15	0x4035cce0	2.8406296
16	0xbd6f03fd	-0.058353413
17	0xc05d928e	-3.46207
18	0xc065adf8	-3.5887432
19	0xbd8d02c2	-0.06885292
20	0xc094826b	-4.64092
21	0xbffd880d	-1.9807144
22	0xc03da5ba	-2.9632401
23	0xc0457259	-3.0851042
24	0xc01b0c90	-2.4226418
25	0xba44c6e2	-0.00075064425
26	0xc0adfb5c	-5.4369335
27	0xbfae0e3a	-1.3598092
28	0xbe18fa62	-0.14939263
29	0x3e8210d7	0.25403473
30	0xc004bb0b	-2.0739162
31	0x4041f2d2	3.0304456
32	0x403ee676	2.9828162
33	0x40459b6f	3.087612
34	0xbd74a4ff	-0.059727665
35	0xc01269d5	-2.2877095
36	0x3dae1893	0.08500781
37	0xbecf56cc	-0.40495908
38	0x3da1a222	0.078922525
39	0x3dc43ec3	0.09582283
40	0x3cff5870	0.0311701
41	0x3e164d49	0.1467792
42	0x3d1127e2	0.035438426
43	0xbcab4927	-0.020908905
44	0xbca53f95	-0.02017192
45	0x3cab95f2	0.020945523
46	0x3efc2478	0.49246573
47	0xbe952fb7	-0.29137966
48	0x3d8db406	0.06919102
49	0x3d99769d	0.07493327
50	0x3c303742	0.010755362
51	0x3dda6445	0.10663656
52	0xbd8debf1	-0.06929768
53	0xbe760909	-0.24026884
54	0x3ed2ff7e	0.4121055
55	0xbe6fbdab	-0.23412196
56	0x3d98ac4c	0.07454738
57	0x3e9678cb	0.29389033
58	0x3f035456	0.5130056
59	0x3ee53913	0.44770107
60	0x3f05b6aa	0.5223185
61	0xbd03f00d	-0.032211352
62	0x3d8b986c	0.068161815
63	0x40a5a3c0	5.176239
64	0x409807da	4.7509584
65	0xbfc6b2b2	-1.5523283
66	0x3fa862a2	1.31551
67	0x40e66517	7.19984
68	0x40a1f383	5.0609756
69	0x40e0d71f	7.02626
70	0xbb15a4cc	-0.0022833822
71	0x407adf7b	3.9198902
72	0x3ff6814c	1.9258208
73	0x408c87a0	4.391556
74	0xbe872628	-0.26396298
75	0x406a4380	3.6603699
76	0x40042728	2.06489
77	0x3fd471e0	1.6597252
78	0x40044ce3	2.0671928
79	0x3cc1e309	0.02366783
80	0x3edc53b9	0.43032625
81	0xbe3585ac	-0.17726773
82	0x3e8d9bee	0.27658027
83	0x3e064e52	0.13115814
84	0xbe09c5ac	-0.13454312
85	0xbe179136	-0.14801487
86	0xbe806eed	-0.2508463
87	0xbe0633a6	-0.1310564
88	0x3cd85ff1	0.026412936
89	0x3e09445b	0.13404982
90	0x412cce4a	10.800364
91	0xbf2887b1	-0.6583205
92	0xbf90854a	-1.1290677
93	0x404b3ff3	3.1757782
94	0x416652ae	14.395185
95	0x40a05c28	5.0112495
96	0x41658b28	14.346474
97	0xbc656bb6	-0.014002731
98	0x3f927363	1.1441463
99	0x3d2d1ea3	0.042265546
100	0x3f45494e	0.7706498
101	0xba843d4f	-0.0010089072
102	0xbd647030	-0.055771053
103	0x3e442d2d	0.19157858
104	0x3d80572a	0.06266625
105	0x3e41133a	0.1885499
106	0x3d01c00f	0.031677302
107	0xbe6c2f49	-0.23064913
108	0x3db5bccb	0.088739
109	0xbe846920	-0.25861454
110	0xbc8b795c	-0.017025642
111	0x3c573bfb	0.013136859
112	0x3d92b149	0.07162721
113	0x3df736aa	0.12070973
114	0x3d2e9cba	0.042629935
115	0xbc4e1fd1	-0.012580828
116	0xbd3aff7c	-0.045653805
117	0x3e3ff97d	0.18747516
118	0xbeb0aa00	-0.345047
119	0x3dbe2f15	0.09286324
120	0x3e7f42c9	0.2492782
121	0x3d408765	0.047004122
122	0x3ddff352	0.109350815
123	0x3d474c1a	0.04865656
124	0xbd55b81c	-0.052177534
125	0xbde3d284	-0.11124137
126	0xc08c874a	-4.391515
127	0x3eb5bece	0.35497135
128	0x4023c163	2.5586784
129	0xbffa34cb	-1.9547361
130	0xc08a913b	-4.3302283
131	0xc094d9f2	-4.6516047
132	0xc07aaa36	-3.9166389
133	0x3d335763	0.04378451
134	0x403d9425	2.962167
135	0x40376b6a	2.865931
136	0x3efac657	0.48979446
137	0xc036bbca	-2.8552117
138	0xbf67efc3	-0.9060022
139	0x40842a77	4.1301837
140	0xbf60d177	-0.8781962
141	0x40863656	4.194133
142	0x3b6f17df	0.0036482734
143	0xc0b89789	-5.768498
144	0xbe438ee6	-0.1909748
145	0x3ed65c7e	0.4186744
146	0x3d250bdd	0.040294517
147	0xbd9768a1	-0.07393003
148	0xbe433011	-0.19061305
149	0xbecc73e9	-0.39932182
150	0xbe462f04	-0.19353873
151	0x3c3ab846	0.011396473
152	0x3d1a8a40	0.0377295
153	0xbf568e29	-0.8381067
154	0x3f3a0573	0.72664565
155	0x3f3b962e	0.7327603
156	0xbe821c59	-0.25412253
157	0xbf55446c	-0.8330753
158	0xbf94ff31	-1.1640378
159	0xbf59b083	-0.8503496
160	0x3cde73ce	0.02715483
161	0x3f1f0803	0.621216
162	0xbdd26202	-0.102726
163	0x3ed64e92	0.4185682
164	0x3d77f197	0.060533132
165	0x3a6fe3f1	0.00091510924
166	0xbcb8264c	-0.022479199
167	0xbe7b7772	-0.24557284
168	0xbd02b53c	-0.03191112
169	0x3cdec70f	0.027194528
170	0x3e0fb3ce	0.14033434
171	0xbea5a808	-0.3235476
172	0x3e429dc3	0.19005494
173	0x3d07dc4a	0.03316907
174	0xbe7e3fa2	-0.24828961
175	0xbee2b9bf	-0.44282338
176	0xbebba951	-0.36652616
177	0xbedaa784	-0.4270593
178	0x3c72069c	0.014772084
179	0xbd39b8ae	-0.04534214
180	0xbeac677a	-0.33672696
181	0x3d94ce02	0.07265855
182	0x3f5dbf9f	0.86620516
183	0xbee86cd3	-0.45395526
184	0xc0182aa6	-2.377603
185	0xc0bb61c8	-5.855686
186	0xc0111669	-2.2669928
187	0xbe1f41ab	-0.15552394
188	0xbfc6eb77	-1.5540608
189	0x3e9323a2	0.28738123
190	0xbfa57abf	-1.2928084
191	0xc09bdd0b	-4.870733
192	0xbf1fc5b1	-0.6241103
193	0x3f68c581	0.9092637
194	0x3f8ed462	1.1158564
195	0x3f639c65	0.88910514
196	0x3c5090ee	0.012729866
197	0xc0a974e0	-5.295517
198	0x3d4b5a89	0.049646888
199	0xbec4d121	-0.38440803
200	0x3d489df9	0.04897878
201	0x3ce5a25e	0.028031524
202	0x3ca233ce	0.019800093
203	0x3e09bfad	0.13452025
204	0xbb08e392	-0.0020887596
205	0xbcd34158	-0.025787994
206	0xbcb660a4	-0.022262879
207	0x4057271c	3.361762
208	0x3efecd79	0.49766138
209	0x405fb6a2	3.495522
210	0x40e9f369	7.310963
211	0xbfbc42ad	-1.4707848
212	0xbf8d1723	-1.1022686
213	0xbfe16edc	-1.7611957
214	0x3b158e72	0.00228205
215	0xc04f263e	-3.236709
216	0x3dbf2691	0.09333528
217	0xbf1a6562	-0.6031095
218	0x3db49ca2	0.08818938
219	0xbde08f25	-0.10964803
220	0x3ca87193	0.020561969
221	0x3e3288e8	0.17435038
222	0x3ca9a875	0.02071021
223	0xbb703ac4	-0.003665612
224	0x3d89020a	0.06689842
225	0xbd7668e4	-0.060158625
226	0x3eaf53d9	0.34243658
227	0xbdedd02a	-0.1161197
228	0xbd5be7a8	-0.05368772
229	0xbb80077a	-0.0039071413
230	0xbde5cf89	-0.11221225
231	0xbce6136c	-0.028085433
232	0x3c502d0d	0.012706053
233	0xbdb2de24	-0.08733776
234	0xbce24748	-0.02762188
235	0x3e974707	0.29546377
236	0xbd9601e5	-0.0732458
237	0xbbe9fcc5	-0.007140728
238	0x3b439f7f	0.0029849706
239	0xbdbd55fe	-0.09244917
240	0x3b8373d8	0.0040116124
241	0xbb9c3a31	-0.004767679
242	0xbc4fa491	-0.012673513
243	0x3f493ee9	0.7861162
244	0x3e54f8e8	0.20798075
245	0x4003712c	2.0537825
246	0xbf815d2b	-1.0106558
247	0xbf658388	-0.89653826
248	0x3b5ee2be	0.003400966
249	0xbf814f33	-1.0102295
250	0x3e7110a7	0.23541509
251	0xbef6d324	-0.48207963
252	0x3e172c48	0.14762986
253	0xbea0d3e0	-0.31411648
254	0xbccd34eb	-0.025049647
255	0x3e02ca8d	0.1277258

linear_in.bias f4 [32]
0	0xc1b519e5	-22.637644
1	0xc070aa18	-3.7603817
2	0x3fda381a	1.7048371
3	0xbed2d882	-0.41180807
4	0x3e421f92	0.18957356
5	0xbd928475	-0.071541704
6	0x3b878a61	0.004136369
7	0xc18376ea	-16.433064
8	0xc1481db7	-12.507255
9	0xbe0c9699	-0.13729323
10	0xc07746f9	-3.8637068
11	0xbeb99e07	-0.36253378
12	0x3d8d266d	0.06892095
13	0xbcf6b09c	-0.03011351
14	0xbe7224a5	-0.23646791
15	0xc1027cb5	-8.155446
16	0xbda2d495	-0.07950703
17	0xbf062249	-0.52396065
18	0xbe62b751	-0.22140242
19	0xbbcb6054	-0.0062065516
20	0xbf5f4ba6	-0.87224805
21	0x418dc938	17.723251
22	0x3d62773f	0.055289503
23	0xc0cfa389	-6.488713
24	0x3e917683	0.2841073
25	0xbe575ed1	-0.21032263
26	0xbd45f912	-0.048333235
27	0xbf2dd661	-0.6790524
28	0x3e0bc7b4	0.136504
29	0x3e83729b	0.25673375
30	0xc10a5af3	-8.647204
31	0x3d8e0b12	0.06935705

linear_32.weight f4 [32, 32]
0	0x3b9b1e92	0.004733869
1	0x3f267c3a	0.65033305
2	0x3e5ff333	0.21870117
3	0x3e6f78f1	0.23385979
4	0x3cc9c171	0.024628373
5	0x3c320626	0.010865724
6	0xbc28a57a	-0.010293359
7	0xbd7d0f6d	-0.06178229
8	0x3e7720de	0.24133632
9	0x3bdb3510	0.006689675
10	0x3e5e951e	0.21736571
11	0xbc2759a9	-0.010214248
12	0xbc9a1153	-0.018807089
13	0xbcc7171e	-0.024303015
14	0x3dec95f6	0.1155204
15	0x3e2f0b16	0.17094073
16	0x3b7a21f6	0.0038167215
17	0xbd41c0e2	-0.047303088
18	0x3be23992	0.0069038356
19	0x3b97b9b7	0.004630293
20	0x3e9ae105	0.302498
21	0x3ec325ce	0.3811478
22	0x3c388f8f	0.011264696
23	0xbef738d0	-0.48285532
24	0x3be792ee	0.007067076
25	0x3bb47d78	0.005508121
26	0x3be202e8	0.006897319
27	0xbe3defd5	-0.1854852
28	0x3c223491	0.009900228
29	0xbe67ac0b	-0.22624223
30	0xbea55076	-0.3228795
31	0x3a0e5571	0.0005429602
32	0x3ee04a88	0.43806863
33	0x3eacd178	0.33753562
34	0xbdeb1621	-0.1147883
35	0xbdc19ad1	-0.09453357
36	0x3c3cc6f8	0.011522047
37	0xbce7e2f5	-0.028306464
38	0x3b8adabc	0.004237501
39	0x3f41cd4c	0.75703883
40	0x3fefa6a9	1.8722736
41	0xbbd62c5c	-0.00653605
42	0xbe22be77	-0.15892969
43	0x3ca9a0e2	0.020706598
44	0xbcd2a182	-0.025711779
45	0x3c4bbcb7	0.01243513
46	0xbe41c4a2	-0.18922666
47	0xbea60edf	-0.3243322
48	0x3c2902ab	0.0103155775
49	0xbd26b9e9	-0.04070464
50	0xbc87a662	-0.01655883
51	0xbc5c4f54	-0.013446648
52	0xbdd7d33f	-0.10538339
53	0x3e8c6c7c	0.27426517
54	0x3cc43797	0.023952289
55	0x3dbea156	0.09308116
56	0x3a2a83d5	0.000650463
57	0xbab302fc	-0.0013657506
58	0x3ccb270b	0.02479889
59	0xbe6724da	-0.22572652
60	0x3b44c915	0.003002708
61	0x3ca7b3cd	0.020471478
62	0x3e41ba0e	0.1891863
63	0x3b380b04	0.0028082738
64	0x3edd6bc2	0.43246275
65	0x3ef2117a	0.4727896
66	0xbe3b9ca4	-0.18321472
67	0x3da3cbfe	0.07997893
68	0x3c68c3d8	0.014206849
69	0x3d05b9b4	0.032647803
70	0xba49af60	-0.00076936744
71	0x3f28ded3	0.65965
72	0x40113851	2.2690623
73	0xbb8b7d3d	-0.004256873
74	0xbe491b29	-0.19639267
75	0x3cfa07f8	0.030521378
76	0x3cccfc05	0.025022516
77	0x3d547f67	0.051879313
78	0x3d70f2e1	0.058825377
79	0xbeb8e46c	-0.36111772
80	0x3c46f384	0.01214302
81	0x3d025fb5	0.031829555
82	0x3cd3a9c9	0.025837796
83	0x3c44cea8	0.012012161
84	0xbd0a9856	-0.033836685
85	0x3f01dac5	0.5072444
86	0x3ce0321c	0.027367644
87	0x3eb1e5eb	0.34745726
88	0x3cf979b2	0.030453537
89	0xbb9eb6ef	-0.0048435847
90	0x3ca84ee1	0.020545425
91	0x3dfb3628	0.12266189
92	0xbc6b4bd5	-0.0143613415
93	0x3e812d34	0.252298
94	0x3e93e440	0.28885078
95	0x3bf08ce6	0.007341015
96	0x3f077009	0.5290533
97	0x3eb4958f	0.35270354
98	0xbeee8415	-0.46585146
99	0xbea2ee07	-0.31822225
100	0xbbc4e2f2	-0.0060084993
101	0xbcd3cb82	-0.025853876
102	0xbb01f5b7	-0.0019830295
103	0x3f70fa03	0.9413149
104	0x3fef367e	1.8688505
105	0xb86b394c	-5.6081728e-05
106	0xbe3707ea	-0.17874113
107	0xbb7b33f4	-0.0038330527
108	0x3ceb762d	0.028742874
109	0xbca206c0	-0.01977861
110	0xbe9a74a9	-0.3016713
111	0xbf17cc45	-0.59296066
112	0xbc7cd92c	-0.015432637
113	0xbcefe169	-0.029282289
114	0xbbce7249	-0.006300245
115	0x3c63a379	0.013893955
116	0xbf0f9d6e	-0.56099594
117	0x3e77d02b	0.24200504
118	0xbbf6e174	-0.0075342003
119	0x3dd85bbc	0.10564372
120	0xbc7983b3	-0.015229153
121	0x3c6d4983	0.014482859
122	0xb9e6b865	-0.00044006403
123	0xbed96c27	-0.42465326
124	0x3b92f709	0.0044850153
125	0xbe75061f	-0.23928116
126	0x3e3f4f77	0.18682657
127	0xbc844654	-0.016146816
128	0xbe01af1d	-0.12664457
129	0x3f386163	0.720236
130	0xbee7dfb9	-0.45287874
131	0xbf1e4089	-0.6181722
132	0x3a0623fd	0.0005117057
133	0x3c6ac8fc	0.014330145
134	0xbc18b991	-0.009321586
135	0xbe89ee79	-0.26939753
136	0x3fa4e731	1.2883054
137	0xbc82b335	-0.015954593
138	0x3f147e4e	0.58005226
139	0xbb34cd54	-0.0027588205
140	0x3cf72ab1	0.030171724
141	0x3ca370da	0.019951273
142	0xbe61e1fc	-0.22058862
143	0x3e8e3719	0.2777641
144	0x3b923920	0.0044623762
145	0x3d6589be	0.056039564
146	0xbc7361d4	-0.014854867
147	0xbc3b80fd	-0.011444327
148	0x3ce24e13	0.02762512
149	0xbea7e185	-0.32789245
150	0xbcb90a90	-0.022588044
151	0x3f2a4e62	0.6652585
152	0x3c0ccf5e	0.008594362
153	0xba0f1a4f	-0.00054589374
154	0xbbb8eafc	-0.0056432467
155	0x3f261595	0.6487668
156	0xbc240fdb	-0.010013546
157	0xbe0b78d3	-0.1362031
158	0xbd60e8a2	-0.054909356
159	0x3c15eb60	0.009150356
160	0xbefddf38	-0.49584365
161	0xbbf4e2de	-0.0074733337
162	0x3ec9e62e	0.39433426
163	0xbe8138f8	-0.25238776
164	0x3cbe32d7	0.023217602
165	0x3ceb3e2b	0.028716167
166	0x3cbd6670	0.023120135
167	0xbe4c89b8	-0.1997441
168	0xbf174f8c	-0.59105754
169	0xbcd58e21	-0.026068749
170	0x3ea05686	0.31316012
171	0xbb2b7d3d	-0.0026167177
172	0xbc7dc013	-0.015487689
173	0x3c27eac5	0.0102488445
174	0x3f21c545	0.63191634
175	0x3d988698	0.07447547
176	0xba34254e	-0.0006872014
177	0xbbcec07e	-0.006309568
178	0xbc17f2df	-0.009274214
179	0xba7f6939	-0.00097431574
180	0x3ed851fe	0.42250055
181	0x3e1242fa	0.14283362
182	0x3c9d62c2	0.01921213
183	0x3e5abdfa	0.21361533
184	0xb9f5daee	-0.00046893157
185	0xbbd97e2d	-0.006637356
186	0xbac3140f	-0.0014883297
187	0xbe2fe5e0	-0.17177534
188	0x3c07ede3	0.008296463
189	0x3d6a664b	0.05722646
190	0xbcbd6c69	-0.023122983
191	0x3bbaf8f8	0.005705949
192	0xbea01731	-0.31267694
193	0xbf1f518c	-0.62233806
194	0x3e26dc1e	0.16294906
195	0x3d0e4ae9	0.03473941
196	0x3c847281	0.016167881
197	0xbc058f1c	-0.008151796
198	0xbc80a949	-0.015705721
199	0x3ebf184f	0.37323233
200	0x3fde0bef	1.7347392
201	0xbbe49614	-0.0069758985
202	0x3d8f4e45	0.069973506
203	0xbc487581	-0.012235046
204	0xbbaba282	-0.0052378783
205	0x3c8d0d83	0.017218357
206	0x3cda4210	0.02664283
207	0x3ecdc0ca	0.4018615
208	0xbc1b517a	-0.009479875
209	0x3d884b58	0.06654996
210	0xbb9e2d91	-0.0048272093
211	0x3b0ae08e	0.0021190974
212	0x3d8f20bb	0.06988665
213	0xbef2dd20	-0.4743433
214	0x3c19a53f	0.009377777
215	0x3c0f2a39	0.008738094
216	0x3bc9e5e0	0.0061614364
217	0x3c0a4672	0.008439647
218	0x3c762fa3	0.015026006
219	0xbe1c0c16	-0.15238985
220	0x3aa3a1e9	0.0012484166
221	0x3edb71c4	0.42860234
222	0x3e6cd83e	0.23129365
223	0xbaa202b8	-0.0012360429
224	0xbed74455	-0.4204432
225	0xbf67ef77	-0.9059977
226	0xbf49fb94	-0.788995
227	0x3dbf3f6b	0.09338268
228	0x3c841666	0.016123962
229	0x3d6133ef	0.05498117
230	0xbc1e0f95	-0.00964727
231	0xbf284ffb	-0.6574704
232	0xbf1fc073	-0.6240303
233	0xbbb457ef	-0.0055036466
234	0xbea8fcc4	-0.33005345
235	0x3c90c3b7	0.01767145
236	0x3d34a0e4	0.04409875
237	0x3de46472	0.11151971
238	0x3e8ef7a3	0.27923307
239	0xbf1e3e76	-0.6181406
240	0x3bee206f	0.00726705
241	0x3d53861f	0.05164158
242	0xbb03d725	-0.002011725
243	0x3bc952b7	0.0061438936
244	0x3f0077d4	0.50182843
245	0x3e8a9bd0	0.27072
246	0x3beb4fe4	0.0071811546
247	0x3ea59e47	0.3234732
248	0x3c7a72b6	0.015286138
249	0xbcd28c90	-0.025701791
250	0xbc6b5863	-0.014364335
251	0x3e9773d3	0.29580554
252	0xbaaa8885	-0.0013010657
253	0x3ed21530	0.4103179
254	0x3e9aa5f8	0.3020475
255	0x3c227b8b	0.00991715

linear_32.bias f4 [32]
0	0xbe56ddf8	-0.20983112
1	0xbea7e9b8	-0.327955
2	0xbeb9e2bb	-0.36305794
3	0xbe1239c9	-0.14279856
4	0x3e064d8a	0.13115516
5	0xbe4c4247	-0.19947158
6	0xbdff0545	-0.12452177
7	0x3ed0577f	0.40691754
8	0xbee03db5	-0.4379708
9	0xbec79550	-0.38981104
10	0xbdd143e3	-0.102180265
11	0xbeb3f8cf	-0.35150763
12	0xbb2e27ee	-0.0026574093
13	0xbc11b9ff	-0.008894443
14	0x3ecc5a62	0.39912707
15	0xbd707d81	-0.05871344
16	0xbc706faa	-0.01467506
17	0x3e5a8156	0.213384
18	0xbd7f96d3	-0.062399697
19	0xbbe6c40b	-0.007042413
20	0x3e5b9690	0.21444154
21	0xbe4731f5	-0.19452651
22	0xbda4db5e	-0.080496535
23	0x3eaf5335	0.3424317
24	0x3d6b92aa	0.057512917
25	0xbdc73e85	-0.097287215
26	0xbecaa20c	-0.39576757
27	0x3e37c234	0.17945176
28	0xbd3dac2e	-0.04630678
29	0x3d92ecd7	0.0717408
30	0xbe3b9e35	-0.1832207
31	0x3dd26d31	0.10274733

rnn.weight_ih_l0 f4 [32, 32]
0	0x3e1c13a9	0.15241875
1	0x3cf707ed	0.030155146
2	0x3d972d10	0.07381642
3	0x3bcc838b	0.006241267
4	0x3f0282d2	0.50980866
5	0xbd39ba78	-0.045343846
6	0x3e8495de	0.2589559
7	0xbe676b19	-0.22599448
8	0x3ef606f4	0.4805218
9	0x3deceae5	0.1156824
10	0x3cf9a4ff	0.030474184
11	0xbd335334	-0.04378052
12	0x3e49f770	0.19723296
13	0xbe44d2d3	-0.19221048
14	0xbd70b2c2	-0.058764227
15	0x3d8a7c1e	0.06761955
16	0xbe9737ef	-0.2953486
17	0x3d55f7f3	0.052238416
18	0x3d1c5c33	0.038173866
19	0x3c495200	0.012287617
20	0x3e0ceb68	0.13761675
21	0xbe70b8bc	-0.2350797
22	0x3e139ba8	0.14414847
23	0xbd615ac2	-0.055018194
24	0x3d5ea9e5	0.054361243
25	0xbd294080	-0.041321278
26	0x3d9629fb	0.07332226
27	0x3c4ca365	0.012490128
28	0x3ddfcc19	0.109276004
29	0x3f23a062	0.639166
30	0xbdbe6567	-0.09296685
31	0xbd8eb611	-0.0696832
32	0xbded731e	-0.115942225
33	0x3e2d0f7c	0.16900438
34	0x3e2d9e25	0.16954859
35	0x3e94eed3	0.29088458
36	0xbab9fcd1	-0.0014189725
37	0x3e236825	0.15957697
38	0xbe94ca70	-0.29060698
39	0x3e829765	0.2550613
40	0xbe6c4257	-0.23072182
41	0x3deae2cc	0.11469039
42	0x3d7d99d6	0.061914288
43	0xbc990696	-0.018679898
44	0xbdf8cb96	-0.12148206
45	0x3d561703	0.05226804
46	0xbdd399f4	-0.103320986
47	0x3e211d76	0.15733895
48	0x3e6d320e	0.23163626
49	0x3d959536	0.0730385
50	0xbd56c7ad	-0.05243652
51	0xbd714254	-0.058901146
52	0x3e125038	0.14288414
53	0xbdca6e4f	-0.09884321
54	0xbe6dc087	-0.23217975
55	0x3ed313b6	0.41225976
56	0x3d8d4c87	0.06899362
57	0x3ea13e66	0.3149292
58	0xbebe418e	-0.3715939
59	0x3e669bc7	0.22520362
60	0xbe217436	-0.15766987
61	0xbe36b878	-0.17843807
62	0xbce6aa04	-0.028157242
63	0xbbee920f	-0.007280595
64	0x3c8f5109	0.017494695
65	0x3e137bf2	0.1440275
66	0x3e6ba7f4	0.23013288
67	0x3e05ff8d	0.13085766
68	0x3dcfff11	0.10156072
69	0x3e120d5b	0.14262907
70	0x3e948ebe	0.29015154
71	0xbe1cd302	-0.15314868
72	0x3ecf3bb3	0.40475234
73	0x3e92765e	0.28605932
74	0x3ced60be	0.028976794
75	0x3d972b79	0.073813386
76	0x3e295a05	0.16538246
77	0xbdb15096	-0.08657949
78	0xbe35e0fa	-0.17761603
79	0x3d57ca9e	0.052683465
80	0xbdc9cdd7	-0.09853714
81	0x3d691ac1	0.05691028
82	0xbdff8ac5	-0.1247764
83	0x3e1fee57	0.15618263
84	0x3da22202	0.07916643
85	0x3e528cdf	0.2056155
86	0xbe2d4ea0	-0.16924524
87	0xbe274d0f	-0.1633799
88	0xbeac3a72	-0.3363834
89	0x36153344	2.223257e-06
90	0xbc5a9909	-0.0133421505
91	0xbdce91b9	-0.10086388
92	0x3ea2aada	0.31770974
93	0x3e4492b7	0.19196592
94	0xbd9d42b2	-0.07678737
95	0x3e1f1e0f	0.1553881
96	0xbed878d8	-0.42279696
97	0xbe29d767	-0.16586076
98	0xbe596475	-0.21229728
99	0xbe33dd5c	-0.1756491
100	0x3d59614e	0.053071313
101	0x3c4a5c04	0.01235104
102	0x3e9c0b39	0.30477312
103	0x3f0622b8	0.52396727
104	0x3f187da4	0.5956671
105	0xbe539977	-0.20664011
106	0xbe2140ec	-0.15747422
107	0xbdcb82e6	-0.09937076
108	0x3dd8968a	0.10575588
109	0xbe18ab35	-0.1490906
110	0x3e31a2cc	0.17347258
111	0x3e3cf0b3	0.18451194
112	0x3d3d7363	0.04625262
113	0x3d7ed005	0.0622101
114	0xbe858028	-0.26074338
115	0x3e07ce0e	0.13262197
116	0x3d3371b6	0.043809615
117	0xbf435f7f	-0.7631759
118	0xbe496c36	-0.19670185
119	0x3e93f78c	0.288998
120	0xbd0dd04d	-0.03462248
121	0xbeff53c4	-0.49868596
122	0xbf63b91e	-0.8895434
123	0x3eab0656	0.3340327
124	0x3d8903c7	0.066901736
125	0x3f148a6f	0.5802373
126	0xbd477b83	-0.048701774
127	0xbca5661a	-0.020190287
128	0x3bc0ddb5	0.0058858045
129	0x3c68ed8f	0.014216795
130	0xbd4e7309	-0.050402675
131	0xbd8f13f4	-0.06986228
132	0xbe0f7a6f	-0.14011548
133	0xbd8bb0ee	-0.06820856
134	0xbe0ae0e6	-0.13562354
135	0xbde2b497	-0.11069601
136	0x3db4c5b7	0.088267736
137	0xbd448b5b	-0.047984462
138	0x3d81c231	0.06335867
139	0x3d1af014	0.037826613
140	0xbd5238ca	-0.05132369
141	0x3d8fb561	0.07017017
142	0x3ca9aeba	0.020713199
143	0xbe81738b	-0.25283465
144	0x3d9c26fa	0.07624622
145	0x3d0d2fec	0.03446953
146	0x3ccb74a9	0.024835901
147	0xbcedadba	-0.029013503
148	0x3dd590fb	0.104280435
149	0x3e5f5b62	0.21812204
150	0xbe376f02	-0.1791344
151	0xbe0712c4	-0.13190752
152	0xbe4e1c86	-0.20128068
153	0xbe4d5a2f	-0.20053934
154	0x3d116151	0.0354932
155	0x3cdd31a4	0.02700121
156	0x3e025e6f	0.12731336
157	0xbd962a7c	-0.07332322
158	0xbc443680	-0.011975884
159	0x3db761e5	0.08954219
160	0x3dd73a81	0.105092056
161	0x3e8a79e6	0.27046126
162	0x3ea48cd6	0.321387
163	0x3ed25a7b	0.41084656
164	0xbeaafee6	-0.33397597
165	0xbe890141	-0.2675877
166	0x3e138a0e	0.14408132
167	0xbdd5420c	-0.10412988
168	0x3eba03fc	0.36331165
169	0x3e68cb35	0.22733767
170	0x3e7e0df5	0.24810012
171	0x3da39155	0.07986704
172	0x3ea16288	0.31520486
173	0x3c87344f	0.016504435
174	0xbe5791f7	-0.21051775
175	0xbee2953f	-0.4425449
176	0xbe93b7cc	-0.28851163
177	0x3bcaa551	0.006184258
178	0xbcbf6d66	-0.023367595
179	0xbd750b7b	-0.0598254
180	0x3d03c9fd	0.032175053
181	0xbf879442	-1.059212
182	0xbd9107c0	-0.07081556
183	0xbe262602	-0.16225436
184	0xbd80e68e	-0.06293975
185	0xbed020ad	-0.4064993
186	0x3c467e1a	0.012115026
187	0xbdfe19a4	-0.12407234
188	0x3e5a4f69	0.21319355
189	0xbe310fc2	-0.17291167
190	0xbd934bca	-0.0719219
191	0x3e55fa7b	0.20896332
192	0x3e23d462	0.15998986
193	0x3ee7d69c	0.4528092
194	0x3e1ca5db	0.15297644
195	0x3f5718f2	0.8402244
196	0xbeade49c	-0.33963478
197	0xbea250b4	-0.31702197
198	0xbd1d66ed	-0.038428236
199	0xbe0b275f	-0.13589238
200	0xba451055	-0.0007517387
201	0xbe0004ec	-0.12501878
202	0x3f291289	0.6604391
203	0x3d52a565	0.051427264
204	0xbd03ca74	-0.032175496
205	0xbdfde690	-0.12397492
206	0x3c4638df	0.01209852
207	0x3e88ee8a	0.2674449
208	0x3b1edd39	0.0024240746
209	0x3e02c065	0.12768705
210	0x3dd1408e	0.10217391
211	0xbda8c395	-0.08240429
212	0x3ec14470	0.37747526
213	0xbf2718b0	-0.65272045
214	0x3dacdc19	0.08440418
215	0xbd304d3d	-0.04304241
216	0xbd80db16	-0.06291787
217	0xbe14b93d	-0.14523788
218	0xbe25a35f	-0.16175602
219	0xbea710ae	-0.32629913
220	0x3cde2417	0.027116818
221	0xbecb2b0f	-0.3968129
222	0xbe14f972	-0.14548281
223	0x3d82b65c	0.063824385
224	0xbef30533	-0.47464904
225	0x3e5561c2	0.20838073
226	0xbec6021e	-0.3867349
227	0x3fab7b9d	1.3397099
228	0x3ea3b793	0.31975994
229	0xbf8ded4f	-1.1088046
230	0xbf029eac	-0.51023364
231	0x3fe98346	1.8243186
232	0xbfd9b178	-1.7007284
233	0xbfd5b824	-1.669682
234	0x3f5f098a	0.8712393
235	0xbe823945	-0.25434318
236	0xbe36c872	-0.17849901
237	0x3e3e1142	0.18561271
238	0x3f79887c	0.97473884
239	0xbf31b72d	-0.6942013
240	0x3dd58499	0.104256816
241	0x3d50a7cb	0.05094127
242	0x3c653376	0.01398932
243	0xbf2ce4f6	-0.67536867
244	0x3e184cea	0.1487309
245	0xbfd143f0	-1.6348858
246	0xbd6353e6	-0.055499934
247	0x3fae50df	1.361843
248	0x3eebd9da	0.46064645
249	0x3e41d217	0.18927799
250	0xbfc73b63	-1.5564998
251	0x3f156ecd	0.58372194
252	0x3c264e37	0.010150484
253	0x3e86cf2d	0.26329938
254	0x3d3ad96c	0.045617506
255	0x3ec2af18	0.3802421

rnn.weight_hh_l0 f4 [32, 32]
0	0xbf0a4319	-0.5400863
1	0xbd67632d	-0.056491066
2	0x3c8dd574	0.017313696
3	0xbda4d0ba	-0.08047624
4	0xbd12c158	-0.03582892
5	0x3cb14655	0.021639982
6	0xbe879c9c	-0.2648667
7	0x3f10fe78	0.5663829
8	0xbe767259	-0.24067058
9	0xbca78b4d	-0.020452166
10	0xbd31c8b9	-0.043404315
11	0xbe3ef32f	-0.18647455
12	0x3e655faf	0.22399782
13	0xbe0fe391	-0.14051653
14	0x3d7c5087	0.061600234
15	0x3e591fa4	0.21203476
16	0xbc5c5c77	-0.01344978
17	0xbdd8a264	-0.105778486
18	0x3cd7b6cf	0.026332287
19	0x3df619f6	0.120166704
20	0xbf030335	-0.5117677
21	0xbdfdc6fe	-0.123914704
22	0xbd1b8fd1	-0.03797895
23	0x3da81b65	0.0820835
24	0x3d5e097b	0.05420826
25	0xbda4bed3	-0.08044209
26	0xbe0ab6f6	-0.13546357
27	0xbd17d8bd	-0.037071932
28	0xbe67b64d	-0.22628136
29	0xbcc1e07d	-0.023666615
30	0x3eafb271	0.34315827
31	0x3e4ef8d2	0.20212105
32	0x3e21f996	0.15817866
33	0xbefa2423	-0.48855695
34	0xbd2e7a66	-0.042597197
35	0xbe3c1217	-0.18366276
36	0x3ddc2aef	0.107503764
37	0xbdf71ca0	-0.12066007
38	0xbe3c940d	-0.18415852
39	0x3e30dcec	0.17271775
40	0x3e21f12f	0.1581466
41	0xbe084500	-0.13307571
42	0xbe0eb57f	-0.13936423
43	0x3d1fc4be	0.039005987
44	0x3cdaf4ca	0.026728053
45	0xbc61942c	-0.013768237
46	0xbe06a6aa	-0.13149515
47	0x3ca6f96d	0.020382607
48	0x3e643684	0.22286421
49	0xbd99f6c6	-0.075177714
50	0x3da29c3d	0.07939956
51	0xbe46d79b	-0.19418184
52	0x3da964ab	0.08271154
53	0xbe22cfbf	-0.15899561
54	0xbe000d16	-0.12504992
55	0x3d65f35a	0.05614028
56	0x3e921491	0.28531316
57	0x3da61c18	0.08110827
58	0xbe09e56e	-0.13466427
59	0x3db83bec	0.08995804
60	0xbdae8d8b	-0.08523091
61	0x3e410ed9	0.1885332
62	0x3f0a99d9	0.54141
63	0xbe06780b	-0.1313173
64	0xbe5ecd6e	-0.21758053
65	0x3ca87ff6	0.020568829
66	0xbef83b68	-0.48482823
67	0xbdf39f12	-0.11895575
68	0x3ea769b3	0.3269783
69	0x3e1bbdb1	0.1520908
70	0xbb1fc28b	-0.0024377431
71	0xbe3cc7cf	-0.18435596
72	0x3e08cd21	0.133595
73	0xbe6a9bdd	-0.2291102
74	0xbc26dae8	-0.010184027
75	0x3dd00519	0.10157222
76	0xbe746e23	-0.23870139
77	0xbca0cf62	-0.019630138
78	0xbd6ade8a	-0.057341136
79	0xbd18a472	-0.037266202
80	0x3d0527f9	0.032508824
81	0x3da4256e	0.08014952
82	0x3e3ab6b4	0.18233758
83	0xbd58c135	-0.05291863
84	0x3d716f3b	0.05894397
85	0x3d26dea1	0.04073966
86	0x3e04e384	0.12977415
87	0xbe19405e	-0.1496596
88	0xbddc2feb	-0.10751327
89	0x3c4ff16e	0.012691839
90	0xbd9d64c3	-0.076852344
91	0x3dcd0431	0.10010565
92	0xbd383894	-0.044975832
93	0xbe00a237	-0.1256188
94	0x3e35d2df	0.17756222
95	0x3c4c8a23	0.012484106
96	0x3d8a6f07	0.06759458
97	0x3e19e2bf	0.15027903
98	0x3eb26a2f	0.34846637
99	0xbf01b852	-0.50671875
100	0x3eac3002	0.33630377
101	0xbe931251	-0.28724912
102	0xbd80cfac	-0.0628961
103	0x3cac9d81	0.021071197
104	0xbe6b8095	-0.22998269
105	0x3db94f51	0.090483315
106	0xbe5d6be8	-0.21623194
107	0xbd9b3cfd	-0.07579992
108	0x3cfe8fe9	0.031074481
109	0x3e866269	0.26246956
110	0x3e90125f	0.28139016
111	0x3d3e7773	0.046500634
112	0xbe947905	-0.2899858
113	0x3d28b039	0.041183684
114	0xbe84b495	-0.25919023
115	0x3da53052	0.08065857
116	0xbdf3a877	-0.118973665
117	0xbc6f4d0a	-0.01460577
118	0xbdf8080b	-0.12110909
119	0x3ea241f1	0.31690934
120	0x3ec1e96f	0.37873408
121	0xbe18f665	-0.14937742
122	0xbd814db2	-0.06313647
123	0xbe1e395f	-0.15451573
124	0x3e9eca0a	0.3101352
125	0xbe0c6f9d	-0.13714452
126	0xbeb42770	-0.35186338
127	0xbe0ec461	-0.139421
128	0xbe1c2da4	-0.15251786
129	0x3cb8e85f	0.02257174
130	0x3cec118c	0.02881696
131	0xbd9c6f21	-0.07638384
132	0xbece3e0e	-0.4028172
133	0xbcd16fc1	-0.025565984
134	0x3c64b708	0.013959654
135	0xbf1361bc	-0.57571006
136	0x3d20f1ae	0.039292984
137	0xbe3afd72	-0.18260744
138	0xbdc7f2fe	-0.09763144
139	0xbe70f4d7	-0.23530899
140	0x3c93769b	0.018000891
141	0xbe27a6ff	-0.16372298
142	0x3d8a4b0a	0.06752594
143	0x3c8848af	0.01663622
144	0x3dde2ec0	0.108487606
145	0xbe701b1d	-0.23447843
146	0x3dc8b336	0.09799807
147	0xbd34ba75	-0.04412313
148	0x3ee0adef	0.438827
149	0x3c4cd5b2	0.012502121
150	0x3cbc1b8e	0.022962358
151	0x3c9d04d1	0.019167336
152	0x3e0378af	0.12839006
153	0x3c94e5e0	0.01817602
154	0xbe36e041	-0.17858984
155	0x3d50f9ef	0.051019605
156	0xbdb75c31	-0.08953131
157	0x3d6c6783	0.057715904
158	0x3d2a3fe9	0.041564856
159	0xbd9e365c	-0.07725212
160	0xbeca178c	-0.3947109
161	0x3cec5647	0.028849734
162	0xbe34b6aa	-0.17647806
163	0x3d859149	0.065218516
164	0x3d5b9b70	0.053615034
165	0xbf074c3f	-0.5285072
166	0xbd7d20fc	-0.061799034
167	0xbdaf46c3	-0.085584186
168	0x3e54d1c5	0.20783146
169	0xbd38c768	-0.045112044
170	0x3a96c43e	0.0011502577
171	0xbd315e14	-0.04330261
172	0xbe296a26	-0.16544399
173	0x3e752d9a	0.23943177
174	0xbe37de42	-0.17955878
175	0xbe05534e	-0.1302006
176	0x3bb4da01	0.005519152
177	0x3e64ecca	0.22355953
178	0x3ea8adb5	0.32945028
179	0xbc366916	-0.011133453
180	0xbe10dda5	-0.1414705
181	0x3de1057a	0.10987373
182	0xbd61d346	-0.055133127
183	0x3c62c794	0.013841528
184	0xbe4cfec3	-0.20019059
185	0xbeda5d73	-0.4264942
186	0xbeb763a9	-0.35818222
187	0xbe47cbe3	-0.1951137
188	0xbe374d4f	-0.17900585
189	0x3e43f3b8	0.1913594
190	0x3e3822ae	0.17981979
191	0x3dce73b2	0.10080661
192	0xbea7cd49	-0.32773808
193	0xbe4d60e7	-0.20056497
194	0x3e6d05f7	0.23146807
195	0xbec667f8	-0.38751197
196	0x3eb557ec	0.35418642
197	0xbeb9203d	-0.36157408
198	0xbf86c258	-1.0528059
199	0x3d098b3c	0.03358005
200	0xbec51349	-0.38491276
201	0x3dbbb4d9	0.09165353
202	0x3df49646	0.11942725
203	0xbddff7de	-0.10935949
204	0x3fb8d61b	1.444034
205	0x3e9afa00	0.3026886
206	0x3d64f45f	0.055897113
207	0x3e52236b	0.20521323
208	0x3ed5dc47	0.4176962
209	0xbdd0eda5	-0.10201577
210	0xbd22b309	-0.039721522
211	0xbeaf7a2d	-0.342729
212	0xbefb81e5	-0.4912254
213	0x3ebc7723	0.36809644
214	0xbd301b6f	-0.042994913
215	0xbe216100	-0.15759659
216	0xbd1dbb50	-0.038508713
217	0xbd497903	-0.04918767
218	0xbc919507	-0.017771257
219	0xbea2e609	-0.31816128
220	0xbf0e46ec	-0.5557697
221	0x3e505192	0.20343617
222	0x3d81ea61	0.06343532
223	0xbab1a285	-0.0013552463
224	0xbf182bd8	-0.594419
225	0xbfc96d89	-1.5736552
226	0x3f227aba	0.63468516
227	0x3d8499fe	0.06474684
228	0xbe35db87	-0.17759524
229	0x3f2c1096	0.6721281
230	0xbd94f9ba	-0.07274194
231	0x3f07e425	0.53082496
232	0xbd4ce6cb	-0.05002479
233	0x3edcb252	0.43104798
234	0x3eeeb99e	0.4662599
235	0x3e319196	0.17340693
236	0x3e8172e0	0.25282955
237	0x3f01a7f3	0.50646895
238	0x3ec0a99f	0.3762941
239	0xbd560c64	-0.05225791
240	0x3cf440ca	0.02981605
241	0xbda9c91a	-0.0829031
242	0xbfcdba62	-1.6072505
243	0x3e1205bf	0.14260004
244	0x3fac8a68	1.3479738
245	0x3cae5a56	0.02128331
246	0xbf5b9c58	-0.85785437
247	0x3cd1dea1	0.025618853
248	0xbf25085e	-0.6446589
249	0xbf146d92	-0.5797969
250	0xbe9c8fb8	-0.305784
251	0x3d0ef543	0.03490187
252	0xbef21525	-0.47281757
253	0x3f7d29e6	0.98892057
254	0xbd825fbf	-0.06365918
255	0x3f5a5b41	0.8529549

rnn.bias_ih_l0 f4 [32]
0	0xbd66d7ed	-0.056358267
1	0xbe16000b	-0.14648454
2	0xbe813002	-0.2523194
3	0x3e029248	0.12751114
4	0xbdb2d0e9	-0.08731253
5	0xbdc6a04f	-0.09698545
6	0x3e87a056	0.26489514
7	0xbf20c667	-0.6280274
8	0xbda79c2d	-0.08184085
9	0xbd4709a1	-0.048593167
10	0x3e50c777	0.2038859
11	0x3db7890d	0.08961687
12	0xbdcc8322	-0.09985949
13	0x3c8ae980	0.016957045
14	0xbca9bb8e	-0.020719316
15	0xbe0d629b	-0.13807146
16	0xbe3bcd66	-0.18340072
17	0x3dd9e9a7	0.10640269
18	0x3dc336e8	0.09531957
19	0x3e505a5b	0.20346968
20	0xbf81715e	-1.0112722
21	0x3dcec4d5	0.100961365
22	0x3daf1b80	0.08550167
23	0xbe11b5da	-0.14229527
24	0x3dd44b52	0.10365929
25	0x3e0000fd	0.12500377
26	0x3defac1a	0.11702748
27	0xbdb7a694	-0.08967319
28	0xbee35ed3	-0.44408283
29	0xbbf30011	-0.0074157794
30	0xbdb0643b	-0.086128674
31	0xbe310760	-0.1728797

rnn.bias_hh_l0 f4 [32]
0	0xbd66d7ed	-0.056358267
1	0xbe16000b	-0.14648454
2	0xbe813002	-0.2523194
3	0x3e029248	0.12751114
4	0xbdb2d0e9	-0.08731253
5	0xbdc6a04f	-0.09698545
6	0x3e87a056	0.26489514
7	0xbf20c667	-0.6280274
8	0xbda79c2d	-0.08184085
9	0xbd4709a1	-0.048593167
10	0x3e50c777	0.2038859
11	0x3db7890d	0.08961687
12	0xbdcc8322	-0.09985949
13	0x3c8ae980	0.016957045
14	0xbca9bb8e	-0.020719316
15	0xbe0d629b	-0.13807146
16	0xbe3bcd66	-0.18340072
17	0x3dd9e9a7	0.10640269
18	0x3dc336e8	0.09531957
19	0x3e505a5b	0.20346968
20	0xbf81715e	-1.0112722
21	0x3dcec4d5	0.100961365
22	0x3daf1b80	0.08550167
23	0xbe11b5da	-0.14229527
24	0x3dd44b52	0.10365929
25	0x3e0000fd	0.12500377
26	0x3defac1a	0.11702748
27	0xbdb7a694	-0.08967319
28	0xbee35ed3	-0.44408283
29	0xbbf30011	-0.0074157794
30	0xbdb0643b	-0.086128674
31	0xbe310760	-0.1728797

linear_out.weight f4 [7, 32]
0	0xbc1593b8	-0.009129457
1	0xbc3b4ec6	-0.011432355
2	0xbbaf0ed3	-0.0053423434
3	0x3bf476dd	0.0074604587
4	0xbddc30e1	-0.107515104
5	0xbbbae48d	-0.005703515
6	0xbafb60ba	-0.0019178607
7	0x3bb439a9	0.0055000377
8	0xbd1bd4c8	-0.03804472
9	0x3d28fb62	0.041255362
10	0x3c0c375d	0.0085581215
11	0x3c12c0bd	0.008957085
12	0xbbfee708	-0.007779006
13	0xbb9599d4	-0.004565457
14	0xbb9aa644	-0.0047195274
15	0xbb01bbf2	-0.0019795862
16	0xbaab9c94	-0.0013092929
17	0x3c1b3f52	0.009475546
18	0x3a4dc82a	0.0007849956
19	0x3b078910	0.002068106
20	0x3b8a55ef	0.00422167
21	0x3c070bc7	0.008242554
22	0x3c3d5738	0.011556439
23	0xbc5f6910	-0.013635889
24	0x3c4490ea	0.011997441
25	0x3c196e3a	0.009364659
26	0x3c5558da	0.013021672
27	0xbc16a10d	-0.009193671
28	0x3bdbd2aa	0.0067084627
29	0x3a9487f0	0.0011332016
30	0xba4c6db5	-0.000779833
31	0xbc7f8f12	-0.015598075
32	0x3f076206	0.52883947
33	0x3f0edb47	0.5580334
34	0x3f27eed7	0.65598816
35	0xbeb6937b	-0.35659394
36	0x3d172bf6	0.03690716
37	0x3ec71e45	0.3889028
38	0x3e7d3264	0.24726254
39	0xbe16d6c8	-0.1473037
40	0xbeb13a95	-0.34615007
41	0x3ee50ac8	0.44734788
42	0xbf2116bc	-0.62925315
43	0xbf0eb05d	-0.5573786
44	0x3ea65a49	0.32490757
45	0x3f126866	0.5719055
46	0x3f139986	0.57656133
47	0x3ef3f680	0.47649002
48	0x3f043e7a	0.5165783
49	0xbf150905	-0.5821689
50	0xbf120211	-0.57034403
51	0xbedde019	-0.43335035
52	0xbe1280d1	-0.14306952
53	0xbebd217e	-0.36939615
54	0xbf17e300	-0.5933075
55	0x3f0c95db	0.5491616
56	0xbeff5c2a	-0.49875003
57	0xbf172745	-0.59044296
58	0x3e77ec98	0.24211347
59	0x3ed1abb9	0.40951326
60	0xbe5dfdde	-0.21678874
61	0xbecea623	-0.40361127
62	0x3e245037	0.16046225
63	0xbe76cdbb	-0.24101917
64	0xbc1b081a	-0.009462381
65	0x3e254ddc	0.16142982
66	0xbde8c8a0	-0.11366391
67	0x3ca3cc0a	0.019994754
68	0xbf53f5e9	-0.82797104
69	0xbd2c281c	-0.04203044
70	0x3c6a7a95	0.014311452
71	0x393bba8e	0.00017903207
72	0x3ed90ece	0.42394108
73	0x3c050732	0.008119391
74	0x3e8de1a9	0.27711228
75	0x3d16c3c2	0.036807783
76	0x3e9d7cd2	0.30759293
77	0x3bcf9395	0.006334732
78	0x3ddc5798	0.10758895
79	0xbc653afd	-0.013991115
80	0xbd8d9d37	-0.06914752
81	0x3cf09495	0.029367724
82	0xbda5b7ab	-0.080916725
83	0xbdf372c7	-0.118871264
84	0xbce57062	-0.02800769
85	0x3db81976	0.08989231
86	0xbccd45d5	-0.025057713
87	0xbe479cdd	-0.19493432
88	0xbe2d2ee5	-0.1691242
89	0xbd87344a	-0.0660177
90	0xb9e5ac36	-0.0004380659
91	0xbd574b07	-0.052561786
92	0x3cdfc93e	0.02731764
93	0xbda2c33c	-0.07947394
94	0x3c018b5d	0.007906762
95	0x3b59ff3d	0.0033263706
96	0xbdbf5d46	-0.09343962
97	0xbcf3f158	-0.029778168
98	0xbd2f016d	-0.04272597
99	0x3dab105b	0.08352729
100	0xbee69d74	-0.45042002
101	0xbc84e459	-0.016222166
102	0xbb360994	-0.0027776705
103	0x3cab4f31	0.020911785
104	0xbe7de19d	-0.24793096
105	0x3e3b53c9	0.1829368
106	0x3d99db9f	0.075125925
107	0x3da87006	0.08224492
108	0xbd2718e3	-0.04079522
109	0xbd50103e	-0.05079674
110	0xbdf8fed0	-0.121579766
111	0x3cd0ddc7	0.025496377
112	0x3da43df2	0.08019628
113	0x3d585d78	0.052823514
114	0x3d4e018e	0.05029445
115	0xbe643db7	-0.22289167
116	0x3c7c0e95	0.015384336
117	0x3e25115e	0.16119906
118	0x3c8cb046	0.017173897
119	0xbd8682f8	-0.06567949
120	0x3d6169f8	0.0550327
121	0x3db1ada9	0.08675701
122	0x3d9ae479	0.07563109
123	0xbe009705	-0.1255761
124	0x3c469c72	0.01212226
125	0xbd57c38c	-0.052676722
126	0xbc3f208e	-0.0116654765
127	0xbdab3c3b	-0.083610974
128	0xbd4b3d7a	-0.049619175
129	0xbd77bc24	-0.06048216
130	0xbd47bf76	-0.048766576
131	0x3afb5b0a	0.0019176912
132	0xbf4a6269	-0.7905641
133	0xbcb12947	-0.021626128
134	0xbb8c71d2	-0.0042860294
135	0x3d34d4cb	0.044148248
136	0xbea212c3	-0.3165494
137	0x3e830fc7	0.25597975
138	0x3d8aced2	0.06777729
139	0x3c9b757e	0.018976923
140	0xbd448e28	-0.047987133
141	0xbd129ef5	-0.035796124
142	0xbd1bcec5	-0.038038988
143	0xbcb5237c	-0.022111647
144	0xbd17bee3	-0.037047278
145	0x3d3ee857	0.046608295
146	0x3d15cbdd	0.036571372
147	0x3deac951	0.11464179
148	0x3d2e348c	0.04253058
149	0x3ce71e78	0.02821277
150	0x3da6073e	0.0810685
151	0xbd41967d	-0.047262657
152	0x3d250c48	0.040294915
153	0x3cd6c230	0.026215643
154	0x3d98ffb2	0.07470645
155	0xbb371e13	-0.002794151
156	0x3c919723	0.017772263
157	0x3d1dc031	0.038513366
158	0xbd0316cc	-0.032004163
159	0xbd9f86f8	-0.07789415
160	0xbcd3bc7b	-0.02584671
161	0xbd03f0b5	-0.032211978
162	0xbcf6f982	-0.030148271
163	0xbb941ae0	-0.0045198053
164	0xbe724998	-0.23660886
165	0x3b1cf031	0.0023946876
166	0xbbbf7f13	-0.005844006
167	0x3cb41dbe	0.021986838
168	0xbd9eaa4c	-0.07747325
169	0x3d298528	0.041386753
170	0x3d07258a	0.032994784
171	0xbc73fa63	-0.01489124
172	0xbb731456	-0.0037090979
173	0xbb894d47	-0.0041901204
174	0xbca2f86d	-0.01989385
175	0x3a385a53	0.00070325023
176	0xbc9c16a6	-0.019053768
177	0x3c02fd06	0.007994896
178	0x3ade2a79	0.0016949914
179	0x3cfe93ba	0.0310763
180	0x3ccfcb78	0.025365576
181	0xbc1fdd0c	-0.0097572915
182	0x3cf38b67	0.029729558
183	0xbb7ced84	-0.0038593719
184	0x3af0cdd9	0.0018371894
185	0xbb4d187e	-0.0031295116
186	0x3c598060	0.013275236
187	0x3ad0493c	0.0015890966
188	0x3bb748bf	0.005593389
189	0x3ce7a934	0.028278925
190	0xbc8add7e	-0.016951319
191	0xbcf25dd3	-0.029585754
192	0xbbbf4cf5	-0.0058380314
193	0xbbc50f98	-0.006013822
194	0xbbbd4102	-0.005775572
195	0x3b0f8b72	0.0021903184
196	0xbd8574e1	-0.065164335
197	0xbb041ef2	-0.0020160046
198	0xb98cef75	-0.0002688129
199	0x3b7d454d	0.0038646043
200	0xbcc53f5f	-0.02407807
201	0x3cca6a04	0.024708755
202	0x3add8003	0.0016899112
203	0x3b869c92	0.00410802
204	0xbac14152	-0.0014744198
205	0xbaf8ec9a	-0.0018991411
206	0x3a974cc6	0.0011543266
207	0xbb4a291b	-0.0030847255
208	0xbb42e0cc	-0.002973604
209	0x3bcd06ed	0.006256929
210	0x3ade240f	0.0016948002
211	0x3c2075cf	0.009793713
212	0x3b1280c3	0.002235458
213	0x3b3c67ce	0.0028748396
214	0x3bff1cb0	0.0077854022
215	0xbbc57dbc	-0.0060269516
216	0x3b758399	0.0037462472
217	0x3b434a70	0.0029799007
218	0x3c27032c	0.010193627
219	0xbaf48f6d	-0.0018658467
220	0x3b8554fd	0.0040689693
221	0x3af95176	0.001902147
222	0x39f65b67	0.00046988876
223	0xbc2ad29f	-0.010426193

linear_out.bias f4 [7]
0	0x3cce7b08	0.02520515
1	0x4176784c	15.404369
2	0x3c9e9676	0.019358855
3	0x3e776693	0.24160223
4	0x3e3e4f5b	0.18584959
5	0x3dd4859f	0.10377049
6	0x3c8cd8c6	0.01719321

batch_norm_layer.weight f4 [32]
0	0x3e609539	0.21931924
1	0x3f011d62	0.5043546
2	0x3e2e6905	0.1703225
3	0xbe953eb7	-0.2914941
4	0xbcb85515	-0.022501508
5	0x3cc38103	0.023865229
6	0x3ab4a87d	0.0013783124
7	0x3ef088b8	0.46979308
8	0x3f0df387	0.5544972
9	0x3a111567	0.00055345
10	0xbe5d5efa	-0.21618262
11	0x3c473bb9	0.012160235
12	0xbc7e54f6	-0.015523186
13	0x3ba4339e	0.005011036
14	0x3e54a4aa	0.2076594
15	0xbe9ce364	-0.30642235
16	0x3a02d291	0.0004990483
17	0xbc0281e1	-0.007965536
18	0x3b96ac2a	0.0045981603
19	0x38392bd5	4.414826e-05
20	0x3eb54342	0.35402876
21	0xbe859c4f	-0.26095816
22	0xbc4c2708	-0.012460478
23	0x3e28df33	0.16491394
24	0xba3cd9b0	-0.0007204069
25	0x3be9024e	0.0071108704
26	0xbc76c4f9	-0.01506161
27	0x3eb51f34	0.3537537
28	0xb8d1eb85	-0.000100097655
29	0x3e3e69d3	0.18595056
30	0x3e4fe860	0.20303488
31	0xbaab6242	-0.0013075548

batch_norm_layer.bias f4 [32]
0	0x3ef54b3d	0.47908965
1	0xbe5cbc60	-0.21556234
2	0x3e94ef4a	0.29088813
3	0x3d908496	0.07056539
4	0xbdd48466	-0.103768155
5	0xbe2bc3ae	-0.16773865
6	0xbc220a12	-0.009890096
7	0x3ec732e7	0.38906023
8	0xbf2ef7fe	-0.68347156
9	0xbcea6ca9	-0.028616266
10	0x3ea8282d	0.32843152
11	0xbd6f52a5	-0.058428425
12	0xbd96d5d5	-0.07365004
13	0xbdac7749	-0.08421189
14	0x3ded0102	0.11572458
15	0x3e2863e9	0.16444363
16	0xbb5f4277	-0.0034066716
17	0xbdb54912	-0.08851828
18	0xbcbf9742	-0.023387555
19	0xb9bf607d	-0.00036502248
20	0x3e121984	0.14267546
21	0x3ef4ecc2	0.47836882
22	0xbd700c6c	-0.058605596
23	0x3e7b4833	0.2453926
24	0xbca2914c	-0.019844674
25	0xbd55803f	-0.052124258
26	0xbdbb2155	-0.09137217
27	0xbe40825a	-0.18799725
28	0xbb419e09	-0.002954366
29	0x3e807324	0.25087845
30	0x3ea7ff17	0.32811806
31	0xbc1a93c0	-0.00943464
