VehicalStateperML.pth (torch, 23463 bytes, 6 tensors)

linear_relu_stack.0.weight f4 [64, 9]
0	0xbcafb7eb	-0.021450004
1	0xbe304f0e	-0.17217657
2	0xbe0f73db	-0.14009039
3	0x3dcc2e56	0.099697754
4	0x3ddc5a60	0.10759425
5	0xbea9afeb	-0.33142027
6	0x3ea246ac	0.31694543
7	0xba351556	-0.00069077814
8	0x3e2a88d6	0.16653761
9	0xbe5e337d	-0.21699329
10	0x3ede0452	0.4336267
11	0xbd8c7d29	-0.0685981
12	0xbb921214	-0.0044577215
13	0xbd553d8a	-0.05206064
14	0xbedff197	-0.43739006
15	0xbe2066e0	-0.15664244
16	0x3b79687c	0.0038056662
17	0xbe60acdb	-0.21940939
18	0x3c12d365	0.008961533
19	0xbf002914	-0.5006268
20	0x3e1fa705	0.15591057
21	0x3e638ebc	0.22222418
22	0x3dc0c7b4	0.0941309
23	0xbda2ea78	-0.079548776
24	0x3e776e45	0.24163158
25	0x3b9b0cc4	0.0047317464
26	0xbc42df28	-0.011894025
27	0x3e8760a6	0.26440924
28	0xbea524fc	-0.3225478
29	0xbec615f2	-0.38688618
30	0x3d96c45a	0.0736167
31	0xbcfce873	-0.03087256
32	0x3e6ff92d	0.23434897
33	0x3ea918c8	0.3302672
34	0xbce4e9ed	-0.027943576
35	0xbea6d175	-0.32581678
36	0xbe884c4b	-0.26620707
37	0xbdad813a	-0.08471914
38	0xbd707605	-0.058706302
39	0x3eaa0064	0.33203423
40	0xbe5c3bfd	-0.21507259
41	0x3eb79d7d	0.35862342
42	0x3daf0779	0.08546347
43	0xbb480f47	-0.0030526684
44	0x3dbfb9d3	0.09361615
45	0x3e793a60	0.24338675
46	0xbd803b34	-0.06261292
47	0x3e190397	0.14942776
48	0x3dd458c4	0.10368493
49	0xbde2c812	-0.11073317
50	0xbd9bf432	-0.07614936
51	0xbe744c93	-0.23857336
52	0x3d31f8cd	0.043450166
53	0xbe97c5f0	-0.29643202
54	0x3e8cc89c	0.27496803
55	0x3f9673a6	1.1754043
56	0x3f1b9c05	0.6078494
57	0xbccf5c7c	-0.025312655
58	0xbe7b19b9	-0.24521531
59	0x3de26d6f	0.11056029
60	0x3e825ebf	0.2546291
61	0x3ba0a073	0.0049019395
62	0x3e51efd0	0.20501637
63	0x3d1822cf	0.03714257
64	0xbda7d640	-0.08195162
65	0xbdf04d4f	-0.117334954
66	0x3d02ced3	0.031935524
67	0x3e52da5a	0.20591107
68	0xbe46c552	-0.19411209
69	0x3d539cfa	0.051663376
70	0xba957c88	-0.0011404911
71	0x3cb9e768	0.02269335
72	0xbe656daa	-0.22405115
73	0xbe9e9b21	-0.3097773
74	0xbe86e213	-0.26344356
75	0xbe1d7501	-0.15376665
76	0xbe3b4c8e	-0.18290922
77	0x3e94acc0	0.29038048
78	0xbde5ad26	-0.11214666
79	0x3d0a17df	0.03371417
80	0xbd9532e8	-0.072851
81	0xbe9d71b5	-0.30750814
82	0x3e64c927	0.22342359
83	0x3ee95d14	0.45578825
84	0xbe3a6a22	-0.18204549
85	0xbdd1cc8f	-0.102440946
86	0xbdc62625	-0.09675244
87	0x3e959eaf	0.29222628
88	0x3b80a138	0.003925469
89	0x3a6a5ae3	0.0008939935
90	0x3e90bbd0	0.2826829
91	0xbec6dccf	-0.3884034
92	0x3ce4a55f	0.027910886
93	0x3e28c1d0	0.16480184
94	0x3e1e663b	0.15468685
95	0x3e19037a	0.14942732
96	0xbe51eab4	-0.20499688
97	0xbd10d8a6	-0.035362862
98	0x3eaad44c	0.33365095
99	0x3bbc958d	0.0057551325
100	0x3ebb51e4	0.36585915
101	0xbe4fe586	-0.203024
102	0x3e87f587	0.2655451
103	0xbed72c1e	-0.42025846
104	0xbd4c9d13	-0.049954485
105	0xbe06b673	-0.13155536
106	0x3b4c93dc	0.003121606
107	0xbd00857f	-0.03137731
108	0xbe9d488b	-0.30719408
109	0x3f577bfa	0.8417355
110	0x3ee85ab9	0.45381716
111	0xbd068b57	-0.03284773
112	0x3e90d227	0.28285334
113	0xbe8ae4d4	-0.27127707
114	0x3c75c5a4	0.0150007345
115	0x3b99a837	0.004689242
116	0x3d4ac448	0.049503595
117	0xbe4fb89d	-0.20285268
118	0xbdc00b29	-0.09377129
119	0x3edaf06b	0.4276155
120	0x3e5f74c1	0.21821882
121	0x3ddd0855	0.10792605
122	0x3e62eab5	0.22159846
123	0xbd056b5b	-0.032573085
124	0xbbc3bc25	-0.0059733563
125	0xbd3106c0	-0.043219328
126	0x3c8cc72f	0.017184822
127	0xbef6702a	-0.4813245
128	0xbd41fab3	-0.047358226
129	0xbdc341cc	-0.09534034
130	0xbdad7820	-0.08470178
131	0xbc9ea896	-0.019367497
132	0xbc907cb1	-0.017637582
133	0xbc9dcf9f	-0.01926404
134	0xbe7011c0	-0.23444271
135	0xbe1362f1	-0.14393212
136	0x3f03a002	0.5141603
137	0xbeae5595	-0.3404967
138	0xbea0d95b	-0.3141583
139	0xbebe62d6	-0.3718478
140	0x3e9ada67	0.30244753
141	0x3e23f99d	0.16013189
142	0x3c002cd7	0.007823191
143	0x3d4abeab	0.04949824
144	0x3e912cbf	0.2835445
145	0x3faa5bd6	1.3309276
146	0x3e267acb	0.1625778
147	0x3e4b0805	0.19827278
148	0x3e10317e	0.1408138
149	0xbe083879	-0.13302793
150	0xbbd0df76	-0.006374295
151	0xba89b476	-0.0010506052
152	0x3d93ce0d	0.072170354
153	0x3e2a2912	0.1661723
154	0x3f9b5d3d	1.2137829
155	0xbec7362f	-0.38908526
156	0x3e4ac557	0.19801842
157	0x3dd1c630	0.102428794
158	0x3e767bc5	0.24070652
159	0x3dd02b6e	0.101645336
160	0xbc3f2ed1	-0.011668877
161	0x3e2cd1d5	0.1687692
162	0xbd5f73a0	-0.054553628
163	0xbd387c07	-0.045040157
164	0xbe9b5d81	-0.30344775
165	0x3e689d48	0.22716248
166	0x3ed6ed9d	0.4197816
167	0x3e5c9bb8	0.21543777
168	0xbe88d89f	-0.2672777
169	0x3ccb19ba	0.02479254
170	0xbdcb4354	-0.09924951
171	0xbe0d5de0	-0.13805342
172	0xbdb59bec	-0.0886763
173	0xbd979ee4	-0.07403353
174	0x3e18ee55	0.14934666
175	0x3d67157a	0.056416966
176	0xbe2bab7b	-0.16764633
177	0xbea3e7af	-0.32012698
178	0xba061feb	-0.00051164505
179	0xbdcbb421	-0.09946466
180	0x3ca0bfea	0.019622762
181	0xbf011a4f	-0.5043077
182	0x3d74e664	0.05979003
183	0x3eab7b77	0.33492634
184	0xbccd2e52	-0.025046501
185	0xbe63c9ae	-0.22244903
186	0xbdaa8a0e	-0.08327113
187	0xbd40b189	-0.04704431
188	0x3d8167a5	0.06318597
189	0x3e605aa1	0.21909572
190	0xbe8fdddc	-0.28098953
191	0x3e671fe6	0.22570762
192	0xbe467bfb	-0.19383232
193	0x3e4f292d	0.20230551
194	0xbdae296d	-0.08503995
195	0xbde2e421	-0.110786684
196	0x3abc85a8	0.0014383094
197	0xbe160b1c	-0.14652675
198	0x3db6594a	0.08903749
199	0x3e48b5f6	0.19600663
200	0x3e382a36	0.17984852
201	0x3dd1875e	0.10230897
202	0xbdee0d61	-0.116236456
203	0xbe58c632	-0.21169356
204	0x3e996135	0.29956976
205	0xbd1b818d	-0.037965346
206	0xbeaa16bd	-0.33220473
207	0x3dce7420	0.10080743
208	0x3f6da801	0.9283448
209	0xbee54127	-0.4477627
210	0x3e58d69c	0.21175617
211	0xbd80e0fb	-0.062929116
212	0xbe98efb0	-0.29870367
213	0xbe8f9f9c	-0.2805146
214	0xbbc23977	-0.0059272605
215	0xbda67145	-0.08127073
216	0x3e824c52	0.25448853
217	0xbe7c51aa	-0.24640527
218	0x3e97f557	0.29679367
219	0x3e20cc7c	0.15703005
220	0xbe0d69e2	-0.13809922
221	0x3e8be9b2	0.27326733
222	0x3e9d3770	0.30706358
223	0xbb3ea50b	-0.0029090072
224	0x3e995990	0.29951143
225	0x3cf4bd8c	0.02987554
226	0xbdb63604	-0.088970214
227	0xbc9e5ebf	-0.019332288
228	0xbddeece0	-0.10885024
229	0xbe7326ce	-0.23745272
230	0xbd32dda6	-0.04366841
231	0xbcf87eb3	-0.030333852
232	0x3a573a8b	0.00082103227
233	0xbd6beb46	-0.05759742
234	0xbd1a399f	-0.037652608
235	0x3eacf1a8	0.3377812
236	0x3e4fe84b	0.20303456
237	0xbee8f5fb	-0.45500168
238	0xbc9fa10e	-0.019485977
239	0xbdf92c51	-0.12166656
240	0x3e9065b1	0.28202584
241	0xbc0c97fd	-0.008581159
242	0x3e714b0c	0.23563784
243	0xbc59abad	-0.01328556
244	0xbf204c8f	-0.6261682
245	0x3e67e3f1	0.22645546
246	0x3b894ab2	0.0041898126
247	0x3daa9d71	0.08330811
248	0xbddd0f01	-0.107938774
249	0x3e721de2	0.23644212
250	0xbce37af7	-0.027768595
251	0xbe653910	-0.22385049
252	0x3ea6c832	0.32574612
253	0x3e888d9c	0.2667054
254	0xbf1b47ea	-0.6065661
255	0x3a6f5bf2	0.00091308274

linear_relu_stack.0.bias f4 [64]
0	0xbdaaaa9b	-0.08333322
1	0xbe7ec1fa	-0.24878684
2	0xbe7090f8	-0.23492801
3	0xbe7683e0	-0.24073744
4	0x3e6e821c	0.2329182
5	0x3e1f2dea	0.15544859
6	0x3ea3d86e	0.3200106
7	0x3dfb3818	0.122665584
8	0xbe9bca85	-0.30427948
9	0xbd03967f	-0.032125946
10	0xbe8b7bc8	-0.27242875
11	0xbd7b24e9	-0.061314497
12	0xbe41d6ec	-0.18929642
13	0xbe022764	-0.12710339
14	0xbe52cd6b	-0.20586173
15	0xbd1d6404	-0.03842546
16	0x3e358f94	0.17730552
17	0x3e8b06f7	0.2715375
18	0x3e8ebad2	0.27876908
19	0xbcd3fdf5	-0.025877932
20	0xbe969d08	-0.2941668
21	0x3d423059	0.04740939
22	0x3dc52629	0.09626419
23	0x3e24a823	0.16079764
24	0x3e677307	0.22602473
25	0xbd018cb2	-0.031628318
26	0x3dd50bce	0.10402642
27	0xbe5cb7c1	-0.21554472
28	0xbd65a373	-0.05606408
29	0x3e475564	0.19466168
30	0x3e14fb13	0.14548902
31	0x3da9d1d8	0.08291978
32	0xbbb27632	-0.005446219
33	0xbea41065	-0.32043758
34	0xbe95faa5	-0.2929279
35	0xbdd7b8f4	-0.10533324
36	0x3dba9396	0.09110181
37	0xbea6d325	-0.32582965
38	0x3e5a0aef	0.21293233
39	0xbd36d085	-0.044632453
40	0xbe0a66e4	-0.13515812
41	0x3db3e41b	0.08783742
42	0xbd79c7aa	-0.06098143
43	0xbd3835d7	-0.04497322
44	0xbeb3dda1	-0.35130027
45	0xbccea58c	-0.025225423
46	0x3df2d242	0.1185651
47	0x3e88fe38	0.26756454
48	0x3ea5865c	0.3232907
49	0xbdde60ec	-0.1085833
50	0xbe93e3a1	-0.28884605
51	0x3e1a726a	0.15082708
52	0x3e0601dc	0.13086647
53	0xbe2d475d	-0.16921754
54	0x3d4d44a2	0.05011428
55	0xbe2210ce	-0.15826723
56	0x3d905b7d	0.070487
57	0x3e63a806	0.22232065
58	0xbe6de38d	-0.23231335
59	0xbe0a3567	-0.13496934
60	0x3d9375de	0.07200216
61	0x3b9323bd	0.0044903443
62	0x3d16c6c1	0.03681064
63	0xbdf79453	-0.120888375

linear_relu_stack.2.weight f4 [64, 64]
0	0xbd136e60	-0.035993934
1	0x3cb4a5a2	0.022051636
2	0xbcb7b8da	-0.022427011
3	0xbdc70b94	-0.09719005
4	0x3d2b9540	0.041890383
5	0xbc924a3a	-0.01785766
6	0x3de233cf	0.11045038
7	0xbcdaccd3	-0.026708996
8	0xbb892073	-0.0041847765
9	0x3e0918ce	0.13388368
10	0x3db3a177	0.08771031
11	0x3c90ee04	0.01769162
12	0x3e059cd1	0.13048102
13	0x3e0e4285	0.13892563
14	0xbda2b39e	-0.079444155
15	0xbc140bca	-0.009036014
16	0x3d785e7c	0.060636982
17	0xbe098b8d	-0.1343214
18	0x3d8ac87c	0.067765206
19	0xbe00b153	-0.12567644
20	0xbd039c82	-0.03213168
21	0xbcadc2e6	-0.021211099
22	0xbd262ef4	-0.04057212
23	0xbde5b04e	-0.11215268
24	0xbd18bf92	-0.03729207
25	0x3d26c2a0	0.040712953
26	0x3dfd1f1a	0.12359448
27	0xbde319ba	-0.11088891
28	0xbd89091f	-0.06691193
29	0xbdd25eb0	-0.102719665
30	0xbd7f47d6	-0.062324367
31	0x3c16cdf5	0.009204377
32	0xbd032dec	-0.032026216
33	0x3df4525e	0.11929773
34	0xbc6709c5	-0.01410145
35	0xbd5285d4	-0.05139716
36	0xbdbffbca	-0.09374197
37	0x3ad5101c	0.0016255411
38	0xbc9d7bff	-0.019224165
39	0xbe1a4563	-0.15065531
40	0xbe04d053	-0.12970094
41	0xbe092733	-0.1339386
42	0x3d420603	0.047369014
43	0x3d5c3e23	0.053770196
44	0x3d81dda9	0.063411064
45	0x3d9f3cd4	0.07775274
46	0x3cb9f0d0	0.022697836
47	0x3c02bd0e	0.007979644
48	0x3d9220a5	0.07135133
49	0x3d7d7a0c	0.06188397
50	0xbddd3852	-0.10801758
51	0x3df362dc	0.1188409
52	0xbc0d715b	-0.008632983
53	0x3e07bbfc	0.13255304
54	0x3d983483	0.07431891
55	0x3c025a53	0.007956105
56	0x3dae8167	0.08520775
57	0xbe1169c7	-0.14200507
58	0xbd7a5f11	-0.06112582
59	0x3de91dd0	0.113826394
60	0x3db62e93	0.08895602
61	0x3d9a62d6	0.07538383
62	0xbcde86ca	-0.027163882
63	0x3ceba2c1	0.02876413
64	0xbde31504	-0.11087993
65	0x3df02055	0.11724917
66	0xbe221a66	-0.15830383
67	0x3c758a6a	0.014986614
68	0xbdb078d3	-0.086167954
69	0xbda1b8d0	-0.07896578
70	0xbcd329a6	-0.025776695
71	0xbd8aeab3	-0.067830466
72	0x3cda6ea1	0.02666408
73	0x3d29174f	0.041281994
74	0xbd395d9c	-0.04525529
75	0x3deb20bb	0.11480852
76	0x3d62459e	0.055242173
77	0xbd2181fa	-0.039430596
78	0x3d571180	0.052506924
79	0xbc7b1fd4	-0.015327413
80	0x3d1a0dcc	0.037610814
81	0x3e03074e	0.12795755
82	0x3c7d36e2	0.01545498
83	0xbd44d8be	-0.048058264
84	0xbe082645	-0.13295849
85	0x3c87bf2d	0.016570652
86	0xbd8b2306	-0.067937896
87	0x3db69f27	0.08917075
88	0xbe057a59	-0.13034953
89	0xbd987832	-0.074448004
90	0x3d6eb1b4	0.05827494
91	0xbd4b78b3	-0.049675655
92	0x3e123fa8	0.14282095
93	0x3bc56629	0.0060241413
94	0x3d26c4e6	0.04071512
95	0xbddd0c62	-0.107933775
96	0xbdacf3b4	-0.0844492
97	0x3df069fc	0.11738965
98	0x3df04c80	0.11733341
99	0xbcd9b656	-0.026576202
100	0xbc74af5b	-0.014934386
101	0x3a44c241	0.0007505753
102	0xbca6457b	-0.020296803
103	0xbd100fa4	-0.035171166
104	0xbe12b208	-0.14325726
105	0xbdf6c4ab	-0.1204923
106	0x3dffa737	0.124830656
107	0xbe05afe9	-0.13055386
108	0xbc793acb	-0.015211771
109	0x3d53a9d8	0.051675647
110	0xbcd2d847	-0.025737895
111	0xbcc3eb0f	-0.023915796
112	0x3da5db9e	0.08098529
113	0xbd07e109	-0.033173595
114	0x3d67518c	0.056474254
115	0xbe0f8444	-0.14015299
116	0xbdc03fba	-0.09387155
117	0xbd181a21	-0.037134293
118	0x3d817360	0.06320834
119	0xbda34c22	-0.079735056
120	0xbe165739	-0.1468171
121	0xbcb467d9	-0.022022175
122	0x3e20190d	0.15634556
123	0xbd81fab6	-0.063466474
124	0xbdc4e831	-0.096145995
125	0x3cd183fd	0.025575632
126	0x3c71618c	0.01473273
127	0xbbeef75e	-0.007292672
128	0x3d92ed6e	0.07174192
129	0x3dce70a5	0.10080079
130	0xbdf07217	-0.11740511
131	0x3d392da9	0.04520956
132	0xbde9b820	-0.11412072
133	0x3dd90c65	0.10598067
134	0xbd8e146f	-0.06937491
135	0xbdd85052	-0.10562195
136	0x3a8eef80	0.0010905117
137	0x3d9c0627	0.07618361
138	0x3d1cb4e0	0.038258433
139	0xbd5e7ea5	-0.054319996
140	0x3dbaba45	0.09117559
141	0xbd6c5b3a	-0.057704188
142	0x3c93f67b	0.018061867
143	0x3dec8348	0.115484774
144	0xbd067de0	-0.032834888
145	0xbdbbbcb0	-0.09166849
146	0xbd81273e	-0.06306313
147	0xbd486d45	-0.048932333
148	0xbdce8e5f	-0.10085749
149	0x3d476905	0.04868414
150	0xbc4651ba	-0.012104446
151	0xbd442c34	-0.047893718
152	0xbc8c0744	-0.017093308
153	0x3d4cb22e	0.049974613
154	0x3df46900	0.1193409
155	0x3c9209cc	0.017826937
156	0xbe00499f	-0.12528084
157	0x3d75fb74	0.060054258
158	0x3cba0b15	0.022710362
159	0x3d20b56e	0.039235525
160	0xbdc7f528	-0.09763557
161	0xbcac10b6	-0.021004062
162	0xbca77e87	-0.020446075
163	0x3cb19015	0.021675149
164	0x3c82d4c6	0.015970599
165	0x3da8aa12	0.08235563
166	0x3cda1cb0	0.026625007
167	0x3d9ebfff	0.07751464
168	0x3d90f712	0.07078375
169	0xbde3ee04	-0.11129382
170	0x3e2533d8	0.16133058
171	0x3b1b2eaa	0.0023678937
172	0xbdfc093c	-0.12306449
173	0x3c3ab3ab	0.011395375
174	0xbda4af86	-0.08041291
175	0x3b41f2df	0.0029594225
176	0x3dc3e88e	0.09565841
177	0xbd8a00f4	-0.06738463
178	0x3e0d8b4c	0.13822669
179	0x3db620f1	0.08893002
180	0xbdd1f8d4	-0.10252538
181	0x3da8929d	0.08231089
182	0xbd860f46	-0.06545882
183	0x3cb45b17	0.022016091
184	0x3d805d31	0.06267775
185	0xbdc9fc90	-0.098626256
186	0xbe050d51	-0.12993361
187	0x3d2b8bb7	0.04188129
188	0x3d9b2518	0.075754344
189	0x3d631661	0.055441264
190	0x3e0fd0e1	0.14044525
191	0x3de870bb	0.11349627
192	0x3c00eb60	0.007868618
193	0x3d1c18bb	0.038109522
194	0xbe0cc745	-0.1374789
195	0xbd93979a	-0.0720665
196	0x3db2fb6a	0.0873936
197	0xbd7e1b41	-0.06203771
198	0x3c793c3a	0.015212113
199	0x3ca12cfd	0.019674772
200	0x3ce9a2b4	0.028519966
201	0x3c2a1400	0.010380745
202	0xbd1020c8	-0.035187513
203	0xbdf234bf	-0.11826467
204	0xbdee82c8	-0.11646038
205	0xbd87c4ea	-0.06629355
206	0x3db6ee92	0.089322224
207	0x3d75a8e1	0.05997551
208	0xbdd52032	-0.104065314
209	0xbbaf99d7	-0.0053589153
210	0xbdf05a93	-0.11736026
211	0x3daf7191	0.08566583
212	0x3dcdf1c6	0.1005588
213	0xbd83dd42	-0.06438686
214	0xbdd1a884	-0.1023722
215	0xbdc3d17a	-0.09561439
216	0x3ddb6679	0.107129045
217	0xbd981ff2	-0.07427968
218	0xb9c4597f	-0.00037450713
219	0x3d957f30	0.0729965
220	0xbe0038fb	-0.12521736
221	0x3aa480f3	0.0012550637
222	0xbd94771f	-0.07249283
223	0xbce4e0c8	-0.027939215
224	0xbd4915cd	-0.049093056
225	0x3d40a31c	0.047030553
226	0x3dba83bc	0.091071576
227	0xbd9506f3	-0.07276716
228	0x3c7ab736	0.01530247
229	0x3d3f8260	0.046755195
230	0xbbae9880	-0.005328238
231	0x3b018b40	0.0019766837
232	0xbdd2f97c	-0.103014916
233	0xbdfdd01c	-0.12393209
234	0xbd1c70f0	-0.038193643
235	0x3d7baf65	0.061446566
236	0x3ddeb60c	0.108745664
237	0x3dc7f78a	0.09764011
238	0xbd0156da	-0.03157697
239	0x3ddbdbf2	0.107353106
240	0x3d9e58f6	0.07731812
241	0xbd6a4386	-0.0571933
242	0xbd478efc	-0.048720345
243	0xbd545930	-0.05184287
244	0x3d859dc4	0.06524232
245	0xbd578adc	-0.05262266
246	0xbde77c4c	-0.113030046
247	0x3dba9c80	0.09111881
248	0x3cbcd468	0.023050502
249	0xbdc49d82	-0.09600355
250	0xbd460fd9	-0.048354957
251	0x3d5a9e2f	0.053373512
252	0xbda5eb9e	-0.08101581
253	0x3dd16a46	0.10225348
254	0xbd25bfb6	-0.040466033
255	0x3dd13777	0.10215657

linear_relu_stack.2.bias f4 [64]
0	0x3b4684d0	0.0030291565
1	0x3db45f75	0.088072695
2	0xbdf7dd40	-0.12102747
3	0xbdfb7de2	-0.122798696
4	0xbdb22929	-0.08699257
5	0x3da9cc27	0.08290892
6	0xbdb3444c	-0.08753261
7	0x3c90d627	0.01768024
8	0x3ddafb8a	0.106925085
9	0xbcd2b206	-0.025719654
10	0x3cb8cbea	0.022558171
11	0x3dbeacaa	0.09310277
12	0xbde1d7b8	-0.11027473
13	0xbd8138b5	-0.06309644
14	0x3d7582e6	0.059939288
15	0xbd3d3b74	-0.046199277
16	0x3d48256b	0.04886381
17	0xbde17ccf	-0.110101335
18	0xbcd3e268	-0.025864795
19	0x3dbcf675	0.092266954
20	0xbdc69340	-0.096960545
21	0xbdaa901b	-0.08328267
22	0x3df57d8a	0.11986835
23	0xbd33a512	-0.043858595
24	0xbd70cacb	-0.05878715
25	0xbdf20a13	-0.11818328
26	0x3d85a96d	0.06526456
27	0xbde61d3a	-0.11236043
28	0xbcebe54d	-0.028795863
29	0xbd5c25e8	-0.053747088
30	0xbc3d230d	-0.011544001
31	0x3d1d8a72	0.03846211
32	0xbd300a38	-0.042978495
33	0xbc09b535	-0.0084050195
34	0x3d646ec4	0.055769697
35	0xbdc87a9f	-0.09789013
36	0xbda62b3d	-0.08113716
37	0xbda32ada	-0.07967158
38	0x3db1a7b2	0.086745635
39	0xbd381ffb	-0.044952374
40	0xbda64996	-0.08119504
41	0x3bcc58d8	0.006236177
42	0xbb25b45d	-0.0025284507
43	0xbd95876b	-0.073012196
44	0x3c05738c	0.008145224
45	0xbdb3ef0c	-0.08785829
46	0xbd38ae36	-0.045088015
47	0x3e03b98f	0.12863754
48	0x3db2d0a5	0.08731202
49	0x3dd9fd6f	0.10644042
50	0x3dd4309a	0.103608325
51	0xbdf14036	-0.117798254
52	0xbca21b92	-0.019788537
53	0xbdc6a2d1	-0.096990235
54	0xbd11bcff	-0.03558063
55	0xbbfc26b4	-0.0076950435
56	0xbdfa018a	-0.12207325
57	0x3be59338	0.0070060752
58	0xbde764dc	-0.11298534
59	0x3cf73649	0.030177252
60	0xbdba3390	-0.09091866
61	0xbcbe82d9	-0.023255752
62	0x3c730936	0.014833739
63	0xbdb41464	-0.08792952

linear_relu_stack.4.weight f4 [7, 64]
0	0x3cefd001	0.029273989
1	0x3c47e70c	0.012201082
2	0x3c42afb4	0.011882711
3	0xbd0a6098	-0.033783525
4	0xbd328a51	-0.04358894
5	0x3d95b2d4	0.073094994
6	0x3d94b4e5	0.072610654
7	0x3d385d68	0.045010954
8	0xbd574aa2	-0.05256141
9	0xbd61f2ee	-0.055163316
10	0xbb63e7fe	-0.003477573
11	0xbde8c2b4	-0.11365262
12	0x3c9d913e	0.019234296
13	0x3d741912	0.05959422
14	0xbc6c3928	-0.014417924
15	0x3cbb3c66	0.022855949
16	0xbd3989dd	-0.045297492
17	0xbd64240f	-0.05569845
18	0x3e00dd46	0.12584409
19	0x3d5a33d1	0.053272072
20	0xbbcd5121	-0.006265775
21	0xbd857d52	-0.065180436
22	0xbdd6029a	-0.10449715
23	0x3d575598	0.052571863
24	0xbd4760e6	-0.048676394
25	0x3d90503c	0.070465535
26	0x3dcd99d7	0.10039108
27	0x3d446a96	0.04795321
28	0x3cbfec25	0.023428032
29	0x3d8dd274	0.069249064
30	0xbda97095	-0.082734264
31	0x3dc4e097	0.096131496
32	0x3d7477eb	0.059684675
33	0xbd55844d	-0.052128125
34	0x3c6731ae	0.014110966
35	0xbd3b0406	-0.045658134
36	0x3c3902ec	0.011292201
37	0x3b32c168	0.0027275924
38	0xbdd52336	-0.104071066
39	0x3c80fa59	0.015744375
40	0x3d2541cf	0.040345963
41	0x3d2930de	0.04130637
42	0x3bc27083	0.0059338226
43	0xbcd18da1	-0.02558023
44	0xbd5178a4	-0.051140442
45	0xbd17125b	-0.03688274
46	0xbc86b086	-0.016441595
47	0x3cc1b399	0.02364521
48	0x3dc0b340	0.09409189
49	0x3cf03f8e	0.02932718
50	0x3c812271	0.015763493
51	0x3d848f30	0.06472623
52	0x3dd7ed7e	0.10543345
53	0xbd483919	-0.048882578
54	0xbd34b999	-0.044122312
55	0xbd73bd60	-0.059506774
56	0xbd2bb027	-0.04191604
57	0xbc15affd	-0.009136197
58	0x3d0cfd8e	0.034421496
59	0xbdd3b03c	-0.103363484
60	0xbb8bce93	-0.004266569
61	0xbd682b7e	-0.056682102
62	0x3db36069	0.08758623
63	0xbd518921	-0.051156167
64	0x3d0ad397	0.033893194
65	0x3d5f2777	0.054480996
66	0x3e03fad1	0.12888648
67	0xbcaa7228	-0.020806387
68	0xbb8b6aa0	-0.004254654
69	0x3d4c6916	0.049904905
70	0x3d1ecf6f	0.038772043
71	0x3da680b5	0.08130018
72	0x3cff3bdc	0.031156473
73	0x3e021247	0.12702285
74	0x3c043070	0.008068189
75	0x3dbb40e3	0.091432355
76	0x3e923382	0.28554922
77	0x3db3f4ef	0.08786952
78	0xbb7a0340	-0.003814891
79	0x3e113e9e	0.14184043
80	0x3baf1b10	0.0053438023
81	0x3e7cfb47	0.2470523
82	0x3d6ce90b	0.057839435
83	0x3ab3612a	0.0013685573
84	0x3e4d639c	0.20057529
85	0xbccae154	-0.024765648
86	0xbd1401ac	-0.036134407
87	0x3c580a14	0.013185997
88	0xbda0d933	-0.078539275
89	0xbc09e129	-0.008415499
90	0xbcd7df70	-0.02635166
91	0x3c3f861f	0.011689692
92	0x3d1d2f57	0.038375225
93	0xbd0abb6c	-0.033870146
94	0xbd22f824	-0.039787427
95	0x3bcc1ffc	0.006229399
96	0x3d15a8d1	0.03653795
97	0x3da14346	0.078741595
98	0xbcf9114b	-0.030403754
99	0xbc7c78eb	-0.015409688
100	0x3c9c7f1c	0.01910358
101	0x3df3ffb0	0.11914003
102	0xbdcf6911	-0.10127462
103	0x3d1709d3	0.036874603
104	0xbcb02d38	-0.021505937
105	0xbdd5921b	-0.10428258
106	0x3e78738c	0.24262828
107	0x3d9b33c1	0.07578231
108	0x3da0c4e6	0.078500554
109	0x3daf60ce	0.08563386
110	0x3d6c40d4	0.057679012
111	0xbd8fac03	-0.070152305
112	0x3dc4ef32	0.096159354
113	0xbd22daca	-0.039759435
114	0xbd39ef7a	-0.0453944
115	0x3c21773f	0.009855091
116	0x3db6ed66	0.08931999
117	0x3e0996dc	0.13436455
118	0xbcfba13a	-0.030716527
119	0xbd8e7c9b	-0.0695736
120	0xbd661757	-0.056174602
121	0x3da237b2	0.07920779
122	0xbca9115e	-0.020638164
123	0x3d75cad5	0.06000789
124	0xbcd5e553	-0.026110327
125	0x3d8713a3	0.06595542
126	0x3bf27898	0.00739963
127	0x3e2dbca0	0.16966486
128	0x3e3fb3ab	0.18720882
129	0xbe3da06a	-0.18518224
130	0x3d3649f8	0.044504136
131	0x3b909be2	0.004413114
132	0x3dd24edc	0.102689475
133	0x3df2944f	0.11844694
134	0xbe156453	-0.14589052
135	0xbdbc6fb8	-0.09200996
136	0x3e3b405d	0.18286271
137	0x3ae91497	0.0017782626
138	0x3d41c452	0.047306366
139	0xbd031b93	-0.03200872
140	0x3e030dcb	0.1279823
141	0xbde55f6f	-0.11199843
142	0xbd998cb0	-0.07497537
143	0x3e1a4cd8	0.15068376
144	0xbdbee425	-0.09320859
145	0xbdd4b738	-0.10386509
146	0x3d4d3eda	0.050108768
147	0x3d8133db	0.06308719
148	0x3de34181	0.11096478
149	0xbdcf684e	-0.101273164
150	0x3d97f940	0.074205875
151	0xbdbfb028	-0.09359771
152	0x3e931174	0.28724253
153	0xbddbeea8	-0.107388794
154	0x3cf19a65	0.029492566
155	0xbdb8626a	-0.09003146
156	0x3da8380e	0.082138166
157	0xbdb312b1	-0.087437995
158	0xbc910bfb	-0.017705908
159	0xbb0198ca	-0.0019774907
160	0x3cfb0d40	0.030645967
161	0x3d61a6aa	0.055090584
162	0xbbf75749	-0.007548247
163	0x3d890093	0.06689563
164	0x3d58ea2c	0.0529577
165	0xbba0402e	-0.0048904633
166	0xbd9ac816	-0.075576946
167	0x3db8ed19	0.09029598
168	0xbd8fde7e	-0.07024859
169	0x3d8ae46c	0.06781849
170	0xbd8b9c44	-0.06816915
171	0xbe9e31df	-0.30897424
172	0xbdbb0e2a	-0.09133561
173	0xbd42309d	-0.047409642
174	0xbe2b37de	-0.1672053
175	0xbe1bb883	-0.15207104
176	0x3d9e8805	0.077407874
177	0xbddbab56	-0.10726039
178	0xbd121c4d	-0.03567152
179	0x3b885047	0.0041599604
180	0xbdfdf4de	-0.1240022
181	0x3e1d8ab3	0.15384941
182	0x3dd25286	0.10269646
183	0xbdd84493	-0.105599545
184	0x3ba007f7	0.004883762
185	0x3cac5897	0.021038337
186	0x3caa4bb6	0.020788055
187	0xbdc95b91	-0.09831918
188	0x3da8bff9	0.08239741
189	0x3dec1c0e	0.115287885
190	0x3d2a8caa	0.041638054
191	0xbdf817eb	-0.12113937
192	0xbdcb3291	-0.09921754
193	0x3d41f627	0.04735389
194	0xbe8c7995	-0.2743651
195	0xbda6a7a3	-0.08137443
196	0xbd227ef4	-0.039671853
197	0xbdf30cdd	-0.11867688
198	0x3e1feb9d	0.15617223
199	0xbcc7e02e	-0.02439889
200	0x3d7ba758	0.06143889
201	0x3b136ba9	0.002249459
202	0x3e803daa	0.25047046
203	0x3d36da9a	0.04464207
204	0x3db1733d	0.08664558
205	0xbc1a18ad	-0.009405297
206	0xbdb6460e	-0.089000806
207	0x3d203bd0	0.03911954
208	0x3cb97323	0.02263791
209	0xbd80e988	-0.062945426
210	0xbcc294c3	-0.023752576
211	0x3de95523	0.11393192
212	0xbe01addb	-0.12663977
213	0xbdef2507	-0.11676984
214	0x3dee5e76	0.11639111
215	0xbd39f7ad	-0.045402218
216	0xbe23e881	-0.16006662
217	0xbdc053c7	-0.09390979
218	0xbcf53a8f	-0.02993515
219	0xbda5d52b	-0.08097299
220	0x3db43e2f	0.08800923
221	0xbcd2c111	-0.025726827
222	0x3e067df3	0.13133983
223	0x3bf56721	0.0074891006
224	0x3d7a16d1	0.061056916
225	0xbd10dbf8	-0.03536603
226	0x3e820b44	0.2539922
227	0xbbddda73	-0.006770426
228	0x3be6fe20	0.007049337
229	0x3df97231	0.121799834
230	0x3d9de68b	0.07709988
231	0x3d9e9f94	0.07745281
232	0x3ed0ad6e	0.40757316
233	0xbdddea47	-0.108357005
234	0xbe67a470	-0.22621322
235	0xbd904211	-0.07043851
236	0xbdd261a6	-0.10272531
237	0x3d53a5ac	0.05167167
238	0xbd8dc9ec	-0.06923279
239	0xbe0bc4f7	-0.13649355
240	0x3d203645	0.039114255
241	0xbe7ab8dd	-0.24484582
242	0x3dc01bb4	0.09380284
243	0x39c752da	0.00038017967
244	0x3d1cd367	0.038287546
245	0xbdcb3c90	-0.09923661
246	0x3e334bad	0.17509337
247	0xbb810685	-0.0039375448
248	0x3de7a657	0.11311024
249	0xbb64918f	-0.0034876799
250	0x3dde40b5	0.10852186
251	0xbd4eec70	-0.050518453
252	0x3c50078a	0.01269711
253	0xbcb4078a	-0.021976251
254	0x3cdef9b7	0.027218683
255	0x3e50ff2b	0.20409839

linear_relu_stack.4.bias f4 [7]
0	0xbc02deb7	-0.00798767
1	0x3d89e34f	0.06732809
2	0xbb1e444c	-0.0024149595
3	0x3dc2eda5	0.09517983
4	0x3ccdde30	0.025130361
5	0xbe1366b1	-0.14394642
6	0x3cd90e86	0.026496183
