VehicalStateperML_RNN_epochs_5000_BS:64.pth (torch, 15644 bytes, 12 tensors)

linear_in.weight f4 [32, 6]
-0.0010630414 0.0014167844 0.006370091 -0.00033760082 -0.0009917323 -0.010761591 0.009140823 0.010349875
-0.009476092 -0.0004064562 0.018129727 -0.011073096 0.00960749 0.010738799 -0.005406657 -0.00085860287
-0.01286013 0.0032119881 0.0028497155 -0.012567853 -0.0052962545 0.007586578 -0.002060084 0.0054548862
0.008584249 0.0021054153 -0.006104904 0.0020238154 0.0077704033 -0.0112664895 -0.004909639 0.005292856
-0.010302889 0.0020925768 -0.021896552 -0.003008186 0.008916567 -0.00066980225 0.001836404 0.0095835645
0.0022405742 -0.012460574 0.011536257 -0.015047739 0.006680693 0.02914082 -0.0038442796 -0.0030149703
0.017930409 0.0037794837 0.001123454 -0.009068514 -0.004331285 0.0031601717 -0.000900879 -0.002088073
0.010564948 0.0030659768 0.0034113007 0.0037131992 -0.00087259884 -0.0055624223 -0.0047566844 -0.006457433
-0.019125741 -0.012147276 0.001806676 -0.006922486 -0.0014200697 -0.008315748 -0.010749242 0.0031500582
-0.004123623 0.004568584 -0.009451919 0.009268814 0.0073795374 0.008226978 -0.0090319365 0.017537832
0.01143374 0.0007478205 -0.011735079 0.015700113 0.0068253963 -0.0006755945 -0.001585182 0.00038048366
-0.011642222 -0.004057735 0.0032813936 -0.015473132 -0.01281084 -0.007013694 0.006972202 -0.0036076526
0.0063517946 0.00028413362 -0.005075963 -0.009656464 -0.0026954582 0.011573911 -0.0040258374 0.00161006
0.01171423 -0.018839149 0.007279241 -0.0010649989 0.013513916 0.003880273 -0.0004598595 0.01319317
-0.023494713 0.0072082314 0.011153794 -0.006782404 0.0075337165 0.011334312 0.0028068742 -0.005184023
0.0034828638 -0.00322959 0.00391659 0.0034411945 0.016082477 -0.0012482111 -0.006495739 -0.0083837295
0.0014567073 -0.0038953398 -0.002156347 0.01293146 -0.013639988 0.008902689 0.008191163 -0.0051594917
-0.007995514 -0.0038690208 -0.0019680995 -0.0080737015 -0.015353691 -0.012674588 0.004985555 0.003819545
-0.01590405 -0.0040309895 0.018132461 -0.01687624 -0.017172579 -0.008204449 0.004413348 0.010906296
-0.002856902 0.000119814096 0.021565255 0.013877904 0.0031801844 -0.010353363 -0.00011613054 0.0148030585
0.0035758722 0.013627148 -0.0018691572 0.022436842 0.008925185 0.015202078 -0.0023388746 -0.008308653
0.0038271127 -0.0035488808 -0.009815829 -0.00020046333 -0.008848613 -0.020067256 -0.0015459883 0.021257553
0.00862346 0.016249685 -0.01305525 -0.008185936 -0.009671194 -0.0007531665 -0.00018267566 0.006110509
0.002418186 0.019406267 -0.0033681504 -0.0022764276 -0.0005352873 -0.0042325933 0.01240722 -0.006182264
00000000: c055 8bba 65b3 b93a 32bc d03b 0400 b1b9
00000010: 04fd 81ba 6251 30bc 64c3 153c 8692 293c
00000020: 9c41 1bbc a119 d5b9 cb84 943c ee6b 35bc
00000030: bc68 1d3c caf1 2f3c 532a b1bb dd13 61ba
00000040: 4bb3 52bc 3880 523b 4bc2 3a3b 65e9 4dbc
00000050: 348c adbb d498 f83b 7902 07bb e7be b23b
00000060: f3a4 0c3c 02fb 093b a60b c8bb fda1 043b
00000070: de9e fe3b 1597 38bc 09e1 a0bb b26f ad3b
00000080: 73cd 28bc 9d23 093b 6660 b3bc fc24 45bb
00000090: cb16 123c ab95 2fba 7eb3 f03a 6204 1d3c
000000a0: 99d6 123b 6f27 4cbc 9202 3d3c cb8a 76bc
000000b0: b7e9 da3b bbb8 ee3c 4ff0 7bbb cf96 45bb
000000c0: cbe2 923c 37b1 773b dc40 933a 1b94 14bc
000000d0: 74ed 8dbb e21a 4f3b f728 6cba 0dd8 08bb
000000e0: 9b18 2d3c 8eee 483b 2190 5f3b 2559 733b
000000f0: 1ebf 64ba fb44 b6bb f6dd 9bbb e098 d3bb
00000100: 96ad 9cbc 5e05 47bc fdcd ec3a 05d6 e2bb
00000110: a221 baba c63e 08bc 971d 30bc 3571 4e3b
00000120: 751f 87bb 0fb4 953b 39dc 1abc 39dc 173c
00000130: 0cd0 f13b 72ca 063c b0fa 13bc 80ab 8f3c
00000140: 9554 3b3c 6209 443a 7d44 40bc 869d 803c
00000150: 93a7 df3b 611a 31ba e2c5 cfba a77b c739
00000160: 05bf 3ebc c0f6 84bb a60c 573b 0583 7dbc
00000170: 8fe4 51bc 21d3 e5bb 1277 e43b 5e6e 6cbb
00000180: b722 d03b c5f7 9439 4454 a6bb 2536 1ebc
00000190: 49a6 30bb 80a0 3d3c 2ceb 83bb a608 d33a
000001a0: 0bed 3f3c 8f54 9abc b386 ee3b 6f97 8bba
000001b0: 7969 5d3c 2e4c 7e3b 4c19 f1b9 2a28 583c
000001c0: fc77 c0bc 0733 ec3b 67be 363c ee3e debb
000001d0: 65dd f63b 8db3 393c 89f3 373b bdde a9bb
000001e0: c240 643b 87a7 53bb bd56 803b aa85 613b
000001f0: 66bf 833c 049b a3ba 35da d4bb e95b 09bc
00000200: fcee be3a f548 7fbb 8051 0dbb 79de 533c
00000210: 427a 5fbc 96dc 113c 3a34 063c f410 a9bb
00000220: 9eff 02bc 668f 7dbb 3bfb 00bb 8f47 04bc
00000230: 0c8e 7bbc 13a9 4fbc de5d a33b 5551 7a3b
00000240: 3649 82bc 6416 84bb 878a 943c 0a40 8abc
00000250: 82ad 8cbc f46b 06bc d99d 903b 52b0 323c
00000260: dd3a 3bbb b444 fb38 9ea9 b03c 2660 633c
00000270: a46a 503b 27a1 29bc 1c8b f3b8 8788 723c
00000280: 2e59 6a3b 6744 5f3c 82fe f4ba 78cd b73c
00000290: f03a 123c 2312 793c ce47 19bb 0421 08bc
000002a0: 4cd0 7a3b 5794 68bb 92d2 20bc 7733 52b9
000002b0: c6f9 10bc 1664 a4bc c2a2 caba 5224 ae3c
000002c0: 6a49 0d3c 0f1e 853c b0e5 55bc 4e1e 06bc
000002d0: ed73 1ebc 2670 45ba a08c 3fb9 aa3a c83b
000002e0: 6e7a 1e3b e4f9 9e3c 30bc 5cbb 1e30 15bb
000002f0: 8652 0cba 91b1 8abb a747 4b3c 9794 cabb

linear_in.bias f4 [32]
0.0 0.0 0.0 0.0 0.0 0.0 0.0 0.0
0.0 0.0 0.0 0.0 0.0 0.0 0.0 0.0
0.0 0.0 0.0 0.0 0.0 0.0 0.0 0.0
0.0 0.0 0.0 0.0 0.0 0.0 0.0 0.0
00000000: 0000 0000 0000 0000 0000 0000 0000 0000
00000010: 0000 0000 0000 0000 0000 0000 0000 0000
00000020: 0000 0000 0000 0000 0000 0000 0000 0000
00000030: 0000 0000 0000 0000 0000 0000 0000 0000
00000040: 0000 0000 0000 0000 0000 0000 0000 0000
00000050: 0000 0000 0000 0000 0000 0000 0000 0000
00000060: 0000 0000 0000 0000 0000 0000 0000 0000
00000070: 0000 0000 0000 0000 0000 0000 0000 0000

linear_32.weight f4 [32, 32]
-0.00671561 0.029471898 -0.0146281645 -0.005037852 -0.012360059 0.02932691 0.0062997346 -0.0046526743
0.0624966 -0.0054614493 0.7782381 -0.1938605 0.0033134336 0.0016646646 0.0129283145 -0.6454631
0.43176115 -0.009647956 -0.041123927 -0.9135125 0.021706695 0.0035933885 0.007960854 0.008609495
7.0308024e-06 0.60743564 -0.001079151 -0.9676959 -0.01798154 0.0073788855 0.024730895 -0.9853877
-0.024836278 -0.041438937 0.23573674 0.21161623 0.23635791 0.4457948 0.2679347 -0.13040762
-0.042721044 -0.3680799 -0.04724218 -0.05809042 -0.15816288 -0.011143932 -0.433265 -0.058218602
0.11305691 0.1183838 0.01030583 0.010939306 -0.013897734 -0.6099038 0.15005814 -0.4137556
-0.1999514 -0.19188327 -0.009178352 0.17095563 0.1252099 -0.16109131 0.011982091 0.19893092
0.008910443 0.013534662 -0.023656188 -0.008125965 0.087728135 0.014515432 0.0037337698 -0.10358469
0.056583494 0.011046372 -0.61262673 -1.318087 -0.011283806 -0.009149379 -0.022886315 -0.087050736
-0.9768954 0.0011977489 -0.15528604 0.5804967 0.012451149 -0.018275978 0.009078776 -0.013646612
-0.022253847 -0.3435203 -0.003243979 0.20152192 -0.012150504 0.009033754 -1.7066785 0.5306271
0.00541061 0.0008186991 -0.00941663 0.0020786172 -0.019614749 -0.0037223096 0.0112835625 0.0100850295
0.1552295 -0.009857231 1.1640034 2.48872 -0.0043608258 -0.00074425124 -0.006874663 -0.26568347
1.7199115 0.006228201 0.29415613 -0.9973268 0.0075990553 0.0055366224 0.010515649 0.008730832
-0.0147150075 0.76096797 -0.0015916943 -0.5208566 -0.040072292 0.010077024 2.407216 -0.938032
-0.0076920893 0.020066751 -0.040375814 0.0322442 0.09765754 0.014206264 0.01896625 0.1966294
0.2635006 -0.025094759 -0.47663632 -0.101420045 -0.039243918 0.018413486 -0.047453985 -0.20586045
-0.2870143 0.024469187 -0.5654323 0.0619346 0.027967473 0.00637685 0.03081191 0.014448985
-0.026000824 -0.42220953 0.0231659 0.6339978 -0.021189354 0.018868944 -0.1156603 0.07500809
0.021792773 -0.036132134 0.08467247 -0.022442702 -0.18107294 -0.017549023 -0.036308777 -0.4267922
-0.391092 0.040626228 -0.23592515 -1.1998615 -0.021374907 0.0015261403 -0.001166687 -0.23665005
0.007538401 -0.040469162 0.05821849 -2.6484659 0.0024391112 -0.029433625 0.00018114946 -0.00011144444
-0.0077063674 -0.3185696 -0.019777225 0.18074384 -0.002505292 0.0016285283 0.05984447 -1.9558222
0.007394658 -0.012094479 -0.026432468 -0.0048673335 0.020847363 -0.011933398 -0.0008483639 0.0022088864
0.041532494 -0.0025031576 0.7390808 -0.28549328 0.016907757 0.0061592874 0.0083893575 -0.6217099
0.11630374 -0.012221161 -0.069865525 -0.31464872 0.022979964 0.0026351037 -0.0017815109 0.014629462
0.0026002598 0.6482973 -0.009316119 -1.0960933 -0.0759631 0.005125069 -0.23783429 -0.36841422
-0.028799796 -0.0073067914 0.039984185 -0.0034970033 -0.10315587 -0.010782634 -0.020170474 -0.14917885
-0.24095239 -0.011926259 0.31018642 -1.6568762 -0.0021102435 0.004342479 0.012954827 -0.60660833
-0.77636147 0.006065612 0.16111702 -1.8655018 0.0149001395 0.0032426843 0.015292413 -0.014188204
0.0034271409 0.17062981 -0.007997466 -0.6286785 -0.062744394 0.008917517 -0.4187656 -1.7010119
00000000: 9f0e dcbb 0d6f f13c f8aa 6fbc 9114 a5bb
00000010: d881 4abc fd3e f03c 016e ce3b 7675 98bb
00000020: 6ffc 7f3d f5f5 b2bb 9d3a 473f 5e83 46be
00000030: 3126 593b e030 da3a 48d1 533c 123d 25bf
00000040: cc0f dd3e 7612 1ebc 9071 28bd f5db 69bf
00000050: 3dd2 b13c 0e7f 6b3b 3e6e 023c d70e 0d3c
00000060: 22ea eb36 e780 1b3f 4d72 8dba ebba 77bf
00000070: 064e 93bc 94ca f13b 7298 ca3c 5e42 7cbf
00000080: 7375 cbbc e0bb 29bd f964 713e edb1 583e
00000090: cf07 723e 373f e43e bd2e 893e 9389 05be
000000a0: 43fc 2ebd f874 bcbe 0481 41bd 38f0 6dbd
000000b0: 73f5 21be 0a95 36bc e9d4 ddbe a176 6ebd
000000c0: 628a e73d 3573 f23d c9d9 283c c63a 333c
000000d0: 52b3 63bc a822 1cbf d7a8 193e c6d7 d3be
000000e0: 0fc0 4cbe 0c7d 44be cc60 16bc fe0e 2f3e
000000f0: 0637 003e 1ff5 24be 8850 443c 8cb4 4b3e
00000100: 1bfd 113c 7dc0 5d3c 9fca c1bc c422 05bc
00000110: cfaa b33d 22d2 6d3c 43b2 743b 3624 d4bd
00000120: 18c4 673d d8fb 343c 1bd5 1cbf 13b7 a8bf
00000130: b6df 38bc 47e7 15bc 157c bbbc a847 b2bd
00000140: d115 7abf c9fd 9c3a 4e03 1fbe 6f9b 143f
00000150: e7ff 4b3c 81b7 95bc 26bf 143c 0a96 5fbc
00000160: b34d b6bc e5e1 afbe f098 54bb c35b 4e3e
00000170: e812 47bc 4f02 143c 7174 dabf 2dd7 073f
00000180: 7d4b b13b f79d 563a 3548 1abc 6939 083b
00000190: 1caf a0bc fef1 73bb b1de 383c ae3b 253c
000001a0: 7bf4 1e3e 3980 21bc 10fe 943f 3047 1f40
000001b0: 42e5 8ebb db19 43ba da44 e1bb aa07 88be
000001c0: 0f26 dc3f f015 cc3b a29b 963e cf50 7fbf
000001d0: 7f01 f93b 8e6c b53b d449 2c3c c30b 0f3c
000001e0: 3717 71bc ccce 423f 66a0 d0ba dc56 05bf
000001f0: d822 24bd 1a1a 253c d40f 1a40 dd22 70bf
00000200: ec0d fcbb 0763 a43c 1c61 25bd 7f12 043d
00000210: ad00 c83d 64c1 683c 1c5f 9b3c 3859 493e
00000220: 8de9 863e 8693 cdbc ad09 f4be 50b5 cfbd
00000230: 3bbe 20bd e1d7 963c 1c5f 42bd 15cd 52be
00000240: 8af3 92be 9b73 c83c 2cc0 10bf 23af 7d3d
00000250: 0b1c e53c e5f4 d03b 4269 fc3c 70bb 6c3c
00000260: aeff d4bc d92b d8be 6ac6 bd3c ae4d 223f
00000270: 4c95 adbc 0b93 9a3c 4fdf ecbd d79d 993d
00000280: c286 b23c 4aff 13bd c368 ad3d c2d9 b7bc
00000290: 2f6b 39be f8c2 8fbc 83b8 14bd 8284 dabe
000002a0: 363d c8be b067 263d 5d96 71be 1095 99bf
000002b0: 6e1a afbc c508 c83a 85eb 98ba 6454 72be
000002c0: b104 f73b fec2 25bd 8376 6e3d 7780 29c0
000002d0: 7fd9 1f3b c91e f1bc f0f2 3d39 47b7 e9b8
000002e0: b285 fcbb 8e1b a3be d903 a2bc ea14 393e
000002f0: d32f 24bb 5874 d53a 7a1f 753d 6258 fabf
00000300: e34e f23b ec27 46bc e788 d8bc 277e 9fbb
00000310: 17c8 aa3c 4d84 43bc bd64 5eba f7c2 103b
00000320: fa1d 2a3d 040c 24bb 6634 3d3f 2d2c 92be
00000330: 2382 8a3c d9d3 c93b 8473 093c 6128 1fbf
00000340: a830 ee3d 443b 48bc a815 8fbd a319 a1be
00000350: 7a40 bc3c b4b1 2c3b 9681 e9ba 69b0 6f3c
00000360: 1f69 2a3b d0f6 253f a3a2 18bc c94c 8cbf
00000370: 8b92 9bbd 32f0 a73b d58a 73be caa0 bcbe
00000380: 8ded ebbc cf6d efbb 75c6 233d fb2d 65bb
00000390: 6343 d3bd a5a9 30bc 8d3c a5bc 57c2 18be
000003a0: 39bc 76be 5b66 43bc c1d0 9e3e 8514 d4bf
000003b0: 034c 0abb 5b4b 8e3b 7c40 543c af4a 1bbf
000003c0: a0bf 46bf 0bc2 c63b dcfb 243e c3c8 eebf
000003d0: b71f 743c 3783 543b 078d 7a3c a475 68bc
000003e0: e299 603b 95b9 2e3e ce07 03bc 13f1 20bf
000003f0: 2280 80bd c71a 123c 7268 d6be c2ba d9bf

linear_32.bias f4 [32]
-0.085827455 -0.68876237 0.104312755 -0.16348514 0.29131147 0.06291784 -0.13991351 -0.049588177
0.2323229 0.3373061 0.3654816 0.35612634 0.24841657 0.26729122 0.30065686 0.31255823
0.20954855 -0.09893063 -0.17296235 0.069890715 0.1346652 0.38234156 0.052591313 0.3183151
-0.18358175 0.1407118 0.30284208 0.060892917 -0.1075238 -0.7391897 -0.05970406 -0.012049666
00000000: 4ec6 afbd bb52 30bf eda1 d53d a668 27be
00000010: c726 953e 12db 803d 7d45 0fbe f91c 4bbd
00000020: 0ee6 6d3e 63b3 ac3e 6720 bb3e 3156 b63e
00000030: ea60 7e3e 65da 883e b2ef 993e a207 a03e
00000040: e593 563e 249c cabd 0b1d 31be dd22 8f3d
00000050: ade5 093e 46c2 c33e fd69 573d 32fa a23e
00000060: dbfc 3bbe c116 103e 1e0e 9b3e da6a 793d
00000070: 7035 dcbd 893b 3dbf 3f8c 74bd f66b 45bc

rnn.weight_ih_l0 f4 [32, 6]
0.09468978 0.751492 0.3084782 0.5913898 -0.12514736 -0.16317075 -0.6656583 -1.2945942
-0.008372083 -1.257153 -0.5633646 -0.6230138 0.29730117 1.5713193 0.1509799 0.6145057
-0.07957615 -0.14308786 0.19003744 -1.4430572 0.655468 -0.27081245 0.16424786 0.16920988
-3.8066049 -1.157864 -0.12737837 -0.75434333 -2.6640325 -2.5828612 -0.32141817 -0.6525483
-0.08679803 0.1739306 -0.17802097 -0.17372353 -1.1100551 1.0184013 0.18440123 -0.21200411
-1.6073742 -1.7308403 1.182092 -0.23696014 0.4865461 0.2079931 1.341339 1.4229136
-1.7618114 1.3452189 -0.6241238 -0.38593522 -1.942282 -1.9299881 -0.29131162 -1.2634968
-0.26400533 -0.86952263 -0.20020038 -0.1814389 0.86971104 0.15653045 -0.018690255 -0.051004425
0.56990796 0.48019728 7.2899246 0.056449924 0.24844925 -0.14163864 1.9371266 1.7434555
-0.22428893 -1.4093162 -0.45483443 -0.38728914 -0.16319929 -0.1933875 0.41764468 1.2187729
-0.0025112114 0.7033574 0.40125743 0.4446698 1.4733771 0.9479139 0.45851073 0.8998682
1.3091267 1.0948403 0.9510479 -0.43177497 0.1974319 0.13610119 0.7391174 0.6776149
-2.000931 -0.024021845 -0.08894929 -2.675494 0.6403633 0.6853375 -0.3780319 0.8866873
0.94633985 0.41497052 0.053439837 -0.080197886 -0.24482056 -0.32942933 0.033227295 0.049563117
0.23712479 0.24525233 -0.17231964 0.05263002 -0.7903887 -0.043969538 0.2356264 0.27331454
0.7065281 1.0279078 0.21176875 0.37566963 0.25953203 0.21916369 -0.10808524 -1.3457726
0.6290494 -0.7767254 -0.096685566 -0.12853014 0.66021115 1.2942939 0.43444392 0.98700005
0.6179636 0.6965844 -0.51264054 -1.4664068 -0.13809186 -0.6897966 -0.36511958 -0.3716759
0.22204298 -1.3234822 -0.21589698 -0.10969553 0.23212579 0.2649532 0.52901244 0.7139488
0.013116851 0.030205544 -0.13549139 -0.35032213 -0.46619752 0.17282067 2.6396356 -0.11530035
-1.0220424 -1.0602932 0.7285669 -0.23409754 0.017563656 0.0024327599 0.33365294 0.41145694
1.9349324 0.60763365 -0.12503491 0.6227803 2.2238312 2.2154503 0.96553403 -0.8290169
-0.38987252 -0.52268225 1.5403663 1.5924352 -7.069019 0.2639439 -0.096046776 -1.7085793
0.86399245 0.8966238 -0.57785416 -0.0491618 1.0272253 0.04718817 0.046998564 0.07677566
00000000: b7ec c13d c861 403f dbf0 9d3e 5265 173f
00000010: a126 00be 3c16 27be 9568 2abf 43b5 a5bf
00000020: 102b 09bc 64ea a0bf aa38 10bf d57d 1fbf
00000030: dc37 983e fe20 c93f 7a9a 1a3e 3f50 1d3f
00000040: d2f8 a2bd a085 12be 2d99 423e 19b6 b8bf
00000050: c0cc 273f eea7 8abe 9730 283e 5b45 2d3e
00000060: 6a9f 73c0 e334 94bf 7a6f 02be a51c 41bf
00000070: 827f 2ac0 994d 25c0 ec90 a4be 680d 27bf
00000080: 2ac3 b1bd dd1a 323e 214b 36be 95e4 31be
00000090: 4916 8ebf f95a 823f add3 3c3e 9b17 59be
000000a0: 70be cdbf 2d8c ddbf ca4e 973f aea5 72be
000000b0: 921c f93e 25fc 543e ffb0 ab3f 0822 b63f
000000c0: 0983 e1bf 2230 ac3f 94c6 1fbf 4d99 c5be
000000d0: b29c f8bf da09 f7bf cc26 95be 43ba a1bf
000000e0: b52b 87be 0999 5ebf 5401 4dbe 1ecb 39be
000000f0: 62a5 5e3f 8549 203e 4e1c 99bc 04ea 50bd
00000100: 7de5 113f 6bdc f53e 1047 e940 0938 673d
00000110: 7b69 7e3e b809 11be c4f3 f73f 8d29 df3f
00000120: ffab 65be 7964 b4bf 0fe0 e8be c34a c6be
00000130: b71d 27be 5f07 46be 86d5 d53e c000 9c3f
00000140: 2393 24bb 3b0f 343f 9d71 cd3e c3ab e33e
00000150: 9f97 bc3f 7caa 723f ebc1 ea3e c35d 663f
00000160: 7791 a73f ba23 8c3f e077 733f 9c11 ddbe
00000170: 972b 4a3e 1c5e 0b3e cc36 3d3f 2c78 2d3f
00000180: 410f 00c0 76c9 c4bc 0c2b b6bd 4b3b 2bc0
00000190: d9ee 233f 4772 2f3f 668d c1be f0fd 623f
000001a0: 5443 723f 0477 d43e bbe3 5a3d ca3e a4bd
000001b0: 3eb2 7abe f6aa a8be 5819 083d b202 4b3d
000001c0: d7d0 723e 6d23 7b3e 8f74 30be 9392 573d
000001d0: ea56 4abf 6719 34bd 0c48 713e e2ef 8b3e
000001e0: 07df 343f 7c92 833f e8d9 583e c557 c03e
000001f0: 62e1 843e 726c 603e cb5b ddbd 4742 acbf
00000200: 6209 213f 7ad7 46bf 1503 c6bd 689d 03be
00000210: 9903 293f 6cab a53f 6f6f de3e 09ac 7c3f
00000220: dd32 1e3f 5b53 323f 693c 03bf 38b3 bbbf
00000230: f467 0dbe 8396 30bf f4f0 babe 4e4c bebe
00000240: 3c5f 633e dd67 a9bf 1914 5dbe 0da8 e0bd
00000250: 62b2 6d3e f2a7 873e 5c6d 073f 59c5 363f
00000260: 10e8 563c 9e71 f73c 41be 0abe 6c5d b3be
00000270: 71b1 eebe e7f7 303e caef 2840 9722 ecbd
00000280: 49d2 82bf b0b7 87bf 5c83 3a3f 44b7 6fbe
00000290: a8e1 8f3c f06e 1f3b 8fd4 aa3e 7caa d23e
000002a0: ddab f73f e18d 1b3f 2709 00be 886e 1f3f
000002b0: 4053 0e40 f0c9 0d40 3d2d 773f 743a 54bf
000002c0: 5f9d c7be 81ce 05bf b92a c53f ebd4 cb3f
000002d0: 6735 e2c0 a823 873e 2cb4 c4bd bab2 dabf
000002e0: 9c2e 5d3f 2389 653f 40ee 13bf e25d 49bd
000002f0: 1e7c 833f 6248 413d 9181 403d 8f3c 9d3d

rnn.weight_hh_l0 f4 [32, 32]
-0.022591822 -0.5824662 0.35043368 -0.12748198 -0.047478676 -0.44096613 0.25999933 0.060978375
0.80846816 -0.37609962 0.14256077 0.17980328 -0.21867491 0.48577246 0.15765364 -0.5077409
0.17682907 0.16819847 -0.32538265 -0.11035454 0.46630374 -0.3305048 0.28953305 -0.14178465
-0.35006994 0.13283513 0.32428244 0.60615003 0.13777868 -0.30325553 0.53644204 -0.13031922
0.075822964 0.9203128 -0.2555351 -0.10582487 -0.35114825 0.39428875 0.004830316 0.19875866
-0.2540992 0.23988217 -0.22132935 -0.34069178 0.0939208 -0.57833916 -0.29264638 0.064341374
-0.067154035 -0.035605147 -0.5727357 -0.0634903 0.028122103 0.18456216 0.029726848 0.06814183
0.47069508 0.008802655 0.26085716 -0.98171514 0.33770368 0.2693706 -0.12399182 -0.07657887
0.21933752 -0.1710036 0.2737716 -0.5228596 -0.13664463 -0.06808336 -0.039098486 -0.056029055
0.31523103 -0.26331437 0.026691958 0.24223867 -0.18109517 0.14274898 0.7210864 0.16299
-0.058952346 -0.090019934 0.1970404 -0.31167555 0.21377355 -0.27745125 0.14647599 -0.15572295
-0.73722446 -0.17546462 0.18568505 0.3800017 0.0861091 -0.2896339 -0.43056256 -0.04546184
-0.23059995 0.086193234 -0.2609503 0.15162389 -0.70893276 -0.06906488 0.16027145 -0.017656952
-0.5215822 0.451385 0.009466709 -0.31971404 0.22476634 0.02323955 -0.71466935 0.1208613
0.013673001 0.03974611 -0.4206252 0.23245671 -0.26240823 0.44917005 -0.28102964 0.38242126
0.3696428 0.4817366 -0.23599839 -0.50368595 0.04885851 -0.15789527 0.22380507 0.078544594
-0.13664623 -0.1948382 0.31599265 -0.1826752 -0.8494847 0.10592533 -0.2040827 0.12396662
0.21916097 -0.26935434 0.28356418 -0.48537984 -0.36092848 0.17929141 -0.15196732 -0.35702735
0.19777231 0.024517806 -0.40805876 0.13811854 0.18649119 -0.3116382 0.20217185 -0.4314905
-0.092480086 -0.9632601 0.0011563147 0.20318688 -0.40362 -0.011983403 -0.32091895 -0.20487088
-0.53138 0.43989667 -0.69720817 0.48864695 -0.3224755 -0.3009864 -0.84278 0.23568483
-0.19347376 0.4492891 1.1654915 -0.8770288 0.49617723 -0.63500917 -0.4389633 -0.8241694
-1.8363376 -3.2186744 -0.50294536 1.8958825 0.018789776 0.44160154 -0.37887827 0.46463344
0.5765369 0.7474632 -0.9185475 -0.57781976 0.9083699 0.66531414 1.2044535 -1.8683013
0.58313626 -0.5896508 0.5053692 -0.6933875 -0.19915752 -0.4004813 -0.6579917 -0.4609399
-0.84012645 -0.5615852 -1.0827695 0.091213636 -0.48665804 0.44095367 0.28092775 0.46245712
-1.0335351 0.26195085 0.6497666 -0.085057385 0.7013959 -0.62415165 0.6800963 -0.47162408
-0.4886013 0.83430374 0.45330828 -0.09267098 -0.40605012 -1.1852374 -0.55719566 0.025952896
-0.3444964 0.1740534 0.062716365 -0.0035314942 0.15338437 0.19899012 0.29975748 -0.98790395
0.8859029 0.07527531 0.6370681 0.048587333 0.021864267 0.18184821 -0.063239686 -0.12297201
0.0752029 -0.0566389 -0.54288656 0.76479346 0.045220345 0.014549746 -0.36569855 0.074652396
0.2904423 -0.36320856 -0.36332968 0.13976602 0.21096042 -0.17359424 -0.0715072 0.03029995
00000000: 7c12 b9bc 811c 15bf 0b6c b33e a38a 02be
00000010: 0079 42bd 50c6 e1be a21e 853e 76c4 793d
00000020: c5f7 4e3f 2190 c0be 73fb 113e 5a1e 383e
00000030: 51ec 5fbe 2bb7 f83e f56f 213e 4ffb 01bf
00000040: ae12 353e 383c 2c3e 8e98 a6be 9001 e2bd
00000050: 5dbf ee3e ed37 a9be ad3d 943e ff2f 11be
00000060: 5e3c b3be ef05 083e 5908 a63e a62c 1b3f
00000070: db15 0d3e 4f44 9bbe 4454 093f 6772 05be
00000080: 1249 9b3d 9f99 6b3f 7fd5 82be b6ba d8bd
00000090: b4c9 b3be 37e0 c93e a147 9e3b 6487 4b3e
000000a0: 4a19 82be aca3 753e 29a4 62be 276f aebe
000000b0: 8c59 c03d 090e 14bf bfd5 95be 69c5 833d
000000c0: 0e88 89bd b4d6 11bd cf9e 12bf 3407 82bd
000000d0: 5360 e63c ddfd 3c3e b885 f33c f28d 8b3d
000000e0: f2fe f03e 0339 103c 128f 853e af51 7bbf
000000f0: 7fe7 ac3e f1ea 893e 6cef fdbd 62d5 9cbd
00000100: 049a 603e 911b 2fbe cb2b 8c3e 20da 05bf
00000110: 92ec 0bbe 4a6f 8bbd bc25 20bd b97e 65bd
00000120: f665 a13e 24d1 86be 18a9 da3c 6a0d 783e
00000130: 0371 39be ca2c 123e 1e99 383f dae6 263e
00000140: 0478 71bd 5f5c b8bd f5c4 493e f093 9fbe
00000150: 74e7 5a3e 170e 8ebe cdfd 153e d675 1fbe
00000160: beba 3cbf ffac 33be 3924 3e3e 958f c23e
00000170: f859 b03d e54a 94be b272 dcbe 3236 3abd
00000180: 6522 6cbe 1486 b03d 479b 85be 4b43 1b3e
00000190: 9e7c 35bf e371 8dbd 331e 243e 50a5 90bc
000001a0: 6986 05bf ef1b e73e 411a 1b3c 8fb1 a3be
000001b0: 2629 663e de60 be3c 92f4 36bf 2186 f73d
000001c0: b904 603c d1cc 223d 305c d7be 2209 6e3e
000001d0: 5f5a 86be 9ef9 e53e 1ee3 8fbe b8cc c33e
000001e0: d241 bd3e 2ea6 f63e 90a9 71be 90f1 00bf
000001f0: dc1f 483d 4caf 21be 282d 653e fddb a03d
00000200: fdec 0bbe aa83 47be cac9 a13e 350f 3bbe
00000210: d477 59bf 61ef d83d 0efb 50be 36e2 fd3d
00000220: bc6b 603e d0e8 89be 532f 913e b583 f8be
00000230: 9ecb b8be 2b98 373e 529d 1bbe 4acc b6be
00000240: d384 4a3e 91d9 c83c 14ed d0be f26e 0d3e
00000250: 8cf7 3e3e 0b8f 9fbe 2306 4f3e 53ec dcbe
00000260: 3366 bdbd 3798 76bf 7c8f 973a 3910 503e
00000270: 48a7 cebe 0956 44bc 7d4f a4be acc9 51be
00000280: 8508 08bf 233a e13e 3c7c 32bf ef2f fa3e
00000290: 821b a5be e41a 9abe 6ec0 57bf 5d57 713e
000002a0: fc1d 46be 3909 e63e d32e 953f f684 60bf
000002b0: f10a fe3e f68f 22bf ccbf e0be c4fc 52bf
000002c0: 1c0d ebbf c3fe 4dc0 07c1 00bf 47ac f23f
000002d0: 04ed 993c 9919 e23e 55fc c1be 6fe4 ed3e
000002e0: ec97 133f c059 3f3f ee25 6bbf ffeb 13bf
000002f0: ee8a 683f 0752 2a3f 882b 9a3f 7f24 efbf
00000300: 6b48 153f 5bf3 16bf e05f 013f d881 31bf
00000310: f3ef 4bbe e30b cdbe 2572 28bf 5100 ecbe
00000320: 8712 57bf 0cc4 0fbf 3198 8abf 37ce ba3d
00000330: 3e2b f9be aec4 e13e c3d5 8f3e 2ec7 ec3e
00000340: e14a 84bf 6c1e 863e 1b57 263f 9132 aebd
00000350: af8e 333f 67c8 1fbf cb1a 2e3f b678 f1be
00000360: f329 fabe ee94 553f 0618 e83e 48ca bdbd
00000370: cde5 cfbe dcb5 97bf 60a4 0ebf 2b9b d43c
00000380: d561 b0be 0e3b 323e 7071 803d a470 67bb
00000390: cb10 1d3e 11c4 4b3e d079 993e 46e7 7cbf
000003a0: 88ca 623f f129 9a3d e516 233f 8303 473d
000003b0: b11c b33c 6b36 3a3e cf83 81bd c0d8 fbbd
000003c0: fa03 9a3d 31fe 67bd 9dfa 0abf 81c9 433f
000003d0: f838 393d 0f62 6e3c d73c bbbe 5be3 983d
000003e0: dab4 943e 79f6 b9be 5906 babe d31e 0f3e
000003f0: 0206 583e b0c2 31be 5e72 92bd 9a37 f83c

rnn.bias_ih_l0 f4 [32]
1.0760998 -0.85343045 0.39928502 -0.82606196 0.23992538 -0.94246686 0.29308286 -0.1335092
-0.053617537 -1.0216669 -0.44378978 0.03466846 -0.70173377 1.0929179 0.23934107 1.0044781
0.2675187 1.4207426 0.5441735 -0.36873233 0.030735655 -1.0300006 0.8268843 -0.64248645
-0.85366577 -0.7963709 -0.10388867 0.43149954 -0.9052834 -0.47338662 -0.50102735 0.036439817
00000000: a3bd 893f 6b7a 5abf 166f cc3e cc78 53bf
00000010: 00af 753e 8245 71bf f50e 963e a3b6 08be
00000020: 109e 5bbd fbc5 82bf 6a38 e3be 8400 0e3d
00000030: d3a4 33bf bce4 8b3f d315 753e bd92 803f
00000040: 36f8 883e e5da b53f f44e 0b3f 7cca bcbe
00000050: 57c9 fb3c 0fd7 83bf b1ae 533f fe79 24bf
00000060: d789 5abf f7de 4bbf 95c3 d4bd 82ed dc3e
00000070: a7c0 67bf bb5f f2be 5443 00bf eb41 153d

rnn.bias_hh_l0 f4 [32]
1.0760998 -0.85343045 0.39928502 -0.82606196 0.23992538 -0.94246686 0.29308286 -0.1335092
-0.053617537 -1.0216669 -0.44378978 0.03466846 -0.70173377 1.0929179 0.23934107 1.0044781
0.2675187 1.4207426 0.5441735 -0.36873233 0.030735655 -1.0300006 0.8268843 -0.64248645
-0.85366577 -0.7963709 -0.10388867 0.43149954 -0.9052834 -0.47338662 -0.50102735 0.036439817
00000000: a3bd 893f 6b7a 5abf 166f cc3e cc78 53bf
00000010: 00af 753e 8245 71bf f50e 963e a3b6 08be
00000020: 109e 5bbd fbc5 82bf 6a38 e3be 8400 0e3d
00000030: d3a4 33bf bce4 8b3f d315 753e bd92 803f
00000040: 36f8 883e e5da b53f f44e 0b3f 7cca bcbe
00000050: 57c9 fb3c 0fd7 83bf b1ae 533f fe79 24bf
00000060: d789 5abf f7de 4bbf 95c3 d4bd 82ed dc3e
00000070: a7c0 67bf bb5f f2be 5443 00bf eb41 153d

linear_out.weight f4 [6, 32]
0.00037247955 0.011223442 -0.024068674 0.008672135 0.0018359984 -0.0056621353 -0.00022154272 -0.002479648
0.019815657 0.010023448 0.012246247 0.0026756537 -0.0047790087 -0.0009782327 0.01245041 -0.0024142163
-0.00903592 -0.00085715303 -0.0011370817 0.095868774 -0.018601928 0.011533775 -0.00045021912 0.00029641917
-0.0017900524 -0.0023398313 0.004419088 0.0050957487 -0.00018439266 -0.20932938 0.0012052328 -0.0030091142
0.49265558 -0.08391147 -0.44547242 0.49972263 -0.48651338 -0.3450551 0.488891 0.438418
-0.51136535 -0.5022626 -0.49965516 -0.49456766 -0.4945671 -0.4769715 -0.46519163 -0.49357763
-0.47319266 0.49530086 0.51072955 -0.42026123 -0.43106592 -0.48889855 0.44420516 -0.48127043
0.5150317 -0.41618758 -0.5166224 -0.4207979 0.49471295 -0.035385963 0.49229547 0.42262962
-0.11793318 -0.057334322 0.016057473 -0.031011147 0.010276832 -0.5241022 -0.046848815 -0.47821936
0.27717867 0.0051751896 -0.0025967169 0.04580734 0.05527039 0.06965656 -0.049032263 0.016025122
0.040762838 0.08441612 -0.015858604 0.028755488 0.014578514 0.014339865 0.18042141 0.031412367
-0.07039175 -0.09142705 0.10137468 -0.24765898 0.006580068 0.070925966 -0.05533132 0.48808393
0.009802308 -0.01910734 -0.40369958 0.26713517 -0.0032115101 -0.018023806 -0.02027267 -0.11125464
0.21092705 0.09289864 0.11610243 0.060772162 -0.032280277 -0.0047683655 0.11508823 0.0021204054
-0.0811301 -0.045554705 -0.06412001 0.26700643 -0.22682561 0.11526273 -0.009028756 0.021193631
-0.10047797 -0.018837867 0.07701755 0.051681515 -0.015195603 -0.2740971 0.054097753 -0.02533575
0.005199784 0.13240598 -0.071841225 0.008775115 0.028134704 -0.034346595 0.0032801772 -0.00045767182
0.06684019 0.046923082 0.054096125 -0.010001082 -0.022543736 -0.0014862509 0.056891873 -0.02397453
-0.03548826 0.00079483096 0.0013724886 0.88529956 -0.06435545 0.048306137 0.0006599033 -0.007706586
0.0010231918 -0.005484375 -0.001300974 0.029062284 0.00268102 -0.23603094 0.0058716233 -0.007467251
0.00039921518 0.051331755 -0.004916695 0.0005093016 0.0022145847 -0.0025288442 0.00025388505 -1.2673897e-05
0.0046459544 0.0034256615 0.003869262 -0.000935872 -0.0016628373 -9.710268e-05 0.0041070846 -0.001851478
-0.0025033623 6.473863e-05 0.00010722036 0.06732015 -0.0044712974 0.0034468698 6.0445927e-05 -0.00061613024
8.4858504e-05 -0.00039664915 -0.00031993672 0.0021228248 0.00020814805 -0.330921 0.00044878628 -0.0004815205
00000000: 5c49 c339 87e2 373c ab2b c5bc 9215 0e3c
00000010: e2a5 f03a 6f89 b9bb ec4d 68b9 9781 22bb
00000020: 7254 a23c 6339 243c 7ca4 483c 055a 2f3b
00000030: 3b99 9cbb 0b38 80ba cefc 4b3c d437 1ebb
00000040: 650b 14bc 91b2 60ba 210a 95ba d956 c43d
00000050: 1263 98bc 29f8 3c3c 630b ecb9 b568 9b39
00000060: 31a0 eaba db57 19bb ffcd 903b 3dfa a63b
00000070: 8759 41b9 715a 56be e7f8 9d3a 8f34 45bb
00000080: 5a3d fc3e c7d9 abbd f614 e4be a5db ff3e
00000090: 4818 f9be 10ab b0be ec4f fa3e 5378 e03e
000000a0: d7e8 02bf 4894 00bf cdd2 ffbe f937 fdbe
000000b0: e637 fdbe 9c35 f4be 992d eebe 35b6 fcbe
000000c0: 4f46 f2be 1398 fd3e 2cbf 023f 7b2c d7be
000000d0: acb4 dcbe e950 fabe dc6e e33e 1469 f6be
000000e0: 1ed9 033f 8a16 d5be 5e41 04bf d372 d7be
000000f0: 044b fd3e dff0 10bd 270e fc3e e962 d83e
00000100: f386 f1bd 65d7 6abd f68a 833c 170b febc
00000110: 2860 283c 902b 06bf 8be4 3fbd 2bd9 f4be
00000120: 5dea 8d3e a394 a93b ae2d 2abb 7aa0 3b3d
00000130: 3463 623d 19a8 8e3d 0ed6 48bd 1e47 833c
00000140: eff6 263d 5ce2 ac3d e7e9 81bc a190 eb3c
00000150: b8da 6e3c c1f1 6a3c 64c0 383e 41aa 003d
00000160: 8d29 90bd 1b3e bbbd 879d cf3d 519a 7dbe
00000170: 9c9d d73b a241 913d 18a3 62bd 23e6 f93e
00000180: dc99 203c ff86 9cbc b6b1 cebe f1c5 883e
00000190: 3378 52bb a9a6 93bc df12 a6bc 79d9 e3bd
000001a0: 43fd 573e a441 be3d 1cc7 ed3d 3bec 783d
000001b0: 5338 04bd f33f 9cbb 61b3 eb3d 80f6 0a3b
000001c0: 8a27 a6bd 9297 3abd 5a51 83bd 11b5 883e
000001d0: f944 68be de0e ec3d 59ed 13bc 449e ad3c
000001e0: 65c7 cdbd df51 9abc 61bb 9d3d ffaf 533d
000001f0: faf6 78bc 7556 8cbe 9b95 5d3d eb8c cfbc
00000200: f362 aa3b 6f95 073e 7e21 93bd 80c5 0f3c
00000210: c07a e63c 04af 0cbd 3ef8 563b acf3 efb9
00000220: 82e3 883d 6b32 403d e693 5d3d 94db 23bc
00000230: a4ad b8bc 4ece c2ba 7407 693d 3c66 c4bc
00000240: 235c 11bd 345c 503a 13e5 b33a fea2 623f
00000250: cacc 83bd a8dc 453d 5cfd 2c3a 8787 fcbb
00000260: 9f1c 863a 46b6 b3bb 7285 aaba 0714 ee3c
00000270: 0db4 2f3b 18b2 71be bf66 c03b d7af f4bb
00000280: c14d d139 3f41 523d 3a1c a1bb a782 053a
00000290: 9122 113b f7ba 25bb e01b 8539 f9a1 54b7
000002a0: 173d 983b 1081 603b 7293 7d3b 4f55 75ba
000002b0: 90f3 d9ba 9ba3 cbb8 b994 863b 4bad f2ba
000002c0: 730f 24bb 4ac4 8738 7edb e038 26df 893d
000002d0: f683 92bb e1e4 613b 5287 7d38 cd83 21ba
000002e0: 10f6 b138 59f5 cfb9 2ebd a7b9 171f 0b3b
000002f0: 5142 5a39 7a6e a9be 134b eb39 9674 fcb9

linear_out.bias f4 [6]
-0.0038944297 19.242039 0.04036491 0.11292091 -0.031356484 -0.0022969942
00000000: b039 7fbb b2ef 9941 ad55 253d 1443 e73d
00000010: a86f 00bd 2b89 16bb

layer_norm.weight f4 [32]
0.002749548 -0.03715573 0.12077044 -0.0055166115 -0.42466822 -0.017452195 -0.036029723 0.399254
-0.3252719 0.0067311516 0.5548526 0.26328924 -0.010281922 0.007927888 0.011806931 0.54159254
-0.3142533 -0.025411041 -0.56905943 -0.44321978 -0.0019647256 -0.0048377695 0.0007813685 -0.0020888872
-0.0011903225 0.70499057 -0.02400098 0.78950334 0.06949055 0.007467593 -0.36227667 0.4161258
00000000: c331 343b 9b30 18bd 7e56 f73d b1c4 b4bb
00000010: 1d6e d9be e8f7 8ebc e793 13bd 056b cc3e
00000020: 0a8a a6be fe90 dc3b d20a 0e3f d9cd 863e
00000030: 8275 28bc f9e3 013c dc71 413c cfa5 0a3f
00000040: cfe5 a0be d12a d0bc e1ad 11bf b4ed e2be
00000050: a0c2 00bb 2786 9ebb c1d4 4c3a b6e5 08bb
00000060: 9804 9cba 437a 343f b49d c4bc e41c 4a3f
00000070: 1051 8e3d b6b2 f43b 547c b9be 710e d53e

layer_norm.bias f4 [32]
-0.001870313 -0.038236022 -0.13631386 -0.005465081 -0.40350276 -0.01746101 0.039833553 0.37216324
0.3844448 0.0065112235 -0.05513821 -0.103895515 -0.010478326 -0.007064997 -0.011187577 -0.6011263
0.3260773 0.02753344 -0.26605076 -0.30485225 -0.00033366607 -0.0034932548 -0.00030699206 8.2825594e-05
0.00018906573 -0.059204035 0.025859037 0.12643692 0.0686113 0.007949302 -0.17859696 0.22663283
00000000: 4a25 f5ba 609d 1cbd dc95 0bbe 6c14 b3bb
00000010: ea97 cebe 640a 8fbc 8228 233d 2e8c be3e
00000020: f3d5 c43e 1a5c d53b 9bd8 61bd 2cc7 d4bd
00000030: 49ad 2bbc 7e81 e7bb 194c 37bc 6ae3 19bf
00000040: 9bf3 a63e cf8d e13c ce37 88be 9815 9cbe
00000050: e7ef aeb9 17ef 64bb c7f3 a0b9 a7b2 ad38
00000060: f23f 4639 ee7f 72bd 55d6 d33c ae78 013e
00000070: 1584 8c3d ca3d 023c 1fe2 36be 7012 683e
